results/models/exp-4:batchsize=128,lr=1e-4,width=128,adam-corrected/4/model-161.0.pt (torch, 72304 bytes, 6 tensors)

linear1.weight f4 [128, 4]
000000 00 55 cc 3e 31 ab d1 be 35 44 15 bf 9f 86 ca 3e
       0.399086 -0.4095092 -0.583072 0.39555833
000010 18 56 43 be 67 45 a4 be 45 df 08 3f 9e d1 9e 3c
       -0.19075811 -0.320842 0.5346568 0.019387063
000020 ec 67 ca 3e bc 0e c4 3d e7 d8 41 bf 74 27 25 be
       0.3953241 0.09573123 -0.7572159 -0.16128331
000030 8d 12 14 bf 7d c9 db bc d3 d9 eb 3d 52 13 56 3e
       -0.57840806 -0.026829476 0.11516156 0.20905808
000040 82 c1 8a 3e 0b a8 a8 3e a9 53 c1 be 8f 8d 09 3e
       0.2710076 0.32940707 -0.3775914 0.13432907
000050 21 eb b8 be 14 5c 3c 3e d7 95 d0 be 61 3d 4f 3e
       -0.3611689 0.183945 -0.4073932 0.20238258
000060 d7 b1 37 be e0 08 7c bd a6 4a f9 3e cd a1 eb 3b
       -0.17938934 -0.0615319 0.48689765 0.007190919
000070 b2 66 72 be e1 e0 13 bf 55 fc 09 bf be 5f 40 be
       -0.23671988 -0.5776501 -0.53900653 -0.18786523
000080 01 a5 48 3e 20 1a c9 be fe 76 ea be 8b 28 81 bc
       0.19594194 -0.39277744 -0.4579391 -0.015766403
000090 84 a2 84 be 0b a9 0e 3f 9a b4 1a 3e bc 11 98 3e
       -0.2590524 0.5572669 0.15107957 0.2970103
0000a0 4d 98 a6 be 8d a2 fa 3e 8d dd 89 3e 67 ce dc 3e
       -0.3253807 0.4895214 0.26926842 0.43126222
0000b0 78 e8 c1 3e 8d 33 40 3d 55 1b ca 3e 03 d3 05 bd
       0.37872672 0.046924163 0.39473978 -0.03267194
0000c0 f7 aa 34 be a0 4e 78 be 85 a9 63 3d 9d 1c 94 3d
       -0.17643343 -0.24248743 0.05558159 0.0723202
0000d0 9e 85 b2 3e 37 87 fd 3e df dc 83 3e 34 9d eb be
       0.34867567 0.49517223 0.2575445 -0.46018374
0000e0 85 11 ab bd 54 f8 e0 3e bb b6 fc be 13 17 31 3e
       -0.08352951 0.4393946 -0.49358162 0.17293958
0000f0 81 e8 b4 3e c0 e2 00 bf b7 53 96 be 38 4e c8 3e
       0.35333636 -0.50345993 -0.29360744 0.39122176
000100 22 06 0f 3f 1f 88 02 3f 23 f6 b1 be c4 11 b6 be
       0.5586873 0.50988954 -0.347581 -0.3556043
000110 52 1e 22 3e c4 a7 39 bd ba 20 24 3f eb 8e 9c 3e
       0.15831879 -0.04532601 0.64112437 0.30577788
000120 37 54 36 be 8e 04 db 3e 03 7e 5a be d2 2f 0a 3f
       -0.17805563 0.42776912 -0.21337132 0.5397922
000130 44 cb 2b 3e 08 dc f1 be e7 4d 1a 3f eb 9e 52 3c
       0.16776758 -0.47238183 0.6027512 0.012855272
000140 37 3c fd 3e 84 83 8a be f6 1c d9 bd 54 0e 3b bd
       0.49460003 -0.27053463 -0.10601227 -0.04566796
000150 75 93 12 be 13 d6 39 3e 42 ed a0 3d 62 df ff be
       -0.14314063 0.18148069 0.07857753 -0.49975115
000160 e2 ff fa 3e c2 33 a1 3e 43 56 f0 be d0 72 88 be
       0.49023348 0.314848 -0.46940812 -0.26650095
000170 d3 17 ad 3e 90 25 4e be a4 bd 0a bf 7f 9d b8 3e
       0.3380724 -0.20131516 -0.5419562 0.3605766
000180 d0 36 bd be 9f 6a a8 3d 11 bd a5 3e 61 2c 20 3f
       -0.3695588 0.08223461 0.3237081 0.62567717
000190 69 44 93 3b 66 62 9d 3e ae 3d 12 bf cf b5 1e bd
       0.004494239 0.30739135 -0.57125366 -0.038747605
0001a0 8e 08 01 3f 43 db f9 3e 4e ea 88 be 37 48 78 be
       0.5040368 0.48800096 -0.2674126 -0.24246298
0001b0 bc db 13 3d 2d 9b bb be 8a 2a 2e be 74 8a 55 be
       0.036098227 -0.36641827 -0.17008415 -0.20853597
0001c0 32 a4 a9 3e 9f 3e 88 3e 28 5c 9f be af fd 59 3e
       0.33133084 0.26610276 -0.31124997 0.21288179
0001d0 af e1 bb be d4 77 c8 3e 13 b2 94 3d b9 2b 0d 3f
       -0.3669562 0.39153922 0.072605275 0.5514484
0001e0 0b 2b 47 3c ad 0f 06 3f 41 36 4c be c9 07 ec 3e
       0.012156258 0.5236767 -0.19942571 0.4609969
0001f0 9f e7 8f be 0e d2 97 be 5c d7 a8 3e 17 f5 aa be
       -0.281064 -0.29652447 0.32976806 -0.33390114
000200 4e 33 e7 3e 9e 97 b4 3e 40 38 cd bd e2 6c d2 3e
       0.4515633 0.35271925 -0.100204945 0.41098696
000210 e8 68 e1 bc 82 2b cb be e7 ce 0c bf 33 12 5e 3e
       -0.027515844 -0.3968163 -0.5500321 0.2168663
000220 22 35 92 bd 19 4e a2 be cd 44 cd 3e fe 1b a9 bd
       -0.071390405 -0.3170021 0.40091553 -0.08257292
000230 5a 57 86 be b1 46 a9 3d 3b 84 f0 3e 03 5f 77 be
       -0.2623852 0.082654364 0.46975884 -0.24157338
000240 46 0c b2 3e 7e ad e9 be 6b 5e e1 3e e3 d0 98 be
       0.3477499 -0.45640177 0.44017348 -0.29846868
000250 8e 4e ff 3e 12 e9 81 be 40 11 bc 3e a0 80 fb bd
       0.4986462 -0.2537313 0.3673191 -0.12280393
000260 3e ff 4a 3e 48 ce af bb ac cc 2c 3f 47 7b 3e 3e
       0.1982393 -0.005365167 0.67499804 0.18601714
000270 e4 6f ac 3e 51 ad c0 be de ab de be ed 61 bd be
       0.33679116 -0.3763223 -0.434905 -0.36988774
000280 bd 02 83 3e ca d1 81 3e af b1 26 3e df ae ca be
       0.25588027 0.2535537 0.16278718 -0.3958654
000290 d3 1e 8e be 27 5e a0 be a8 95 0a be 9b bf d7 3e
       -0.27757892 -0.31321833 -0.13533652 0.4213837
0002a0 18 4f 12 bf 30 19 4b 3d a6 d0 40 3f 30 21 0f 3f
       -0.5715194 0.049584568 0.7531837 0.55910015
0002b0 b1 08 69 3e 3b ab 3a be 39 7b 2a 3e fa f1 f2 3b
       0.22757222 -0.18229382 0.16648568 0.0074140998
0002c0 97 00 83 bd 7b f0 0c be 6c 1f 29 bd c2 a4 84 3e
       -0.06396597 -0.13763611 -0.04128973 0.2590695
0002d0 a5 78 8d 3d b4 ac fb 3e c9 10 48 3e 3f 3a 33 3e
       0.06907777 0.491552 0.19537653 0.17502688
0002e0 4d ec 39 3d 83 b3 78 3d 44 fd 3a 3d 76 2c 09 bf
       0.04539137 0.06071807 0.04565169 -0.53583467
0002f0 ab 87 06 3f d6 4c fb 3d 9d 21 d0 3d ac 43 03 bf
       0.5255076 0.12270515 0.10162661 -0.51275134
000300 a5 6e c4 bb 66 1b c1 be af c5 05 bf a7 be 84 be
       -0.005994635 -0.37716216 -0.52254766 -0.25926706
000310 2c ae b2 3c d4 e7 5a be 4a 7e 7c be 6f a0 9f be
       0.021811567 -0.21377498 -0.2465755 -0.3117709
000320 06 e2 fe be 55 87 3a 3e 6e 37 59 3c e5 2c 84 be
       -0.49781817 0.18215688 0.013257844 -0.25815502
000330 22 2c 94 be c4 87 23 3e 20 a2 3a bd f0 37 49 3d
       -0.2893992 0.15969759 -0.04556477 0.04912561
000340 a3 a3 d2 be 33 bd c2 3d 90 d7 2e 3f 74 c4 0a 3f
       -0.4114047 0.09508743 0.6829767 0.54206014
000350 33 31 2b 3e c7 20 0c bd 0e 75 97 3e 51 cd cd bb
       0.16717987 -0.034210946 0.29581493 -0.006280579
000360 f2 06 90 3e 81 f3 9a 3e d7 99 08 bf 2b 91 f1 be
       0.281303 0.30263904 -0.5335974 -0.47181067
000370 50 e8 6d 3e ef 7d a5 ba 1f 18 f2 3e d0 1f c8 bc
       0.23233151 -0.0012626032 0.47284028 -0.024429232
000380 64 d9 b5 3e 79 d4 c2 be 6b e4 44 bd 3e 15 dd be
       0.35517418 -0.3805273 -0.0480694 -0.4318027
000390 73 e4 65 bd 7f 49 ab 3e a2 11 9a bc de aa 74 be
       -0.05612607 0.3345451 -0.018807236 -0.23893306
0003a0 c7 34 eb be bc 7c b7 be a8 48 9a 3e cc 76 73 be
       -0.45938703 -0.35837352 0.30133557 -0.23775786
0003b0 5b ce c3 3d 14 ad ce be 25 7d 47 3e 4f 8b d9 3c
       0.095608436 -0.40366423 0.19481333 0.026555685
0003c0 22 fc 64 3e 94 02 10 be 36 58 04 be 82 12 ca be
       0.22361806 -0.14063483 -0.12924275 -0.39467245
0003d0 34 12 c1 3e 8c 5c 39 be 68 05 a0 be f0 94 70 bd
       0.377092 -0.1810171 -0.31254125 -0.058735788
0003e0 40 ce 0e bf 80 91 fe 3e 96 cc 3b 3e fa d0 c6 bb
       -0.5578346 0.49720383 0.18339762 -0.0060673924
0003f0 87 f6 a4 bd c3 f0 50 be ca 86 5d 3d a6 5e 63 3e
       -0.08054834 -0.20404343 0.054083623 0.22204074

linear1.bias f4 [128]
000000 18 1f db 3e 68 bb d5 bd da 9a 27 bd 4f 40 55 bd
       0.4279716 -0.104361355 -0.040919162 -0.052063283
000010 3f 55 c2 3e a3 94 a3 3e 46 e5 82 3e 7a 57 bf 3d
       0.37955663 0.31949338 0.25565547 0.09342857
000020 45 24 e7 3d bb 52 52 3e 73 13 ed 3e 94 5e 92 3e
       0.11286215 0.20539372 0.463039 0.28587782
000030 83 bd b1 3e ca bf f4 3e 9d 78 cd be ff e7 0d 3f
       0.34714898 0.47802573 -0.40131083 0.5543212
000040 2b 4a 78 be e5 07 99 bd 9f 77 fa bd db f9 d9 bb
       -0.24247043 -0.07472209 -0.12229847 -0.0066520995
000050 26 ff 86 3e d3 4a 9b be 36 90 82 be 69 b5 1b 3f
       0.26366538 -0.30330524 -0.2550065 0.60823685
000060 fe 2f ab bd 81 5b 45 be 23 7a c5 be af 0d ae 3e
       -0.08358763 -0.19273187 -0.38569745 0.33994815
000070 6e dd 01 3f 3e b2 0e be 8f 88 de bc 31 50 01 3f
       0.507285 -0.13935181 -0.027164726 0.5051299
000080 fa bd cd 3e d6 a0 82 3e 7b c8 cd 3e 2d 1e 21 3f
       0.40184003 0.25513333 0.40192017 0.6293667
000090 9b 95 d0 3e c0 0b 78 be f3 ac 83 bc 98 03 0e 3f
       0.4073914 -0.24223232 -0.01607368 0.55474234
0000a0 30 67 bb be ee 1e 39 be bf 0a 6d be f0 6b 00 3f
       -0.36602163 -0.18078205 -0.2314863 0.501647
0000b0 a3 51 2a 3f b9 cf 0f 3e 04 70 c5 be 25 30 03 bd
       0.6653082 0.14044084 -0.38562024 -0.032028336
0000c0 55 09 a3 3e e3 b6 0f 3f 17 37 48 3e fc 87 fb be
       0.31843057 0.5613844 0.19552265 -0.49127185
0000d0 1d 2e 5d be db 55 b1 3e e1 32 8a bc dd a4 e4 3e
       -0.21599622 0.34635815 -0.016869964 0.4465703
0000e0 7d 70 17 3f e4 3d 46 3e 91 d7 8f 3e d3 7e 14 3e
       0.5915602 0.19359547 0.28094152 0.14501505
0000f0 10 d5 22 3f f6 cb 98 be 03 a7 88 3e 6d d6 1d 3f
       0.6360636 -0.2984311 0.2668992 0.6165531
000100 dd 8f bf 3e a4 25 64 3e 31 ef f8 3d dd 6f 04 be
       0.37414446 0.22279984 0.12154997 -0.12933297
000110 ff 45 c8 bd df 6b e2 3e 11 fc 95 3e af 0d b7 bd
       -0.09778976 0.44222924 0.29293874 -0.08938157
000120 33 2b 23 3e 9d 22 e5 3e 55 f7 b5 be 0b 49 89 be
       0.15934448 0.4475297 -0.35540262 -0.2681354
000130 b5 53 d1 be a0 d4 a8 3e a5 95 c8 be 78 df b1 be
       -0.40884176 0.3297472 -0.3917667 -0.34740806
000140 97 a3 bf bc 9d 75 30 be 65 cb d2 3e c3 c8 24 3f
       -0.023393435 -0.17232366 0.41170803 0.6436884
000150 a0 09 cd bd 59 66 1b 3e c7 f0 e4 3e 68 95 88 bd
       -0.100116014 0.15175761 0.4471495 -0.06669122
000160 b4 a2 21 3f 20 4b 20 3f c4 1b 07 3f e9 08 b7 be
       0.6313889 0.6261463 0.5277674 -0.35748985
000170 ed 7a bd be 31 de fb 3e 50 0a 9d 3e 7c cb 12 3f
       -0.37007847 0.49192956 0.3067193 0.5734174
000180 33 7c 82 3d 3a 10 07 3f b2 93 8e be 8e 7c bc be
       0.06371345 0.52759135 -0.27847058 -0.36813778
000190 09 c4 09 3f ba 4f 9b be cd 6b fb 3e fe bb 0a 3f
       0.5381475 -0.30334264 0.49105683 0.54193103
0001a0 82 37 f3 be a4 c5 e5 bd d4 5f d3 3e 84 3d d2 3e
       -0.47503287 -0.112193376 0.4128405 0.41062558
0001b0 4b cd eb 3e 0e 19 76 3e c7 ec fe 3e 06 ca 03 3f
       0.46055064 0.24032995 0.49790022 0.5148014
0001c0 fd 50 a2 3e 7e 06 9a bc 65 43 23 3f aa 61 88 3e
       0.31702414 -0.018801924 0.6377471 0.26637012
0001d0 ff 9a d7 3e d6 39 46 bd 08 60 1f 3f 39 ad 22 3d
       0.4211044 -0.048395 0.6225591 0.03971598
0001e0 52 a0 4f 3d c7 3f a0 bd 6c b3 de 3e f9 e5 77 3e
       0.050690003 -0.078246646 0.43496263 0.24208821
0001f0 50 e1 ba be 87 9c 8b 3e 6d 9b 7c be 6e 6e 6a bd
       -0.36500025 0.27267858 -0.24668665 -0.05723422

linear2.weight f4 [128, 128]
000000 c1 b1 ab 3d 59 48 f5 bd fb 3c 29 be 99 ff 0a be
       0.08383513 -0.1197669 -0.16527168 -0.13574065
000010 40 3a 11 3e 06 ca 17 3e 7b aa 93 3d 47 1f e1 3c
       0.14182377 0.1482316 0.07210251 0.027480735
000020 df 13 2c 3e cc 62 d1 3d 78 bf e6 3d 9c c4 1d 3e
       0.16804455 0.10223922 0.112669885 0.15407032
000030 1c e4 96 3d ce f4 b5 bd 5d 8e 9b bd b7 64 91 3d
       0.07367727 -0.088845834 -0.07595513 0.07099288
000040 08 dc c6 bd 19 6c 92 bd 1b 0f ea bd 6f 2c 55 3d
       -0.097099364 -0.07149524 -0.114286624 0.05204433
000050 bb 29 08 3e 42 66 64 bd 95 85 fe bc 9b 30 5c 3e
       0.13297169 -0.055761583 -0.031069556 0.21502917
000060 52 63 49 bd 1e 3c 1c be 51 05 3c bd 98 c5 cc 3c
       -0.049166985 -0.15257308 -0.045903508 0.024996564
000070 d0 07 00 3e 7d e7 f3 bd 9e 2a 24 bd b3 94 71 3d
       0.1250298 -0.11909387 -0.040079705 0.0589797
000080 36 4e aa 3d 4f e4 04 3e 4c 1a 71 3d d7 59 5a 3d
       0.08315699 0.12977718 0.05886297 0.053308334
000090 7f 9d 27 3e 4c c1 69 3c 22 50 e2 bd 85 f6 5d 3d
       0.16368674 0.014267277 -0.1105044 0.054190177
0000a0 35 a6 af bd 96 79 f3 bd e1 02 66 be e0 71 ab 3d
       -0.08576623 -0.11888425 -0.22462036 0.08371329
0000b0 3b 53 3a 3e bb 86 f2 3d 6d c9 10 bd 5d 0d fd bd
       0.18195812 0.11842104 -0.035348345 -0.123560645
0000c0 58 cc 1f 3e 33 56 e4 3d 9d e8 0a 3d 08 10 e1 bb
       0.15605295 0.11149254 0.033913244 -0.006868366
0000d0 51 37 33 be f6 a4 f0 3d 64 f0 01 bd 08 b8 02 3e
       -0.1750157 0.11750214 -0.031723395 0.12765515
0000e0 e4 fa d7 3d 6d bc 0a 3c 14 c9 4d 3e 4d 66 a5 3d
       0.105459005 0.008467776 0.20096236 0.08076153
0000f0 d9 c7 c0 3d 67 f2 1a 3d f0 7a 81 bc 36 c4 51 3e
       0.09413118 0.03782883 -0.015805691 0.20485005
000100 75 76 b4 3d f3 bb 78 3d 4d 5f 0a bc 3e 3c 11 bd
       0.088116564 0.060726117 -0.008445573 -0.035457842
000110 51 f8 73 be bf 21 21 3d 99 ff c4 3d 6b c4 3d bc
       -0.23825194 0.039338823 0.09619064 -0.011582474
000120 8d 43 be bc ec b3 37 3e 9e 75 58 be 63 43 13 bd
       -0.02322557 0.17939728 -0.21138617 -0.035952937
000130 55 e5 43 3c a9 02 9e 3d 62 1a 31 be 08 30 dc 3c
       0.0119565325 0.07715351 -0.1729522 0.026878372
000140 ac 35 cc bc a0 db ba 3c 05 93 d3 3d 60 ea 6f 3d
       -0.024927936 0.022809803 0.10330776 0.058573127
000150 db ed 7a be 11 dd 1b bd 6e 35 91 3d f3 e0 4a bd
       -0.24504797 -0.038052622 0.07090269 -0.049530935
000160 12 82 b0 3b 88 bc 32 3e b9 4d 1a 3d 22 53 91 bc
       0.0053865993 0.17454731 0.03767178 -0.017739836
000170 dd d1 59 be ca 0b 8e 3d f4 ca 25 3d 55 57 1c 3e
       -0.21271463 0.06935842 0.040476754 0.1526769
000180 c4 a2 26 3c 35 32 ee 3d 85 d0 bd bd 9b 2b 44 bd
       0.010170642 0.1163067 -0.092682876 -0.047893148
000190 0c 5f 47 3d e2 06 5b bd d0 56 23 3e 50 94 0a 3e
       0.04867463 -0.05347336 0.15951085 0.13533139
0001a0 61 93 89 bd 7a 3a 00 be 90 b4 18 3d 9e c7 28 3e
       -0.067175634 -0.12522307 0.037281573 0.16482398
0001b0 12 fe 15 3e b8 f1 b2 3d 7f 54 15 3e 0b 5b ff 3d
       0.14647701 0.087375104 0.14583014 0.12468537
0001c0 61 aa e0 3d 5f 4a 16 3d 20 53 2d 3e c5 9f 1b 3e
       0.10969997 0.03669202 0.16926241 0.15197666
0001d0 2a 6e 03 3e 74 d0 72 bd da bb 89 bc 25 b6 71 bc
       0.12834993 -0.059280828 -0.016813207 -0.014752899
0001e0 1e 8c e5 bc 59 97 a2 3c 30 0e c1 3d 52 55 b3 3d
       -0.028020915 0.019847559 0.09426534 0.08756508
0001f0 e4 90 1e 3d 1a a1 b0 3d 0d d9 82 bd ac 48 a6 bc
       0.038712397 0.08624478 -0.063890554 -0.020298325
000200 90 f1 21 3d 49 d6 de bd 89 45 47 bd 1d 6e a5 bd
       0.039537013 -0.108807154 -0.0486503 -0.08077643
000210 09 c6 01 3e dd 02 0c 3e d4 6c 95 3d ca 5c cc 3d
       0.126732 0.13672967 0.07296148 0.099786356
000220 cb a1 b1 3c 86 f7 8c 3d 0c 2a 25 3c 8f d3 ba 3d
       0.021683594 0.06883149 0.010080826 0.09122383
000230 88 97 2c 3d 21 ed 87 3d 01 ba e1 bc 7e 09 6a 3d
       0.0421367 0.066370256 -0.027554514 0.05713796
000240 f2 3a f4 bc 2d 44 49 be 5b 2b 0b be b5 cb b6 3c
       -0.029813264 -0.19654913 -0.13590758 0.022313932
000250 32 f5 81 3d 73 a0 94 bd 4a 2f 10 be 3f 52 ff 3d
       0.063455954 -0.07257166 -0.1408054 0.12466859
000260 8e 07 96 bc 2c df c0 bd e6 4f 0d be 91 a9 d5 3c
       -0.01831415 -0.09417567 -0.1380001 0.026081832
000270 01 ae 3e 3e 19 46 67 be 5c c3 10 be 09 a5 92 3d
       0.18621065 -0.22585334 -0.14137024 0.07160384
000280 d7 2f 04 3d 2f f6 ef 3d 48 a1 e1 3d fd 41 b6 3d
       0.032272186 0.11716878 0.1101709 0.08899305
000290 53 21 55 3d 02 10 48 3d 94 dc 39 be c3 bb 50 3d
       0.052033734 0.04884339 -0.1815055 0.050960314
0002a0 c3 0f 80 bc b2 7e a2 bc 29 a8 38 be 1e 39 0f 3d
       -0.015632516 -0.019835804 -0.18032898 0.03496658
0002b0 1a 50 d2 3c 15 d3 3f 3e bc 53 1f be 79 6f d8 bd
       0.025672961 0.18732865 -0.15559286 -0.10568137
0002c0 08 1a 48 3e 87 10 21 3e a7 1a 0d bb 62 53 b3 3c
       0.1954118 0.15728961 -0.0021530779 0.021890346
0002d0 d0 77 b4 bd f4 ac 09 3e 03 87 c4 3c 93 58 92 3d
       -0.08811915 0.13444883 0.02399016 0.071458004
0002e0 33 31 50 3e 76 a0 b0 3d 4d 91 4b 3e 45 16 5f 3d
       0.20331268 0.086243555 0.19879647 0.054464597
0002f0 99 06 c4 3d 0c d4 7e bd 0d 06 3d 3e 45 12 ba 3d
       0.09571571 -0.062213942 0.1845934 0.09085516
000300 49 b9 ac 3d bc f9 02 3e 98 8c d1 3d 5a 77 24 be
       0.08433778 0.12790579 0.10231894 -0.16061154
000310 52 32 0c be 25 43 2a 3e 67 00 95 3d 58 48 9b bd
       -0.1369107 0.16627176 0.07275467 -0.07582158
000320 04 4a 37 ba 53 c4 85 3d f4 c4 34 be 63 ff 65 bd
       -0.0006991925 0.065315865 -0.17653257 -0.05615176
000330 67 ff 5c bd c0 c8 ae 3c ac 27 cf bd 79 f2 3d 3d
       -0.05395451 0.02133596 -0.10114989 0.046373818
000340 c7 47 ac bd 32 d5 e2 3d b4 46 82 3d 7e a8 4a 3d
       -0.08412128 0.1107582 0.06361142 0.049477093
000350 3d 29 05 be d8 3e 3a 3e d0 f9 11 3d f6 2d 86 3c
       -0.13004012 0.18188035 0.03563863 0.016379338
000360 c6 cb 28 3e 7f 5b 26 3e fb 12 d6 3d c2 36 96 bb
       0.16483983 0.1624584 0.10452839 -0.0045841644
000370 67 19 80 bd 29 66 17 3e 29 64 4f bd 02 b1 54 3c
       -0.06254845 0.14785065 -0.05063263 0.012981655
000380 ae ec 09 bd 79 2e a9 3d 5d 52 4e be bc c2 08 be
       -0.03367298 0.08260817 -0.20148607 -0.13355535
000390 4c 65 85 3d c6 e4 c6 bd d9 41 e2 3d df f8 cb bc
       0.065134615 -0.09711604 0.11047716 -0.024898944
0003a0 11 7d c6 3c 7b 0d 4d be fe 1e 35 3e 8e 9a 45 3e
       0.024229558 -0.20024674 0.17687604 0.19297239
0003b0 9b ac 36 3d bb 3c 7c 3d 30 c0 bc 3d cb 28 03 3d
       0.044598203 0.061581355 0.09216344 0.032021325
0003c0 80 93 86 3d 53 08 de 3c c4 a7 b4 3d e3 7a 4f bd
       0.06571102 0.027103579 0.08821061 -0.050654303
0003d0 39 dc 17 3e 8c cc 3a be 84 d9 95 3d 84 86 1b bc
       0.14830102 -0.18242091 0.073168784 -0.00949252
0003e0 96 f8 d0 3c f6 63 de bc 49 5a 2d 3e de 9e 44 bd
       0.02550916 -0.027147274 0.16928972 -0.04800307
0003f0 62 ab 71 3d 79 2c 2c 3d c8 99 98 bd c6 87 e6 3d
       0.059001334 0.0420346 -0.074512064 0.112563655

linear2.bias f4 [128]
000000 87 06 bc 3d aa fe 20 3e 24 f8 30 3d 4c ec 76 bd
       0.091809325 0.15722147 0.043205395 -0.060283944
000010 0d 68 50 3d 4d 65 dc 3d b5 31 cb 3d 74 f4 c1 3d
       0.05088048 0.10761509 0.0992159 0.09470454
000020 98 72 08 3e 54 78 19 3e c2 34 22 3e c5 e0 03 bb
       0.13324964 0.14987308 0.15840438 -0.0020122987
000030 a2 28 0f bc 5b 1e 8c 3d 3a 63 93 3d 87 d2 26 3e
       -0.008737715 0.06841727 0.0719666 0.16291247
000040 ab d1 04 3e 0e 6e 2c 3d bd 5b 8a 3d 23 16 05 3e
       0.12970607 0.042097144 0.06755779 0.12996726
000050 99 49 20 3e e0 d6 37 bd 05 3a 17 3d 5f e2 6a 3d
       0.15653075 -0.044882655 0.036920566 0.05734479
000060 bd 8f 4d 3e d9 f5 f4 3c 22 3b e1 3d 25 7b 88 3d
       0.20074363 0.029902386 0.10997607 0.06664113
000070 1f ea 8a 3c 79 ef 42 3d a1 fb 98 3d ea 13 32 3d
       0.01695734 0.04759166 0.074698694 0.043476023
000080 f0 9e ad bd 45 72 b7 bc 36 21 f2 bc 16 c1 69 3d
       -0.084775805 -0.022393355 -0.029556852 0.057068907
000090 6c 36 3e 3e 43 30 09 3e 43 30 f7 3c 22 09 cf 3d
       0.18575448 0.13397317 0.03017438 0.10109164
0000a0 1a ef f8 3c 24 6e 93 bd 3c 9e 2b 3e 52 da 03 3e
       0.03038745 -0.07198742 0.1675958 0.12876251
0000b0 8b df 27 3e d3 fb a0 3d fc df 2c 3e b6 eb 6a 3d
       0.16393869 0.07860532 0.16882318 0.057353698
0000c0 ab ab 3f 3e 32 94 8b 3d e4 87 1d bc 47 5a 78 3d
       0.1871783 0.068153754 -0.009614918 0.06063297
0000d0 71 10 08 3e b9 40 8c bc 12 c1 c4 3d df 43 07 bd
       0.13287522 -0.017120706 0.09607138 -0.03302371
0000e0 ac 18 c8 3d d9 65 2b 3e 98 05 44 3e 95 65 33 3e
       0.09770331 0.1673807 0.19142759 0.17519219
0000f0 a9 4b 6a 3d 17 82 9d 3d 55 7d 6c 3d fb 00 08 3e
       0.05720106 0.07690828 0.057736713 0.13281624
000100 36 7a 52 bc 01 1a 18 3e d0 ef 47 3d be 1c 05 3c
       -0.01284652 0.1485367 0.048812687 0.008124528
000110 a7 df 38 3e fd ed 82 3d a9 c7 d9 3d 87 f4 20 bb
       0.18054067 0.06393049 0.10633785 -0.0024559812
000120 ed 06 a1 bd 56 36 87 3d d1 64 db 3d 4c c2 c5 3d
       -0.07862649 0.06602161 0.107125886 0.096562
000130 96 63 95 3d a5 26 41 3d a1 b5 b0 3d d8 aa 12 3d
       0.07294385 0.047155995 0.08628393 0.03580746
000140 b3 57 30 3c 99 64 9e 3c a4 b8 29 3e 2e 06 41 bd
       0.010763097 0.019335078 0.16574341 -0.047125034
000150 be 4b ac 3b 39 84 fd 3d 1c 2c ee 3d c6 a9 8c 3c
       0.0052580526 0.12378735 0.11629507 0.017170798
000160 04 24 cc 3d c5 b0 d2 3d 39 36 0e 3e 8e 7c 93 3d
       0.09967807 0.10287622 0.13887872 0.07201491
000170 58 03 56 bd 0e 57 5b 3d 93 03 0f bd 41 48 de 3d
       -0.052249283 0.05354982 -0.034915518 0.10853625
000180 67 fe 56 3e d4 08 c6 bc 2e 9c 86 bd e1 68 ab 3c
       0.20995484 -0.024174131 -0.06572758 0.020924034
000190 3e 93 a2 3b 1e 14 96 3d 65 5d 99 b9 5d a6 01 3e
       0.0049614003 0.07328056 -0.00029252018 0.12661119
0001a0 03 d4 22 3e 29 d8 e0 3c c5 ad 33 3e 21 73 45 bd
       0.15901189 0.027446823 0.17546757 -0.0482055
0001b0 ce d0 21 bd f6 74 a0 3d 91 a1 4c bc c8 29 8e bd
       -0.039505772 0.078348085 -0.012489692 -0.06941563
0001c0 d3 51 46 3c 2c 72 aa bd 61 f5 54 bd 0f 90 2c bd
       0.012104469 -0.08322558 -0.051991824 -0.042129572
0001d0 09 93 a6 3d 35 74 3f 3e b1 56 6c 3c eb 68 ab 3d
       0.081335135 0.18696673 0.014424966 0.08369621
0001e0 41 15 d5 3d 6a 49 a3 3d 09 5f 33 3e 85 6c 3d 3d
       0.104044445 0.07972987 0.17516722 0.04624607
0001f0 84 01 91 bb 8a 54 01 3d de 1a 62 bc 66 be ad 3d
       -0.0044252295 0.031574763 -0.013800351 0.08483581

output_layer.weight f4 [2, 128]
000000 bd 63 5b 3d 50 2f 59 3e 33 6b 2d be 56 d1 a3 3d
       0.053561915 0.21209455 -0.16935425 0.07998912
000010 c7 6d 5f 3e ab c7 f8 3d c5 0c 43 3e 6c 9c 63 3e
       0.2181922 0.12147459 0.1904784 0.22227639
000020 78 78 80 3e e4 4c c1 3d a0 6c 58 3e 0f ff 8d bd
       0.2509191 0.09438494 0.21135187 -0.06933414
000030 81 48 52 bd 6e b7 54 3e d6 08 68 3e b2 7c a3 3d
       -0.051338676 0.20773098 0.2265962 0.07982768
000040 fa a3 6d 3e 08 e8 4c be 94 28 4b 3e 55 6d 18 3e
       0.23207083 -0.20010388 0.19839698 0.14885457
000050 ac fd 36 3e 13 e1 02 be 00 fe 21 3e 6f 9b 1e bd
       0.17870206 -0.12781172 0.1581955 -0.03872245
000060 34 2b 64 3e 2b 3c 1d be b1 a9 61 3e a8 2f 6d bc
       0.22282106 -0.15354984 0.22037388 -0.014476694
000070 84 82 9a bd 4a 83 67 3e 6a 1c fa 3c 61 54 cd 3d
       -0.07544425 0.22608677 0.030531127 0.100258596
000080 09 f4 bd 3c 4d 8f bd 3c 49 f6 f4 bd 85 10 0a bd
       0.023187654 0.02313962 -0.11961038 -0.03370716
000090 83 77 37 3e ff 91 3e 3e 8c ed 44 3e 5e e8 2d 3d
       0.17916684 0.1861038 0.19231242 0.04245793
0000a0 2a 5b 41 be 6e e8 c3 bc 96 88 ec 3d 67 c9 39 3e
       -0.18882433 -0.023914542 0.11549489 0.18143235
0000b0 c5 cd 62 3e d2 72 03 3e f6 5c 00 3e 7c ba fa 3d
       0.22148807 0.12836769 0.12535462 0.122426
0000c0 44 30 28 3e 2f 4e 17 be 6d 37 78 bc 80 d3 5e 3e
       0.16424662 -0.14775918 -0.015149933 0.21760368
0000d0 c9 c3 33 3e 4e 4e b2 bc 4c 01 e3 3d 1c 53 2b bd
       0.17555155 -0.021765854 0.11084232 -0.041827306
0000e0 12 3b 49 3d dd f9 39 3e 17 c2 05 3e 09 05 5b 3e
       0.0491286 0.18161722 0.1306232 0.2138864
0000f0 a2 16 4e 3e 8e ef 82 bd d6 9b a8 3c e4 23 45 3e
       0.20125821 -0.06393348 0.02058212 0.19251972
000100 f2 72 21 be 84 41 de 3d 42 9b 3a 3e eb 9d 62 bd
       -0.15766504 0.1085234 0.18223289 -0.055326384
000110 5c af 2c 3e c4 87 4d 3e 5e e9 5f 3e 95 59 91 bd
       0.1686377 0.20071322 0.21866366 -0.070971645
000120 e1 5d d0 3c f8 02 0c 3e 81 66 3f be 33 50 7b be
       0.02543539 0.13673007 -0.18691446 -0.24542312
000130 c4 77 5f bb bb 09 6a 3e 4b f6 23 3e 82 d4 4a be
       -0.0034098485 0.22855274 0.16011922 -0.19807628
000140 a8 59 3f 3e d1 d8 d4 bd 62 31 b2 3d f1 67 19 be
       0.18686545 -0.10392917 0.08700825 -0.14981057
000150 38 b6 61 bd 3e b8 5c 3e d7 b1 2f 3e 6f c7 6f 3d
       -0.055105418 0.21554658 0.17157684 0.058539804
000160 e8 15 27 3e 27 3a 18 3e 51 84 d0 3d 06 b0 39 3e
       0.1631695 0.14865933 0.10181487 0.18133554
000170 10 81 bb bd ac e4 38 3e 61 f5 05 be 7b 18 4e 3e
       -0.09155476 0.18055981 -0.13081886 0.20126526
000180 4b 7f 4f 3e a7 b7 08 3d 67 ef 62 bd 51 b2 94 bc
       0.20263402 0.03337827 -0.055404093 -0.018151434
000190 fb 52 93 bd 37 67 52 3e 40 6c fd bb ee 40 63 3e
       -0.07193562 0.20547186 -0.0077338517 0.22192737
0001a0 78 10 01 3e 4f 2e 75 bd dd 9d 80 3d 95 98 21 be
       0.12603939 -0.059858616 0.0628011 -0.15780862
0001b0 a3 93 56 be 16 a5 21 3d 48 c8 55 bd ff 71 2e bd
       -0.20954756 0.03946408 -0.052192956 -0.042589184
0001c0 57 e5 89 3d 3f 25 12 bd 33 6d 23 bd c0 23 1d 3d
       0.06733196 -0.035680052 -0.039899062 0.038364172
0001d0 10 46 15 be 05 9f f8 3d c3 89 a4 bc 15 a7 0c be
       -0.14577508 0.121397056 -0.020085221 -0.13735612
0001e0 bb d9 b0 3d 15 2c 76 3e 4a e0 32 3e 49 f1 12 be
       0.08635279 0.24040253 0.17468372 -0.14349855
0001f0 9f d2 fe 3c 07 f9 52 bd 8d 33 5c be fe e3 40 3e
       0.031106291 -0.051507022 -0.2150404 0.18836972
000200 6d 0e 5a 3e 38 58 0b 3e 7e 53 51 be f3 a9 a8 3d
       0.21294565 0.13607872 -0.20442006 0.0823554
000210 0d a6 ba 3d ef fb 3b 3e f3 cb 0d 3e e7 dd 5c 3e
       0.09113703 0.18357824 0.13847332 0.21569024
000220 87 91 a8 3d e4 0a 78 3e 7a d0 03 3e 59 ac 28 bd
       0.08230882 0.24222904 0.12872496 -0.04117999
000230 b6 e8 1a 3b 0d 02 03 3e bb df 11 3e 4c 4d 34 3e
       0.0023637242 0.12793751 0.14245503 0.17607611
000240 23 0c 37 3e e4 88 7c bd 1e b5 64 3e 75 83 12 3e
       0.17875724 -0.061653987 0.22334716 0.1430796
000250 8f 48 35 3e 49 83 68 be bd 9d 2c 3e af 64 aa bd
       0.1770346 -0.22706331 0.16857047 -0.08319985
000260 d5 c5 cb 3d a8 26 63 be 83 49 00 3e 62 30 f4 bb
       0.09949843 -0.22182715 0.12528042 -0.0074520567
000270 e2 da a3 3d e1 ca ad 3d 4b ed 89 bd 96 d4 52 3e
       0.08000733 0.08485962 -0.06734713 0.20588908
000280 97 28 5d bd f6 03 4c be a1 6d 64 be 81 b2 25 3c
       -0.053993788 -0.19923386 -0.22307445 0.010113359
000290 8a 0c cc 3d 97 a5 49 3e de da 35 3e f2 a9 69 3e
       0.09963329 0.19692074 0.17759272 0.22818735
0002a0 5b d0 fb bd 2a 61 6f 3d 01 30 5c 3e 0c da 32 3e
       -0.122956 0.058442272 0.21502687 0.17465991
0002b0 df c5 93 3d b8 d4 4a 3e f0 eb 1a 3e bf be 42 3e
       0.07215475 0.19807708 0.15129066 0.19018076
0002c0 88 61 c6 3d e4 82 1d be b0 fb 92 bd 9f c3 c7 3d
       0.09686571 -0.15381962 -0.07176912 0.09754109
0002d0 14 db 01 3e 52 cd 62 bd f7 a5 41 3e b3 8d bc bb
       0.12681228 -0.05537159 0.18910967 -0.0057541966
0002e0 6c f7 41 3e 84 4b 4d 3e 6c 7f 33 3e a1 6a 09 3e
       0.1894204 0.20048338 0.17529076 0.13419582
0002f0 20 34 41 3e 28 64 87 bd 61 1a 21 bd a0 2e 79 3e
       0.1886754 -0.066109 -0.039331798 0.24334192
000300 43 45 0a 3d 0b 23 38 3e 66 c8 70 3e 5c 50 70 3c
       0.03375746 0.17982118 0.23513946 0.014667597
000310 3c ab 13 3e b0 c4 63 3e 25 c1 14 3e 56 3e 61 bd
       0.1442079 0.22242999 0.14526804 -0.05499109
000320 58 c8 b7 3c ed e4 2f 3e 56 ce 64 bd c9 56 42 bd
       0.022434399 0.17177172 -0.05586084 -0.047446046
000330 75 09 f4 bc 7d 48 e5 3d dc 85 3c 3e 5b dc 01 bd
       -0.029789666 0.11195467 0.18410438 -0.031704288
000340 74 f6 58 3e 3d 0a 79 be 6a a1 32 3e 0a bc 1e be
       0.21187764 -0.24320312 0.17444387 -0.15501419
000350 38 33 77 3c af 25 81 3d 9b ca 4d 3e c6 e5 54 bd
       0.015087895 0.06306016 0.20096819 -0.05197694
000360 a7 a7 35 3e c1 91 1b 3e 02 77 3a 3e 2d 7f 52 3e
       0.17739736 0.1519232 0.1820946 0.20556326
000370 81 21 7c be af 3f 21 3e 7d 80 04 be 1a c7 4c 3e
       -0.24622156 0.1574695 -0.1293964 0.19997826
000380 ef ee 26 3e 89 42 48 3d cf 3a 11 bd 5a 99 9c 3d
       0.16302083 0.048891578 -0.035456475 0.07646437
000390 ba c7 56 3d ad be 10 3e 96 30 9e 3d 01 64 35 3e
       0.052436568 0.14135237 0.07724111 0.1771393
0003a0 ac 51 5a 3e 5e 55 52 be 7a cc 3c 3e 11 d2 81 be
       0.21320218 -0.20540377 0.18437377 -0.2535558
0003b0 b6 51 19 bd 5b 0d 71 be 57 0d d0 bb 45 80 a8 bb
       -0.03743144 -0.23540251 -0.0063492465 -0.005142244
0003c0 cb 0e 0b 3d fd 92 a4 bc 0e 19 ac 3d 16 9e 73 bd
       0.033949655 -0.02008962 0.08403216 -0.059476934
0003d0 86 a3 34 bd e9 64 38 3e 11 34 a7 bb cf 88 ac bd
       -0.04410126 0.18007244 -0.0051026423 -0.08424532
0003e0 bc c8 57 3e 39 61 b4 3d f1 e5 13 3e 14 ed 3b be
       0.21072668 0.08807606 0.14443184 -0.18352157
0003f0 c8 a3 0b bc 91 61 a6 bd a3 37 1d be cc 38 29 3e
       -0.008522935 -0.08124078 -0.15353255 0.16525573

output_layer.bias f4 [2]
000000 2f 85 cc 3d 86 8c e6 3d
       0.0998634 0.112572715
