results/models/exp-4:batchsize=128,lr=1e-4,width=128,adam-corrected/4/model-11.0.pt (torch, 72294 bytes, 6 tensors)

linear1.weight f4 [128, 4]
0.37946686 -0.3698219 -0.5011605 0.4003457 -0.058701027 -0.33711374 0.34697974 -0.03098128
0.22011927 0.1230519 -0.52981436 -0.08026815 -0.4495784 -0.055985827 -0.08580855 0.14737266
0.30257517 0.34614268 -0.3777984 0.12944129 -0.32409632 0.19010362 -0.43620098 0.19388315
-0.14041035 -0.08784118 0.43544078 0.012310705 -0.27799436 -0.49302715 -0.47633743 -0.25541723
0.17507657 -0.31819317 -0.4403339 -0.080526255 -0.21551946 0.5275018 0.14179999 0.32963085
-0.24687247 0.49332014 0.20264432 0.41644546 0.41585448 0.053229347 0.38289356 -0.0338752
-0.18364356 -0.27236858 0.08293639 0.10595799 0.45583758 0.48761553 0.1523566 -0.48259416
-0.100120746 0.43282455 -0.45869333 0.18639922 0.34379 -0.46954626 -0.23504546 0.39098462
0.39033067 0.51778704 -0.14176767 -0.2840593 0.2821956 -0.08284469 0.4211287 0.23399775
-0.0055163195 0.45336354 -0.49002483 0.40315562 0.29153445 -0.4960322 0.4131977 -0.04039339
0.5145098 -0.25919768 -0.09855977 -0.04497612 -0.29086706 0.19500539 0.27790007 -0.43448663
0.32792002 0.32450557 -0.26571947 -0.1975921 0.3429211 -0.20411827 -0.5195623 0.37553328
-0.2424678 0.040743764 0.09685346 0.5524595 -0.17829928 0.279054 -0.3370607 0.05832614
0.36152428 0.48793697 -0.08392199 -0.18171467 0.02971207 -0.36652786 -0.1558986 -0.20280579
0.3691053 0.27512205 -0.32480338 0.20883445 -0.21752183 0.38604587 -0.16167502 0.45488414
0.11682976 0.5100233 -0.41507494 0.35588232 -0.2750141 -0.2915019 0.34489977 -0.32756624
0.50848866 0.33083406 -0.12738793 0.429571 -0.07919423 -0.36213413 -0.45398968 0.22357145
-0.030442895 -0.3237565 0.35932982 -0.0865862 -0.23509799 0.10701921 0.4595543 -0.25690466
0.3729236 -0.44853196 0.43385053 -0.3000732 0.4986462 -0.2537313 0.3673191 -0.12280393
0.3266792 -0.043594874 0.45956397 0.11798522 0.32821447 -0.37153468 -0.39662936 -0.35522512
0.11981468 0.2608513 0.3495194 -0.33663896 -0.14845307 -0.33113697 -0.33188403 0.36204886
-0.44527388 0.020771092 0.5427161 0.4889694 0.25829598 -0.17552106 0.14992335 0.0029399183
-0.04985967 -0.17228712 -0.045086555 0.28777796 0.11744177 0.4487962 0.17786445 0.21703961
-0.09463715 0.059712246 0.23684981 -0.46647796 0.3472422 0.15481398 0.32193393 -0.4446796
-0.026933394 -0.37415183 -0.5220086 -0.270925 0.029382799 -0.2025581 -0.22400734 -0.3058045
-0.42734754 0.1625964 -0.08437655 -0.27357912 -0.2893992 0.15969759 -0.04556477 0.04912561
-0.2946493 0.0636663 0.46916133 0.46912363 0.20177211 -0.030936116 0.2699731 -0.011475025
0.11907358 0.34078595 -0.33063343 -0.41167116 0.26250875 0.0014726565 0.4535243 -0.027096156
0.35544574 -0.37089202 -0.017957542 -0.42269856 0.029089363 0.31425637 -0.10977805 -0.24718748
-0.45176694 -0.36506507 0.28465587 -0.23766804 0.08438188 -0.37104517 0.23142451 0.010959357
0.28469595 -0.061178803 -0.1608551 -0.45317325 0.377092 -0.1810171 -0.31254125 -0.058735788
-0.48339933 0.4724272 0.08847855 -0.015991826 -0.071636036 -0.23908918 0.054705307 0.25133666
00000000: 7b49 c23e 4c59 bdbe 0e4c 00bf 1dfa cc3e
00000010: 7d70 70bd 2c9a acbe 54a7 b13e 74cc fdbc
00000020: f266 613e a202 fc3d eaa1 07bf a163 a4bd
00000030: 242f e6be 6551 65bd 65bc afbd dce8 163e
00000040: 22eb 9a3e 9d39 b13e cb6e c1be 428c 043e
00000050: f4ef a5be 86aa 423e bc55 dfbe 4e89 463e
00000060: bbc7 0fbe 14e6 b3bd 18f2 de3e d7b2 493c
00000070: 4755 8ebe 0e6e fcbe 80e2 f3be 0cc6 82be
00000080: 4647 333e 37ea a2be 7273 e1be f3ea a4bd
00000090: 22b1 5cbe 5c0a 073f 0434 113e 60c5 a83e
000000a0: 23cc 7cbe 7594 fc3e fe81 4f3e 5738 d53e
000000b0: e1ea d43e 0407 5a3d a00a c43e b9c0 0abd
000000c0: 0f0d 3cbe e573 8bbe 8eda a93d 8100 d93d
000000d0: 8b63 e93e bea8 f93e 5e03 1c3e 9516 f7be
000000e0: 1b0c cdbd 2e9b dd3e dad9 eabe 70df 3e3e
000000f0: 3e05 b03e 5e68 f0be c2af 70be 232f c83e
00000100: 6cd9 c73e b18d 043f 8b2b 11be 3870 91be
00000110: f17b 903e 7aaa a9bd 2e9e d73e 1b9d 6f3e
00000120: 3ec2 b4bb 441f e83e 89e4 fabe 6a6a ce3e
00000130: 0144 953e eff7 fdbe a68e d33e 8a73 25bd
00000140: eab6 033f 8fb5 84be b4d9 c9bd e138 38bd
00000150: 87ec 94be 7eaf 473e eb48 8e3e 0875 debe
00000160: 22e5 a73e 9825 a63e 620c 88be 9555 4abe
00000170: 5b93 af3e 6104 51be 0902 05bf e645 c03e
00000180: 7b49 78be efe2 263d 1b5b c63d fc6d 0d3f
00000190: 1694 36be 2ae0 8e3e 3893 acbe 64e7 6e3d
000001a0: b619 b93e e0d2 f93e 4bdf abbd 6913 3abe
000001b0: ba66 f33c 8aa9 bbbe e2a3 1fbe 52ac 4fbe
000001c0: 5ffb bc3e ccdc 8c3e a14c a6be b3d8 553e
000001d0: 0bbe 5ebe cea7 c53e 238e 25be 93e6 e83e
000001e0: 7144 ef3d e390 023f b484 d4be 3536 b63e
000001f0: a6ce 8cbe bd3f 95be b496 b03e c3b6 a7be
00000200: 502c 023f 1563 a93e fb71 02be bbf0 db3e
00000210: 9630 a2bd a569 b9be 5671 e8be eaef 643e
00000220: 6163 f9bc 69c3 a5be 14fa b73e 1b54 b1bd
00000230: 87bd 70be e32c db3d b44a eb3e 0289 83be
00000240: d8ef be3e fba5 e5be a821 de3e 32a3 99be
00000250: 8e4e ff3e 12e9 81be 4011 bc3e a080 fbbd
00000260: 7f42 a73e 8a90 32bd f84b eb3e 3ca2 f13d
00000270: ba0b a83e cb39 bebe 0113 cbbe 11e0 b5be
00000280: 6661 f53d 4d8e 853e 35f4 b23e f15b acbe
00000290: 1504 18be c98a a9be b4ec a9be 785e b93e
000002a0: f0fa e3be 2328 aa3c 71ef 0a3f 325a fa3e
000002b0: 5f3f 843e cbbb 33be 8285 193e a5ab 403b
000002c0: a739 4cbd 096c 30be aeac 38bd a257 933e
000002d0: 5085 f03d 9ec8 e53e 1922 363e a23f 5e3e
000002e0: 1fd1 c1bd d494 743d c288 723e 33d6 eebe
000002f0: bbc9 b13e 8e87 1e3e 86d4 a43e 0bad e3be
00000300: 6ca3 dcbc d490 bfbe 5ba2 05bf aeb6 8abe
00000310: 32b4 f03c 646b 4fbe 2e62 65be 6892 9cbe
00000320: 4ccd dabe ac7f 263e 9dcd acbd 9012 8cbe
00000330: 222c 94be c487 233e 20a2 3abd f037 493d
00000340: 46dc 96be 7a63 823d ea35 f03e f930 f03e
00000350: 599d 4e3e bd6d fdbc ea39 8a3e be01 3cbc
00000360: d9dc f33d 7f7b ae3e c948 a9be 90c6 d2be
00000370: 8c67 863e 2706 c13a 5634 e83e c2f8 ddbc
00000380: fcfc b53e 8fe5 bdbe b21b 93bc f26b d8be
00000390: d14c ee3c 36e6 a03e 50d3 e0bd b71e 7dbe
000003a0: ff4d e7be cfe9 babe 6abe 913e 405f 73be
000003b0: 68d0 ac3d a2f9 bdbe 8cfa 6c3e e08e 333c
000003c0: abc3 913e a096 7abd 33b7 24be 5306 e8be
000003d0: 3412 c13e 8c5c 39be 6805 a0be f094 70bd
000003e0: 1e80 f7be fae1 f13e 3e34 b53d 4a01 83bc
000003f0: eab5 92bd cbd3 74be ac12 603d 33af 803e

linear1.bias f4 [128]
0.3907847 -0.09638212 -0.047427475 -0.06976382 0.32688868 0.27017173 0.2017519 -0.026365736
0.06874469 0.10667486 0.40651932 0.23638204 0.27751988 0.42856318 -0.40591893 0.5133195
-0.2589666 -0.10160145 -0.2483853 -0.016789624 0.21299258 -0.29803273 -0.27186653 0.5496007
-0.110415176 -0.24305487 -0.39310345 0.2814489 0.45548135 -0.22715636 -0.13633378 0.45351315
0.33432156 0.21914129 0.34701443 0.57254595 0.35587996 -0.24223232 -0.041549187 0.5043806
-0.36165377 -0.16817865 -0.2670611 0.45127845 0.5988858 0.086690076 -0.40726346 -0.03368801
0.23909192 0.51164055 0.13819902 -0.49127185 -0.257061 0.29655793 -0.03098958 0.39552352
0.5411031 0.13611302 0.22303711 0.076585434 0.5639528 -0.2984311 0.23021662 0.54929805
0.32414606 0.17379019 0.036407564 -0.16343826 -0.14807941 0.39105138 0.2395522 -0.07193604
0.10236397 0.36539817 -0.36504707 -0.2883218 -0.41450417 0.2789916 -0.40126693 -0.34740806
-0.049067326 -0.23925845 0.36077252 0.5902113 -0.14621654 0.11836366 0.39596525 -0.065314546
0.5803607 0.57656074 0.46507087 -0.34049407 -0.39740196 0.43978488 0.24526307 0.5226709
0.0862702 0.473869 -0.32544875 -0.38001063 0.48596707 -0.30997393 0.43529102 0.46638098
-0.47503287 -0.14698015 0.36308518 0.357723 0.41019037 0.1586965 0.44633862 0.4599872
0.26181173 -0.093361594 0.5803036 0.19010945 0.35875106 -0.049147956 0.5613675 0.054917548
0.06822964 -0.05373352 0.38280204 0.16710578 -0.36287302 0.21616276 -0.28129405 -0.14084029
00000000: ef14 c83e fd63 c5bd 5043 42bd 55e0 8ebd
00000010: f45d a73e f353 8a3e 0d98 4e3e f5fc d7bc
00000020: 04ca 8c3d 5978 da3d 4d23 d03e 220e 723e
00000030: 1617 8e3e a26c db3e 9bd4 cfbe e868 033f
00000040: 4597 84be 6c14 d0bd b758 7ebe 658a 89bc
00000050: ba1a 5a3e bf97 98be 1732 8bbe a2b2 0c3f
00000060: 5a21 e2bd 60e3 78be db44 c9be 121a 903e
00000070: da34 e93e ad9b 68be 159b 0bbe e032 e83e
00000080: 322c ab3e 9366 603e e0ab b13e 5f92 123f
00000090: e635 b63e c00b 78be 7b2f 2abd 161f 013f
000000a0: af2a b9be 0637 2cbe 3cbc 88be f80d e73e
000000b0: 9450 193f 918a b13d d684 d0be 70fc 09bd
000000c0: 83d4 743e e0fa 023f 0b84 0d3e fc87 fbbe
000000d0: 809d 83be 71d6 973e dcdd fdbc 0f82 ca3e
000000e0: bc85 0a3f 3661 0b3e d763 643e d3d8 9c3d
000000f0: 365f 103f f6cb 98be e8bd 6b3e cc9e 0c3f
00000100: 79f6 a53e 0ef6 313e 1920 153d 5c5c 27be
00000110: 21a2 17be e337 c83e 2c4d 753e 3453 93bd
00000120: 33a4 d13d 7815 bb3e 73e7 babe ea9e 93be
00000130: e439 d4be fdd7 8e3e dc72 cdbe 78df b1be
00000140: d2fa 48bd 2b00 75be 2db7 b83e 1618 173f
00000150: cab9 15be a668 f23d f5bb ca3e a2c3 85bd
00000160: 8592 143f 7c99 133f c51d ee3e 3d55 aebe
00000170: 4578 cbbe 7c2b e13e 3e26 7b3e c3cd 053f
00000180: 6eae b03d f59e f23e 38a1 a6be c190 c2be
00000190: add0 f83e e7b4 9ebe 77de de3e 7dc9 ee3e
000001a0: 8237 f3be f781 16be 4de6 b93e 7827 b73e
000001b0: 7904 d23e 5681 223e 7f86 e43e 7183 eb3e
000001c0: 300c 863e 5d34 bfbd c78e 143f 0dac 423e
000001d0: 38ae b73e 5e4f 49bd c8b5 0f3f 39f1 603d
000001e0: fbbb 8b3d ae17 5cbd a1fe c33e c71d 2b3e
000001f0: 7eca b9be c559 5d3e c605 90be 7038 10be

linear2.weight f4 [128, 128]
0.011880148 -0.06343144 -0.036273498 -0.07962638 0.13276164 0.094896436 0.004863711 0.021413356
0.09103274 0.06595407 0.053509083 0.13180144 0.0077672745 -0.033821505 -0.055553567 0.0015934559
-0.032702778 0.0007286327 0.056165487 0.04166747 0.0866372 -0.010023056 0.04219587 0.15193075
0.0025857 -0.06476414 -0.0026829496 -0.008635136 0.09295833 0.04132811 0.071605355 0.031832814
0.029354349 0.055322424 -0.0021827335 0.037699293 0.12885483 0.014267277 -0.031104593 0.046175413
-0.052046936 -0.09655039 -0.12636444 0.03389997 0.1201012 0.10901969 0.017252779 -0.045086484
0.15369017 0.10028581 0.0827778 -0.006868366 -0.0700628 0.07401456 0.052562144 0.08909531
0.09672477 0.06909629 0.14783563 0.020446662 0.104245335 0.03782883 -0.008029916 0.14174274
0.06964713 0.056552164 -0.0615255 0.06736559 -0.1315938 -0.009929201 0.12182857 0.074594945
0.0072247935 0.11762171 -0.1239076 0.036146298 0.06955198 0.022463638 -0.1380987 0.026878372
0.01388335 -0.021626657 0.06262459 0.0014917135 -0.09762802 -0.013340116 0.052399732 -0.017688518
0.007282192 0.14964966 0.07117916 0.017199993 -0.12435885 0.074486904 -0.016824652 0.09311977
0.09320224 0.10708541 0.007469105 0.02118089 0.0069799 0.007692156 0.09807475 0.07171416
-0.067175634 -0.044859055 0.01908858 0.14423175 0.1274884 0.037779268 0.12898086 0.062630296
0.05498175 0.043768827 0.10890727 0.09098668 0.12523818 0.063893236 -0.0032389113 -0.02774394
0.07037943 0.05897961 0.05178756 0.024586612 0.049210597 0.0810161 0.03466683 -0.035875335
0.032396544 -0.055778988 0.041632947 -0.005420976 0.08459791 0.09991524 0.03914476 0.095591165
-0.026930647 0.04899243 -0.019388327 0.047170702 0.029106705 0.0364017 -0.009698142 0.053290293
0.005479329 -0.110861 0.021643162 0.04214418 0.027780365 -0.03507036 -0.072332755 0.104766905
0.055859342 0.02366008 -0.079508714 -0.016754206 0.14720897 -0.069764555 -0.0026936932 0.025303166
0.009217422 0.10661552 0.07518345 0.043552045 0.00797092 0.04884339 -0.0667929 0.0066936538
0.034003202 0.0029319457 -0.08707041 -0.0019659603 0.0008442654 0.1447297 -0.075482234 -0.08717409
0.15621334 0.112115964 -0.032618023 0.021890346 0.009549939 0.09319355 0.05051226 0.02967208
0.15833607 0.06292914 0.15706125 0.057870694 0.05755525 -0.062213942 0.13042092 0.06953561
0.04058428 0.08621035 0.094617195 -0.080560125 -0.015576624 0.12687272 0.03191372 -0.03498928
-0.03847697 0.054569937 -0.12191208 0.007570841 -0.003975865 -0.012098761 -0.020130584 0.046373818
-0.012873789 -0.027148852 0.021311931 0.018335776 0.0012025256 0.12694351 -0.011006152 0.07387605
0.12232619 0.11931449 0.0670355 0.025600208 -0.004069642 0.10446378 -0.035036672 -0.018237947
-0.018967282 0.039788853 -0.10872923 -0.07080331 0.02826055 -0.03507832 0.1229062 -0.021379827
0.024229558 -0.10840804 0.13618803 0.14524601 -0.0010043217 0.0931953 0.049227957 0.011463284
0.035849273 0.024214007 0.05974795 -0.04716696 0.10482283 -0.09757757 0.03057282 0.021706043
0.060203824 0.015267162 0.13019077 -0.05074812 0.07390829 0.0024339603 0.0029023325 0.047482014
00000000: f4a4 423c 58e8 81bd 8593 14bd 2813 a3bd
00000010: abf2 073e 1059 c23d c45f 9f3b 106b af3c
00000020: 606f ba3d ed12 873d 572c 5b3d f5f6 063e
00000030: 9f84 fe3b 6b88 0abd 238c 63bd 82db d03a
00000040: 59f3 05bd b601 3f3a c80d 663d 82ab 2a3d
00000050: d86e b13d be37 24bc 94d5 2c3d bc93 1b3e
00000060: d974 293b 10a3 84bd 6dd4 2fbb 637a 0dbc
00000070: f060 be3d aa47 293d d4a5 923d 2063 023d
00000080: 8878 f03c c499 623d 310c 0fbb 936a 1a3d
00000090: 85f2 033e 4cc1 693c 0fcf febc 6e22 3d3d
000000a0: 2b2f 55bd 36bc c5bd ae65 01be b2da 0a3d
000000b0: 9ef7 f53d b745 df3d b355 8d3c 9bac 38bd
000000c0: f560 1d3e a662 cd3d 6887 a93d 0810 e1bb
000000d0: 167d 8fbd f294 973d 674b 573d 9a77 b63d
000000e0: a317 c63d 5b82 8d3d 3962 173e c27f a73c
000000f0: 947e d53d 67f2 1a3d e98f 03bc 0225 113e
00000100: 28a3 8e3d 3ea3 673d 2a02 7cbd f8f6 893d
00000110: 86c0 06be 16ae 22bc 4281 f93d 3cc5 983d
00000120: f6bd ec3b a7e3 f03d 45c3 fdbd 240e 143d
00000130: 4571 8e3d aa05 b83c bf69 0dbe 0830 dc3c
00000140: fe76 633c 632a b1bc 5241 803d 9985 c33a
00000150: 33f1 c7bd 8090 5abc 1aa1 563d 83e7 90bc
00000160: 749f ee3b c33d 193e 61c6 913d 00e7 8c3c
00000170: daaf febd 978c 983d dad3 89bc 94b5 be3d
00000180: d1e0 be3d 984f db3d 65bf f43b 8c83 ad3c
00000190: a5b7 e43b 7b0e fc3b 6adb c83d e0de 923d
000001a0: 6193 89bd 21be 37bd a75f 9c3c 7db1 133e
000001b0: 528c 023e 6fbe 1a3d 8f13 043e 5044 803d
000001c0: 8b34 613d f146 333d c60a df3d 3957 ba3d
000001d0: 703e 003e 75da 823d ea43 54bb 4247 e3bc
000001e0: 1723 903d 9b94 713d 311f 543d dd69 c93c
000001f0: 0d91 493d c5eb a53d cefe 0d3d 04f2 12bd
00000200: 3db2 043d 8278 64bd 4f87 2a3d 71a2 b1bb
00000210: ab41 ad3d 5da0 cc3d 4256 203d 4dc5 c33d
00000220: a99d dcbc 49ac 483d 45d4 9ebc 1136 413d
00000230: 2f71 ee3c f319 153d f5e4 1ebc ec46 5a3d
00000240: f18b b33b 180b e3bd 004d b13c 609f 2c3d
00000250: a693 e33c f0a5 0fbd 3223 94bd 0890 d63d
00000260: c4cc 643d c9d2 c13c 77d5 a2bd 1e40 89bc
00000270: f3bd 163e b8e0 8ebd ac88 30bb 9648 cf3c
00000280: ac04 173c 3d59 da3d c8f9 993d a163 323d
00000290: 7698 023c 0210 483d b7ca 88bd 7056 db3b
000002a0: f146 0b3d e325 403b f951 b2bd 57d7 00bb
000002b0: b151 5d3a 0634 143e 6e96 9abd 5488 b2bd
000002c0: 64f6 1f3e 0e9d e53d 7a9a 05bd 6253 b33c
000002d0: 5977 1c3c 43dc be3d f2e5 4e3d dd12 f33c
000002e0: da22 223e fee0 803d aad4 203e d209 6d3d
000002f0: 0ebf 6b3d 0cd4 7ebd 108d 053e b068 8e3d
00000300: b43b 263d 0d8f b03d a9c6 c13d b5fc a4bd
00000310: 1935 7fbc ecea 013e f6b7 023d eb50 0fbd
00000320: 079a 1dbd ba84 5f3d 0aad f9bd d114 f83b
00000330: f947 82bb e239 46bc e5e8 a4bc 79f2 3d3d
00000340: 96ec 52bc 4567 debc 5c96 ae3c e934 963c
00000350: 109e 9d3a 7bfd 013e 2653 34bc 544c 973d
00000360: 2786 fa3d 285b f43d e949 893d 87b7 d13c
00000370: a25a 85bb 1bf1 d53d 9d82 0fbd bf67 95bc
00000380: 4661 9bbc a3f9 223d 6ead debd 5301 91bd
00000390: ab82 e73c 49ae 0fbd 3fb6 fb3d bf24 afbc
000003a0: 117d c63c 0905 debd e074 0b3e 5fbb 143e
000003b0: 72a3 83ba 2ddd be3d 41a3 493d 7fd0 3b3c
000003c0: b0d6 123d 745c c63c 44ba 743d 2432 41bd
000003d0: 5aad d63d c0d6 c7bd da73 fa3c dfd0 b13c
000003e0: 4998 763d 1e23 7a3c bb50 053e 43dd 4fbd
000003f0: 3b5d 973d 1483 1f3b 0f35 3e3b 807c 423d

linear2.bias f4 [128]
0.056185465 0.117593065 0.02676095 -0.060283944 0.00837502 0.06813995 0.05653039 0.05545667
0.08787001 0.11172336 0.116932 -0.0020122987 -0.008737715 0.029591635 0.030108012 0.12296293
0.089596204 0.043035075 0.030905662 0.089009486 0.11734962 -0.07219426 -0.0042885896 0.05734479
0.15625587 0.032622796 0.06816423 0.066552594 0.01695734 -0.004322824 0.074698694 0.0048109004
-0.084775805 -0.07647925 -0.05436344 0.057068907 0.14180042 0.097165205 -0.009442684 0.06701176
0.0066774194 -0.07198742 0.12928237 0.08826108 0.11006188 0.039727755 0.1255047 0.018055432
0.14134246 0.06208814 -0.009614918 0.019184716 0.09061152 -0.0151919685 0.0558924 -0.03302371
0.061122738 0.12871751 0.15104519 0.13263686 0.018409908 0.07690828 0.057736713 0.094745114
0.00087591127 0.10886207 0.011009062 0.008124528 0.13800687 0.025343983 0.065642275 -0.0024559812
-0.07862649 0.019599203 0.067679666 0.048566546 0.07294385 0.0056803985 0.045613915 0.0010638131
-0.026377639 0.031160569 0.12532301 -0.05820384 0.0052580526 0.08220005 0.07753863 0.01751181
0.058328517 0.057975225 0.097377926 0.034152318 -0.0509596 0.011834452 -0.037386104 0.07080429
0.15968439 -0.024174131 -0.06432901 0.02203675 0.0049614003 0.0321848 -0.00029252018 0.08792829
0.11989675 -0.018827744 0.1379561 -0.040814556 -0.02466379 -0.0019008731 -0.012489692 -0.06941563
0.012104469 -0.08322558 -0.051991824 -0.04216147 0.059412524 0.14672719 0.014424966 0.06989241
0.06530678 0.03568453 0.13262248 0.04828137 -0.0044252295 0.031650092 -0.028419873 0.04506976
00000000: bb22 663d a2d4 f03d c839 db3c 4cec 76bd
00000010: 6137 093c f58c 8b3d 698c 673d 8826 633d
00000020: 31f5 b33d 38cf e43d 0b7a ef3d c5e0 03bb
00000030: a228 0fbc 286a f23c 14a5 f63c fdd3 fb3d
00000040: 377e b73d 8c45 303d df2d fd3c 9b4a b63d
00000050: ff54 f03d 96da 93bd 4c87 8cbb 5fe2 6a3d
00000060: 8a01 203e 7b9f 053d b099 8b3d ba4c 883d
00000070: 1fea 8a3c 7aa6 8dbb a1fb 983d c2a4 9d3b
00000080: f09e adbd 27a1 9cbd 33ac 5ebd 16c1 693d
00000090: 2134 113e 8dfe c63d 7db5 1abc 763d 893d
000000a0: 41ce da3b 246e 93bd 9962 043e 3ac2 b43d
000000b0: 1f68 e13d 92b9 223d 4e84 003e fce8 933c
000000c0: 14bc 103e 2250 7e3d e487 1dbc 4429 9d3c
000000d0: 8892 b93d bce7 78bc 6eef 643d df43 07bd
000000e0: d65b 7a3d 86ce 033e 97ab 1a3e f5d1 073e
000000f0: 60d0 963c 1782 9d3d 557d 6c3d ba09 c23d
00000100: 699d 653a 14f3 de3d 5a5f 343c be1c 053c
00000110: ac51 0d3e 2f9e cf3c 756f 863d 87f4 20bb
00000120: ed06 a1bd 828e a03c a39b 8a3d b7ed 463d
00000130: 9663 953d a322 ba3b a8d5 3a3d a56f 8b3a
00000140: eb15 d8bc 7344 ff3c ad54 003e 2667 6ebd
00000150: be4b ac3b 8058 a83d 93cc 9e3d ed74 8f3c
00000160: e2e9 6e3d 6e77 6d3d 146e c73d 4de3 0b3d
00000170: 03bb 50bd 4ae5 413c 2c22 19bd d701 913d
00000180: 4e84 233e d408 c6bc eebe 83bd 6a86 b43c
00000190: 3e93 a23b 35d4 033d 655d 99b9 bf13 b43d
000001a0: 6d8c f53d a43c 9abc 5d44 0d3e 2a2d 27bd
000001b0: b70b cabc b826 f9ba 91a1 4cbc c829 8ebd
000001c0: d351 463c 2c72 aabd 61f5 54bd 81b1 2cbd
000001d0: 8c5a 733d a73f 163e b156 6c3c c023 8f3d
000001e0: 90bf 853d f129 123d 30ce 073e b0c2 453d
000001f0: 8401 91bb 87a3 013d cbd0 e8bc 129b 383d

output_layer.weight f4 [2, 128]
0.015485577 0.14763485 -0.13185818 0.07998912 0.15080221 0.07175918 0.11990615 0.15321012
0.17424378 0.034927007 0.14177768 -0.06933414 -0.051338676 0.14127512 0.16001065 0.03563253
0.1599375 -0.110828765 0.14622612 0.09315224 0.11683288 -0.113372795 0.09618114 -0.03872245
0.14687392 -0.09423218 0.15726623 -0.0144440485 -0.07544425 0.13323648 0.030531127 0.047093317
0.023187654 -0.021381477 -0.10121009 -0.03370716 0.10836911 0.13139607 0.1283404 0.009209127
-0.10170895 -0.023914542 0.06195559 0.11339477 0.13021198 0.06872737 0.06474143 0.07148735
0.101481594 -0.052559473 -0.015149933 0.1508178 0.11501061 -0.022735555 0.05830103 -0.041827306
0.0021377937 0.12211773 0.07873765 0.14091726 0.13401254 -0.06393348 0.02058212 0.12848806
-0.07445849 0.06186758 0.11791365 -0.055326384 0.10442218 0.13605979 0.14428802 -0.070971645
0.02543539 0.069494136 -0.07533409 -0.148849 -0.0034098485 0.15478154 0.10041867 -0.09398665
0.12837756 -0.042485192 0.031946894 -0.06763457 -0.055105418 0.14892882 0.118254565 0.058484014
0.09682381 0.093245685 0.046841994 0.12388134 0.032311715 0.11697326 -0.05562752 0.1363989
0.11864339 0.03337827 -0.055404093 -0.018151434 -0.07193562 0.13286497 -0.0077338517 0.15125553
0.073294625 -0.06667117 0.017249323 -0.102805205 -0.11298607 -0.009126058 -0.052192956 -0.042589184
0.06733196 -0.035680052 -0.039899062 0.03836561 -0.04415122 0.07303395 -0.020085221 -0.040261302
0.03338139 0.1680898 0.10861688 -0.033443358 0.031106291 -0.051508978 -0.07711023 0.12477324
0.15120576 0.08521791 -0.08818226 0.0823554 0.03507813 0.120287694 0.08025604 0.14119422
0.013904523 0.17537199 0.07265976 -0.04117999 0.0023637242 0.08613259 0.07213797 0.11135545
0.10801432 -0.0010881813 0.15451407 0.0877301 0.114473484 -0.107060425 0.10938892 -0.08319985
0.046066914 -0.13507769 0.056087494 -0.0074669328 0.08000733 0.009893683 -0.06734713 0.13909839
-0.053993788 -0.06798709 -0.10904391 0.010113359 0.053629354 0.13509466 0.11984632 0.16103321
-0.073124394 0.058442272 0.14513162 0.112556584 0.0031902783 0.1426501 0.09228378 0.12550327
0.037050452 -0.041004132 -0.07176912 0.04418091 0.0696005 -0.05537159 0.11921128 -0.0057541966
0.13281852 0.1373864 0.11035138 0.07002992 0.13293569 -0.066109 -0.039331798 0.16667677
0.044577647 0.11351518 0.16472068 0.014667597 0.0801673 0.15699606 0.08950239 -0.05499109
0.022434399 0.092623815 -0.037039082 -0.034256797 -0.029789666 0.0619188 0.11645842 -0.02904575
0.14914562 -0.12949295 0.11564986 -0.08130766 0.015087895 0.021446008 0.12951064 -0.052049413
0.11230176 0.07655282 0.11799454 0.14023641 -0.0703279 0.09419262 -0.03761585 0.14263853
0.07605064 0.048891578 -0.035697352 0.07655514 0.052436568 0.08952814 0.07724111 0.12499502
0.13940705 -0.08115044 0.12761225 -0.1398883 0.014372798 -0.09601143 -0.0063492465 -0.005142244
0.033949655 -0.02008962 0.08403216 -0.059476934 -0.022983093 0.10964917 -0.0051026423 -0.017554227
0.14671066 0.0331391 0.0880659 -0.07391896 -0.008522935 -0.08124654 -0.0653134 0.10487097
00000000: 38b7 7d3c 972d 173e d505 07be 56d1 a33d
00000010: e56b 1a3e 7af6 923d 5b91 f53d 1de3 1c3e
00000020: f66c 323e 9f0f 0f3d 2b2e 113e 0fff 8dbd
00000030: 8148 52bd 6daa 103e d5d9 233e 6af3 113d
00000040: a8c6 233e 31fa e2bd 4dbc 153e 9ac6 be3d
00000050: 1446 ef3d ff2f e8bd 9efa c43d 6f9b 1ebd
00000060: 1e66 163e cdfc c0bd 660a 213e bba6 6cbc
00000070: 8482 9abd 256f 083e 6a1c fa3c ece4 403d
00000080: 09f4 bd3c 3528 afbc 3c47 cfbd 8510 0abd
00000090: a0f0 dd3d b18c 063e aa6b 033e e1e1 163c
000000a0: c84c d0bd 6ee8 c3bc 25c5 7d3d 843b e83d
000000b0: 4a56 053e efc0 8c3d 2897 843d f667 923d
000000c0: 95d5 cf3d 9a48 57bd 6d37 78bc fb6f 1a3e
000000d0: af8a eb3d ea3f babc 10cd 6e3d 1c53 2bbd
000000e0: 3a1a 0c3b dc18 fa3d 3441 a13d 9d4c 103e
000000f0: 953a 093e 8eef 82bd d69b a83c 6092 033e
00000100: b17d 98bd dc68 7d3d b67c f13d eb9d 62bd
00000110: 4cdb d53d 4253 0b3e 3dc0 133e 9559 91bd
00000120: e15d d03c f152 8e3d c248 9abd df6b 18be
00000130: c477 5fbb 0d7f 1e3e 4ea8 cd3d 137c c0bd
00000140: 6875 033e f404 2ebd bfda 023d fe83 8abd
00000150: 38b6 61bd cc80 183e 732f f23d ef8c 6f3d
00000160: 904b c63d 98f7 be3d 64dd 3f3d 80b5 fd3d
00000170: 4a59 043d ad8f ef3d afd9 63bd 27ac 0b3e
00000180: 4efb f23d a7b7 083d 67ef 62bd 51b2 94bc
00000190: fb52 93bd c10d 083e 406c fdbb bbe2 1a3e
000001a0: 7e1b 963d e58a 88bd 744e 8d3c 898b d2bd
000001b0: 3e65 e7bd 7685 15bc 48c8 55bd ff71 2ebd
000001c0: 57e5 893d 3f25 12bd 336d 23bd 4225 1d3d
000001d0: e9d7 34bd d392 953d c389 a4bc 09e9 24bd
000001e0: edba 083d bc1f 2c3e 8772 de3d e7fb 08bd
000001f0: 9fd2 fe3c 14fb 52bd f8eb 9dbd 1d89 ff3d
00000200: afd5 1a3e ba86 ae3d e798 b4bd f3a9 a83d
00000210: 16ae 0f3d 6559 f63d 475d a43d 3895 103e
00000220: cccf 633c b794 333e a4ce 943d 59ac 28bd
00000230: b6e8 1a3b 4966 b03d 12bd 933d 530e e43d
00000240: 9d36 dd3d 4ea1 8eba f038 1e3e d7ab b33d
00000250: 1371 ea3d 7f42 dbbd 4c07 e03d af64 aabd
00000260: a9b0 3c3d ce51 0abe 00bc 653d 2cad f4bb
00000270: e2da a33d 1d19 223c 4bed 89bd cf6f 0e3e
00000280: 9728 5dbd d13c 8bbd 6a52 dfbd 81b2 253c
00000290: 74aa 5b3d 4156 0a3e fd71 f53d e4e5 243e
000002a0: 3ec2 95bd 2a61 6f3d 629d 143e 1184 e63d
000002b0: fd13 513b de12 123e 47ff bc3d ee83 003e
000002c0: 37c2 173d f3f3 27bd b0fb 92bd 0bf7 343d
000002d0: b58a 8e3d 52cd 62bd 0b25 f43d b38d bcbb
000002e0: 9401 083e 05af 0c3e e8ff e13d d96b 8f3d
000002f0: 4b20 083e 2864 87bd 611a 21bd 51ad 2a3e
00000300: 0d97 363d a67a e83d 8aac 283e 5c50 703c
00000310: c12e a43d 93c3 203e 074d b73d 563e 61bd
00000320: 58c8 b73c 8eb1 bd3d 4bb6 17bd db50 0cbd
00000330: 7509 f4bc 919e 7d3d c181 ee3d 5af1 edbc
00000340: a1b9 183e cd99 04be d5d9 ec3d a184 a6bd
00000350: 3833 773c 8aaf af3c 709e 043e c431 55bd
00000360: 77fe e53d bac7 9c3d 1fa7 f13d 229a 0f3e
00000370: 1308 90bd 0fe8 c03d 1413 1abd d60f 123e
00000380: 70c0 9b3d 8942 483d 6337 12bd f1c8 9c3d
00000390: bac7 563d 885a b73d 9630 9e3d 64fd ff3d
000003a0: b9c0 0e3e 3432 a6bd c9ac 023e e13e 0fbe
000003b0: e27b 6b3c a4a1 c4bd 570d d0bb 4580 a8bb
000003c0: cb0e 0b3d fd92 a4bc 0e19 ac3d 169e 73bd
000003d0: 0a47 bcbc be8f e03d 1134 a7bb e2cd 8fbc
000003e0: 523b 163e ddbc 073d e55b b43d d362 97bd
000003f0: c8a3 0bbc 9664 a6bd 08c3 85bd 97c6 d63d

output_layer.bias f4 [2]
0.07217648 0.088790275
00000000: 43d1 933d add7 b53d
