results/models/exp-2:batchsize=128,lr=1e-4,layers=6,num_episodes_train=1500,adam-corrected/1/model-130.0.pt (torch, 12720 bytes, 10 tensors)

linear1.weight f4 [16, 4]
0	0xbf091995	-0.5355466
1	0x3e314081	0.17309763
2	0x3e81deb0	0.2536521
3	0xbe2b7df9	-0.16747274
4	0x3e74b716	0.23897967
5	0x3eb1e88d	0.34747735
6	0xbc066e8a	-0.0082050655
7	0x3de668f8	0.1125049
8	0xbf26509c	-0.6496675
9	0x3d0425c7	0.03226259
10	0x3f317967	0.6932587
11	0x3f1ac6cb	0.60459584
12	0xbec2acd4	-0.38022482
13	0xbe3e94a5	-0.18611391
14	0x3f0d3fb1	0.5517531
15	0x3e824569	0.2544358
16	0x3bbace0d	0.0057008327
17	0xbebeacd4	-0.37241232
18	0x3e9d1b40	0.30684853
19	0x3d9b07f5	0.07569877
20	0x3da589c8	0.0808292
21	0x3e266be0	0.16252089
22	0xbe3eaca8	-0.1862055
23	0x3e2bd8f4	0.1678198
24	0x3e132fa9	0.1437365
25	0x3ec67090	0.38757753
26	0xbea9c19e	-0.3315553
27	0xbf2071a0	-0.6267338
28	0x3e932467	0.2873871
29	0x3ebe8a77	0.37215015
30	0x3e3dd016	0.1853641
31	0x3e56b927	0.20969068
32	0x3da60eb6	0.08108275
33	0x3eaf1292	0.34193856
34	0x3eba08c2	0.36334807
35	0x3f039cdd	0.5141123
36	0x3f0b2387	0.54351085
37	0x3bdf14bb	0.006807891
38	0xbe6ee61e	-0.2332997
39	0x3e77aaad	0.24186201
40	0xbeb52da9	-0.35386398
41	0x3e87eb0c	0.26546514
42	0x3da496f2	0.08036603
43	0x3e8f3934	0.2797333
44	0x3e22f9fb	0.15915672
45	0xbe2b35ae	-0.16719696
46	0x3e3b1857	0.18271004
47	0x3eed8019	0.46386793
48	0x3ec27f68	0.37987828
49	0xbd8da56e	-0.06916319
50	0xbe14741b	-0.14497416
51	0x3d76aac2	0.06022144
52	0xbe9b8fb9	-0.3038309
53	0x3d271dbf	0.040799852
54	0xbe994f73	-0.29943427
55	0xbe2c9e1a	-0.16857186
56	0x3db9ce03	0.09072497
57	0x3ed156f5	0.40886655
58	0x3e4101bf	0.18848322
59	0xbf00c654	-0.50302625
60	0xbf1c6e34	-0.61105657
61	0xbe7423e8	-0.23841822
62	0xbe93d3a3	-0.28872404
63	0xbd1a6929	-0.037697945

linear1.bias f4 [16]
0	0x3f13b640	0.57699966
1	0xbef73a19	-0.48286512
2	0xbcd26e6a	-0.025687415
3	0xbd7583c4	-0.059940115
4	0x3de2d1d9	0.110751815
5	0xbeaa10a6	-0.33215827
6	0xbde8fc39	-0.11376233
7	0x3e9fe1ec	0.31227052
8	0x3c61a06a	0.013771156
9	0x3e932a1a	0.28743058
10	0x3f214014	0.629884
11	0xbdac7389	-0.08420474
12	0x3e5b1fd7	0.21398865
13	0x3f1f2edf	0.62180895
14	0xbe162617	-0.14662968
15	0x3eb80d55	0.35947672

linear2.weight f4 [32, 16]
0	0xbe53952c	-0.20662373
1	0xbd97ca8c	-0.074116796
2	0xbe21651c	-0.15761226
3	0xbe221af4	-0.15830594
4	0xbe6789d6	-0.22611174
5	0x3cb3eb10	0.021962672
6	0xbe5bbaea	-0.21458021
7	0xbe21ebe2	-0.15812638
8	0xbdcf6268	-0.101261914
9	0x3df2f2f8	0.11862749
10	0xbe58ea74	-0.21183187
11	0xbe484372	-0.19556978
12	0xbe39135e	-0.18073794
13	0xbc0c7700	-0.008573294
14	0x3e57be70	0.2106874
15	0x3cde9630	0.027171224
16	0xbdd402ee	-0.10352121
17	0x3e2505c4	0.1611548
18	0xbe7c8bdd	-0.24662729
19	0x3dd45bed	0.10369096
20	0x3e1f70bd	0.1557035
21	0xbaf79c00	-0.0018891096
22	0xbe2bd6c3	-0.16781144
23	0xbd65fe20	-0.056150556
24	0xbe40cf09	-0.18828978
25	0x3e89eb9c	0.26937568
26	0x3d5e9ca4	0.054348603
27	0xbefc1df3	-0.492416
28	0x3da89118	0.082307994
29	0x3eb0335c	0.34414184
30	0xbd4e1d6a	-0.05032102
31	0x3e50c4d6	0.20387587
32	0xbc4ed5c3	-0.012624207
33	0xbd2cab2c	-0.04215543
34	0xbe8bff84	-0.2734338
35	0xbe6b0d6d	-0.2295434
36	0xbd4b6002	-0.049652107
37	0x3c5f5aa0	0.0136324465
38	0xbd2439bf	-0.040094133
39	0x3e8f789e	0.2802171
40	0x3cd158a7	0.025554968
41	0x3d87239e	0.0659859
42	0x3e90e36b	0.28298506
43	0xbe0f759d	-0.1400971
44	0xbd6adb0d	-0.05733781
45	0x3e89c9fe	0.2691192
46	0xbdd887ea	-0.105727986
47	0x3e9079fe	0.28218073
48	0x3ea7bd9b	0.32761845
49	0xbe3a2147	-0.18176757
50	0xbdef66db	-0.1168954
51	0xbe2eaa57	-0.17057167
52	0xbdd13704	-0.102155715
53	0xbd2237a8	-0.03960386
54	0xbeaafb66	-0.33394927
55	0x3e6420e9	0.22278179
56	0x3d9db977	0.0770139
57	0x3b91b2e7	0.0044463756
58	0x3e518e6f	0.2046449
59	0xbec36a3d	-0.3816699
60	0x3e1bb775	0.15206702
61	0xbcc33c27	-0.023832394
62	0xbe551052	-0.20807007
63	0x3e6bbd78	0.23021495
64	0xbd3cd9b1	-0.046106044
65	0xbdd61ee5	-0.104551114
66	0xbe2e70da	-0.17035237
67	0x3d9f2b41	0.07771922
68	0xbde69055	-0.11257998
69	0x3d877d98	0.06615752
70	0xbe352759	-0.17690791
71	0x3eaf3dab	0.34226736
72	0xbe89e14d	-0.26929703
73	0xbe10f8c0	-0.1415739
74	0x3e663846	0.22482404
75	0xbcead432	-0.028665636
76	0x3ea58750	0.32329798
77	0x3e993045	0.2991964
78	0xbecccc8c	-0.39999807
79	0x3e87378d	0.2640957
80	0x3e1c3500	0.15254593
81	0x3e2bb68a	0.16768852
82	0xbd2aacd8	-0.041668743
83	0xbe0267b2	-0.12734869
84	0xbe660986	-0.2246457
85	0xbe2629c0	-0.16226864
86	0xbb2b0d00	-0.0026100278
87	0xbe636532	-0.22206572
88	0xbe4c1766	-0.19930801
89	0xbd9dea58	-0.07710713
90	0xbd2dcc60	-0.042431235
91	0x3e48d2c0	0.19611645
92	0xbe5a2676	-0.21303734
93	0x3ca3ff10	0.020019084
94	0xbe5c750c	-0.21529025
95	0xbced6860	-0.028980434
96	0x3e8ef62b	0.27922186
97	0xbe7f48ea	-0.24930158
98	0x3d3b9561	0.045796756
99	0xbe598f5d	-0.21246095
100	0x3e30fa51	0.17282988
101	0x3e3516e6	0.17684516
102	0xbda7b82e	-0.08189426
103	0x3deeabbd	0.1165385
104	0x3dff0226	0.12451582
105	0xbdc4fa4e	-0.09618054
106	0x3de30e82	0.110867515
107	0xbe84556d	-0.25846425
108	0x3eb33a44	0.3500539
109	0x3e9986c0	0.2998562
110	0xbe82836d	-0.25490895
111	0x3e9465cd	0.28983918
112	0x3dcff5d9	0.101543136
113	0x3d8d1228	0.06888229
114	0xbe9cdefb	-0.3063887
115	0x3e12673a	0.1429719
116	0x3c3053ee	0.010762198
117	0x3e3256fa	0.17415991
118	0x3dcace68	0.0990265
119	0x3e2d122e	0.16901466
120	0xbea813ea	-0.32827693
121	0x3e88bc9c	0.26706398
122	0x3e9cd8bd	0.30634108
123	0xbdb7f869	-0.08982927
124	0x3e03ae17	0.12859379
125	0x3e0bfda5	0.13670976
126	0xbb6188ef	-0.0034413894
127	0x3e86d09e	0.26331037
128	0x3dc067c8	0.09394795
129	0x3d315116	0.04329022
130	0xbe2b3220	-0.1671834
131	0x3e02c8be	0.1277189
132	0xbdfa07e8	-0.12208539
133	0x3e02842c	0.12745732
134	0xbe19a3a2	-0.15003827
135	0xbde9d7e2	-0.114181295
136	0xbe8c2703	-0.27373514
137	0xbe1ddb5e	-0.15415713
138	0x3e6546fa	0.22390357
139	0xbe62b0a1	-0.22137691
140	0x3e922659	0.28544882
141	0x3e9445dd	0.2895955
142	0xbe55c811	-0.208771
143	0x3eb4dd08	0.35324883
144	0x3ea27ffb	0.31738266
145	0xbdb99c50	-0.09063017
146	0xbd216f6d	-0.039412905
147	0xbdaa4993	-0.083148144
148	0x3dedf592	0.116191044
149	0xbc306200	-0.0107655525
150	0xbe205318	-0.15656698
151	0x3ea39cb4	0.31955492
152	0xbe2c3f68	-0.16821063
153	0x3da0c516	0.07850091
154	0x3d524d85	0.05134346
155	0xbefb896a	-0.49128276
156	0x3ea10187	0.31446478
157	0x3eaa320e	0.33241314
158	0xbec8df87	-0.39233038
159	0x3e620ec0	0.22075939
160	0x3e38a5a2	0.18031934
161	0xbd313507	-0.04326346
162	0xbdea62a9	-0.11444599
163	0x3e1b746d	0.15181132
164	0x3ddb6d09	0.10714156
165	0x3e4e3fc0	0.20141506
166	0xbdcc06e8	-0.09962255
167	0x3e82b99b	0.2553223
168	0x3e1de8a8	0.15420783
169	0xbdefb89f	-0.117051356
170	0x3ea22704	0.31670392
171	0xbe81706c	-0.25281084
172	0xbc305f6f	-0.010764941
173	0x3eba51b8	0.3639047
174	0xbcb8b6d5	-0.022548119
175	0x3ea54e41	0.32286265
176	0xbdb5b43b	-0.08872267
177	0x3d62835e	0.055301063
178	0xbe83ee96	-0.25767964
179	0xbdc3f90c	-0.09568986
180	0x3d56a753	0.052405667
181	0xbd9870d8	-0.07443398
182	0x3db54471	0.08850945
183	0x3e7c2e86	0.24627122
184	0xbdf4d6da	-0.11955042
185	0x3e32a318	0.17445028
186	0x3ecad40a	0.39614898
187	0xbedb76a2	-0.42863947
188	0x3e53def5	0.2069052
189	0x3e8e8333	0.27834472
190	0xbd123db7	-0.035703387
191	0x3eb86d1d	0.36020747
192	0x3e0a5834	0.1351021
193	0x3e6776ab	0.22603862
194	0xbdf65334	-0.120275885
195	0xbe4bb8c7	-0.19894706
196	0x3e22970d	0.15877934
197	0x3ded4b5c	0.11586639
198	0xbe82a922	-0.25519663
199	0x3e188c64	0.14897305
200	0xbe9cd6e4	-0.306327
201	0x3e885226	0.26625174
202	0x3da03330	0.07822263
203	0xbdd448af	-0.10365426
204	0x3e79997b	0.24374954
205	0x3e0ea44f	0.13929866
206	0xbe735b9c	-0.23765415
207	0x3e77f23f	0.24213503
208	0x3e045322	0.12922338
209	0x3d666428	0.05624786
210	0xbdf07acf	-0.11742174
211	0xbdd04c1e	-0.10170768
212	0x3e565900	0.20932388
213	0xbe1e22cc	-0.15442961
214	0xbe47258f	-0.19447921
215	0x3e74802d	0.2387702
216	0x3c5ae3f3	0.013360011
217	0x3dd94916	0.10609643
218	0x3db884b6	0.090096876
219	0xbe5a9aa4	-0.21348053
220	0x3dbf97e2	0.09355141
221	0x3e82722a	0.25477725
222	0xbe3cd030	-0.18438792
223	0x3e8a4bde	0.27011007
224	0x3da7c44c	0.081917375
225	0x3d8346d0	0.06409991
226	0x3d4dd4cc	0.050251767
227	0xbdfb477d	-0.12269495
228	0xbe3e49c0	-0.18582821
229	0xbe544e9c	-0.20733112
230	0x3af2cb00	0.0018523633
231	0xbcffcc6c	-0.031225406
232	0x3e05bddd	0.13060708
233	0x3e685447	0.226884
234	0x3c539890	0.012914792
235	0x3d326164	0.04354991
236	0xbd55bebd	-0.052183855
237	0xbe71dae7	-0.23618661
238	0x3d7800c0	0.06054759
239	0xbd643d20	-0.055722356
240	0xbe3ec08e	-0.18628141
241	0x3df71e30	0.12066305
242	0x3dfd679c	0.123732775
243	0xbdc168cc	-0.094438165
244	0xbe034566	-0.12819442
245	0x3e5dd8ee	0.21664783
246	0x3dab2504	0.083566695
247	0x3d8c9678	0.06864637
248	0x3dd94a34	0.10609856
249	0x3e65ae36	0.22429737
250	0xbe73b30c	-0.2379877
251	0xbe704508	-0.23463833
252	0xbe472a04	-0.19449621
253	0xbe743b68	-0.23850787
254	0xbc9675f0	-0.018366784
255	0xbe12da34	-0.1434105

linear2.bias f4 [32]
0	0xbe1de9ea	-0.15421262
1	0x3eadcfc2	0.3394757
2	0x3de81c02	0.11333467
3	0x3e7d3a14	0.24729186
4	0x3ebe0260	0.37111187
5	0xbe1c8c0c	-0.15287799
6	0x3e93994b	0.2882789
7	0x3e89e733	0.26934204
8	0x3e8a2741	0.26983073
9	0x3d833fa4	0.06408623
10	0x3d74e366	0.059787177
11	0xbbb50d49	-0.0055252654
12	0x3e9f351b	0.31095204
13	0xbcf6427b	-0.030060997
14	0xbe140909	-0.14456572
15	0xbe3583d8	-0.17726076
16	0x3df2c0d1	0.11853183
17	0xbe282471	-0.16420151
18	0xbd3adbc6	-0.04561975
19	0x3eae699e	0.34064955
20	0x3e4c964f	0.19979213
21	0x3ece0ee2	0.4024573
22	0x3e481edc	0.19543022
23	0x3dc13c2f	0.09435307
24	0x3ea8410f	0.32862136
25	0x3db8391a	0.08995266
26	0x3e88541a	0.26626664
27	0xbe73425e	-0.23755786
28	0x3ebb684a	0.36603004
29	0x3e5a6a51	0.21329619
30	0x3d6f3f5f	0.058410045
31	0xbe375852	-0.17904785

linear3.weight f4 [32, 32]
0	0xbe0eddab	-0.13951747
1	0x3df887ed	0.12135301
2	0xbdf207e0	-0.11817908
3	0xbd9b5b6e	-0.07585798
4	0xbe1c3d25	-0.152577
5	0xbb36eb70	-0.0027911328
6	0x3d4ef558	0.050526947
7	0x3c734233	0.014847326
8	0xbdf92d03	-0.121667884
9	0xbdda6758	-0.106642425
10	0xbd9dad92	-0.076991215
11	0xbc2475b2	-0.010037826
12	0x3e26a508	0.16273892
13	0xbc9e9970	-0.019360274
14	0x3b481d0d	0.0030534894
15	0x3dcc7da2	0.099849
16	0x3da18b15	0.07887856
17	0xbd94b3a2	-0.07260825
18	0xb795b872	-1.7848073e-05
19	0xbe2c1d56	-0.16808066
20	0xbdb5f0ba	-0.088838056
21	0x3d6a1f5c	0.057158813
22	0xbda5b75b	-0.08091613
23	0x3d7b555c	0.061360702
24	0xbe156d1c	-0.14592403
25	0xbda0adb1	-0.07845629
26	0xbd559ead	-0.05215328
27	0x3e20c1bf	0.15698908
28	0x3cd31718	0.025767848
29	0xbe073099	-0.13202132
30	0xbe04c93c	-0.1296739
31	0x3d560483	0.052250396
32	0x3c98271c	0.018573336
33	0xbe1c9b0e	-0.15293524
34	0x3d255b3f	0.040370222
35	0xbe8c39ff	-0.27387998
36	0x3da8ceee	0.08242594
37	0xbb003079	-0.0019560142
38	0x3cda3468	0.026636317
39	0x3e3495fc	0.1763534
40	0xbe259c6d	-0.16172953
41	0xbd31b802	-0.043388374
42	0xbd309bd7	-0.04311737
43	0x3e2e93af	0.17048524
44	0xbe1c653d	-0.15272994
45	0x3bab10d6	0.005220513
46	0xbe073c09	-0.13206495
47	0x3d5df681	0.054190163
48	0xbccdff70	-0.025146216
49	0xbdc857e4	-0.09782389
50	0x3e6f8b39	0.23392953
51	0x3d9bff57	0.076170616
52	0xbe0f2ec2	-0.1398268
53	0x3dd51e32	0.1040615
54	0x3de81ae3	0.11333253
55	0xbe661f90	-0.22472978
56	0x3d09109e	0.033463113
57	0xbe8bfd03	-0.2734147
58	0x3be03f43	0.006843479
59	0xbe2e8263	-0.17041926
60	0x3e2e5aa7	0.17026769
61	0x3e0d09a9	0.13773216
62	0xbd89657a	-0.06708808
63	0xbe112062	-0.1417251
64	0xbdc86f6a	-0.097868755
65	0x3eaf2da8	0.3421452
66	0x3eaa4f45	0.33263603
67	0x3e16bc29	0.14720215
68	0x3eb79c5c	0.3586148
69	0x3d9225ba	0.07136102
70	0xbd651a04	-0.055933014
71	0x3da3e45d	0.08002541
72	0x3e97851f	0.2959375
73	0x3e6e5f6f	0.23278593
74	0x3e1f8398	0.15577543
75	0x3e96f7aa	0.29485828
76	0x3e58d7f5	0.21176131
77	0x3e2f661d	0.17128797
78	0x3dd5828d	0.10425291
79	0x3dea3012	0.1143495
80	0x3e988d6b	0.29795393
81	0xbab7d2d0	-0.0014024619
82	0xbe4743d6	-0.19459471
83	0x3e413985	0.18869598
84	0x3e91f2ae	0.28505462
85	0x3d668a97	0.056284513
86	0x3de3d839	0.111252256
87	0x3e831dcb	0.25608668
88	0x3e1bce5a	0.15215436
89	0x3ed3270e	0.41240734
90	0x3e09097d	0.13382526
91	0xbdd48c4c	-0.10378322
92	0x3de88133	0.11352768
93	0x3dfdad3a	0.12386556
94	0x3d02d2e3	0.0319394
95	0xbe30ad84	-0.17253691
96	0xbdcde4ca	-0.10053404
97	0xbe348b60	-0.17631292
98	0xbd8b1247	-0.067905955
99	0x3e34e467	0.17665254
100	0x3ce1543b	0.027505985
101	0xbe17d5a3	-0.1482759
102	0xbd432c6c	-0.047649786
103	0x3ceba521	0.028765263
104	0x3dfb1bf1	0.12261189
105	0xbd4ad190	-0.04951626
106	0x3cf19683	0.029490715
107	0xbe3aefad	-0.18255492
108	0xbd5c1be3	-0.053737532
109	0x3c0e932b	0.00870208
110	0x3d6bde3a	0.05758498
111	0xbd66cd77	-0.05634829
112	0x3e385c42	0.18003944
113	0x3e28b203	0.16474156
114	0xbd5c2509	-0.053746257
115	0xbe1f95ec	-0.15584534
116	0x3d471e08	0.048612624
117	0x3d06e5d3	0.03293402
118	0x3d89313e	0.06698845
119	0xbc7697c1	-0.015050829
120	0x3e36d28c	0.17853755
121	0xbe16d73f	-0.14730547
122	0x3e15eb56	0.14640555
123	0x3ddc0f4c	0.10745105
124	0xbe04c4d0	-0.12965703
125	0x3e4dce07	0.20098124
126	0x3cada248	0.021195546
127	0xbdf98973	-0.121844195
128	0x3d96aae0	0.073568106
129	0x3df83f08	0.12121397
130	0x3bb4afbc	0.005514113
131	0x3e0e06e4	0.13869816
132	0x3ea8c59f	0.32963273
133	0x3e2c2eb4	0.16814691
134	0x3e6c7f04	0.23095328
135	0x3c6e83f8	0.014557831
136	0x3e39434e	0.18092081
137	0x3e625e81	0.22106363
138	0x3e57d2be	0.21076486
139	0x3bbe3eb9	0.005805817
140	0x3e1f37fd	0.15548702
141	0x3e998ac9	0.29988697
142	0x3e2a5b06	0.16636285
143	0x3e33677e	0.17519948
144	0x3e719f0c	0.23595828
145	0x3d4b8e14	0.049696043
146	0xbe6a5c56	-0.22886786
147	0x3e24d97a	0.16098586
148	0x3e7beef4	0.24602872
149	0x3d1d68e5	0.038430113
150	0x3e0e97e5	0.1392513
151	0x3edc3381	0.43008044
152	0x3ea5da8e	0.32393306
153	0x3e998dd7	0.29991028
154	0x3d90f3ff	0.070777886
155	0xbe15b472	-0.14619616
156	0x3e6557ff	0.22396849
157	0x3e7cc03d	0.24682708
158	0x3ea4e0e1	0.3220282
159	0x3d610cdf	0.054943915
160	0xbd8b2b06	-0.067953154
161	0x3e26df31	0.16296078
162	0x3e3e22cd	0.18567963
163	0x3eb9e895	0.36310259
164	0x3e59fcc9	0.21287836
165	0xbe325858	-0.17416513
166	0x3c746583	0.01491678
167	0x3ce6ea67	0.028187944
168	0x3d9c3df2	0.07629003
169	0x3e6810cd	0.22662659
170	0x3d071cbf	0.0329864
171	0x3e8b648b	0.27225146
172	0x3e42c1e9	0.19019283
173	0x3e5bc1b5	0.21460612
174	0x3e308898	0.17239606
175	0xbe059ff8	-0.13049304
176	0x3e811025	0.2520763
177	0xbd3c733d	-0.046008337
178	0xbe8d29ae	-0.27570862
179	0x3e5024a1	0.20326473
180	0x3ee5ff64	0.4492141
181	0x3ba3e5ad	0.0050017447
182	0x3e44a0cb	0.19201963
183	0x3e5eaf4d	0.2174656
184	0x3ea4164b	0.32048258
185	0x3e1c0956	0.15237936
186	0x3e2535b3	0.16133766
187	0xbdd3ad32	-0.10335769
188	0x3e86290f	0.262032
189	0x3ed0d8b7	0.4079034
190	0x3e72ec04	0.23722845
191	0x3e0542a7	0.13013707
192	0x3d177c47	0.036983754
193	0x3e85a9ac	0.26106012
194	0x3d9c4db5	0.07632009
195	0x3e1f9d15	0.15587266
196	0x3e14fa27	0.1454855
197	0xbd64b345	-0.055835027
198	0x3e6afb3d	0.22947402
199	0xbd473f54	-0.04864438
200	0x3c9e8daa	0.01935466
201	0x3e89a603	0.2688447
202	0x3e7cd129	0.24689163
203	0x3e5d6368	0.21619952
204	0x3e4c264f	0.19936489
205	0x3e6ba484	0.23011976
206	0xbd2ad668	-0.04170838
207	0x3e1ab773	0.15109043
208	0x3df820a9	0.121156044
209	0x3cf43f50	0.029815346
210	0xbd70b46b	-0.05876581
211	0x3b3c2de6	0.002871388
212	0x3e76300d	0.24041767
213	0x3dd8b939	0.105822034
214	0x3e79d8a5	0.2439905
215	0x3eb32b0a	0.34993774
216	0x3e8b4bb6	0.272062
217	0x3e8c10a5	0.2735645
218	0x3d9f4f62	0.07778813
219	0xbde7a440	-0.11310625
220	0xbcd730f4	-0.02626846
221	0x3e92dd62	0.28684527
222	0x3e510b0a	0.20414367
223	0x3e2de2de	0.16981074
224	0x3d5d749e	0.054066293
225	0x3c942422	0.018083636
226	0x3e55fea1	0.20897914
227	0xbe63c18f	-0.22241805
228	0xbe7c1965	-0.24619062
229	0xbd8af367	-0.067847066
230	0xbdfa83b6	-0.12232153
231	0x3d4c2514	0.049840048
232	0x3c867e0e	0.01641753
233	0xbe13e332	-0.14442137
234	0x3e12ebf2	0.14347818
235	0x3d5394b6	0.051655494
236	0x3d44f19e	0.048081987
237	0x3db59cba	0.08867784
238	0x3e019fa6	0.12658557
239	0xbd34d818	-0.044151396
240	0x3d9961d9	0.07489366
241	0x3af78540	0.0018884316
242	0x3ea20c45	0.31649986
243	0x3e30d8a0	0.17270136
244	0xbe94c3e2	-0.29055697
245	0x3d93e334	0.0722107
246	0x3e03ad17	0.12858997
247	0x3d7325c5	0.05936219
248	0xbd779903	-0.060448658
249	0xbe66bb68	-0.22532427
250	0xbdbac3c5	-0.09119371
251	0xbcced24c	-0.025246762
252	0x3c41c3bf	0.011826455
253	0xbe1d1998	-0.15341794
254	0x3e7f047a	0.24904051
255	0x3d2d630f	0.042330798

linear3.bias f4 [32]
0	0x3e2e2e45	0.17009838
1	0x3dc892c7	0.097936206
2	0x3e77b27e	0.24189183
3	0xbcf535ce	-0.029932883
4	0x3e2ea0fb	0.17053597
5	0x3e84ff4c	0.25976026
6	0x3e3913f7	0.18074022
7	0x3e5b8153	0.21436052
8	0x3e6fb318	0.23408163
9	0xbd849378	-0.0647344
10	0x3d83913e	0.06424187
11	0x3c4de07e	0.01256573
12	0x3e235206	0.15949258
13	0xbd7d3679	-0.061819527
14	0x3bc12134	0.0058938507
15	0x3e05fc4a	0.13084522
16	0x3d37256d	0.044713426
17	0x3c544707	0.012956387
18	0x3db04ffc	0.08609006
19	0xbcb2f64a	-0.021845955
20	0x3e4bc4aa	0.1989924
21	0x3dd6e909	0.10493667
22	0x3e1f023f	0.155282
23	0xbdf8644d	-0.12128506
24	0x3e309973	0.17246036
25	0x3e25a4e7	0.16176187
26	0x3e9481c4	0.29005253
27	0x3e83fa7e	0.25777048
28	0x3e9d8c24	0.3077098
29	0xbd7232d5	-0.05913051
30	0x3d47a2e6	0.048739336
31	0x3d281b65	0.04104175

linear4.weight f4 [16, 32]
0	0x3dc53254	0.0962874
1	0x3e0edda5	0.13951738
2	0xbd289608	-0.041158706
3	0xbd25ecca	-0.040509023
4	0x3cf62f8b	0.030051967
5	0x3d86c74d	0.06580982
6	0xbe4400ef	-0.19140981
7	0x3d8ccbaa	0.06874783
8	0xbd7e7b67	-0.062129404
9	0xbcd1eba1	-0.025625052
10	0xbc447c82	-0.011992576
11	0xbe26f9f5	-0.16306289
12	0xbb98680f	-0.0046510766
13	0x3bfb0dd1	0.007661559
14	0xbe2fe70f	-0.17177986
15	0x3d869d8d	0.06573019
16	0xbe499fb5	-0.1968983
17	0xbe1af920	-0.15134096
18	0x3dcfc46f	0.101448886
19	0xbc65c95c	-0.014025059
20	0xbe0dbad5	-0.13840802
21	0xbe53d9ae	-0.20688507
22	0xbaeba7c6	-0.0017979078
23	0xbd3d47f9	-0.046211217
24	0x3e086bae	0.13322327
25	0x3d08cb60	0.03339708
26	0xbb9d7436	-0.004805113
27	0x3e07e0c6	0.13269338
28	0xbc0a8e10	-0.008456722
29	0x3d17553b	0.036946516
30	0x3e133d9d	0.14378972
31	0x3d9ef655	0.07761828
32	0xbd58cba8	-0.052928597
33	0xbd8d2c25	-0.068931855
34	0x3d050519	0.032475565
35	0xbdfcca4a	-0.12343271
36	0xbd69ecfe	-0.05711078
37	0xbe096d92	-0.13420704
38	0xbe3af517	-0.18257557
39	0xbe328b79	-0.17436017
40	0x3e0ea25c	0.13929123
41	0xbdce0570	-0.10059631
42	0x3d58612c	0.052827045
43	0x3d9ecfa7	0.0775445
44	0xbdcab214	-0.09897247
45	0x3cc6fb71	0.024289818
46	0x3db152be	0.0865836
47	0xbb8d6ecb	-0.004316186
48	0x3e0df6ba	0.1386365
49	0xbdda9692	-0.1067325
50	0x3df91f76	0.12164204
51	0xbe0cd407	-0.13752757
52	0xbc836438	-0.016038999
53	0xbcf1853e	-0.02948248
54	0xbe28b4a5	-0.1647516
55	0xbddce6f9	-0.10786242
56	0x3dea3228	0.11435348
57	0xbd504857	-0.05085024
58	0xbe2343b8	-0.15943801
59	0xbe007869	-0.12545933
60	0x3e19a079	0.15002622
61	0x3dd69ec2	0.104794994
62	0xbd51ccbf	-0.05122065
63	0x3d4f602e	0.050628833
64	0x3ddd4fff	0.10806274
65	0xbe802bc2	-0.25033385
66	0x3ea06df4	0.31333888
67	0xbde52b79	-0.111899324
68	0x3ea5d492	0.3238874
69	0x3e8616a4	0.26189148
70	0x3e4dcd5a	0.20097867
71	0xbdb7931c	-0.08963606
72	0x3e9bd109	0.3043292
73	0x3d680f22	0.056655057
74	0x3e972f48	0.2952826
75	0x3eb2a677	0.34892628
76	0x3e8e2f76	0.27770585
77	0xbe42ecc8	-0.19035637
78	0x3e99986c	0.299991
79	0x3e9e5e24	0.309312
80	0x3de72225	0.112858094
81	0x3e7d59c7	0.24741279
82	0xbdc137f7	-0.094345026
83	0x3e249067	0.1607071
84	0x3e92adf8	0.28648353
85	0x3e137787	0.14401065
86	0x3e30e93c	0.17276472
87	0xbd2eeb53	-0.04270489
88	0x3cef16d5	0.029185692
89	0x3e8bb61f	0.27287385
90	0x3e35b56f	0.17744993
91	0x3d41cdd0	0.04731542
92	0x3e69867f	0.22805212
93	0xbd1a1f6e	-0.03762763
94	0x3e2b800e	0.16748068
95	0x3e900a5d	0.28132907
96	0xbc84c39e	-0.016206559
97	0xbcd5a78c	-0.02608087
98	0xbe148f8a	-0.14507881
99	0xbdcefcbc	-0.10106799
100	0xbcc2a2cf	-0.023759274
101	0x3b0332dd	0.002001933
102	0x3cdc7a8b	0.026913902
103	0x3d9591ee	0.073032245
104	0x3e347654	0.17623264
105	0xbe040232	-0.12891462
106	0xbda85fc0	-0.08221388
107	0x3c974ea5	0.018470118
108	0xbe30317b	-0.17206375
109	0x3d03fc26	0.03222289
110	0x3db51525	0.088419236
111	0xbcc72945	-0.024311671
112	0xbcabc726	-0.020968985
113	0x3e27707d	0.16351505
114	0x3cf08571	0.029360505
115	0xbd7a06f9	-0.061041806
116	0x3cf98e9c	0.03046351
117	0xbe02b7d3	-0.12765436
118	0xbd01ff73	-0.031737756
119	0xbe30100a	-0.17193618
120	0xbdb967fa	-0.09053035
121	0x3d25301a	0.040329076
122	0xbdf82b4a	-0.12117632
123	0x3ce542ca	0.02798595
124	0x3e12cbff	0.14335631
125	0xbdbb4f65	-0.09146003
126	0x3d935dfb	0.0719566
127	0xbd44b7d6	-0.048026882
128	0xbe399591	-0.18123461
129	0xbd3ab39d	-0.04558145
130	0x3e524c2e	0.20536873
131	0x3ce6c500	0.028170109
132	0x3d807e66	0.062741086
133	0x3d72c6c9	0.059271608
134	0x3e6e551d	0.23274656
135	0xbe17e2cc	-0.1483261
136	0x3ea561f0	0.32301283
137	0xbd43a7bb	-0.047767382
138	0x3d580d69	0.052747164
139	0x3e2311e1	0.15924789
140	0x3e04812d	0.12939902
141	0x3ded060e	0.115734205
142	0x3e3ad703	0.18246083
143	0x3c266bbc	0.010157522
144	0x3e9d80ca	0.3076232
145	0x3ea9b316	0.33144444
146	0xbd849f4f	-0.06475698
147	0x3d780638	0.060552806
148	0x3ea87954	0.32905066
149	0x3df01b05	0.117239036
150	0xbe6fc00c	-0.23413104
151	0x3e1cb873	0.15304737
152	0x3dd6af26	0.10482626
153	0x3d67a4e1	0.056553725
154	0x3eb457d3	0.35223255
155	0x3db8a3f6	0.09015648
156	0x3eaacc13	0.3335882
157	0x3dc0b110	0.09408772
158	0x3d0b242b	0.03397004
159	0x3e158c83	0.14604382
160	0xbe1a7aae	-0.15085861
161	0xbc979b47	-0.01850666
162	0x3e2929f4	0.1651991
163	0xbe2e2f2a	-0.17010179
164	0xbe2a46ae	-0.16628525
165	0x3de9a3eb	0.11408218
166	0xbdb305cf	-0.08741342
167	0x3ae46d06	0.0017427511
168	0xbdeb869c	-0.11500284
169	0x3d499447	0.049213674
170	0xbe0fc659	-0.14040507
171	0x3cd1abe6	0.025594663
172	0xbe1a3287	-0.15058337
173	0x3d1afe3c	0.037840113
174	0x3dbbc554	0.09168497
175	0x3d076107	0.033051517
176	0xbdf86b67	-0.1212986
177	0xbd0726bc	-0.032995924
178	0x3c8b3fd1	0.016998203
179	0x3ab31aed	0.0013664641
180	0xbe10b024	-0.14129692
181	0xbbdfbdf2	-0.006828063
182	0xbd90315c	-0.070406646
183	0x3d9225e7	0.071361355
184	0xbdb864ea	-0.09003623
185	0xbe213370	-0.15742278
186	0xbe13b10b	-0.14423005
187	0x3e1f67a8	0.15566885
188	0xbd7a9a51	-0.061182324
189	0x3d999c1e	0.0750048
190	0x3d522701	0.05130673
191	0x3b35b833	0.00277282
192	0xbd6d437f	-0.057925697
193	0xbdf19fa6	-0.11798029
194	0xbe38f5cd	-0.18062516
195	0x3e1c4414	0.15260345
196	0xbd9cb5e9	-0.07651884
197	0xbd9f9ac7	-0.07793193
198	0xbdb526fe	-0.08845328
199	0x3dd09815	0.10185257
200	0xbc77e86a	-0.015131095
201	0xbdf3cd71	-0.11904419
202	0x3b8790bd	0.004137127
203	0xbc5c9214	-0.013462562
204	0x3e198d9d	0.14995427
205	0xbd1a5564	-0.03767909
206	0xbd8a8fa5	-0.06765679
207	0xbe0eeee5	-0.13958319
208	0xbe0ed67c	-0.13949007
209	0xbdb028e1	-0.08601547
210	0x3e0897e6	0.13339195
211	0xbddea526	-0.10871343
212	0xbcec5622	-0.028849665
213	0xbdc6e043	-0.09710743
214	0x3dda5b6f	0.10661971
215	0x3d92d45f	0.07169413
216	0x3d98ecfa	0.07467075
217	0x3e273535	0.1632889
218	0xbe26c5e9	-0.16286434
219	0xbdfed8f8	-0.12443727
220	0x3e10b871	0.14132859
221	0xbc5f7c19	-0.013640427
222	0xbc12740a	-0.008938799
223	0x3c45c008	0.01206971
224	0x3e260b6f	0.16215299
225	0x3e25cd69	0.16191639
226	0xbde95995	-0.113940395
227	0xbe00b60a	-0.12569442
228	0x3d590423	0.05298246
229	0xbd9366b3	-0.07197323
230	0xbe12098d	-0.14261456
231	0xbdbfdafa	-0.09367938
232	0xbe1aa5aa	-0.15102258
233	0x3dd6216d	0.10455594
234	0x3d5835e6	0.052785777
235	0x3e28eb4e	0.16496012
236	0xbdfd0edb	-0.12356349
237	0xbe20644e	-0.15663263
238	0x3e1ec6dd	0.15505548
239	0x3aac8b18	0.0013164012
240	0xbe1ec187	-0.15503512
241	0xbd9456c3	-0.07243111
242	0xbde98173	-0.114016436
243	0xbe1cf85d	-0.15329118
244	0x3cd32415	0.025774041
245	0xbd0090aa	-0.031387962
246	0xbdff7b71	-0.124747165
247	0xbe02193a	-0.12704936
248	0xbd2bf5d9	-0.041982505
249	0xbc16a639	-0.009194904
250	0xb89f631d	-7.600172e-05
251	0x3e27928d	0.16364498
252	0x3e31bb02	0.17356494
253	0x3e1f4017	0.15551792
254	0x3dd1f1cb	0.102511965
255	0xbe1744e4	-0.14772373

linear4.bias f4 [16]
0	0x3e14ca47	0.14530288
1	0x3c902e35	0.017600158
2	0x3d68875b	0.05676971
3	0xbe05dd6a	-0.13072744
4	0x3c728c0d	0.0148038985
5	0xbddf4220	-0.10901284
6	0x3e04c252	0.12964752
7	0xbdb3161b	-0.08744451
8	0xbe0dc6ae	-0.13845322
9	0x3dd7f06d	0.105439045
10	0x3d37629c	0.044771776
11	0x3dbccf56	0.09219234
12	0xbc7a9cd8	-0.0152961835
13	0x3e0c30e0	0.1369052
14	0xbd9bce6e	-0.07607733
15	0xbd81e01b	-0.06341573

output_layer.weight f4 [2, 16]
0	0xbe0dcbee	-0.13847324
1	0xbdf427f7	-0.11921685
2	0x3ecac29f	0.3960161
3	0x3d0fc698	0.035101503
4	0x3e0f6f76	0.14007363
5	0xbd3dedf0	-0.046369493
6	0xbe505210	-0.20343804
7	0xbd0431c8	-0.032274038
8	0xbe629ca8	-0.22130072
9	0x3e2aa7f4	0.16665632
10	0x3dad12eb	0.08450874
11	0x3ec52532	0.3850494
12	0x3e843c7b	0.25827393
13	0xbe66cca1	-0.22538997
14	0xbdba357a	-0.09092231
15	0x3e3a8ddc	0.18218178
16	0xbcadb3c3	-0.021203881
17	0xbe18a134	-0.14905244
18	0x3e301dd8	0.17198884
19	0x3e7f7a68	0.24949038
20	0x3e5daac0	0.21647167
21	0x3d8c1138	0.06839222
22	0xbbab2aa3	-0.0052235886
23	0xbb73d6dd	-0.0037206926
24	0xbe7aa486	-0.24476823
25	0x3e9fc2e9	0.31203392
26	0x3eade87c	0.33966434
27	0x3eaa8f18	0.33312297
28	0xbd81d0bf	-0.06338643
29	0xbde42115	-0.111391224
30	0xbebd9604	-0.37028515
31	0x3ddfe5a3	0.109324716

output_layer.bias f4 [2]
0	0xbc3f2261	-0.011665911
1	0xbb9c8485	-0.0047765397
