results/models/exp-3:batchsize=96,lr=1e-4,width=128,adam-corrected/0/model-15.0.pt (torch, 72294 bytes, 6 tensors)

linear1.weight f4 [128, 4]
-0.19759376 -0.37463138 0.023278944 0.010738528 0.39712974 -0.44876313 0.12639117 0.03430166
-0.16399544 0.3313178 0.18417506 -0.40855122 0.10343754 0.4286269 0.5201308 -0.16266616
-0.04630292 0.090874955 0.35207367 0.050681267 -0.24849363 0.30047947 -0.16384646 -0.49188545
0.39361024 -0.33325067 -0.103124835 0.25978693 -0.46610236 -0.51700413 0.45163757 0.34601018
-0.0043999436 -0.38505986 0.08025489 -0.051919922 0.24263601 -0.19837503 0.2970593 0.31612754
-0.23817189 0.08447214 -0.4728678 -0.43108204 0.20088679 -0.5404953 0.49551404 -0.037340704
-0.021274796 -0.3172208 -0.2549444 0.004606028 -0.52862763 -0.5256368 0.1344525 -0.06127599
-0.074782655 -0.34481445 -0.065584175 -0.28304935 0.23249468 -0.14732285 -0.40207604 0.058374353
-0.25867033 -0.4614811 0.21248905 0.44238782 -0.100342795 -0.0021604393 -0.25366035 0.14339465
-0.12858988 -0.0013483146 -0.2542478 -0.5075695 -0.30611172 -0.25925696 -0.2994771 0.23253834
-0.37570566 0.026683012 -0.2472161 -0.2726537 0.20310202 0.1350832 0.5705226 0.009718744
-0.4356864 0.4165227 0.2775175 0.20083989 0.11478717 -0.42450622 0.34421852 -0.40819612
-0.24782409 0.31708002 -0.10866555 0.46301767 -0.3421291 0.12897715 0.42618588 -0.37294084
-0.14132024 0.03923879 -0.17684221 0.14418437 0.11880126 -0.014481793 -0.1937491 -0.40612325
-0.17748968 0.02286302 0.18534225 -0.42903978 0.34113902 0.4290336 0.11674558 0.3295915
0.077941455 -0.31462675 -0.2818763 0.3762111 -0.15546885 0.5269892 0.41331577 -0.32390797
0.3515545 -0.4407111 -0.16555437 0.077689715 -0.1791376 0.4583639 0.09080234 -0.396653
0.38768864 -0.042131253 -0.45987773 -0.10995066 -0.52539194 0.36929032 0.21765001 -0.020818952
-0.061653487 -0.3389841 0.029221565 0.3166325 0.35283113 0.41565406 0.42735717 -0.32265306
-0.22536987 0.10161212 0.24163257 0.35441315 -0.08666513 0.32131833 0.5649762 -0.12745313
-0.31865475 0.14030644 0.46097675 -0.010232033 -0.2868265 -0.17140333 0.0139306635 0.12625572
0.28335717 0.18674704 0.14813769 0.08294548 -0.05751456 -0.4770521 0.19949448 -0.35990596
-0.14161557 -0.19135837 -0.34332153 -0.1257762 -0.3060353 -0.047512192 -0.299719 0.559586
0.0006999529 0.024536857 -0.17308812 0.49953985 0.08983916 -0.025667258 0.17997739 0.5295617
0.33105755 0.18164203 0.2477274 0.14328356 -0.020782765 0.14862071 -0.052910272 -0.0057093534
0.28426903 0.22538833 0.02152706 -0.4678461 0.26268208 0.29203534 -0.53882563 -0.12525861
-0.3449536 0.47079697 -0.27430695 -0.04674274 0.044778865 -0.07821053 -0.37789476 0.2450514
0.4260494 0.19515838 -0.35042882 -0.2775209 -0.4704509 0.31930265 0.1800892 0.13723338
-0.39559507 -0.21537293 -0.10930757 0.19259152 -0.17532808 -0.11496049 -0.16954911 -0.034086943
0.07769191 -0.3430817 -0.07293269 0.42935932 0.23261206 0.50657856 0.52730256 -0.15840256
-0.39098883 0.17466938 -0.096942306 0.04528171 -0.29838213 0.1889557 -0.48688236 0.31180474
0.40400672 0.07307619 0.0047714547 0.3507018 -0.3882992 0.26748112 -0.42745873 -0.51845175
00000000: 0556 4abe afcf bfbe 7cb3 be3c a7f0 2f3c
00000010: 9754 cb3e 48c4 e5be b06c 013e e67f 0c3d
00000020: 6cee 27be 7da2 a93e 6398 3c3e a02d d1be
00000030: 10d7 d33d fc74 db3e 4b27 053f f591 26be
00000040: 21a8 3dbd a61c ba3d 0043 b43e 2997 4f3d
00000050: 1d75 7ebe 72d8 993e 5ec7 27be 69d8 fbbe
00000060: 4887 c93e d59f aabe 1d33 d3bd cb02 853e
00000070: f8a4 eebe 625a 04bf 0a3d e73e 3f28 b13e
00000080: 672d 90bb 9126 c5be ad5c a43d fca9 54bd
00000090: 9375 783e d322 4bbe 2818 983e 78db a13e
000000a0: 55e3 73be bbff ac3d ba1b f2be c9b6 dcbe
000000b0: 44b5 4d3e e65d 0abf 04b4 fd3e 91f2 18bd
000000c0: 7b48 aebc c46a a2be 1388 82be 2aee 963b
000000d0: 2454 07bf 2290 06bf ebad 093e 88fc 7abd
000000e0: a627 99bd 858b b0be ff50 86bd d8eb 90be
000000f0: 1613 6e3e cddb 16be e9dc cdbe f219 6f3d
00000100: 7070 84be 4047 ecbe bb96 593e a880 e23e
00000110: 8680 cdbd 2896 0dbb c5df 81be 0cd6 123e
00000120: 11ad 03be eeb9 b0ba c52c 82be 13f0 01bf
00000130: adba 9cbe 54bd 84be 1055 99be 881e 6e3e
00000140: 7e5c c0be 5596 da3c 3826 7dbe 4499 8bbe
00000150: faf9 4f3e 4053 0a3e c50d 123f 5e3b 1f3c
00000160: 4a12 dfbe 7742 d53e c616 8e3e f9a8 4d3e
00000170: 8915 eb3d e158 d9be 693d b03e 15ff d0be
00000180: 99c5 7dbe 5058 a23e 0b8c debd a710 ed3e
00000190: 8c2b afbe 9612 043e 0935 da3e 1af2 bebe
000001a0: 41b6 10be dab8 203d 2016 35be 11a5 133e
000001b0: 134e f33d 0b45 6dbc 2a66 46be 63ef cfbe
000001c0: dbbf 35be 3a4b bb3c 5cca 3d3e 1aab dbbe
000001d0: c6a9 ae3e 4baa db3e 4f18 ef3d 38c0 a83e
000001e0: c59f 9f3d c216 a1be 1752 90be be9e c03e
000001f0: 3a33 1fbe c4e8 063f 209e d33e 44d7 a5be
00000200: f4fe b33e e3a4 e1be 1687 29be c91b 9f3d
00000210: d96f 37be acae ea3e 94f6 b93d 1a16 cbbe
00000220: 207f c63e d291 2cbd 1875 ebbe d02d e1bd
00000230: 1680 06bf 9f13 bd3e a5df 5e3e 828c aabc
00000240: 5e88 7cbd 538f adbe 1062 ef3c a81d a23e
00000250: 48a6 b43e 9cd0 d43e 8fce da3e c832 a5be
00000260: 5cc7 66be 041a d03d 876e 773e a475 b53e
00000270: 7d7d b1bd d683 a43e 48a2 103f 1383 02be
00000280: b726 a3be 7eac 0f3e 2505 ec3e 42a4 27bc
00000290: ecda 92be 5b84 2fbe 703d 643c 2e49 013e
000002a0: 3114 913e 9e3a 3f3e 68b1 173e 52df a93d
000002b0: 6394 6bbd 2c40 f4be 4848 4c3e 9845 b8be
000002c0: ac03 11be 73f3 43be d7c7 afbe 7acb 00be
000002d0: a9b0 9cbe 259c 42bd c574 99be 0741 0f3f
000002e0: 0b7d 373a 8501 c93c 033e 31be b0c3 ff3e
000002f0: 98fd b73d 2444 d2bc fe4b 383e 5b91 073f
00000300: 6080 a93e 5e00 3a3e 40ac 7d3e edb8 123e
00000310: 9e40 aabc 0730 183e 71b8 58bd 8715 bbbb
00000320: b68b 913e 33cc 663e 8459 b03c 8689 efbe
00000330: 447e 863e a885 953e 7af0 09bf cb43 00be
00000340: c29d b0be 4d0c f13e f671 8cbe 5175 3fbd
00000350: 0b6a 373d d82c a0bd 6c7b c1be c1ee 7a3e
00000360: 2623 da3e 99d7 473e 686b b3be 3817 8ebe
00000370: f1de f0be a37b a33e 4e69 383e e886 0c3e
00000380: 708b cabe b98a 5cbe a6dc dfbd b636 453e
00000390: 3489 33be 6870 ebbd 489e 2dbe c09e 0bbd
000003a0: f01c 9f3d 68a8 afbe bc5d 95bd fcd4 db3e
000003b0: db31 6e3e 22af 013f 4dfd 063f 4834 22be
000003c0: b02f c8be 88dc 323e b089 c6bd 5079 393d
000003d0: 8bc5 98be 9a7d 413e a548 f9be dfa4 9f3e
000003e0: f8d9 ce3e f8a8 953d dd59 9c3b 308f b33e
000003f0: 27cf c6be 49f3 883e dfdb dabe 41b9 04bf

linear1.bias f4 [128]
0.3706425 0.6252424 -0.3020436 0.54862624 0.15791552 -0.20738307 -0.07587324 0.116880685
0.11359629 0.5021548 -0.305264 -0.37931228 -0.0048144623 -0.07871739 -0.25617442 0.31003907
-0.104318246 0.28038523 -0.36921805 -0.2829811 -0.1210975 0.0892231 0.5095645 0.5901123
0.24781679 0.15671754 0.47825 -0.28987205 0.48613763 0.20466818 0.072136395 -0.19127728
0.4409184 -0.3781866 0.46830827 0.27365777 0.22334355 -0.17961946 -0.1516773 0.36903542
0.11714028 0.47488925 0.22307663 0.31922185 0.5717461 -0.24224 0.0018380458 -0.4004515
0.29564103 0.3447362 0.13788556 -0.33139393 -0.14788894 0.56065065 0.2839724 0.39105144
-0.19973782 -0.39664143 0.6168859 0.046619274 -0.395711 0.49224564 0.57081777 -0.11430595
0.28545648 0.10528555 0.3463345 -0.18582146 0.5204183 0.48183048 -0.29830787 0.37161383
-0.12752403 0.537915 0.390601 -0.33827266 0.21666192 -0.17085521 0.1600444 0.3478834
0.12585059 0.4328486 -0.40236688 0.44817525 0.16100979 -0.19989477 -0.11763531 0.31726882
0.1060265 0.24831423 0.37408108 0.10901448 0.18017623 -0.021745866 0.3893653 0.4941276
-0.12180071 0.24547572 -0.28592053 0.3989759 -0.40873745 0.09839761 0.59969795 -0.21109575
-0.07037229 0.48928294 -0.0021135327 -0.28525406 0.18807532 0.2781706 0.37177998 0.25618812
0.26309562 -0.22285803 -0.1913716 -0.40362257 0.5462802 -0.26520452 -0.36763293 -0.27110338
-0.14534695 -0.20269291 0.3390841 0.105810896 -0.25695127 0.29980293 -0.19993848 -0.09686982
00000000: dbc4 bd3e e30f 203f 75a5 9abe c572 0c3f
00000010: 9bb4 213e 3a5c 54be 6e63 9bbd 245f ef3d
00000020: 2ca5 e83d 388d 003f 904b 9cbe 3835 c2be
00000030: a3c2 9dbb 9536 a1bd 4b29 83be 71bd 9e3e
00000040: cea4 d5bd a78e 8f3e 260a bdbe e6e2 90be
00000050: f701 f8bd 9aba b63d d272 023f 9a11 173f
00000060: afc3 7d3e 907a 203e 2fdd f43e 1c6a 94be
00000070: 08e7 f83e 8994 513e 3fbc 933d 31de 43be
00000080: 0ec0 e13e ada1 c1be 1ac6 ef3e df1c 8c3e
00000090: 2cb4 643e 2aee 37be 4b51 1bbe 36f2 bc3e
000000a0: 3ee7 ef3d af24 f33e 336e 643e 0c71 a33e
000000b0: f45d 123f c30d 78be 95ea f03a fb07 cdbe
000000c0: 435e 973e 4381 b03e df31 0d3e 77ac a9be
000000d0: 3370 17be cd86 0f3f d564 913e e537 c83e
000000e0: 1288 4cbe 9614 cbbe 3cec 1d3f daf3 3e3d
000000f0: a29a cabe 9f07 fc3e 1d21 123f 3d19 eabd
00000100: 5a27 923e f39f d73d c152 b13e fb47 3ebe
00000110: 223a 053f 7cb2 f63e cfbb 98be 2b44 be3e
00000120: a995 02be ccb4 093f dbfc c73e 1332 adbe
00000130: 9fdc 5d3e abf4 2ebe aee2 233e c61d b23e
00000140: fade 003e 559e dd3e 0803 cebe 3a77 e53e
00000150: c0df 243e 37b1 4cbe c8ea f0bd 0f71 a23e
00000160: 6c24 d93d 1646 7e3e 8e87 bf3e fc42 df3d
00000170: 1e80 383e 6324 b2bc e35a c73e 4bfe fc3e
00000180: a772 f9bd fd5d 7b3e 2d64 92be 9246 cc3e
00000190: 0946 d1be b084 c93d ce85 193f 7c29 58be
000001a0: 591f 90bd 4b83 fa3e 3283 0abb d20c 92be
000001b0: d196 403e 606c 8e3e f259 be3e 172b 833e
000001c0: 78b4 863e e534 64be ebf6 43be 9ea7 cebe
000001d0: 05d9 0b3f e3c8 87be 623a bcbe 10ce 8abe
000001e0: d5d5 14be bb8e 4fbe 6e9c ad3e 62b3 d83d
000001f0: 1e8f 83be c57f 993e acbc 4cbe af63 c6bd

linear2.weight f4 [128, 128]
-0.0010338536 0.06378053 -0.0986699 0.06421498 0.14371848 -0.04262693 -0.042626165 -0.04572842
0.074026145 -0.018955039 -0.16599697 -0.023520514 -0.019046852 -0.07939156 -0.06145222 0.1366146
0.04742478 0.05109826 -0.05094927 -0.17514084 -0.1661096 0.122810386 0.058140602 0.15153351
-0.016658327 0.07143642 0.094295695 -0.1361494 0.1338158 0.0685943 0.040827475 0.041345406
0.055835765 -0.023245469 0.065144226 0.14418599 0.039931946 0.062359836 -0.165885 0.05344863
0.10410531 0.016461886 0.044127777 0.1833216 0.073693894 -0.14122099 0.045444053 -0.17156252
0.0769243 0.12300617 0.056471057 -0.1809134 0.006694167 0.18290909 0.046508662 0.033410348
-0.080348134 0.066689946 0.15074837 -0.044051804 0.057708602 0.0649089 0.12083653 -0.036595322
0.115904674 -0.020756604 0.08741488 -0.09938312 0.1585615 0.09160864 -0.03874287 0.03387055
-0.016567511 0.07014237 0.088729836 -0.14030397 -0.005338726 -0.014961918 0.029852528 0.16596536
-0.020729778 0.022527339 0.031929135 0.016528685 0.05161767 -0.005682565 -0.08361972 0.081846006
-0.021183793 0.025314704 0.020664383 0.0069925403 0.08953766 -0.10724973 0.05516442 0.06947877
-0.025976181 0.1185419 -0.10182086 0.15413132 -0.0013319474 0.08335237 0.16645192 -0.07869963
-0.077942945 0.13204592 -0.090751834 -0.008609945 0.0684804 0.048710827 0.16796203 0.02817836
0.05856716 -0.1364429 -0.19181083 -0.078775845 0.097428836 -0.059652753 0.05183431 -0.07548256
0.021352604 -0.09650633 0.11901558 0.006928644 -0.1285028 0.08554533 0.01769688 -0.083336346
0.123205334 0.017497163 0.005576495 0.09313875 0.035061613 0.04930532 -0.009672368 -0.059427593
0.021601165 0.107515134 0.009427249 -0.024258412 0.042224098 -0.041191872 -0.051891584 0.10765149
-0.10791924 0.04764542 -0.1409776 -0.07376004 -0.12969838 0.12038288 -0.01271023 0.14195685
-0.012661279 0.019299896 0.0020045328 -0.025776902 0.026513886 0.02996783 -0.024238665 -0.08300511
0.097875655 0.009965329 0.063156776 -0.049266726 -0.027096322 0.024432572 -0.07750171 0.04729142
0.088904984 0.115687855 0.09756945 0.05624796 0.075298056 -0.029274259 0.019185366 -0.04084676
0.054944094 0.05637283 0.08286554 -0.10897283 -0.04961884 0.0256898 0.0108543 0.111756265
0.04325462 -0.036708333 0.06754996 -0.03314591 0.02105549 0.039526384 0.16275854 -0.03290534
0.08840045 0.04456955 0.084526405 -0.070520826 0.11789581 0.16534531 0.021932716 -0.012692282
0.059376262 -0.0028685147 0.06703265 -0.07938056 0.043976698 0.03257684 0.0272883 0.018075166
-0.06858499 0.07441519 -0.02391625 0.13455476 0.09545911 0.028697014 -0.100501716 0.11787984
0.02200737 0.06754625 0.07466093 -0.06574662 0.10638014 -0.055986788 0.036087107 0.045811586
-0.031129522 -0.033083715 -0.042599317 0.047928624 -0.039196197 0.08510064 -0.0077596996 -0.037104975
-0.006548117 0.046430036 -0.09120974 -0.015690897 0.008270358 -0.01605082 0.013054033 0.08758569
0.07457076 -0.102579825 -0.08841847 0.010608811 0.018872872 -0.12974253 0.06646583 0.03937095
-0.081424974 -0.049493138 -0.03621355 -0.08410654 -0.022664713 -0.010248375 -0.08778648 0.037919644
00000000: 5f82 87ba 5e9f 823d 7213 cabd 2583 833d
00000010: f02a 133e 9399 2ebd c698 2ebd b94d 3bbd
00000020: 059b 973d 9947 9bbc 1cfb 29be 18ae c0bc
00000030: 2508 9cbc 0b98 a2bd 53b5 7bbd b3e4 0b3e
00000040: 7c40 423d 694c 513d 2fb0 50bd 1f58 33be
00000050: a318 2abe 0384 fb3d d724 6e3d 9a2b 1b3e
00000060: 0b77 88bc 424d 923d 1a1e c13d c06a 0bbe
00000070: 0207 093e 2b7b 8c3d b63a 273d cd59 293d
00000080: 0bb4 643d 486d bebc 566a 853d 7ea5 133e
00000090: ae8f 233d 076d 7f3d c2dd 29be f3ec 5a3d
000000a0: 2a35 d53d 14db 863c 54bf 343d a8b8 3b3e
000000b0: d3ec 963d 3c9c 10be 8b23 3a3d 16ae 2fbe
000000c0: 7d8a 9d3d a9ea fb3d 324e 673d 5d41 39be
000000d0: be5a db3b 854c 3b3e de7f 3e3d 4ad9 083d
000000e0: 908d a4bd bd94 883d c85d 1a3e aa6f 34bd
000000f0: db5f 6c3d f5ee 843d 2579 f73d fae4 15bd
00000100: 6e5f ed3d c109 aabc 9306 b33d 6189 cbbd
00000110: f25d 223e 509d bb3d d8b0 1ebd d9bb 0a3d
00000120: 97b8 87bc cea6 8f3d fdb7 b53d d8ab 0fbe
00000130: 7bf0 aebb d522 75bc 4a8d f43c d3f2 293e
00000140: 7fd1 a9bc 418b b83c 20c8 023d 2a67 873c
00000150: 0d6d 533d cf34 babb d140 abbd e19e a73d
00000160: a289 adbc c860 cf3c 5a48 a93c ae21 e53b
00000170: 855f b73d bfa5 dbbd 16f4 613d e34a 8e3d
00000180: 00cc d4bc 18c6 f23d 7487 d0bd 9ad4 1d3e
00000190: bd94 aeba a6b4 aa3d 5f72 2a3e 462d a1bd
000001a0: 8da0 9fbd 0c37 073e 19dc b9bd ba10 0dbc
000001b0: 743f 8c3d 0185 473d 3dfe 2b3e 4ed6 e63c
000001c0: 1ee4 6f3d b0b7 0bbe 0f6a 44be 3b55 a1bd
000001d0: c588 c73d 7256 74bd 3750 543d 9a96 9abd
000001e0: a8eb ae3c 1ca5 c5bd 71be f33d ae09 e33b
000001f0: 3d96 03be 6432 af3d 0cf9 903c 3fac aabd
00000200: 1453 fc3d 3656 8f3c 08bb b63b 87bf be3d
00000210: c49c 0f3d 60f4 493d da78 1ebc 596a 73bd
00000220: edf4 b03c e530 dc3d c074 1a3c 94b9 c6bc
00000230: 2df3 2c3d cfb8 28bd 458c 54bd 6278 dc3d
00000240: c304 ddbd d827 433d 6f5c 10be 810f 97bd
00000250: a7cf 04be 4d8b f63d 923e 50bc 235d 113e
00000260: 4171 4fbc d11a 9e3c 7b5e 033b 152a d3bc
00000270: a633 d93c 187f f53c 2a90 c6bc 95fe a9bd
00000280: 0873 c83d 9f45 233c 5758 813d e8cb 49bd
00000290: 1bf9 ddbc d126 c83c 37b9 9ebd a6b4 413d
000002a0: d113 b63d c1ed ec3d 7ed2 c73d 4364 663d
000002b0: de35 9a3d 92d0 efbc a12a 9d3c ef4e 27bd
000002c0: 0f0d 613d 32e7 663d 69b5 a93d 262d dfbd
000002d0: 203d 4bbd 6a73 d23c 3cd6 313c 78e0 e43d
000002e0: c22b 313d 7a5b 16bd a257 8a3d 01c4 07bd
000002f0: 907c ac3c 6be6 213d 2daa 263e c0c7 06bd
00000300: 4c0b b53d 8f8e 363d 2e1c ad3d 396d 90bd
00000310: 5c73 f13d 4850 293e 3dac b33c 4af3 4fbc
00000320: 8634 733d b1fd 3bbb 6a48 893d 4692 a2bd
00000330: e920 343d 4b6f 053d b78b df3c 5f12 943c
00000340: 4a76 8cbd fe66 983d 03ec c3bc b9c8 093e
00000350: 1180 c33d 0016 eb3c d8d3 cdbd fc6a f13d
00000360: cd48 b43c b055 8a3d d4e7 983d 2aa6 86bd
00000370: d5dd d93d 6752 65bd 13d0 133d eea4 3b3d
00000380: 5703 ffbc ca82 07bd 9f7c 2ebd ce50 443d
00000390: 318c 20bd 3f49 ae3d 1445 febb 63fb 17bd
000003a0: 9691 d6bb 6c2d 3e3d 2ccc babd 328a 80bc
000003b0: 6580 073c 027d 83bc 95e0 553c 2060 b33d
000003c0: 8eb8 983d 5f15 d2bd be14 b5bd 94d0 2d3c
000003d0: 489b 9a3c 3adb 04be 3d1f 883d 6f43 213d
000003e0: 23c2 a6bd 51b9 4abd a954 14bd 0d40 acbd
000003f0: 59ab b9bc cde8 27bc 66c9 b3bd a151 1b3d

linear2.bias f4 [128]
0.17633975 0.122115195 -0.05013265 0.017535917 0.11139357 0.028024843 0.013801531 -0.025040418
0.051358983 0.042911343 0.18214838 0.0216771 0.113448374 0.1339519 -0.03283477 0.15828694
0.056653317 0.06247067 0.08806008 0.07156258 -0.053056177 -0.033188947 0.14264339 0.007644518
0.033464734 0.101839736 -0.06363312 0.15160093 -0.0722502 0.058048557 0.06096408 -0.0018444544
0.105651885 0.00096817984 -0.037574828 0.009302389 0.027719911 0.020783806 -0.080394514 0.16451396
0.061948437 -0.06402354 -0.0335575 0.15219757 0.11247353 0.1330294 0.068701565 0.13990258
0.0037474458 -0.051650345 0.045132916 0.0757132 0.0013361074 0.09119912 -0.06243895 -0.003581234
0.037176784 0.101497814 0.004158674 -0.047941074 0.07078875 0.04327358 0.053041022 0.07384175
-0.0045917467 -0.043740716 0.13389042 0.005493118 -0.0053725243 0.04837932 -0.04252223 0.17403828
0.17505802 -0.102626994 0.17106965 0.07147332 0.08535162 0.026386999 0.05798476 0.16932139
0.17529127 0.14444591 0.14845103 0.14766484 0.0027254147 -0.08956299 -0.022653073 0.09164675
0.03668097 0.064111 0.05217673 0.14636454 0.07106255 -0.072110385 0.1590889 0.06696285
0.0757067 0.09863028 -0.004363705 0.0039156033 -0.038152885 0.03678028 0.09006541 -0.06099738
0.07478048 0.02722517 0.11858814 0.041065298 -0.08697106 -0.059534974 0.14910793 -0.0014234898
-0.03889003 0.17125343 0.03329256 0.17985228 0.11877859 -0.0059758155 0.06635546 0.095342755
0.09402084 0.1407494 -0.023481095 0.04089341 0.11644867 0.061658107 0.12840612 0.12442456
00000000: 6892 343e 8817 fa3d e557 4dbd 7ca7 8f3c
00000010: 5022 e43d 5b94 e53c d11f 623c 9021 cdbc
00000020: cc5d 523d cec3 2f3d 1b85 3a3e 2c94 b13c
00000030: 9f57 e83d b02a 093e c07d 06bd f915 223e
00000040: 4f0d 683d 3fe1 7f3d d858 b43d 678f 923d
00000050: 6f51 59bd 22f1 07bd 1c11 123e dd7e fa3b
00000060: 5112 093d 5a91 d03d 1552 82bd 463d 1b3e
00000070: eaf7 93bd 53c4 6d3d 79b5 793d 9fc1 f1ba
00000080: 0460 d83d 73cd 7d3a 10e8 19bd 0c69 183c
00000090: de14 e33c cd42 aa3c e1a5 a4bd 5976 283e
000000a0: a5bd 7d3d c61e 83bd 9773 09bd aed9 1b3e
000000b0: 8658 e63d dc38 083e 68b3 8c3d 9f42 0f3e
000000c0: b597 753b 508f 53bd 4bdd 383d 860f 9b3d
000000d0: 5320 af3a 9bc6 ba3d fcbf 7fbd 23b3 6abb
000000e0: af46 183d 16de cf3d 7c45 883b dc5d 44bd
000000f0: b1f9 903d a33f 313d 8b41 593d 583a 973d
00000100: 5d76 96bb 7729 33bd 921a 093e 9dff b33b
00000110: 000c b0bb 6529 463d ca2b 2ebd 1737 323e
00000120: 6942 333e 1a2e d2bd e22c 2f3e 9b60 923d
00000130: d5cc ae3d 8c29 d83c 6d81 6d3d 9662 2d3e
00000140: 8e7f 333e a1e9 133e 8c03 183e 7435 173e
00000150: df9c 323b cd6c b7bd f092 b9bc 4bb1 bb3d
00000160: c93e 163d a14c 833d 44b7 553d 96e0 153e
00000170: 3e89 913d 9cae 93bd 33e8 223e d223 893d
00000180: 1d0c 9b3d acfe c93d 69fd 8ebb 764e 803b
00000190: 3346 1cbd eba6 163d 3774 b83d 64d8 79bd
000001a0: 8226 993d 5207 df3c 57de f23d 1634 283d
000001b0: e21d b2bd f2da 73bd c0af 183e 6494 baba
000001c0: 274b 1fbd 0f5d 2f3e c85d 083d 322b 383e
000001d0: 3042 f33d c6d0 c3bb 5fe5 873d 1043 c33d
000001e0: 008e c03d 9c20 103e 6d5b c0bc d97f 273d
000001f0: a47c ee3d 368d 7c3d e57c 033e 4ed2 fe3d

output_layer.weight f4 [2, 128]
0.10765801 0.007689834 -0.030145084 0.031508014 0.16706388 -0.066547886 0.15760045 -0.08909334
-0.06889353 0.011750254 0.0957261 -0.021844532 0.10485449 0.095539935 -0.11330873 0.14456359
0.18120764 -0.039561316 0.13124716 0.09071643 -0.1334885 0.019117432 0.13578548 0.040743917
-0.05467259 0.07185862 -0.1095685 0.074126795 -0.000709585 -0.07834249 0.14451703 -0.026617723
0.13618296 -0.018955754 0.046150453 0.057144858 -0.07793136 0.14831696 -0.07473181 0.12055551
0.045486163 -0.044064213 0.006536165 0.16773479 0.16841817 0.069088906 0.064922854 0.1648708
-0.05500486 -0.095930025 -0.021314565 0.12654202 -0.04471579 0.13350126 -0.12478458 -0.06730563
0.1657169 0.14456312 0.16299428 -0.13475062 0.18902954 0.043398216 0.13038737 0.0025122787
-0.11193604 -0.07467563 0.114742465 -0.08023745 0.051393792 0.1136219 0.022621045 0.023818538
0.16169457 -0.094035596 0.10271172 0.0915807 0.06581058 0.15876788 0.0674856 0.12000067
0.07486563 0.065648615 0.018788086 0.039044708 -0.103997335 0.009649597 -0.05365198 0.14490378
-0.068488926 0.14872815 -0.057977777 0.10236363 -0.09138776 -0.11615673 0.15450682 -0.029910589
0.08331776 0.09881023 0.16183254 0.030366618 -0.00013874742 0.13919538 0.07330622 -0.049516927
0.106536165 0.16782701 0.085852556 0.05629279 -0.08398335 -0.06816755 0.17168708 -0.0035907826
-0.08604679 0.0700531 -0.14511198 0.093315646 0.07390724 -0.07708165 0.13867512 0.15682794
0.17233244 0.06125335 -0.02790505 -0.037037924 0.1350506 0.15558885 0.16517657 0.13721836
0.09555245 0.10966465 -0.069661885 -0.05650834 0.075372204 -0.09629339 0.10143942 -0.023433656
-0.067509614 -0.025266051 0.09910826 -0.011509482 0.14739268 0.16226365 -0.08208928 0.15437306
0.110548705 -0.12486049 0.065528244 0.13904938 -0.036258817 -0.06229645 0.06682505 -0.14417727
-0.14859308 0.124709964 -0.017785376 0.08918632 -0.023627384 -0.04767835 0.1006705 0.13695608
0.10131988 -0.0057711154 -0.08143192 0.02449974 0.036675766 0.15169592 0.053297993 0.07377648
-0.047178853 -0.03366764 0.01776931 0.047235873 0.11112158 0.17555472 0.125099 0.12635694
-0.07325308 -0.04551098 -0.13810636 0.07888668 -0.028829837 0.15202034 -0.14612009 0.02215015
0.056216963 0.07105555 0.10067595 -0.10149769 0.18682663 0.16988848 0.060410585 0.025378851
-0.10068386 -0.08720424 0.11659737 -0.03882043 -0.04133649 0.15323268 -0.08729685 0.13671874
0.070436336 -0.14377663 0.10801619 0.10249893 0.1554267 0.095333904 0.12707815 0.14233677
0.12225957 0.17039616 0.10149815 0.16213764 -0.01590222 -0.004984154 -0.13280176 0.06175783
-0.028921964 0.04643379 -0.07427819 0.1452547 -0.113164045 -0.06244792 0.13299075 -0.08125093
0.16395858 0.086096704 0.13267007 0.17550974 -0.069357716 0.052080408 0.1800677 -0.072433494
0.1112159 0.17628309 0.0138083 -0.069319546 -0.1172368 -0.06589099 0.18261191 -0.020739958
-0.08952164 0.11364545 -0.08380095 0.10933728 0.13104886 -0.106985375 0.12732446 0.08615121
0.10045451 0.1173475 -0.029833214 0.06600358 0.08221359 0.08571919 0.13748978 0.18326026
00000000: ce7b dc3d 01fb fb3b d3f2 f6bc 8c0e 013d
00000010: cb12 2b3e 424a 88bd 0362 213e 9276 b6bd
00000020: 0d18 8dbd 2384 403c 0c0c c43d 4ef3 b2bc
00000030: f3bd d63d 71aa c33d 680e e8bd 7a08 143e
00000040: 7f8e 393e 0c0b 22bd a865 063e 89c9 b93d
00000050: 36b1 08be 299c 9c3c 590b 0b3e 18e3 263d
00000060: 5ef0 5fbd 9d2a 933d 7365 e0bd cacf 973d
00000070: 7103 3aba 0772 a0bd 46fc 133e 690d dabc
00000080: 8c73 0b3e 1949 9bbc 4208 3d3d ba10 6a3d
00000090: 7a9a 9fbd 67e0 173e fe0c 99bd cfe5 f63d
000000a0: b34f 3a3d ad7c 34bd 532d d63b abc2 2b3e
000000b0: d075 2c3e 7c7e 8d3d 46f6 843d e4d3 283e
000000c0: c74c 61bd f676 c4bd e29b aebc 3b94 013e
000000d0: e727 37bd 8eb4 083e 0f8f ffbd 89d7 89bd
000000e0: b1b1 293e 5b08 143e f9e7 263e 11fc 09be
000000f0: f690 413e 54c2 313d 4484 053e 0ba5 243b
00000100: b93e e5bd 89ef 98bd 19fe ea3d 8853 a4bd
00000110: 4c82 523d 99b2 e83d c54f b93c 181f c33c
00000120: 4393 253e bc95 c0bd 865a d23d a98e bb3d
00000130: b3c7 863d 0c94 223e e435 8a3d e9c2 f53d
00000140: 2753 993d c872 863d 79e9 993c 58ed 1f3d
00000150: 8efc d4bd 5819 1e3c 2ec2 5bbd a861 143e
00000160: ec43 8cbd 314c 183e 1b7a 6dbd 06a4 d13d
00000170: 8229 bbbd 94e3 edbd 0937 1e3e 0d07 f5bc
00000180: 80a2 aa3d 055d ca3d 6eb7 253e 6ac3 f83c
00000190: ba7c 11b9 3c89 0e3e 9221 963d 43d2 4abd
000001a0: a22f da3d d8da 2b3e 77d3 af3d 4593 663d
000001b0: 76ff abbd 6e9b 8bbd bdce 2f3e 5653 6bbb
000001c0: 4d39 b0bd 0078 8f3d 3c98 14be 461c bf3d
000001d0: ae5c 973d fcdc 9dbd da00 0e3e 8197 203e
000001e0: ea77 303e cbe4 7a3d 2299 e4bc 14b5 17bd
000001f0: b44a 0a3e af52 1f3e 0c24 293e f882 0c3e
00000200: 01b1 c33d dc97 e03d e4aa 8ebd 4a75 67bd
00000210: be5c 9a3d 7835 c5bd 78bf cf3d f0f7 bfbc
00000220: 7b42 8abd c0fa cebc 45f9 ca3d 4492 3cbc
00000230: 1bee 163e 7128 263e 6d1e a8bd f913 1e3e
00000240: 5c67 e23d dbb6 ffbd ac33 863d f662 0e3e
00000250: 2084 14bd 902a 7fbd 92db 883d 35a3 13be
00000260: c928 18be f067 ff3d a3b2 91bc 51a7 b63d
00000270: 378e c1bc 604a 43bd 562c ce3d 373e 0c3e
00000280: cc80 cf3d a01b bdbb c7c5 a6bd aeb3 c83c
00000290: 5439 163d 2d56 1b3e ff4e 5a3d 2018 973d
000002a0: 9d3e 41bd 14e7 09bd f290 913c 677a 413d
000002b0: b693 e33d 9ec4 333e f419 003e b763 013e
000002c0: b605 96bd b969 3abd c16b 0dbe 578f a13d
000002d0: 8d2c ecbc 38ab 1b3e 81a0 15be 3b74 b53c
000002e0: c243 663d 9285 913d 312f ce3d 05de cfbd
000002f0: 7b4f 3f3e 3ff7 2d3e 1771 773d 4fe7 cf3c
00000300: 5733 cebd 2398 b2bd 9aca ee3d 2c02 1fbd
00000310: 7450 29bd 07e9 1c3e b1c8 b2bd ffff 0b3e
00000320: ed40 903d 2e3a 13be 9837 dd3d f6ea d13d
00000330: 2d28 1f3e 6c3e c33d c620 023e bbc0 113e
00000340: 3a63 fa3d 557c 2e3e 43de cf3d 6907 263e
00000350: 5f45 82bc 1d52 a3bb 2ffd 07be c7f5 7c3d
00000360: c1ed ecbc 5c31 3e3d 2a1f 98bd a6bd 143e
00000370: 8dc2 e7bd 64c9 7fbd ba2e 083e e366 a6bd
00000380: c2e4 273e 7853 b03d aada 073e d3b8 333e
00000390: 6b0b 8ebd 4452 553d ab63 383e 0358 94bd
000003a0: 29c5 e33d 8e83 343e 353c 623c 68f7 8dbd
000003b0: d919 f0bd dbf1 86bd 9efe 3a3e d8e6 a9bc
000003c0: 1f57 b7bd f2be e83d d59f abbd 39ec df3d
000003d0: ac31 063e 261b dbbd 5861 023e 0c70 b03d
000003e0: 18bb cd3d e353 f03d c964 f4bc e32c 873d
000003f0: 995f a83d 8b8d af3d 1fca 0c3e 94a8 3b3e

output_layer.bias f4 [2]
0.07898819 -0.025157174
00000000: 8fc4 a13d 6b16 cebc
