results/models/exp-5:batchsize=256,lr=1e-4,width=128,adam-corrected/2/model-13.0.pt (torch, 72294 bytes, 6 tensors)

linear1.weight f4 [128, 4]
000000 ba 05 e2 be cc ab 68 be 00 86 c4 bb 64 fd 17 be
       -0.44144994 -0.22721785 -0.0059974194 -0.14842755
000010 00 bf 08 3c bc 69 70 be e2 6e c6 be 08 4d 78 be
       0.008346319 -0.23477834 -0.38756472 -0.24248135
000020 c0 49 7c be f0 47 7f 3e 00 65 d2 be 7c 8f fb be
       -0.24637508 0.24929786 -0.41092682 -0.49132907
000030 94 ab ff be a8 65 83 be 04 20 ad 3e 3e df cd 3e
       -0.4993559 -0.25663495 0.33813488 0.40209383
000040 6e 1e 81 3e 9e f6 e7 be 80 ff 4b 3e b8 36 f5 bd
       0.25218529 -0.4530534 0.19921684 -0.119733274
000050 48 fb e0 be e8 38 4e 3e b2 c5 d8 3e 20 8c 4a 3e
       -0.43941712 0.20138896 0.4233833 0.19780016
000060 3e 4a e0 be 68 b5 c7 be e0 7c 69 bd 38 19 e8 3e
       -0.43806642 -0.3900559 -0.057003856 0.4533174
000070 88 b6 b6 be a8 d7 01 be 36 12 fc 3e ca 95 fe be
       -0.35686135 -0.12679923 0.49232644 -0.49723655
000080 d0 88 3a be 00 6c 08 bd 76 0b ec be 38 ce 83 be
       -0.18216252 -0.03330612 -0.46102494 -0.2574327
000090 ac 03 b1 be ea 9e db be 00 8d 8a be c0 23 95 bd
       -0.34573114 -0.4289468 -0.270607 -0.072822094
0000a0 20 7a 52 be 06 97 a2 3e 4e 08 c4 be b0 ba 05 be
       -0.205544 0.31755847 -0.38287586 -0.13059497
0000b0 9e 5d c1 be aa 08 ff be 78 d5 64 be 6a ad f6 be
       -0.37766737 -0.49811298 -0.22347057 -0.4817918
0000c0 de f2 9f be 20 56 0e be 20 40 1b 3d f2 a0 b7 3e
       -0.3123998 -0.13900042 0.03790295 0.3586498
0000d0 82 41 c3 3e f0 1d 34 3d 1e 66 ce 3e 32 5b ec 3e
       0.38135916 0.043973863 0.40312284 0.46163327
0000e0 5a 2a ee 3e ce bc fc be c0 f0 0c 3e 0c 9a c1 3e
       0.46516687 -0.49362797 0.13763714 0.3781284
0000f0 74 2f e6 be 80 0b 9f 3e d8 c2 8e be 7c fb 2d be
       -0.4495808 0.3106346 -0.2788303 -0.16990465
000100 38 0a 35 3e 9c 51 35 3e 98 b0 df be 40 fa 16 3d
       0.1767968 0.17706913 -0.43689418 0.03685975
000110 08 02 95 be 20 54 21 be 38 d5 5e 3e a8 6c d9 3d
       -0.29103112 -0.15754747 0.21761024 0.10616428
000120 66 e9 dd be 2c 1d a2 3e 40 55 7d 3e 7c fa 7d be
       -0.4334213 0.3166288 0.24739552 -0.24802583
000130 56 19 d6 3e c0 65 6c 3d 82 4a 9d be 80 37 30 3d
       0.41816205 0.057714224 -0.30720907 0.04302168
000140 a0 82 a3 bd 40 cb 06 bd a8 52 ce be c0 b2 2b 3e
       -0.07983899 -0.032908678 -0.40297437 0.16767406
000150 96 eb cb 3e f8 57 2d be 80 5d 50 bd 10 29 c8 bd
       0.39828175 -0.16928089 -0.05087042 -0.09773457
000160 78 f3 80 be 58 5a 51 3e 14 81 f4 3e dc 22 ae 3e
       -0.25185752 0.2044462 0.4775473 0.3401097
000170 fe 60 fc be 0c 08 5a be a8 09 80 3e ec 64 cf 3e
       -0.4929275 -0.21292132 0.25007367 0.40506685
000180 d8 aa 51 be ac 5c bc 3e 44 00 cd 3e a2 26 df be
       -0.20475328 0.36789453 0.40039265 -0.43584162
000190 b8 7d 2e be d4 06 db be cc 7d 8c 3e c6 c8 ba be
       -0.17040145 -0.42778647 0.27439725 -0.36481303
0001a0 e4 be 4e be e0 00 d6 be dc fc 64 3e 98 d2 5c 3e
       -0.20190006 -0.41797543 0.22362083 0.2156471
0001b0 24 81 4a 3e 14 5c 8d be 00 29 2a 3e cc c0 48 be
       0.19775826 -0.27609313 0.16617203 -0.19604796
0001c0 80 18 8a 3e 54 68 4e 3e 80 2b f2 3b 00 a0 95 bc
       0.26971817 0.20156986 0.0073904395 -0.01826477
0001d0 e8 87 69 3e b8 d4 f4 3d 6a 7c 8c 3e 4c 35 0c be
       0.2280575 0.119546354 0.2743867 -0.13692206
0001e0 34 3f 13 3e b0 f1 09 3d 08 dd ca 3d 6c 0d 75 3e
       0.14379579 0.033677757 0.099054396 0.23930901
0001f0 58 a9 ad 3e 30 22 d0 3e 10 ba aa bd 3c 36 d3 3e
       0.33918262 0.40651083 -0.0833627 0.41252315
000200 3a 8c ae 3e 96 ec dc 3e 94 0b 1b 3e 94 ed e5 3e
       0.3409136 0.4314925 0.15141135 0.4490782
000210 a4 5e aa 3e a6 28 ad 3e 8e c2 98 3e aa 09 b2 be
       0.3327533 0.33820075 0.29835933 -0.34772998
000220 c4 79 b8 3e 58 b1 75 3e c2 ed fb 3e 68 49 cf 3d
       0.360304 0.23993433 0.49204832 0.10121423
000230 20 c1 bf bc 0e fa a6 be 92 7c ed be 64 97 f7 3e
       -0.023407519 -0.32612652 -0.46384102 0.4835769
000240 48 88 b8 3e 98 35 83 bd 18 bb 91 bd f4 bf a3 be
       0.36041474 -0.064067066 -0.071157634 -0.31982386
000250 e4 50 ee 3e 3e 03 a0 be 96 e7 bd be 30 d1 1c 3e
       0.4654609 -0.31252474 -0.3709075 0.15314174
000260 3a 0f d1 3e c8 5c 80 be 04 a9 13 3e 9c 71 61 be
       0.4083193 -0.25070786 0.14419943 -0.22015995
000270 e8 32 a7 bd ac 36 cf be 64 b6 30 3e 68 ae 9c be
       -0.081640065 -0.404714 0.17257077 -0.3060181
000280 40 d3 7a bc a0 0f 3c 3e 30 1d b2 be 9c 70 1b 3e
       -0.015309155 0.18365335 -0.34787893 0.15179676
000290 54 01 aa 3e 60 41 b6 3e 00 be 3b 3c 60 be 93 bc
       0.33204138 0.35596752 0.011458874 -0.018035114
0002a0 5c 3e 95 3e 58 bf a7 be e8 64 56 3e de 2e 9f be
       0.2914914 -0.3276317 0.2093693 -0.31090444
0002b0 cc 21 39 be 94 00 79 3e 2c 78 66 be 38 11 a9 3e
       -0.18079299 0.24316627 -0.2250678 0.3302095
0002c0 68 74 79 be 40 49 9e bc 00 da 08 3b 5c 84 44 be
       -0.24360812 -0.019322038 0.0020881891 -0.19191116
0002d0 40 63 c5 3d ea 5f bc be 84 54 a0 3e 0e ae e5 be
       0.09638071 -0.36791927 0.3131448 -0.44859356
0002e0 74 e8 c3 be 38 28 98 3d 78 bf f3 bd 20 43 cf be
       -0.38263285 0.07429546 -0.11901754 -0.404809
0002f0 08 42 49 3e 9c 63 be 3e 48 9b 1c 3e a4 91 08 be
       0.19654095 0.3718537 0.1529361 -0.13336807
000300 88 8c bf be 1e 65 ee 3e d0 8e 07 3d 16 9f e0 3e
       -0.37411904 0.4656152 0.03309518 0.43871373
000310 e2 2e ee be f4 72 38 3e b0 9e cf be 9c c0 14 3e
       -0.46520144 0.18012601 -0.40550756 0.145266
000320 46 70 a7 be 7c 0b 7a be c6 ce 9b be 8c b8 5f 3e
       -0.32702845 -0.24418443 -0.30431193 0.21847743
000330 38 17 05 3e b0 59 17 bd 06 e8 f5 be 00 83 23 3e
       0.12997139 -0.036950767 -0.48028582 0.15967941
000340 40 c9 5b bd 70 da 56 3d 3e da 9e be ba c2 87 be
       -0.053658724 0.052454412 -0.3102588 -0.26515752
000350 a0 78 86 3c 8c d4 7a be 58 a3 0a 3e 46 75 ef 3e
       0.01641494 -0.24495143 0.13538873 0.4676916
000360 12 c6 cf 3e 38 08 c8 3e 36 f4 8d 3e 26 c9 88 be
       0.40580803 0.3906877 0.2772538 -0.26715964
000370 da 7a e5 3e 50 48 2a 3e 68 f6 ba 3e ac 05 43 3e
       0.4482029 0.16629148 0.36516118 0.19045132
000380 b6 2e c1 be d0 ff 55 be 48 74 be be 36 eb d3 3e
       -0.3773095 -0.20898366 -0.3719809 0.4139039
000390 d8 c1 e6 bd b6 f3 bb be c0 c0 65 bc ca 26 e3 be
       -0.112674415 -0.36709374 -0.014023006 -0.4436553
0003a0 02 23 e9 3e 0e f6 e0 3e 00 0f 2f 3e 72 20 e5 be
       0.4553452 0.43937725 0.17095566 -0.44751316
0003b0 42 69 96 be 70 be 9b be 3a fc d9 be 22 18 ec 3e
       -0.2937718 -0.3041873 -0.42575246 0.46112162
0003c0 c4 89 5b 3e 50 4d 25 bd 70 27 d7 3e 62 f9 bb 3e
       0.21439272 -0.040356934 0.42022276 0.367137
0003d0 04 79 86 3e 88 21 84 bd 08 35 bc bd 44 03 eb 3e
       0.26264203 -0.06451708 -0.091898024 0.4590093
0003e0 00 4c a7 be 24 5d 9b 3e ac 06 26 3e a2 42 cc 3e
       -0.3267517 0.30344498 0.16213483 0.39894587
0003f0 56 56 8c be 0a 6f a0 3e e0 19 da 3d f8 4e 1d 3e
       -0.2740962 0.31334716 0.106494665 0.15362155

linear1.bias f4 [128]
000000 58 89 50 be 3e 17 c6 3e d0 fb 8d be 10 1d 9c 3d
       -0.20364892 0.38689607 -0.2773118 0.07622731
000010 02 27 80 3e 20 fa f9 3e 12 eb 92 be 18 b1 83 bd
       0.2502976 0.48823643 -0.2869497 -0.06430262
000020 98 dd 1d 3e b0 a7 53 bd 1a 8d c2 3e a8 05 9f 3e
       0.15416563 -0.05167359 0.37998277 0.31059003
000030 54 a0 d6 be 20 71 12 3d dc 13 62 3e 00 01 8f 3b
       -0.41919196 0.035752416 0.22077888 0.004364133
000040 00 1c 75 bd 10 76 02 3e 44 00 9e be 86 70 80 3e
       -0.059841156 0.1274035 -0.30859578 0.2508585
000050 e0 96 f2 be 48 f3 c7 3e 1c 6d bf be 6e 5e f5 3e
       -0.47380733 0.39052796 -0.3738793 0.47923607
000060 6c 3e 5d be 10 8b cf 3e 10 0b 7b bd a4 5a 5d be
       -0.21605843 0.40535784 -0.061289847 -0.21616608
000070 b4 eb 62 3e 80 47 b2 3e 8e 85 c2 3e 18 bd af bd
       0.22160226 0.34820175 0.3799252 -0.08580989
000080 a6 19 de be 56 36 b3 be 28 72 b4 3e 20 73 ed be
       -0.43378943 -0.35002393 0.35243344 -0.46376896
000090 c4 ed 06 be 04 a8 62 3e 9c ca 28 be ec 8e 94 be
       -0.13176638 0.22134405 -0.1648354 -0.2901529
0000a0 c8 81 f0 3e 80 ce b1 3e d4 9e 90 3e 18 19 35 be
       0.46974015 0.3472786 0.28246176 -0.17685354
0000b0 da 09 91 3e dc 89 02 3e 72 19 a6 be 98 69 b1 3e
       0.2832783 0.12747902 -0.32441288 0.34650874
0000c0 bc e9 21 3e 14 93 80 be 8c cb 81 be 0c 17 3f 3e
       0.15811819 -0.25112212 -0.25350606 0.18661135
0000d0 e8 59 25 3e b6 96 b1 be d0 96 bc 3e c0 73 c5 bc
       0.16147578 -0.34685296 0.3683381 -0.024103045
0000e0 4a b6 fe 3e e4 ee ba 3e 28 80 a6 bd 48 4a b5 be
       0.4974845 0.36510384 -0.081299126 -0.35408235
0000f0 40 fb 72 3e 64 07 de be 7c 24 51 3e 44 74 fd 3e
       0.23728657 -0.43365014 0.20424074 0.49502766
000100 6a c7 f1 be 40 e9 b7 bc 80 a7 81 be 18 70 f5 bd
       -0.47222453 -0.02245009 -0.25323105 -0.11984271
000110 1c b6 8e be 04 f3 2a 3e 66 0f d4 3e 7c 5e 41 be
       -0.27873313 0.16694266 0.41417998 -0.18883699
000120 40 ff 5f bd a8 2a a1 3e b0 88 26 3d 00 03 9d bb
       -0.054686785 0.31477857 0.0406577 -0.0047916174
000130 80 fc 61 3c f0 f9 81 be 20 0c 21 3d 40 ab 54 3e
       0.013793111 -0.25386 0.039318204 0.20768452
000140 80 81 ac bd 80 78 ad 3d 18 bd fb 3d d0 49 2d 3e
       -0.08423138 0.08470249 0.12291926 0.16922688
000150 50 1a c9 3e 34 7c 5d be ba de fe 3e be 8b e2 be
       0.39277887 -0.21629411 0.49779302 -0.4424724
000160 e0 b3 d1 3c 80 67 47 3c 88 7d 19 3e 24 1e b1 3e
       0.025598466 0.012170672 0.14989293 0.34593308
000170 1c 8f 25 3e 20 d2 d5 3e 84 f1 07 be 64 ed 8b 3e
       0.16167873 0.41761875 -0.13275725 0.27329552
000180 c0 a2 18 be b8 c0 9e be 0c 7a 02 3e 40 73 08 bd
       -0.14905834 -0.31006408 0.1274187 -0.033313036
000190 c0 09 57 bd c0 c3 af 3c 4c c7 47 3e d0 a0 68 3e
       -0.052499533 0.021455646 0.1950962 0.22717595
0001a0 a8 e8 dd 3e 30 02 9c be a0 ad 8f 3d 2a b1 ea 3e
       0.43341565 -0.3047042 0.07015538 0.4583829
0001b0 14 43 c0 3e e0 75 e7 3e 56 bf 96 be 5a dc c8 be
       0.37551177 0.4520712 -0.29442853 -0.39230615
0001c0 1c 61 25 be 00 39 ad be ea 36 9f be 18 a6 9b be
       -0.16150326 -0.3383255 -0.31096584 -0.30400157
0001d0 d8 63 80 3d d0 8b a5 3d ce 5f bd be 80 ff b0 bc
       0.06269044 0.08083308 -0.36987156 -0.021606207
0001e0 bc ae d3 be ba 7b af 3e c0 06 9b be 6a 7e bb be
       -0.4134425 0.34274083 -0.30278587 -0.36619884
0001f0 d2 9a ce be ea c8 93 3e e4 ba c6 be 70 ec d0 bd
       -0.40352494 0.28864223 -0.3881446 -0.10201347

linear2.weight f4 [128, 128]
000000 48 a3 a3 bc 74 95 88 3d f2 cc a1 bc 91 16 b8 bc
       -0.01997532 0.06669131 -0.019751046 -0.022471698
000010 bd c5 88 3d d5 6d 8f bd e2 69 dc 3c 87 f7 ae bd
       0.066783406 -0.07003371 0.026905958 -0.08543306
000020 a6 3c 65 3c 59 29 4b 3d 04 65 57 3d f1 9f 86 bd
       0.0139915105 0.04959998 0.05258657 -0.06573475
000030 01 ab 94 3c c2 a9 c0 bc 82 c6 b1 3d 3c f2 cd ba
       0.018147947 -0.023518447 0.086804405 -0.001571245
000040 6a 87 3d bd 4a f6 d3 bc 41 1a ad 3d e0 69 6a bd
       -0.04627172 -0.025874276 0.08452273 -0.057229877
000050 61 85 ab 3d 6b 3a ac bd 0b a5 f4 bc 0d 45 03 3d
       0.083750494 -0.0840958 -0.029863855 0.032048274
000060 67 8b 9d 3c 65 79 1d 3b d9 8b 5e 3d 44 43 1b 3c
       0.019231511 0.0024028656 0.054332588 0.009476487
000070 5a b7 80 bd 1c cb 9e bd 55 06 02 3d fe 4d d0 3c
       -0.062849715 -0.07753584 0.03174432 0.025427815
000080 22 e9 51 3d f7 28 85 bd f6 a4 4f bd aa 5f 1f 3d
       0.051247723 -0.06501954 -0.05069443 0.03890959
000090 33 00 9f 3d a6 ae f5 bc 5b e2 84 bc b2 b8 6a bc
       0.0776371 -0.029990505 -0.016221216 -0.014326261
0000a0 0b 8a 97 bd 36 cc 98 3d 9c 6c 3d bd 9f 2f 43 bd
       -0.073993765 0.07460825 -0.046246156 -0.047652837
0000b0 f8 36 88 3d 0e 85 70 3d de 81 63 3d 9c b8 b7 3c
       0.066511095 0.05872064 0.055543773 0.022426896
0000c0 62 9e 7a bd 0c 24 bc 3c e2 d5 73 bc 4a 8e 0e 3d
       -0.061186202 0.022966407 -0.014882537 0.034803666
0000d0 b1 f8 a1 bd 1b c9 94 3d 15 a0 5d 3d 3f 8d 8f 3d
       -0.07908762 0.0726492 0.054107744 0.070093624
0000e0 b5 a8 25 bd c7 25 80 bc 91 48 ce bc 0b b5 3f bd
       -0.040444095 -0.015643014 -0.025181087 -0.046803515
0000f0 a7 a8 27 3d 28 fa 60 bd a8 4c 97 3d c7 d6 06 bd
       0.040932324 -0.054926068 0.07387668 -0.03291967
000100 95 cc 55 3d 97 3b 5e bd f2 9c 81 bd a6 c8 25 3d
       0.052197058 -0.054256048 -0.06328763 0.040474556
000110 ac 4a 8f 3d 69 7e b6 bc 27 a6 0c bd 41 83 ae bd
       0.069966644 -0.022277074 -0.034338143 -0.085211284
000120 c2 cd 82 3d b3 b1 47 3c 43 c6 7f bb 90 85 a5 3d
       0.063869014 0.012188363 -0.0039028085 0.08082116
000130 8e d7 a9 bc 1e c0 86 bc 2e 79 a0 3c b8 c8 a1 3d
       -0.020732667 -0.01644903 0.019589033 0.07899612
000140 65 f1 a9 bd 01 7a 47 bd 95 68 31 bd 75 3d 9b 3d
       -0.082979955 -0.048700336 -0.043312628 0.075800814
000150 db 00 6f bd e2 7c f2 bc c7 b4 c1 bc 80 77 09 bd
       -0.058350425 -0.029600564 -0.023645772 -0.03356123
000160 b5 69 8e bd e1 19 99 3d eb 12 28 3d 9f e6 90 3d
       -0.06953756 0.07475639 0.041033667 0.070752375
000170 aa 4f 69 3d c3 23 a7 bd d7 13 42 3d f1 30 fd 3a
       0.05696074 -0.08161118 0.047382202 0.0019316954
000180 f5 ca 51 bd 9a 2b 9a bd ed 73 c9 3c 82 16 82 bd
       -0.051218946 -0.075278476 0.02459141 -0.06351949
000190 e2 a3 63 bd 8e 00 7c 3d a5 cb 8b bb 4e 20 ae bd
       -0.055576213 0.061523966 -0.0042662197 -0.085022554
0001a0 d5 7c 8e bd aa 04 22 3d ba ae 5c bd b1 21 cb ba
       -0.069574036 0.03955523 -0.05387757 -0.0015497712
0001b0 0e 61 b3 3d 50 ae b3 3d 88 c1 1d 3d 86 1a ab 3d
       0.08758746 0.08773482 0.038514644 0.08354668
0001c0 07 aa 93 3d 50 72 69 3d 2b ef aa bd bd 49 15 bd
       0.072101645 0.056993783 -0.08346399 -0.036447275
0001d0 9d dd 56 3c 20 c7 92 bc a8 9b 6f bd 6e b9 7e 3d
       0.01311436 -0.017917216 -0.058498055 0.06218856
0001e0 e8 9e 3c 3a 1d f2 8d bd ba 2d f7 bc 5c 19 2e bd
       0.000719531 -0.06930945 -0.030173171 -0.042504653
0001f0 b7 08 07 3d 62 ea 9b 3d 69 4f 9d 3c 2c a7 16 3d
       0.032967295 0.07613064 0.019202905 0.03678052
000200 55 61 8d bd 67 18 6c bd b2 df a3 3d 25 fd 5b bd
       -0.0690333 -0.05764046 0.08001651 -0.053708214
000210 c7 4c 48 bc 34 c9 89 bc e7 b6 a3 3d cb e5 21 bd
       -0.012225336 -0.016819574 0.0799387 -0.03952579
000220 ff 4f 45 bc 5d fc 34 3d a3 1d 8e bd f7 20 57 3d
       -0.012042998 0.044185985 -0.069392465 0.052521672
000230 c3 a7 0d bd cd 3e 69 3d b0 1f 24 bd f6 78 4a 3d
       -0.03458382 0.056944657 -0.040069282 0.049431764
000240 8c 3a 4a bd c6 18 a9 bd 3b a4 8a bc 7c c1 7e bd
       -0.04937224 -0.08256678 -0.016924014 -0.06219624
000250 79 a9 91 bd ca 95 87 3d 2e 23 5f bc bc 3f 8c 3d
       -0.071124025 0.06620367 -0.013619227 0.06848094
000260 b1 be ae 3d 21 22 91 bc 87 bb 8d bc 61 91 67 3d
       0.08532465 -0.01771647 -0.017301334 0.05653513
000270 cd 54 88 3d 24 60 ad bc 19 ca b3 3d 73 f2 4e 3d
       0.066567995 -0.021164007 0.087787814 0.050524186
000280 eb 96 7b bd 90 91 35 bd 03 d6 df 3c 5d fa 1d 3d
       -0.061423223 -0.044328272 0.027323728 0.038568843
000290 c1 86 8b bd d9 eb a1 bd ef 5f 0d 3c 04 19 d6 3c
       -0.06812812 -0.079063125 0.008628829 0.026134975
0002a0 94 6d fd 3c fd 1f 15 ba 43 40 6b bd 76 f9 ac 3d
       0.03093604 -0.00056886656 -0.05743433 0.084460184
0002b0 98 d8 a2 bd 15 52 95 3c 47 8f 74 bc 31 6c 21 3d
       -0.07951468 0.018227616 -0.014926738 0.03940982
0002c0 33 37 f4 3b ee e1 ad bd 5a 44 0e 3d f4 7d 7a 3d
       0.0074528693 -0.08490358 0.034733154 0.061155275
0002d0 ea 82 50 3c 2c 27 62 3d f2 8e a5 bd 37 7d 06 3d
       0.012726525 0.05521314 -0.08083905 0.032834258
0002e0 fa bf ec bc 84 dc 2f bc 70 09 b0 bd 7a 5a 8f bd
       -0.028900135 -0.010733727 -0.0859555 -0.06999679
0002f0 1b 5b 5d bd 57 aa 8d bd 58 e2 6b 3d 8c e8 29 3d
       -0.054041963 -0.06917255 0.057588905 0.04148154
000300 ad c8 52 bd 2d fd ff bc 87 22 fa ba 20 86 98 3c
       -0.05146091 -0.031248653 -0.0019083776 0.018618643
000310 b7 b9 11 3c dd 0f 8c bd df 4e a7 ba dd 7b 1c 3d
       0.0088943755 -0.06838963 -0.0012764594 0.038204063
000320 11 0a 19 bd 91 f3 15 3d 9c e0 71 3d 7e e0 9b bd
       -0.037363116 0.036609236 0.059052095 -0.07611178
000330 e0 5c a7 bd ba 4b 4e bd 53 d2 cd bc d6 55 4c bd
       -0.081720114 -0.050365187 -0.025124704 -0.049886547
000340 0f 49 fb 3c 6d 2a ca 3c 17 c6 e5 ba ab 2e 35 bc
       0.030674485 0.024678433 -0.0017530349 -0.01105849
000350 3c 37 ae bd d9 5d a3 3d 8e f2 14 3d 3a 36 ca bb
       -0.08506629 0.079768844 0.03636413 -0.006171015
000360 aa 72 b9 3c c7 96 ae bd 73 a6 ae bb f9 d0 9e 3d
       0.022637684 -0.08524852 -0.005329901 0.07754702
000370 b4 08 09 bd 8c 48 d2 bc 7e af 93 3d 72 07 db bc
       -0.033455566 -0.025669359 0.07211207 -0.026736949
000380 c3 37 a7 bd 31 61 81 bd 8c 84 87 3d 5c 0f 11 bd
       -0.081649326 -0.06317366 0.06617078 -0.03541504
000390 77 b8 33 bd 7a e2 8a bb 80 1a 64 3d e8 a3 15 3d
       -0.04387709 -0.004238424 0.055689335 0.036533266
0003a0 cd cd 57 3d c6 ef ac 3d 45 d2 1f bd 58 44 1a bd
       0.0526865 0.08444171 -0.039018888 -0.037662834
0003b0 ea 3d d7 3c 04 66 a1 3d 28 d1 55 bd 11 6e 15 bd
       0.02627464 0.07880786 -0.05220142 -0.03648192
0003c0 fb b3 a1 3d 71 c8 5f bd 04 e2 97 bd d5 73 07 3d
       0.07895657 -0.054634515 -0.07416156 0.03306945
0003d0 a9 bb 5d 3d 5b 46 07 bd 74 b9 2e 3b e1 e4 64 3c
       0.054134045 -0.03302608 0.0026660832 0.013970585
0003e0 36 1b af 3d 27 6c ae bd 67 a5 60 bd bb 22 0e 3d
       0.08550112 -0.08516722 -0.05484524 0.03470109
0003f0 94 85 92 3d 71 79 79 bc 04 6b 63 3d 92 41 05 3d
       0.07154384 -0.015226708 0.05552198 0.032533236

linear2.bias f4 [128]
000000 5d 7b a5 bc 13 0b b0 bc 90 16 3d 3d e2 c7 2a 3b
       -0.020200426 -0.021489656 0.046164095 0.002605908
000010 d9 8b f9 bc 99 f1 f6 bc 07 62 a0 3d 2e bb 75 bc
       -0.030462192 -0.0301445 0.07831197 -0.01499824
000020 0f 1f 4a bd 53 61 1a 3d f8 c7 cc bc c4 ac 6c 3d
       -0.049346026 0.03769047 -0.024997696 0.05778195
000030 6d c7 86 3d 98 72 5b bd 35 c1 7c 3d 5a 03 ae bd
       0.06581006 -0.053576082 0.061707694 -0.08496733
000040 d0 c1 1a bd 56 31 af 3d 17 4a 31 3d b1 82 48 3c
       -0.03778249 0.08554332 0.04328355 0.0122381905
000050 6b fb 64 bd bd 78 22 3d 28 2b 26 3d 15 bd 0b bd
       -0.055903833 0.039665926 0.0405685 -0.03411587
000060 18 7a cd bc 5e 28 53 bc c3 66 74 bd 4f 7d 68 3d
       -0.025082633 -0.012888042 -0.059668314 0.05676013
000070 ca 2f ed bc b4 b1 ad 3b de 65 f4 ba 22 0f af bd
       -0.028953452 0.005300725 -0.0018646081 -0.08547808
000080 e0 8f 11 bd a5 63 05 3c 73 55 37 3d 1c 7f 16 bd
       -0.0355376 0.008141433 0.044759225 -0.036742315
000090 a3 11 81 3d a5 45 79 3c e5 f5 8b 3c 4c d0 24 bd
       0.06302192 0.015214358 0.017085025 -0.04023771
0000a0 64 9f b0 3d 1b df 2c 3d 65 91 96 bd 7b 48 ce 3c
       0.08624151 0.042204957 -0.073519506 0.025181046
0000b0 59 a5 12 3d 80 ae 24 3d 0f 9b 41 3c 7e ac 17 bd
       0.03580222 0.04020548 0.011816754 -0.037029736
0000c0 46 a0 ad bd d8 2c 5b 3d 34 a6 44 bd ca 31 85 bd
       -0.08477835 0.053509563 -0.048010066 -0.06503637
0000d0 f3 5c 83 3d 37 80 27 3d 33 be 59 bd 78 86 80 bd
       0.06414213 0.04089376 -0.053159904 -0.06275648
0000e0 08 21 01 bd 18 46 ce 3c 56 b4 6b 3c e3 7a 60 3d
       -0.03152564 0.025179908 0.014386257 0.054804694
0000f0 d3 58 47 bc 11 29 33 3a ee 50 8d 3c 2e a3 19 bd
       -0.012167173 0.00068344275 0.017250504 -0.037509136
000100 50 04 f3 ba 54 7f 6d bd 63 1c 3b bc ed fd 6e 3d
       -0.0018540714 -0.057982758 -0.011420342 0.05834763
000110 d4 a2 a3 3d 6f 6a 8c bc 3b 32 9a 3d 42 b4 7a 3d
       0.079900414 -0.017140595 0.07529112 0.061207063
000120 2b d0 58 bc e1 ae 5a 3d 3d f7 b2 bd 72 65 16 3d
       -0.013233225 0.053389434 -0.08738563 0.03671784
000130 9e 1c 8f ba 2d 4a ac bd 01 4e 20 bd 2c ac 91 3d
       -0.0010918563 -0.084125854 -0.03913689 0.07112917
000140 56 f8 84 3d 32 90 80 3b 3e 06 11 3c 27 ab 87 3d
       0.06492679 0.0039234394 0.008851586 0.066244416
000150 60 01 6f 3c 87 2d c0 3c a5 b1 a7 3d e8 cf 60 bc
       0.01458773 0.02345921 0.0818818 -0.013721444
000160 b8 f0 c7 3c d5 1d ce bc 6b b6 a2 3d e6 26 cd bc
       0.024406776 -0.02516071 0.0794495 -0.025042962
000170 34 cf 46 3c 01 21 93 bd 62 5e aa bd 39 6f 77 3d
       0.012134362 -0.07184029 -0.08318783 0.060408805
000180 89 9c ca 3c 9e b3 a8 bd 17 3b a7 bd 62 66 6c 3d
       0.024732845 -0.08237384 -0.08165567 0.057714827
000190 28 23 46 3d 03 a9 41 bd ea b0 e2 3c 78 7c 83 bc
       0.04837337 -0.047280323 0.02767225 -0.016050562
0001a0 44 68 a8 bd b8 b4 79 3d 5b 72 45 3d 56 62 86 bb
       -0.08223012 0.060963362 0.04820476 -0.004101078
0001b0 90 4a 77 3c 71 99 ca bc e7 88 74 3d d1 c8 35 3c
       0.015093461 -0.02473137 0.059700873 0.011095242
0001c0 c4 57 8f 3d 2d 73 36 bd 55 cf f5 bc 50 b2 89 bd
       0.06999162 -0.044543434 -0.03000609 -0.067234635
0001d0 cf 4c db 3c 30 e5 31 bd dc 77 a7 3d 7a 63 f9 bc
       0.026770024 -0.04343146 0.08177158 -0.030442942
0001e0 b0 a1 86 bc 09 cc bb 3c cf df 18 bd 11 08 a4 3d
       -0.01643452 0.02292444 -0.037322816 0.08009351
0001f0 b7 d2 f0 3c dc 01 3d 3d b0 18 89 3d ff a7 84 bc
       0.029397352 0.04614435 0.06694162 -0.016193388

output_layer.weight f4 [2, 128]
000000 d4 f8 a0 3d 7e eb 02 bd a7 ff f2 3c 91 05 98 bd
       0.0785996 -0.031962864 0.02966292 -0.07422937
000010 e7 c2 ab bb 8b 42 b1 3d ff dc 0a 3d 7d fa 42 bc
       -0.00524174 0.0865527 0.033902165 -0.011900541
000020 10 a9 29 bd 9a b5 79 3d 55 3a d7 bc 19 87 25 bd
       -0.041420996 0.060964204 -0.026272932 -0.040412042
000030 d5 58 fc 3b 52 ce 76 3d 68 0f 9b 3d e3 51 a4 bd
       0.0077010193 0.060255356 0.07571298 -0.08023431
000040 c8 cd 97 bd 27 29 4f bd 36 ad 99 3b e9 db 9f bd
       -0.074122965 -0.050576355 0.004689838 -0.078056164
000050 22 cd 71 3d f2 7a 33 bd 86 98 5d bc 3a 60 b2 3d
       0.05903352 -0.04381842 -0.013525134 0.0870976
000060 84 2a 82 3d a1 02 59 bd 85 38 b3 3d 7c 92 67 3d
       0.063557655 -0.052981023 0.087510146 0.056536183
000070 ad aa d7 bc 6a 8c af 3c c0 60 5b bd 9f c7 36 3d
       -0.026326502 0.02142926 -0.053559065 0.044623967
000080 fa 56 06 bc 3a 1e a9 bc 65 d2 9f bd bc 77 3b 3c
       -0.008199448 -0.020644296 -0.078038014 0.011442121
000090 4d 96 e4 3c cb 46 71 bc f1 b7 92 bc dd 88 47 3c
       0.0279037 -0.014726351 -0.017909976 0.012178627
0000a0 b2 c3 6f b9 d1 00 37 bd a2 7a 1d bd 09 13 f2 3c
       -0.00022865718 -0.044678513 -0.03844703 0.029550092
0000b0 c0 87 ad 3d c4 29 43 3d e0 25 95 3d de ec a0 bd
       0.08473158 0.047647253 0.07282615 -0.07857679
0000c0 1e aa b2 3d ce 69 45 bc fd 5b 5b 3c 52 a3 61 3d
       0.087238535 -0.012049152 0.013388631 0.055087395
0000d0 39 b9 77 3d 2c a8 7a bb 9b d9 2c bd 76 e5 9b bb
       0.060479376 -0.003824721 -0.042199712 -0.0047575785
0000e0 4c 7f 42 bd ab 6b 93 3d c7 60 5e bd 1a 5b 29 3c
       -0.04748468 0.071982704 -0.054291513 0.010336662
0000f0 db 0f 90 bd 9d af e2 3c 8d a7 13 3d 98 48 5e 3d
       -0.07034274 0.02767163 0.03604846 0.05426845
000100 91 41 56 bc 48 e3 f6 bc 9f 93 65 3c d3 13 49 3c
       -0.013077156 -0.030137673 0.014012246 0.012272793
000110 6e 79 7b 3d 8b d8 b2 bd 6a 10 cb bc 1a ba 90 3d
       0.0613951 -0.087327085 -0.0247881 0.07066746
000120 d8 e1 93 3d 41 4f ad bd 3f 51 7b 3d 44 0d 40 bc
       0.07220811 -0.08462382 0.06135678 -0.011721913
000130 71 aa b4 bd 65 d3 3f bd 60 cf 32 bd 3a 1e 33 bd
       -0.088215716 -0.04683246 -0.0436548 -0.04373
000140 b4 57 b3 bd 1c e3 49 3d e5 3c a8 3d 2b a1 84 3d
       -0.087569624 0.049288854 0.0821474 0.06476053
000150 b6 39 45 3d c1 68 aa 3d 12 9d 86 bd 66 33 4e bd
       0.04815074 0.083207615 -0.065729275 -0.050341986
000160 0d 62 0a 3c e9 b0 fc bc 88 a6 2f bd b9 dc 64 bd
       0.008446229 -0.030846076 -0.042883426 -0.05587456
000170 e3 c4 26 3d 6e 45 9f bd 2d 04 b1 3b 10 08 7d 3c
       0.04071511 -0.077769145 0.005402109 0.015443817
000180 ec 68 38 bc bf b0 9a 3d f5 f4 2f bc 97 34 a0 bc
       -0.011255484 0.07553243 -0.010739555 -0.019556327
000190 b2 29 8b bc 9f 3a b3 3d e1 16 85 3a ed ee 72 bb
       -0.016987655 0.087514155 0.0010153913 -0.003706868
0001a0 4f 19 a9 3d 1a 37 76 bd 5e 80 8c 3d 65 2a a6 bd
       0.0825678 -0.060111143 0.068604216 -0.08113555
0001b0 9a f7 ab bd 41 ab 93 3b 36 03 81 3d 93 38 f3 bc
       -0.083968356 0.004506499 0.062994406 -0.029690063
0001c0 f7 ed 04 bd 25 2c 10 3b 1c 7c ac 3d 6e cf 43 bd
       -0.032453503 0.0021998968 0.084221095 -0.047805242
0001d0 a6 75 fc 3b a9 21 a6 bd 5c 9e d0 38 7c a1 9c bd
       0.0077044545 -0.08111889 9.9477096e-05 -0.07647988
0001e0 8e 17 42 3d 04 6f 4e 3d 9d e7 99 3c 43 a6 ef bc
       0.047385745 0.05039884 0.0187872 -0.029254084
0001f0 73 45 a9 3d 0b ab 9e ba f1 de 5e bd 07 57 53 bd
       0.082651995 -0.0012105418 -0.054411832 -0.051596668
000200 20 ca ef 3c d3 73 15 3c 65 fe e9 3c 03 b5 b2 3b
       0.029271185 0.009121853 0.028563688 0.005453707
000210 89 66 f7 bc e8 47 81 bd fd e0 90 3d dd d8 81 3d
       -0.03020026 -0.06312543 0.07074163 0.063401915
000220 d2 3f c5 3b b1 8f 90 3d f3 08 a3 bd 93 6d 8d bd
       0.006019571 0.07058657 -0.07960691 -0.06905665
000230 05 f6 e1 3b a0 60 12 3d 04 7b 91 3d 00 28 5a 3c
       0.006895783 0.03573668 0.071035415 0.013315201
000240 7a 9b a8 3b 10 63 93 bd dc 99 1c bc c2 d0 62 3d
       0.0051454874 -0.07196629 -0.009558167 0.05537487
000250 42 17 b7 bc 87 e4 4a 3c a6 a7 8b 3c 21 ea 61 bc
       -0.022349957 0.012383587 0.017047714 -0.013788731
000260 e8 51 b6 bc b7 7e 7f bc 42 54 84 bd c0 95 a2 bd
       -0.022255853 -0.015594176 -0.064613834 -0.07938719
000270 7d 23 00 bd 99 a3 13 3d ab 45 18 bd 16 15 a2 3d
       -0.031283844 0.03604469 -0.037175816 0.07914178
000280 fa 26 8b 3d c5 84 7f 3d 08 a7 39 3c 02 bf 8b 3a
       0.067945436 0.06238248 0.011331327 0.0010661783
000290 0c f9 26 3c 31 64 04 3d 69 e9 57 bd 5a 5d 30 3d
       0.010191213 0.032322112 -0.05271283 0.043057777
0002a0 31 b3 32 bd d9 15 4b bd 0a e1 3b 3d e9 02 0e bd
       -0.04362792 -0.049581382 0.04586891 -0.034670744
0002b0 65 0a 4a bd 27 53 aa bd 14 cf 12 bc 77 37 bd bb
       -0.04932632 -0.08316641 -0.008960504 -0.005774434
0002c0 06 0d 5b 3d 65 c0 a1 bd 6c 81 8f 3d 7e c5 6e 3b
       0.053479217 -0.078980245 0.07007107 0.0036433632
0002d0 01 c2 47 bc 4f 0e 54 bd 20 13 48 3d c3 4a c0 3c
       -0.01219225 -0.05177146 0.048846364 0.02347315
0002e0 b7 1a 6c bd 03 a4 6a ba 5c 13 45 bb 19 9d 09 3d
       -0.057642665 -0.0008950831 -0.0030071354 0.033597086
0002f0 83 3f b4 bd 66 b5 41 3b 54 f9 a8 3d 10 0f 08 3c
       -0.088011764 0.0029557585 0.082506806 0.008304372
000300 0a 00 b2 3c 19 77 4d 3d 5e 37 9b 3d f8 1b 8b 3d
       0.021728534 0.05016241 0.0757892 0.06792444
000310 7c 8d 25 bd 77 f9 e1 bb 2f f7 80 3d bd 85 27 bd
       -0.040418133 -0.0068961936 0.062971465 -0.040899027
000320 02 61 8f 3c 81 69 06 bd 2b d3 aa 3d f6 15 14 bd
       0.017502312 -0.03281546 0.08341058 -0.036153756
000330 5c 5b 5d bb 15 40 0b bc 46 37 c8 bc 8e 87 bb 3c
       -0.0033776378 -0.008499165 -0.024440419 0.022891786
000340 d7 a4 18 ba 93 5a ae 3d 24 22 3b bd fa a0 e3 bc
       -0.0005822903 0.085133694 -0.045686856 -0.02778672
000350 be b4 4c 3c ed 9a 8c 3d 44 94 ba 3c b0 31 1b bd
       0.012494264 0.06865487 0.022775777 -0.037889183
000360 6d f1 d4 3c d0 2f a3 bd fa fc 9c bd 66 bb 6b bd
       0.025994027 -0.07968104 -0.07665439 -0.057551764
000370 59 9d 14 bc d0 0f 00 bc b0 0e 9b bd e4 c5 15 3d
       -0.009070718 -0.00781627 -0.07571161 0.036565676
000380 1f ec 08 bc a3 7e 6a bd b9 08 4b bc c1 94 38 3d
       -0.008357077 -0.057249676 -0.012392216 0.045063738
000390 6e ba 83 3d 0f 6c 96 bd 20 4f 90 bc 14 43 32 3b
       0.06432043 -0.07344829 -0.017615855 0.0027200626
0003a0 2d 52 fd ba a1 73 47 3d 85 9e 8c 3c 34 4e b9 bb
       -0.0019326858 0.048694257 0.017165432 -0.0056550745
0003b0 8e cf 96 bd 1c 35 b1 bd 6a 33 a4 bd fa be 92 3d
       -0.07363807 -0.08652708 -0.08017619 0.07165332
0003c0 cc 8f 4e 3d 83 a5 98 3d 0b 76 a1 3d 91 a0 29 3d
       0.050430104 0.07453444 0.07883843 0.041412894
0003d0 d4 ab 5f bd 41 83 1a 3d 85 4e 59 3d 62 56 a7 3c
       -0.054607227 0.03772283 0.053053398 0.020426933
0003e0 99 6b ff 3c 02 d7 06 3d ad cf 6a bb 7f ce b9 bc
       0.031179236 0.03291989 -0.003582935 -0.022681473
0003f0 91 f1 a5 3d 67 6e 92 bd 3f c8 f8 bc 95 5c d3 bc
       0.08102716 -0.07149964 -0.030368922 -0.025800982

output_layer.bias f4 [2]
000000 11 7a 52 3b 2e be 19 bd
       0.0032116214 -0.037534885
