results/models/exp-4:batchsize=128,lr=1e-4,width=128,adam-corrected/2/model-9.0.pt (torch, 72284 bytes, 6 tensors)

linear1.weight f4 [128, 4]
000000 90 f5 39 bd 00 2b df bb 62 b1 9b be 60 5b bf bc
       -0.045400202 -0.006810546 -0.3040877 -0.023359
000010 9a 47 9a be 22 79 97 be 5e 02 b0 3e 60 15 67 bd
       -0.30132753 -0.29584605 0.34376806 -0.05641687
000020 c8 82 d4 bd a6 cb 89 be 44 3f 69 3e 42 e6 b7 be
       -0.10376507 -0.26913184 0.2277804 -0.3591786
000030 1a b4 f5 be 46 0d a2 be 3c ee 88 3e 50 a6 94 bd
       -0.4798897 -0.31650752 0.26744258 -0.07258284
000040 6c b0 71 be 5c 64 61 be a0 5b 7b bd d0 12 8e bd
       -0.23602456 -0.2201094 -0.061366677 -0.06937182
000050 d4 1a 79 3e f0 e9 b0 be 28 e8 d3 3e 6c c9 45 be
       0.2432664 -0.3455348 0.4138806 -0.19315118
000060 50 44 b7 bd 90 ef b1 3e 70 87 b3 be 7c db 88 3e
       -0.089485765 0.34753084 -0.35064268 0.26729953
000070 18 5a ea bd a6 b5 dc be 9c de 00 3e a0 10 84 3e
       -0.11442965 -0.43107337 0.12584919 0.25793934
000080 50 60 4e be a2 16 f5 3e 10 5d 2f be 40 af 29 3d
       -0.20153928 0.4786883 -0.17125344 0.041426897
000090 0a be de 3e fc d5 18 3e 92 56 a8 be 9c d4 a5 3e
       0.43504363 0.14925379 -0.32878548 0.3238877
0000a0 00 89 f9 3b 3e 21 b6 be 48 8c b2 3e 50 80 56 3d
       0.0076152086 -0.35572237 0.3487265 0.052368462
0000b0 60 a8 95 bc ae 0e df 3e f6 8d c4 be 00 fd b3 3e
       -0.018268764 0.43565887 -0.38389558 0.3515396
0000c0 10 88 11 bd 54 63 ea be 00 e3 e7 3d f6 35 ec 3e
       -0.03553015 -0.45778906 0.11322594 0.4613492
0000d0 06 51 dd 3e 30 ba 47 bd 10 df 30 3d 80 55 e6 3e
       0.43225878 -0.048761547 0.04318148 0.44987106
0000e0 dc b7 e5 3e 98 6e 1a 3e 60 16 4c 3d 9c 53 e8 3e
       0.44866836 0.1508125 0.049826026 0.4537629
0000f0 bc 32 a6 3e 30 5a 09 3e de f0 b1 3e 84 85 72 3e
       0.32460582 0.1341331 0.3475408 0.23683745
000100 08 e5 02 3e 5e 88 80 be de ef eb 3e 80 97 8e bb
       0.12782681 -0.2510404 0.46081442 -0.0043515563
000110 cc f1 a0 3e 70 2f 58 be 80 77 90 bb 40 24 68 3d
       0.31434476 -0.21111846 -0.0044087768 0.056675196
000120 78 2e d8 3d 4a 53 f6 be 44 92 85 3e 24 c8 97 3e
       0.10555738 -0.4811042 0.26088154 0.29644883
000130 10 3f 91 bd 80 83 46 3c d0 1b c9 bd 40 49 57 3d
       -0.07092106 0.012116313 -0.09819758 0.05256009
000140 42 44 fe be b0 a9 db 3d 2c f0 38 3e e8 5d b2 be
       -0.49661452 0.10725725 0.18060368 -0.3483727
000150 8a 78 f5 be d0 a1 18 3e a0 af e0 be 48 c2 b1 be
       -0.47943527 0.14905477 -0.4388399 -0.34718537
000160 58 8e a9 bd ba 46 dd 3e 78 37 e7 bd d8 ad 6d 3e
       -0.08279103 0.43218023 -0.11289877 0.23210847
000170 16 81 e2 be 04 e1 bc be bc 68 7c be 84 0e eb be
       -0.4423911 -0.36890423 -0.24649328 -0.45909512
000180 78 7e 5e 3e fc 84 17 be 90 eb d8 3d 40 5a 17 bd
       0.21727931 -0.14796823 0.10591805 -0.036951303
000190 88 24 db 3d d8 15 6a be bc 32 c5 be 38 08 59 be
       0.10700327 -0.22859895 -0.3851527 -0.21194541
0001a0 24 61 c2 be a8 06 a8 3d e8 a5 7e 3e 4c d1 e6 3e
       -0.37964737 0.082043946 0.24867976 0.45081556
0001b0 c2 d9 aa 3e 9e a8 cf be 20 8a ae bc 30 66 29 3e
       0.3336926 -0.40558332 -0.021306098 0.16542888
0001c0 9e c5 ad be 0c 3e a7 be 5e 50 b5 3e e0 96 f3 3e
       -0.33939832 -0.32664526 0.35412878 0.47576046
0001d0 d8 d5 90 be d2 7e d3 be b0 fd 18 be 00 e3 ff 3e
       -0.2828815 -0.41307694 -0.14940524 0.49977875
0001e0 c0 83 0d be d0 d2 fa 3e 48 35 dc bd a0 cf 84 bc
       -0.1381979 0.48988962 -0.1075235 -0.016212285
0001f0 98 3e c7 be b8 24 9c 3d d4 23 f0 be 1c a9 7f be
       -0.38914943 0.07624191 -0.46902335 -0.24966854
000200 d0 b4 ae 3e c0 60 9b bd b8 ab 6b be 50 de 86 3d
       0.34122324 -0.07586813 -0.23014724 0.065853715
000210 96 bb b4 be 9a 1f 88 be ac 52 e5 3e ea 72 f0 3e
       -0.35299367 -0.2658661 0.44789636 0.46962672
000220 20 5d cf 3e 82 4e b1 3e 1c 87 70 3e 1c a0 70 3e
       0.40500736 0.3463021 0.2348904 0.23498577
000230 34 05 20 be ba 22 ad 3e e0 cd 97 bd 8a e1 81 be
       -0.15626985 0.33815557 -0.074123144 -0.25367385
000240 2e b8 b7 be 9e c0 ba 3e 10 12 25 3e ee 69 de be
       -0.35882705 0.3647508 0.16120172 -0.43440193
000250 52 9a df 3e 64 c9 1e be 60 38 a6 3d 20 d8 b2 be
       0.43672425 -0.15506512 0.081162214 -0.34930515
000260 62 8d e6 be 4a f2 ad be e0 db f4 be 00 1a d1 bb
       -0.45029742 -0.33973914 -0.47824 -0.0063812733
000270 e6 05 bc be 9e 8a d8 be 28 f6 dc be 08 76 4c be
       -0.3672325 -0.42293257 -0.43156552 -0.199669
000280 48 77 bb bd 54 56 2b 3e 2c 5b 9a be e0 4f ee bd
       -0.091536105 0.1673215 -0.30147684 -0.11636329
000290 6c c8 57 be 88 03 f9 3e d0 51 43 be a0 b7 11 3d
       -0.21072549 0.48635507 -0.19074178 0.03557551
0002a0 90 cf cb 3e 24 03 54 3e 20 bf 06 be d2 9f fc 3e
       0.39806795 0.20704323 -0.13158846 0.49340683
0002b0 58 60 73 3e 7c e9 1c 3e ec 71 03 be de 42 fe be
       0.23767221 0.15323442 -0.12836426 -0.4966039
0002c0 c4 e3 eb 3e d8 03 a1 bd e4 98 f7 3e 90 ef fd be
       0.4607221 -0.07862061 0.48358834 -0.49596834
0002d0 9e b2 9a be e0 df 37 bd d0 d9 8e be ec 10 10 3e
       -0.302144 -0.04489124 -0.27900553 0.14068955
0002e0 14 a3 14 be 00 05 b0 bb 50 3c 47 3d ac e9 c8 3e
       -0.14515334 -0.00537169 0.048641503 0.39240777
0002f0 24 69 a2 be a0 31 23 3d 50 cd cd bd 00 f5 b0 3d
       -0.3172084 0.039842248 -0.10048926 0.0864048
000300 94 da a3 be fe fb e2 be ae 3e 95 be 06 b6 ac be
       -0.320027 -0.4433288 -0.29149383 -0.33732623
000310 de d4 a2 3e f8 b9 be 3e cc 4f 5e be e8 bb 4f be
       0.3180303 0.37251258 -0.21710128 -0.20286524
000320 44 ff 8d 3e 68 0f 33 3e c8 2d e5 3e 3a 1e bc 3e
       0.27733815 0.17486346 0.4476149 0.3674181
000330 28 81 e0 3e 44 4b 7d be b8 de c8 3d 4c 12 37 3e
       0.43848538 -0.24735743 0.09808105 0.17878073
000340 14 d8 50 be 3e b4 b3 3e ea 8d 97 3e d8 94 93 3d
       -0.20394927 0.3509845 0.2960046 0.07206124
000350 cc 35 2f be c0 2a df bc aa 9a d5 be 58 f8 5f 3e
       -0.17110366 -0.027242064 -0.41719562 0.2187208
000360 e0 15 81 be 9a 55 bd 3e 34 b0 9f 3e 58 c6 f2 3d
       -0.25212002 0.3697937 0.3118912 0.11854237
000370 46 7d 91 be 8c 47 a4 3e 10 8c 93 3d 10 a4 5f bd
       -0.2841589 0.32085836 0.07204449 -0.05459982
000380 ba ca d4 be 68 86 c3 be 8a 04 bc 3e a0 1a 5c 3e
       -0.41560918 -0.3818848 0.36722213 0.21494532
000390 60 f9 c1 bc 78 82 87 3d e8 38 f6 3e b0 d6 d1 be
       -0.023678482 0.06616682 0.4809029 -0.40984106
0003a0 30 4b a3 bd 80 59 ee 3c a8 b1 b2 bd 50 ff 14 bd
       -0.07973325 0.029095411 -0.087252915 -0.036376297
0003b0 e6 a2 e3 be 9a 99 d4 3e 38 a7 0b be 92 cc e0 be
       -0.4446022 0.4152344 -0.13638008 -0.43906075
0003c0 58 55 94 bd 40 fa c7 3d 50 cd 54 be 72 19 bf be
       -0.072428405 0.09764528 -0.20781446 -0.373241
0003d0 98 4d eb 3e f0 17 44 be c8 b3 be 3d 6c d6 48 be
       0.45957637 -0.19149756 0.09311634 -0.19613045
0003e0 2c a6 87 3e 62 4c d8 3e aa 57 f9 be 8c 73 57 3e
       0.26493967 0.42245775 -0.48699695 0.21040171
0003f0 98 b8 fe 3e 70 4c a0 3d a0 86 44 3d f0 a2 b8 be
       0.4975021 0.07827079 0.04797995 -0.3606181

linear1.bias f4 [128]
000000 88 97 e5 3e cc 66 ae be 30 59 f9 be 40 83 a7 3c
       0.44842172 -0.34062803 -0.48700857 0.020448327
000010 88 10 b0 be 88 0d cb be 4c 8c f0 be a0 4c 3c bd
       -0.34387612 -0.3965876 -0.46982038 -0.045971513
000020 58 be dc be c2 31 9b 3e a0 66 a9 bc 4a b2 aa 3e
       -0.4311397 0.303114 -0.020678818 0.3333915
000030 00 38 d7 3a 4a 93 c2 3e 80 ff 75 bc c0 89 c5 3e
       0.0016419888 0.38002998 -0.015014529 0.38581657
000040 58 a8 54 3e d0 65 74 3e 10 b6 d2 be 08 91 31 3e
       0.20767343 0.23866963 -0.41154528 0.17340481
000050 38 2e 5c be 80 23 37 3c 40 e9 f8 bc 00 30 36 ba
       -0.21502006 0.011177897 -0.03038466 -0.00069499016
000060 40 62 e1 bc b6 e6 a2 be a6 bd ee be 1c 7b b6 3e
       -0.02751267 -0.31816643 -0.46629065 0.356408
000070 7a 35 a0 3e 64 c3 87 3e f0 a4 2d 3e d4 5b 70 3e
       0.312908 0.2651626 0.1695745 0.2347253
000080 aa ca fb 3e 12 4f ed 3e bc 2b c7 3e 28 52 f9 3e
       0.49178058 0.46349388 0.38900554 0.48695493
000090 cc 87 1e 3e c4 c3 ed be 54 09 be 3e 04 00 71 3e
       0.1548149 -0.4643842 0.37116492 0.23535162
0000a0 3e 4d 8a 3e 8c 3c b7 be e0 df 46 be 46 11 ad 3e
       0.27012056 -0.3578838 -0.19421339 0.3380224
0000b0 1e 50 a9 be 18 ac 9b 3e 72 3c cc be 96 e5 8e be
       -0.33068937 0.30404735 -0.39889866 -0.27909535
0000c0 5c cc eb 3e 48 61 7e 3e d0 58 a2 bd a0 40 d9 3c
       0.4605435 0.24841797 -0.07927096 0.026520073
0000d0 98 29 08 3e 7e ce b5 3e 52 77 b4 3e 82 ea c7 be
       0.13297117 0.35509104 0.35247284 -0.39046103
0000e0 d2 58 8f 3e 00 4f 0f bd aa 29 b5 3e 54 b2 3a be
       0.27997452 -0.03498745 0.3538335 -0.1823209
0000f0 ba 29 da 3e be 50 d9 3e d8 1c 66 be 00 09 80 bc
       0.4260996 0.42444414 -0.2247194 -0.015629292
000100 f0 87 57 bd 38 b6 77 3e b0 53 d8 3d 70 ee 9b 3e
       -0.052619874 0.24190605 0.10562837 0.3045535
000110 4c b7 d1 be 96 63 d9 3e 62 cc 96 be 62 99 b9 3e
       -0.40960157 0.4245879 -0.29452807 0.36249834
000120 ba fb 85 be bc b2 ea be fc 81 c1 be 4c c0 50 3e
       -0.26168615 -0.45839489 -0.37794483 0.20385855
000130 f0 a9 d0 3d 68 99 9d 3d 44 01 20 be 56 f3 be be
       0.10188663 0.076952755 -0.15625483 -0.37295026
000140 b8 0b cd bd e2 c2 cd 3e f4 f0 05 3e 28 dd 8a 3e
       -0.10012001 0.40187746 0.13080198 0.27121854
000150 30 7d e4 3d 70 f2 58 3e 9e dc bf be 14 37 ff be
       0.1115669 0.21186233 -0.37473005 -0.4984671
000160 1a ce ea be 7c 71 df be 1a 9c bd 3e 28 81 ea 3e
       -0.45860368 -0.4364127 0.3703316 0.45801663
000170 08 f5 83 bd fa d1 f8 be e0 6f 0d be a8 ef b3 3d
       -0.064432204 -0.485977 -0.13812208 0.08785945
000180 50 f5 3f bd 30 30 e2 3e d0 a8 4d be 38 f8 d9 bd
       -0.046864808 0.4417739 -0.20083928 -0.10643047
000190 ea a3 86 be 92 6d 86 3e 68 35 05 be e6 53 fe 3e
       -0.26296932 0.2625547 -0.13008654 0.49673384
0001a0 b8 da c7 be 78 0b 72 be aa fa 90 3e dc c3 01 3e
       -0.39034057 -0.23637187 0.28316242 0.1267237
0001b0 7c da ae 3e ec d5 1c be cc 42 0a 3e c0 e0 04 be
       0.34151065 -0.1531598 0.13502043 -0.1297636
0001c0 46 db ee 3e a0 11 d5 be 38 cf f9 3e 50 85 6e be
       0.46651667 -0.4161501 0.48790908 -0.23293042
0001d0 08 fb 95 bd 8c a3 58 3e 40 19 a3 3e 78 a3 8c be
       -0.07323271 0.21156138 0.31855202 -0.27468467
0001e0 e0 7f 10 be fc 76 8f 3e 00 ad fc bd 8c d2 d8 3e
       -0.1411128 0.28020465 -0.12337685 0.42348135
0001f0 ce ef cb be 70 f0 c5 3d a4 97 21 be 12 d9 d2 3e
       -0.39831394 0.096650004 -0.15780503 0.41181237

linear2.weight f4 [128, 128]
000000 fa 75 13 bd 8c c4 0a bd 14 ea 04 bd d3 bd b0 3d
       -0.036001183 -0.033878848 -0.032449797 0.08629956
000010 fa 36 e3 bc 88 8f 4c 3d 54 a1 94 bc 1d 45 23 3d
       -0.027736176 0.04994157 -0.018143333 0.039860833
000020 33 1a a0 bd 33 63 8a bc d9 80 8f 3b 86 80 9a bd
       -0.07817497 -0.016893005 0.0043793735 -0.07544045
000030 b1 22 87 bd fe 84 b4 bd 61 eb a3 3d 89 5b b3 bb
       -0.06598414 -0.08814429 0.08003879 -0.0054735583
000040 62 83 c3 bc a8 f3 a8 3d 03 4c 83 bc 31 9f 0a 3d
       -0.02386636 0.08249599 -0.016027456 0.033843223
000050 07 8d e7 bc b1 17 28 3d 1c 19 98 bd c3 eb 97 3d
       -0.02826549 0.04103822 -0.07426664 0.07418015
000060 28 47 83 3d cd af 9c 3c ae 7b b2 bd 41 9a 90 bc
       0.06410056 0.019126797 -0.08714996 -0.017651679
000070 83 99 3d bd a3 e1 54 3d 12 a7 60 3c cc 31 dd bc
       -0.04628898 0.051972996 0.013711708 -0.027001284
000080 a3 f5 23 bd 8d ca 96 bb 70 a4 94 bd 80 41 8e 3d
       -0.04002918 -0.0046017827 -0.072579265 0.06946087
000090 1a 8e 21 3c 35 4b ee bc 65 54 53 bd d8 09 50 3d
       0.00986054 -0.029088596 -0.051594157 0.050790638
0000a0 67 37 0a bc 65 49 a2 bd de ba a1 3d a4 4b 02 3b
       -0.0084360605 -0.07924155 0.0789697 0.001988151
0000b0 e3 ce c3 bc ae 23 ac bd c7 ea 84 bd e1 bb cc bc
       -0.023902362 -0.08405243 -0.06490093 -0.024991931
0000c0 f1 b1 75 3c bc e8 94 bd e5 c7 6d 3d b6 3d 8a bd
       0.014996038 -0.07270953 0.058051962 -0.06750052
0000d0 5e 5b 9a 3d 95 a3 b1 bd e8 d7 f1 bc fb d9 aa 3c
       0.07536958 -0.08673779 -0.029521897 0.020855894
0000e0 94 d7 b0 3d 78 93 47 bb 7e f5 62 bd 30 75 42 3d
       0.08634868 -0.0030452888 -0.0554099 0.04747504
0000f0 36 b8 48 bc ac 6c 22 3d 94 04 8d bd d6 22 93 bd
       -0.012250951 0.03965442 -0.06885639 -0.07184379
000100 ba e9 a7 ba 41 7e a6 bc 43 47 61 3d da 30 47 bd
       -0.0012810745 -0.020323874 0.0549996 -0.048630573
000110 44 ec 88 bd 08 de 8e bd 46 7e b0 bd 8b 8c b2 bd
       -0.06685689 -0.06975943 -0.08617835 -0.08718213
000120 b8 68 17 3d de 43 7d 3d 99 a9 b0 bd 79 43 8c 3d
       0.036965102 0.0618323 -0.08626098 0.06848807
000130 c4 36 c8 3c 6c d0 fc ba cc be b3 3b d1 eb 96 bd
       0.024440177 -0.0019288189 0.0054853912 -0.07369197
000140 34 b7 ab bd 4b a7 a9 bb 33 7e 50 3d 1d 75 ad bd
       -0.083845526 -0.0051774136 0.050901603 -0.08469603
000150 f1 4e 9e 3c 50 4e 82 3c d1 5d c7 3b 4f 2e cb bc
       0.019324752 0.015906483 0.006084182 -0.024802355
000160 15 96 9e bd e4 bf 39 3d 4b 3c 84 bc a8 2a 01 3c
       -0.077434696 0.045349017 -0.016142031 0.007883705
000170 b0 de 9d 3a f5 26 76 bd c5 e2 03 3d 34 45 66 3d
       0.0012044515 -0.060095746 0.032198686 0.05621834
000180 d6 58 4f bd 8a da 76 bd 9d cf 3d 3d 1a 3d 9a 3d
       -0.05062183 -0.06026701 0.046340574 0.075311854
000190 c2 bf 5b 3d 1d 06 1d bd 9e 1b 93 bd 4a a2 55 bc
       0.05364967 -0.03833591 -0.07183002 -0.013039181
0001a0 33 d8 eb 3c 70 7c 0d bc 0a 70 ea bc 5b e1 96 ba
       0.028789615 -0.008635625 -0.028617878 -0.0011511253
0001b0 79 ec 35 3d ec d8 95 bd 67 86 aa 3d 62 9f 1a bd
       0.04441497 -0.07316765 0.083264165 -0.037749656
0001c0 93 f8 6f bd bb 7a a0 bd 92 b4 cb bc 21 9d 83 3c
       -0.05858667 -0.07835909 -0.024866376 0.016066136
0001d0 5e 6b 9e bd 9a f3 7c 3b 2e e0 62 bd 7d 20 a5 bd
       -0.077353224 0.0038597346 -0.055389576 -0.08062837
0001e0 9c 18 ed 3c 40 5f b2 bd 51 84 20 3c 90 b5 17 3d
       0.028942399 -0.08709574 0.009797172 0.037038386
0001f0 60 0b 4d 3d 69 24 cf bb a8 7d 50 3d 11 e0 30 bc
       0.050059676 -0.006321479 0.050901085 -0.010795609
000200 dd 11 d5 3b 66 80 58 bd 2e 51 49 bd cd ec 1e bb
       0.0065023736 -0.052856825 -0.049149685 -0.002425003
000210 60 2c a0 3d e9 c6 aa 3c 99 41 ae ba 4c 5e 7b bd
       0.07820964 0.0208468 -0.0013294696 -0.061369225
000220 8a e5 5c bd a7 e9 8c 3d 28 f1 00 bb 65 c0 27 bd
       -0.053929843 0.06880503 -0.001967499 -0.040954966
000230 35 a3 86 bd 6a 08 a3 3d 05 6e 57 3d ca 40 a0 3c
       -0.06574098 0.07960589 0.052595157 0.019562144
000240 04 94 5b 3d a8 70 73 3d 74 0c 15 3d 83 cf 72 bd
       0.053607956 0.05943361 0.03638883 -0.05927993
000250 5d 69 2e 3d c9 61 9c bd 69 54 5d 3d bd 72 b0 3d
       0.04258095 -0.076358385 0.054035578 0.086156346
000260 fa 47 10 3d eb 73 be 3c 08 dc 61 3c 4f 87 84 bd
       0.035224892 0.023248633 0.01378537 -0.064711206
000270 2c 61 a4 3d 00 ac 6c 3c 70 3c a4 bc 60 04 33 bd
       0.080263466 0.014445305 -0.02004835 -0.043705344
000280 6a 7e 85 bd bf 14 7b bd 5a db 5a 3d cc 7d 9c 3d
       -0.06518252 -0.061299082 0.053431846 0.07641181
000290 72 b0 1c bd 79 b5 b4 3d 9f f0 23 bd 41 22 15 3d
       -0.03825421 0.08823676 -0.040024396 0.03640962
0002a0 a6 15 58 3d 4e c4 47 3c 8c d6 34 bd 5d 7e 65 bd
       0.05275502 0.012192799 -0.04414992 -0.056028713
0002b0 1f 4b 2a bd ee bc a0 bb 9d 28 ac 3d 90 a7 8f bd
       -0.041575547 -0.0049053347 0.08406184 -0.07014382
0002c0 02 a1 01 bc cd b2 91 bc 39 ba 9a bc f9 f0 b8 bc
       -0.007911922 -0.017785454 -0.018887626 -0.022575842
0002d0 63 d1 a2 3d 37 81 4c 3d 5b 17 8d 3d 7e 9e 2a 3d
       0.079500936 0.049927916 0.0688922 0.041655056
0002e0 e4 0d 04 bc 6b f8 a8 3d 32 c8 83 3c ea 04 80 3d
       -0.008059952 0.08250507 0.016086672 0.06250937
0002f0 39 6f 05 bd 5a a9 ae bd 68 54 4b bd 4e 6e 25 bd
       -0.032576773 -0.08528395 -0.049641043 -0.040388398
000300 34 16 60 3d e1 15 45 3d 8b b9 19 3c 90 65 b4 3d
       0.054708675 0.04811657 0.009382616 0.08808434
000310 d6 6a 2d bd 8d 18 54 bd 0c 95 11 bd b8 76 3f 3d
       -0.042338215 -0.051781226 -0.035542533 0.04674408
000320 03 39 aa 3d 31 3f 10 3c 6b bf 15 3d 8a 58 99 bd
       0.08311655 0.0088041285 0.036559504 -0.074875906
000330 ec ca 56 3d 31 f6 a7 bc bd de f4 bc fb 2e ab bd
       0.052439615 -0.020503135 -0.029891366 -0.0835857
000340 b5 10 ad bd ea 2f ab 3c c2 e9 0c 3d 52 24 3f 3b
       -0.08450452 0.02089687 0.034402616 0.0029165936
000350 67 63 9d bd 28 a6 bc bc 3b 60 9c 3d ef bd 66 bb
       -0.07684975 -0.023028448 0.07635542 -0.0035208424
000360 62 09 dc bc 08 fe da bc 97 e4 b6 bc c1 f0 62 bd
       -0.026859943 -0.02673246 -0.022325797 -0.055405382
000370 24 eb 79 3d d2 21 90 3d 22 81 ad bc c1 7d b4 3d
       0.061015263 0.07037701 -0.02117974 0.08813048
000380 35 be cf 3a 5d 02 ad bd 56 a1 06 3d d7 21 1c 3d
       0.0015849533 -0.084477164 0.032868706 0.03811821
000390 38 ed 38 bd f3 30 45 bd 8f fa 20 3d a1 6d 34 ba
       -0.045148104 -0.048142385 0.03930145 -0.0006882791
0003a0 f6 58 20 bb 86 20 64 3c 67 12 b6 3c 41 1c 54 bd
       -0.0024467087 0.01392377 0.022225572 -0.051784758
0003b0 0d 83 75 bc 53 93 2e bd b3 da 38 bd 09 46 d9 bc
       -0.014984858 -0.042620968 -0.045130443 -0.026522653
0003c0 36 31 24 bd 5e 99 a7 3d 0d df 63 3d 93 73 f3 3c
       -0.040085994 0.08183549 0.05563264 0.029718196
0003d0 7d e1 72 3c a1 55 30 3d 63 20 73 bd 16 42 0c 3c
       0.014824268 0.043050412 -0.05935706 0.008560678
0003e0 61 7d a4 bd 11 7e e7 3c ee 1c 1f bc 9c 19 4e 3c
       -0.08031727 0.028258355 -0.009711487 0.012579348
0003f0 99 52 4c 3d 3e 35 42 bd 79 69 5a bd 4c 46 95 3d
       0.04988346 -0.047414057 -0.053323243 0.07288799

linear2.bias f4 [128]
000000 25 17 03 bd 4a 7d 0f 3d 17 7f d9 3c 51 7a 2b bd
       -0.032004494 0.035031594 0.026549859 -0.041864697
000010 4d cf 77 3d 67 d8 b4 ba 1b 22 8e 3d bf 58 9c 3d
       0.06050043 -0.0013797403 0.06940099 0.076341145
000020 54 05 ac 3c ad ea 8b bd a4 0f 64 3d 65 3c fc 3c
       0.020998634 -0.0683187 0.05567898 0.030790517
000030 ef fc 85 bd d8 38 24 bd e7 af 5d bd da 61 8e bb
       -0.06542384 -0.040093273 -0.05412283 -0.004345161
000040 e9 04 de 3c f4 90 92 3d fe d8 6c 3a 1e 16 8a 3d
       0.02710195 0.07156554 0.000903502 0.067425
000050 48 13 c3 bc 94 39 1b 3d 64 18 f9 3c a2 a4 0b bd
       -0.023812905 0.037896708 0.030407138 -0.034092553
000060 26 4f b0 bd 4f 57 2c 3d 96 61 47 3d e8 9e e6 bc
       -0.08608846 0.04207545 0.04867705 -0.028151944
000070 60 68 89 bc 1c cf 9d bd 95 af 4a 3d 19 e4 7a 3c
       -0.016773403 -0.077055186 0.049483854 0.015313172
000080 11 dc ac 3c 54 33 59 bd 5f ab 9e 3c 25 fe 1d 3d
       0.02110103 -0.053027466 0.019368825 0.03857245
000090 75 0a 8e bc 77 89 ce bb f5 2d 8c bd c2 eb b0 3c
       -0.01733897 -0.006303008 -0.06844703 0.021596793
0000a0 53 65 0d bb e3 4b 4d bb 1c 36 0c bd 00 78 95 bc
       -0.0021575287 -0.003132575 -0.03423129 -0.018245697
0000b0 74 89 b7 bc 94 c0 28 3d b1 09 28 3d be b5 47 3d
       -0.02240441 0.04119928 0.041024867 0.048757307
0000c0 51 3a 84 3d 7e 94 74 bd 0f 65 ea bc 9b 5a 9b 3d
       0.064564355 -0.059711926 -0.028612642 0.07585641
0000d0 04 bc 26 bd c1 c6 2c bd b9 89 80 bc 8a 7a 35 bd
       -0.04070665 -0.042181734 -0.015690671 -0.044306315
0000e0 de 93 ba bc e3 d4 b2 3d 1a de d2 3c ad 81 05 bd
       -0.022775587 0.08732011 0.025740672 -0.03259437
0000f0 17 33 43 bd a0 1e 24 bd 33 b5 a8 bc 75 5c 06 3d
       -0.047656145 -0.04006827 -0.020594215 0.032803018
000100 1b 30 5f 3d 80 84 a0 bd 68 35 94 bc d6 32 ab bd
       0.054489236 -0.07837772 -0.018091872 -0.083593056
000110 64 f1 af bd cf 21 a9 bd 85 51 02 bc 95 31 c2 bb
       -0.085909635 -0.082584016 -0.007954006 -0.005926321
000120 c6 dc 2a 3d 58 a4 7b 3d 9a 32 4e 3d 06 2c a7 3d
       0.041714452 0.061436027 0.050341226 0.08162694
000130 5d f5 85 bd 1d 28 85 bc f2 97 51 bd 8f 4c 8b 3d
       -0.0654094 -0.016254479 -0.051170297 0.06801712
000140 5a 62 98 3d a5 52 92 bd ff 45 0e bd 42 11 a0 bd
       0.07440634 -0.071446694 -0.034734722 -0.07815792
000150 f5 b4 b0 bc f0 6f b1 3d 01 30 16 bd ab 42 56 bc
       -0.021570662 0.086639285 -0.036666874 -0.013077418
000160 e3 5f 05 3c 6e 6b 1d bb c4 df 6e 3d 88 b4 b2 3d
       0.008140537 -0.0024020332 0.05831887 0.0872584
000170 61 cb 42 3c 6a 9e bd 3c 3d 90 9f 3d 54 ce 97 bd
       0.01188931 0.023146827 0.07791183 -0.07412401
000180 19 ad 88 bd b8 f9 ca bc 2c 14 af 3d 7c d4 a0 bd
       -0.06673641 -0.024777278 0.08548769 -0.07853028
000190 2d 6e 4c bd d5 d2 b4 bd ce 7c a8 bb 04 28 03 3d
       -0.04990976 -0.088292755 -0.005141831 0.032020584
0001a0 89 fa a0 bd e5 36 64 bd 13 dd 84 bd 17 75 86 bd
       -0.07860286 -0.055716414 -0.06487479 -0.06565302
0001b0 8c 12 d9 3c 28 cd 7b bd 01 0a ed 3c 4f 18 9a bd
       0.026498102 -0.06147495 0.028935434 -0.07524168
0001c0 02 85 64 bd 14 c0 8e 3d 7b af 6e bd 9f 46 98 3b
       -0.05579091 0.0697023 -0.05827282 0.0046470906
0001d0 41 60 9a bd 70 82 9e 3d dc 18 24 3d a0 89 34 3d
       -0.0753789 0.07739723 0.04006277 0.044076562
0001e0 68 15 9f bd bc c3 1e 3d 68 e1 91 3d c3 9f a8 3d
       -0.07767755 0.038760886 0.07123071 0.08233597
0001f0 2c dc 10 3d a6 d8 8b bd 3b b0 e2 3c b5 33 b5 3c
       0.035366222 -0.06828432 0.027671924 0.022119382

output_layer.weight f4 [2, 128]
000000 87 d4 2d 3b 57 24 04 bd 05 f1 e6 bb 01 bc 93 bc
       0.0026524381 -0.03226122 -0.0070477747 -0.018033983
000010 bb a0 80 bd aa 5a 48 bd 43 63 98 3d 2f 6b 43 3d
       -0.06280657 -0.04891459 0.07440808 0.04770964
000020 d5 74 9d bd 66 07 8d 3d 63 d8 a6 3c ea ae 84 3c
       -0.076882996 0.06886177 0.020366853 0.016196687
000030 b3 82 b4 3d ca 12 4b bd 36 8b 9c 3c 2b 5e 72 3d
       0.088139914 -0.049578466 0.01910935 0.059171837
000040 e4 14 c4 bc a0 57 90 bd 8b b5 a4 bd 14 02 28 3d
       -0.023935743 -0.07047963 -0.08042439 0.041017607
000050 18 7d 97 bc 7e f7 c9 3c 10 b0 d4 3c 8c a5 18 bc
       -0.018492267 0.024654146 0.02596286 -0.009316813
000060 c4 ce 88 bd b4 7c 07 3d c2 f4 0d 3d a9 c9 ae 3d
       -0.066800624 0.03307791 0.034657247 0.08534557
000070 3a 49 95 3d c6 0b 79 3d 4d fe ae 3d 66 e6 19 bd
       0.072893575 0.060802244 0.08544598 -0.03757324
000080 48 1e ff 3c 46 b5 00 3d fe 0d 60 bd fd 50 a9 3d
       0.031142369 0.031422876 -0.054700844 0.082674004
000090 8f 12 e4 bc 58 a6 59 bd 5e 61 60 bd 7c cc 6a 3d
       -0.02784088 -0.053137153 -0.054780357 0.057323918
0000a0 37 44 02 3b 0a 4d ae 3d f2 89 9d 3d e1 70 7d bd
       0.0019877085 0.08510788 0.076923266 -0.061875228
0000b0 34 97 ab bd 2e d0 87 3d bc b5 01 bc 4d d0 bb 3c
       -0.08378449 0.06631504 -0.007916864 0.022926474
0000c0 ed 2c 41 3a be 17 8b bd fd 28 6a bd ef ed 9d bd
       0.000736906 -0.06791638 -0.057167996 -0.07711398
0000d0 bf e6 87 3d 59 ac 69 3c 56 07 a8 bb d8 ed ed 3c
       0.06635808 0.014262282 -0.0051278276 0.029044077
0000e0 b6 c2 9c bd 1c 76 17 bc 2e fd 99 bd dd 9b 90 bd
       -0.07654326 -0.009244468 -0.07518993 -0.070609786
0000f0 6b 36 ed bb 5e c2 d6 3c 0d 8d 4d bd 6a 50 6b bd
       -0.007239153 0.026215728 -0.050183345 -0.057449736
000100 21 ad fd 3c b8 ad 91 3c b2 dd f5 bb 2f 70 ba bc
       0.030966343 0.01778303 -0.007503235 -0.022758571
000110 44 e9 89 3d 74 e1 9a bd 32 cb f6 bc 03 d3 b4 bd
       0.06733945 -0.07562533 -0.030126188 -0.0882931
000120 7a 4d cd 3c 83 18 a6 3d b0 e0 a5 bd 8c 0e 3c 3d
       0.025061358 0.08110144 -0.08099496 0.04591231
000130 e3 00 97 3c 9a bb 57 bc cd 2e ad 3b 4a 8c 47 3d
       0.01843304 -0.013167286 0.00528512 0.048717774
000140 0f d6 17 3d 90 18 81 bd 24 93 2d 3d d2 76 71 bd
       0.037069377 -0.06303513 0.042376652 -0.058951207
000150 c0 b2 29 3d fd e7 95 bd ed f5 7b 3d 4e 24 a0 3c
       0.041430235 -0.07319639 0.06151383 0.019548561
000160 56 29 c3 b7 45 ee 86 bd 2d 54 91 3d 4e 43 9c bd
       -2.326506e-05 -0.06588415 0.070961334 -0.07630025
000170 cc 7e 23 bd 8e 01 4d bc 71 11 e6 3c 61 5e eb 3c
       -0.039915845 -0.012512578 0.028084489 0.028731527
000180 0f 0c 06 bd f5 52 88 3d d4 32 85 bd b7 d4 79 3d
       -0.032726344 0.06656448 -0.06503835 0.060993876
000190 b3 56 39 3d eb 65 3c bd a8 66 6f 3d 10 e6 b3 3d
       0.0452487 -0.045995634 0.05844751 0.08784115
0001a0 0e 67 60 bd 71 71 3c bd 77 3c 1a bd b9 63 48 bd
       -0.05478578 -0.046006624 -0.03765532 -0.048923228
0001b0 31 77 8a 3d e6 27 08 bc c3 1e ac bc 0f 4a 22 3c
       0.06761015 -0.008310294 -0.021010762 0.009905352
0001c0 d0 cf b3 bc 9a 43 71 bd 13 0c 8b 3d 05 b3 d0 3c
       -0.021949679 -0.05890236 0.06789412 0.025475988
0001d0 b1 77 9d bd 9b 35 03 3c ba 33 46 3d c0 18 b9 3c
       -0.07688845 0.008008386 0.048389174 0.02259481
0001e0 56 a6 00 3c b4 b8 19 bd 4a 36 7d 3d 1f 0b 4f bd
       0.007852158 -0.037529662 0.061819352 -0.050547715
0001f0 5e fa 57 bd 0a 77 58 3d b8 76 3b bd 6e ed 64 bd
       -0.052729003 0.0528479 -0.045767516 -0.055890493
000200 1f 30 89 bd bd 03 6b bc 4c 9d 9e bd 54 ff ae 3d
       -0.066986315 -0.014344153 -0.07744846 0.08544794
000210 3c 4c 72 3d 3c 03 96 3b 3f 26 42 3d 05 5f 0f bd
       0.059154734 0.0045780223 0.047399756 -0.035002727
000220 16 2c 43 bd 38 38 b4 bd e7 b2 58 3d 7c 2e b4 bd
       -0.047649466 -0.087997854 0.05290499 -0.08797929
000230 cb fb 9c bc 80 52 15 3c 73 d2 98 3d 7f 21 94 bd
       -0.019163033 0.009113908 0.07462015 -0.072329514
000240 f2 22 86 3d 26 69 b3 3c 60 3f 54 bd 05 0d 38 3d
       0.06549634 0.021900725 -0.05181825 0.04493429
000250 f1 d7 81 bc 86 0e 8e bd 0c ba 3f bb 04 33 90 3c
       -0.01585004 -0.06936364 -0.002925518 0.017602451
000260 31 c1 07 3c 0a 37 53 bc 07 f2 b2 bd fa 8c 9f 3d
       0.0082858065 -0.01289154 -0.08737569 0.07790561
000270 0b 97 9a bd 47 92 47 3d c6 9f aa 3d 51 59 89 bd
       -0.075483404 0.048723485 0.083312556 -0.06706489
000280 43 b7 4c 3d 98 32 06 bd e5 86 97 3d 5a 1b 93 3d
       0.04997946 -0.032763094 0.07398776 0.07182951
000290 15 95 b3 bd 45 94 0d bd 21 99 b6 bc a0 09 a4 3d
       -0.087686695 -0.03456523 -0.022289814 0.08009648
0002a0 dc 9a 6f bc 67 97 97 3d a7 bc 16 3d 44 1a 65 b8
       -0.014624324 0.074019246 0.036801007 -5.4622316e-05
0002b0 70 0e 86 3d 57 95 99 bd cb 30 17 3d fa 5c a7 3d
       0.065457225 -0.074991874 0.036911767 0.08172031
0002c0 c9 4c 81 3d 31 ba 4e bd 8e de 99 bc c7 5f ae bd
       0.06313474 -0.050470535 -0.01878288 -0.08514362
0002d0 27 52 ba 3c f5 fa bd 3c 7e cb a4 3b 94 53 16 3a
       0.022744251 0.023190955 0.005029141 0.00057345
0002e0 be b8 09 3c 11 90 5c bd 79 36 88 bd 49 f5 ae bd
       0.008405862 -0.05384833 -0.06651015 -0.08542878
0002f0 6b 5e 31 3c 19 d2 8c bd ed 37 55 bd 89 d2 77 3d
       0.010825734 -0.068760104 -0.052055288 0.060503516
000300 51 ba a6 3d 35 44 1d 3d 21 08 a7 3d 3c 2d e3 bb
       0.08141006 0.038395125 0.08155847 -0.0069328826
000310 03 bf 36 bd 44 ad f8 bc fc db 3c bd 42 2c 03 bd
       -0.044615757 -0.030356057 -0.04610823 -0.03202463
000320 67 dc e2 3c 19 2a 9c 3d 65 b8 79 bd 75 a1 a2 3d
       0.027692987 0.07625217 -0.060966868 0.07940952
000330 bd 96 84 3c bd 96 f1 3c fa 35 a3 bd 55 e2 26 bc
       0.016185159 0.029490823 -0.079692796 -0.010185798
000340 f5 31 12 3d 32 56 36 bc cf 3a a8 3d 78 ab 8b 3d
       0.035692174 -0.011128949 0.08214342 0.068198144
000350 04 10 60 bc 79 9e 88 bb ac 5a af bd 69 38 16 3d
       -0.013675693 -0.004169282 -0.08562216 0.03667489
000360 1b c5 b1 bc 1a 8f 28 3d 4e 12 40 bd 95 89 a7 3d
       -0.021700433 0.041152097 -0.046892457 0.081805386
000370 9b 7e 96 bd 06 d6 fe bc 3c 6d 3c bc 8b e8 32 bb
       -0.07348367 -0.031107914 -0.011500653 -0.002729925
000380 60 6f 36 bd 76 9a 80 bd 5c 90 8f bc a1 55 7a 3d
       -0.04453981 -0.06279461 -0.01752489 0.06111682
000390 1d 4e b1 bc ae 40 2c bd b7 c3 83 3d 1d b0 f4 3b
       -0.021643693 -0.04205387 0.06433814 0.0074672834
0003a0 bb 67 f3 3c 23 ef 67 3c 7f 97 35 3d 71 fc 8b 3d
       0.029712548 0.014156136 0.04433393 0.06835259
0003b0 5b 2f 26 bd 2b 35 3d 3c 49 f9 ad bd c5 b3 af 3d
       -0.040572505 0.011548321 -0.08494813 0.0857921
0003c0 43 62 ad bd db 63 f0 bb eb 7f 3e 3c c5 7a c6 bc
       -0.084660076 -0.0073361224 0.011627178 -0.024228463
0003d0 8d f8 2c bd d1 77 34 bd af 73 12 bc 40 bb f0 bc
       -0.042229224 -0.04405958 -0.008938714 -0.029386163
0003e0 0a 33 92 bd ba 71 3f 3d 69 2a fb 3c 8c be 5e 3d
       -0.07138641 0.046739317 0.030659871 0.05438094
0003f0 82 df 60 bc 01 ff ad bd b0 de 8a bd 96 88 2c 3c
       -0.013725163 -0.08495904 -0.067807555 0.0105306115

output_layer.bias f4 [2]
000000 13 61 aa 3d 21 d3 d8 bc
       0.08319297 -0.026467862
