results/models/exp-3:batchsize=128,lr=1e-4,layers=6,num_episodes_train=1500,adam-corrected/1/model-31.0.pt (torch, 12706 bytes, 10 tensors)

linear1.weight f4 [16, 4]
0.4010469 0.4151759 0.094320245 -0.034044094 -0.027691467 -0.3080918 0.40317163 0.2958141
0.020987818 -0.23229864 0.4011503 0.53838366 -0.16315362 -0.40926102 0.36356932 -0.30445996
-0.0006220216 0.21526103 0.34298798 -0.038976658 -0.23000497 0.14004236 0.06375265 0.13888192
0.18559328 0.2689108 0.09158663 -0.15553223 0.4900364 -0.11867601 0.11704352 -0.4615333
-0.340392 -0.20948948 -0.50335836 -0.21102345 -0.024854189 0.24696197 0.4765159 -0.22605692
-0.23077105 -0.04353443 -0.16076624 0.45439672 -0.06637619 0.20823431 -0.24047439 0.55008304
-0.11921504 -0.3849812 -0.19277371 0.17089093 0.09206833 0.39056984 -0.020960923 0.41697037
0.5534369 0.07864633 0.23683648 0.090806805 0.3978166 -0.36908233 -0.0638566 -0.13339943
00000000: 0556 cd3e f091 d43e f92a c13d d271 0bbd
00000010: 37d9 e2bc 35be 9dbe 836c ce3e f274 973e
00000020: a5ee ab3c b2df 6dbe 9263 cd3e 83d3 093f
00000030: be11 27be a98a d1be c225 ba3e 2de2 9bbe
00000040: 2a0f 23ba 636d 5c3e 1f9c af3e fda5 1fbd
00000050: 6c86 6bbe 4467 0f3e c090 823d 1037 0e3e
00000060: 2a0c 3e3e adae 893e c591 bb3d d743 1fbe
00000070: 0de6 fa3e 680c f3bd 83b4 ef3d 184e ecbe
00000080: dc47 aebe 6984 56be 18dc 00bf 8816 58be
00000090: 039b cbbc 99e3 7c3e e4f9 f33e 777b 67be
000000a0: 3f4f 6cbe 2951 32bd e89f 24be b0a6 e83e
000000b0: 3df0 87bd 603b 553e eb3e 76be 3ed2 0c3f
000000c0: 0427 f4bd 411c c5be 7966 45be 08fe 2e3e
000000d0: 528e bc3d c5f8 c73e 3eb6 abbc 247d d53e
000000e0: 0aae 0d3f 5411 a13d 4385 723e ebf8 b93d
000000f0: 9eae cb3e 5cf8 bcbe 40c7 82bd dc99 08be

linear1.bias f4 [16]
-0.121730715 0.57879966 -0.23790872 0.5161973 0.3667809 -0.3612818 -0.28836995 -0.07385427
0.263161 -0.032307986 0.27724016 -0.09110619 0.5396588 -0.42942715 0.29450384 -0.47668803
00000000: f44d f9bd 372c 143f 589e 73be 8225 043f
00000010: b5ca bb3e eef9 b8be 3aa5 93be e840 97bd
00000020: 0abd 863e 6155 04bd 6cf2 8d3e e295 babd
00000030: 1427 0a3f e0dd dbbe 35c9 963e 7410 f4be

linear2.weight f4 [32, 16]
0.0794844 -0.071988046 0.13376561 0.052874774 -0.079627186 0.055346042 0.03249982 0.18446967
-0.060556263 -0.14774695 0.12976855 -0.16191855 -0.06204784 -0.09059924 0.057241887 -0.23841572
0.055835 -0.086096525 -0.09842086 0.08567764 0.19052453 0.03493482 -0.07455827 -0.33004513
0.1638921 -0.11688089 -0.14931138 -0.03355186 0.2852659 0.18268119 -0.01271903 0.04491222
0.4168414 -0.030822644 0.41553104 -0.047335144 -0.1504534 0.06704125 -0.018836271 0.10188129
0.10803884 0.37290022 0.15141144 0.4124805 0.16892676 0.26172984 0.13307574 0.14736295
0.114282995 0.18440805 -0.25164363 0.13678293 0.21079805 0.18052927 -0.10458635 -0.054370936
0.04303811 0.044081576 0.27589503 -0.18065837 0.2601669 -0.08063048 0.38225466 -0.13248673
0.29978058 -0.36233556 0.23645332 0.059389673 0.1799364 0.22369048 0.2866212 0.46746337
0.12815239 0.17617172 -0.33606055 -0.17187923 -0.082186036 -0.06884119 0.18920432 0.14650238
0.18786736 -0.3525281 -0.06894973 0.013773915 0.34465373 0.14829189 0.3101008 0.2401805
0.39758387 0.04425953 -0.31085837 -0.16016248 0.14834023 0.15322524 -0.17749177 -0.039903253
0.016794011 0.17977518 -0.13281955 0.035934195 0.31426308 -0.046973735 0.20134379 -0.21919332
0.46679398 -0.16507633 0.24500287 0.0077071656 -0.023565413 -0.2298897 -0.02570824 -0.21135786
0.21721892 -0.28522953 -0.18649614 0.12400331 0.23326422 0.104382366 -0.05305302 0.34304366
-0.102319814 0.14840405 0.16052851 -0.11415703 0.07859376 -0.22983259 0.07952564 -0.21075758
-0.3448871 -0.07632092 -0.22704929 0.2205398 0.09653654 -0.11177671 -0.22625534 -0.14717159
0.4002548 -0.07359127 0.19117478 -0.112325646 0.3049878 -0.009063039 0.24280688 0.046633214
-0.0021992628 0.14784089 -0.23858126 0.40402 0.044667896 0.0029768348 0.009885594 -0.40019763
0.21091016 0.050492857 -0.19305508 -0.14163585 0.008795587 -0.28126827 -0.07689345 0.20903668
-0.14813632 -0.036573853 -0.09092705 0.19726664 0.3070291 0.13819593 0.12421856 -0.41835466
0.38167405 0.004201965 0.07960063 -0.11571238 0.2899556 -0.21823017 0.10859447 0.01821205
-0.10901307 0.12222775 -0.10167025 0.020857893 0.27462476 -0.021526515 -0.16489476 -0.24363855
-0.0558778 -0.06877686 0.2081003 -0.28442854 0.005623069 -0.0561804 0.054602563 -0.10570231
-0.16027495 0.25905144 -0.100397505 0.1911018 0.20555903 -0.08723527 0.12403967 -0.12865165
0.10764663 0.12571558 -0.05373442 -0.057803463 -0.046551783 0.12934805 0.0024270862 0.19082099
0.15794559 0.05269998 -0.25713196 0.045983143 0.30868787 0.15416533 0.15229233 -0.14731924
0.11934486 0.16546391 -0.056240316 -0.22716853 0.029968832 0.13468851 0.097005606 -0.16169381
-0.07252303 0.023774922 -0.040556073 -0.12876314 0.025446385 0.045280278 0.20976228 0.068371356
-0.22713563 -0.1915775 -0.21263778 -0.08648491 -0.1793277 -0.20360333 -0.015043616 -0.064561814
-0.21016544 -0.13688612 0.20141336 -0.2344963 -0.09682992 -0.14353505 -0.037367553 0.15151203
-0.2466451 0.2345061 0.18115905 -0.24036896 -0.019949943 -0.031780034 -0.18117985 0.11992344
00000000: b8c8 a23d 786e 93bd daf9 083e 3893 583d
00000010: 9413 a3bd 88b2 623d 881e 053d 9ee5 3c3e
00000020: d809 78bd fa4a 17be 0ce2 043e facd 25be
00000030: e025 7ebd 188c b9bd 7876 6a3d 4023 74be
00000040: 3eb3 643d 6053 b0bd e090 c9bd c277 af3d
00000050: dd18 433e d017 0f3d 02b2 98bd adfb a8be
00000060: 55d3 273e 405f efbd 15e5 18be ad6d 09bd
00000070: 5f0e 923e c710 3b3e 7a63 50bc e0f5 373d
00000080: 3c6c d53e c57f fcbc 7cc0 d43e 7fe2 41bd
00000090: 7510 1abe ec4c 893d 864e 9abc 23a7 d03d
000000a0: 7843 dd3d c7ec be3e 9a0b 1b3e a530 d33e
000000b0: 23fb 2c3e 7401 863e 0245 083e 50e6 163e
000000c0: 340d ea3d 77d5 3c3e 6fd7 80be d310 0c3e
000000d0: 72db 573e aadc 383e 5e31 d6bd 0fb4 5ebd
000000e0: bb48 303d e28e 343d 1d42 8d3e 82fe 38be
000000f0: 9934 853e 9821 a5bd e2b6 c33e 9aaa 07be
00000100: d77c 993e 0c84 b9be d220 723e 9642 733d
00000110: 3f41 383e 1e0f 653e 04c0 923e 5c57 ef3e
00000120: 613a 033e 5c66 343e 2110 acbe 1c01 30be
00000130: 2751 a8bd 9cfc 8cbd c7be 413e b804 163e
00000140: 4d60 403e 907e b4be 8435 8dbd fdab 613c
00000150: 7476 b03e d4d9 173e 88c5 9e3e e1f1 753e
00000160: 1d90 cb3e 7b49 353d d428 9fbe a201 24be
00000170: 80e6 173e 14e7 1c3e 67c0 35be 9871 23bd
00000180: 9893 893c fc16 383e d901 08be bc2f 133d
00000190: 17e7 a03e 8867 40bd 112d 4e3e 3774 60be
000001a0: 9fff ee3e c509 29be 08e2 7a3e 648c fc3b
000001b0: 410c c1bc 3568 6bbe 169a d2bc 326e 58be
000001c0: a36e 5e3e 9b09 92be d8f8 3ebe 73f5 fd3d
000001d0: d1dc 6e3e 6cc6 d53d 204e 59bd 6ba3 af3e
000001e0: 0d8d d1bd 3bf7 173e 9661 243e 29cb e9bd
000001f0: c4f5 a03d 3c59 6bbe 57de a23d d6d0 57be
00000200: 0b95 b0be 244e 9cbd 9c7f 68be 2fd5 613e
00000210: f3b4 c53d 30eb e4bd 7baf 67be 26b4 16be
00000220: 32ee cc3e 05b7 96bd 52c3 433e fd0a e6bd
00000230: 5c27 9c3e 247d 14bc 5ea2 783e 7802 3f3d
00000240: 8221 10bb 9a63 173e a54e 74be b6db ce3e
00000250: aff5 363d 0017 433b 30f7 213c b4e6 ccbe
00000260: d5f8 573e 99d1 4e3d 3bb0 45be fd08 11be
00000270: 5e1b 103c 6502 90be 507a 9dbd b60d 563e
00000280: 0cb1 17be 77ce 15bd f637 babd 4400 4a3e
00000290: eb32 9d3e 3c83 0d3e 4d66 fe3d 9532 d6be
000002a0: c86a c33e a3b0 893b a805 a33d 9dfa ecbd
000002b0: 0f75 943e bb77 5fbe c766 de3d 7031 953c
000002c0: 3f42 dfbd 8b52 fa3d 7e38 d0bd 2cde aa3c
000002d0: 9e9b 8c3e 6058 b0bc 2cda 28be 627c 79be
000002e0: 1fe0 64bd e2da 8cbd 3f18 553e 9ea0 91be
000002f0: b941 b83b 6b1d 66bd f0a6 5f3d 747a d8bd
00000300: 1e1f 24be 64a2 843e 359d cdbd 31b0 433e
00000310: 117e 523e 68a8 b2bd 8308 fe3d 42bd 03be
00000320: d675 dc3d 96bb 003e a018 5cbd 53c3 6cbd
00000330: 15ad 3ebd d173 043e c00f 1f3b 9466 433e
00000340: 7dbc 213e efdb 573d cda6 83be d258 3c3d
00000350: 560c 9e3e 84dd 1d3e 85f2 1b3e dbda 16be
00000360: 146b f43d 5f6f 293e 3f5c 66bd de9e 68be
00000370: 3281 f53c c9eb 093e e0aa c63d 1093 25be
00000380: f486 94bd a0c3 c23c 201e 26bd 7cda 03be
00000390: f074 d03c d077 393d eccb 563e 4806 8c3d
000003a0: 3e96 68be e42c 44be b8bd 59be 001f b1bd
000003b0: aea1 37be 647d 50be 8079 76bc fc38 84bd
000003c0: 9c35 57be e02b 0cbe 4e3f 4e3e cc1f 70be
000003d0: c44e c6bd dafa 12be b80e 19bd f825 1b3e
000003e0: 8890 7cbe 5e22 703e c281 393e 4823 76be
000003f0: 106e a3bc c82b 02bd 3687 39be 6c9a f53d

linear2.bias f4 [32]
-0.22015125 0.4060144 -0.04438339 0.04537776 -0.042052925 -0.098774746 0.14667225 -0.1093291
-0.012325344 0.18737729 0.0017781495 0.3287965 0.33770427 0.28267774 -0.05443585 -0.14829645
0.40887383 0.34338164 0.17439938 0.19923398 -0.005911501 0.25479743 0.1745206 0.30310217
0.2084729 0.14896868 -0.08900069 -0.21832314 0.3386059 -0.02003618 0.06384103 -0.13815127
00000000: 546f 61be 1fe1 cf3e 5ccb 35bd 08de 393d
00000010: b03f 2cbd 6a4a cabd 4031 163e efe7 dfbd
00000020: 3df0 49bc d5df 3f3e cc10 e93a 0458 a83e
00000030: 93e7 ac3e 23bb 903e 20f8 5ebd 06db 17be
00000040: e957 d13e b8cf af3e c095 323e fe03 4c3e
00000050: 44b5 c1bb cf74 823e 87b5 323e 3530 9b3e
00000060: eb79 553e 3f8b 183e fe45 b6bd 1a90 5fbe
00000070: c15d ad3e ea22 a4bc 16bf 823d 8777 0dbe

linear3.weight f4 [32, 32]
-0.1599097 0.31553248 -0.23673368 0.0280783 -0.1600031 -0.12403507 -0.032637473 -0.1508134
0.27448314 0.2074915 0.016534882 0.07927712 0.0912663 0.3400865 -0.108270444 0.15329255
0.09293225 0.30778542 0.119066514 0.25299582 -0.23549101 0.18804246 0.37457114 0.19615935
0.22579919 0.03443248 0.09979945 0.11189994 0.019539025 0.14187314 0.151022 0.14537108
-0.08565255 0.25032207 -0.33080867 0.28356564 -0.35294944 -0.401334 0.06936597 -0.14476062
0.023132391 0.09841579 0.16312158 0.11331105 0.15056677 0.3755555 -0.019796312 -0.11521446
0.3093185 0.13400692 0.32674196 0.12545629 0.07098686 0.11893772 0.26625443 0.19229057
0.34540468 0.21575707 0.12350949 -0.10388372 0.081632234 -0.08823069 0.13806112 0.08981155
-0.1573104 0.0459687 0.27817717 0.005809539 0.023258144 -0.113319814 -0.115959994 0.14259705
0.05779718 -0.19974416 0.22067273 0.20391865 0.17696795 -0.34302494 0.079106934 0.16363941
-0.0655604 -0.115548015 -0.10897828 -0.10418456 0.12508446 0.20814826 -0.30848342 -0.013272896
0.059317425 0.2243664 -0.055748098 0.0033386415 -0.055411443 0.085441016 0.22463347 -0.13301897
-0.12360701 -0.08428812 0.15511209 -0.19155139 0.12911272 0.08785871 -0.19611482 0.16312589
-0.16946849 0.102761485 0.1096004 0.115756966 0.11539712 -0.24170445 -0.037923798 0.13628009
-0.026821021 0.003641415 0.07380568 0.07047565 -0.016867949 -0.014853362 -0.06469425 0.016061172
-0.054137148 -0.18049194 0.14982642 0.15679823 0.056430303 0.090720184 -0.1529039 -0.08974781
-0.1051932 -0.16478972 0.027786363 0.09949267 0.04863961 -0.07367132 0.044216342 -0.14591548
0.029366048 0.09263487 -0.0055820337 -0.037453923 -0.0072583617 -0.07910696 -0.13013834 0.15483283
-0.15831347 -0.097778894 -0.13772918 -0.05840158 0.020194914 -0.15846609 -0.06987809 -0.02662469
-0.079048686 0.116123036 -0.12978749 0.09866823 -0.08621578 0.15487517 -0.12052905 0.022980126
-0.13222541 0.08707257 -0.37715924 0.087726735 -0.35022083 -0.12684286 0.21626076 -0.061505686
0.19792978 0.33143649 0.13690844 0.19070175 0.110364966 0.23420632 -0.16312605 -0.0846985
-0.014858838 0.09837807 0.094381325 0.15604648 -0.24648218 0.28166607 0.1123248 0.19632317
0.032269593 0.1925323 -0.10333834 -0.118255 0.25477764 0.122152835 0.178904 0.13438252
0.024803778 -0.09932405 -0.069893025 -0.077985495 -0.07326258 0.046075102 -0.08507952 -0.046912666
-0.09263881 -0.061822083 0.1458628 -0.04291903 -0.17050806 0.009338203 -0.0338239 -0.060179375
0.01860574 0.16796839 -0.17450067 -0.045931343 -0.056876075 -0.08014415 -0.15928668 0.011465439
-0.030596983 -0.12811086 -0.026634153 -0.1439574 -0.034763616 0.026035162 -0.1596939 -0.08939235
0.10201326 0.27780396 -0.03040871 -0.0590851 -0.23361924 -0.11445362 0.086241 0.04611148
0.08087635 0.098621644 0.30515313 0.2710934 0.25143158 0.1930021 -0.110132895 -0.14943121
0.19856942 0.16098842 0.070490964 0.2938245 0.060596168 0.15366702 0.21618924 0.3311049
0.34069526 0.14583421 0.06555865 -0.083081216 0.21926595 0.01112965 -0.023272369 -0.04811498
00000000: 5ebf 23be 798d a13e 506a 72be 7704 e63c
00000010: dad7 23be 1906 febd dfae 05bd d46e 1abe
00000020: 0e89 8c3e a778 543e 2974 873c 0b5c a23d
00000030: d3e9 ba3d d11f ae3e e5bc ddbd b9f8 1c3e
00000040: 4353 be3d 0d96 9d3e 25d9 f33d ab88 813e
00000050: 8e24 71be 348e 403e cac7 bf3e ffdd 483e
00000060: e737 673e 1209 0d3d a763 cc3d cc2b e53d
00000070: 4e10 a03c 3147 113e 83a5 1a3e 28dc 143e
00000080: 9b6a afbd 372a 803e c15f a9be 842f 913e
00000090: cab5 b4be a67b cdbe bf0f 8e3d 213c 14be
000000a0: 2480 bd3c 388e c93d 5809 273e a00f e83d
000000b0: 2d2e 1a3e cf48 c03e e02b a2bc 8ff5 ebbd
000000c0: ff5e 9e3e 1c39 093e b94a a73e 9d77 003e
000000d0: 8f61 913d 9f95 f33d 8052 883e d2e7 443e
000000e0: e2d8 b03e 6cef 5c3e 8bf2 fc3d fdc0 d4bd
000000f0: cd2e a73d 4bb2 b4bd e55f 0d3e 1eef b73d
00000100: fa15 21be ad49 3c3d 3d6d 8e3e f25d be3b
00000110: dd87 be3c 3814 e8bd 6f7c edbd f604 123e
00000120: bcbc 6c3d bc89 4cbe 08f8 613e 0dd0 503e
00000130: 1637 353e f7a0 afbe d102 a23d 1791 273e
00000140: 8844 86bd 70a4 ecbd 0130 dfbd b75e d5bd
00000150: 2416 003e d124 553e 8af1 9dbe 9076 59bc
00000160: d4f6 723d 4ec0 653e 1e58 64bd 1ccd 5a3b
00000170: 1cf7 62bd b3fb ae3d 5106 663e 2036 08be
00000180: ac25 fdbd 409f acbd b4d5 1e3e 0c26 44be
00000190: 2036 043e 44ef b33d 53d2 48be 790a 273e
000001a0: 2689 2dbe 9d74 d23d 2d76 e03d fd11 ed3d
000001b0: 5355 ec3d 5f81 77be fc55 1bbd 028d 0b3e
000001c0: c2b7 dbbc cea4 6e3b 6f27 973d 8a55 903d
000001d0: a72e 8abc 845b 73bc 6b7e 84bd b892 833c
000001e0: eabe 5dbd e1d2 38be 196c 193e b78f 203e
000001f0: 7623 673d 81cb b93d d792 1cbe b3cd b7bd
00000200: 886f d7bd a3be 28be 3aa0 e33c d0c2 cb3d
00000210: 543a 473d fde0 96bd 321c 353d de6a 15be
00000220: 1191 f03c 5ab7 bd3d 7ee9 b6bb 4969 19bd
00000230: 8dd7 edbb d402 a2bd fc42 05be 7f8c 1e3e
00000240: ed1c 22be 4d40 c8bd e108 0dbe 7f36 6fbd
00000250: ce6f a53c ef44 22be 3e1c 8fbd 061c dabc
00000260: 47e4 a1bd ead1 ed3d 03e7 04be 9212 ca3d
00000270: e691 b0bd 9997 1e3e efd7 f6bd d140 bc3c
00000280: 1966 07be 1b53 b23d 041b c1be 13aa b33d
00000290: 2550 b3be 18e3 01be 7673 5d3e 63ed 7bbd
000002a0: 1bae 4a3e 0bb2 a93e ba31 0c3e 5247 433e
000002b0: 0707 e23d c8d3 6f3e 840a 27be 6876 adbd
000002c0: 7c72 73bc 717a c93d ff4a c13d a6ca 1f3e
000002d0: d365 7cbe 8936 903e 8b0a e63d f108 493e
000002e0: 1f2d 043d 3027 453e 0da3 d3bd ad2f f2bd
000002f0: 3772 823e 442b fa3d 9c32 373e 929b 093e
00000300: 4b31 cb3c 686a cbbd 1324 8fbd dcb6 9fbd
00000310: b10a 96bd 3fb9 3c3d 2c3e aebd 7f27 40bd
00000320: 6bb9 bdbd 2739 7dbd 0f5d 153e ddcb 2fbd
00000330: aa99 2ebe 43ff 183c ee8a 0abd a67e 76bd
00000340: 116b 983c e8ff 2b3e 4eb0 32be 8122 3cbd
00000350: e3f6 68bd 9e22 a4bd 0c1c 23be 89d9 3b3c
00000360: 86a6 fabc 7e2f 03be de2f dabc 9269 13be
00000370: 4b64 0ebd b147 d53c cc86 23be 5613 b7bd
00000380: 54ec d03d 523c 8e3e b01b f9bc 3803 72bd
00000390: e239 6fbe a966 eabd 1f9f b03d 64df 3c3d
000003a0: 80a2 a53d 25fa c93d 083d 9c3e c1cc 8a3e
000003b0: a4bb 803e 58a2 453e 5b8d e1bd 7f04 19be
000003c0: c855 4b3e 26da 243e 915d 903d 2a70 963e
000003d0: b033 783d e35a 1d3e b660 5d3e 9586 a93e
000003e0: 9c6f ae3e 9055 153e 9d43 863d 7c26 aabd
000003f0: 4187 603e 2359 363c b2a5 bebc 3714 45bd

linear3.bias f4 [32]
-0.0060347966 0.016456595 -0.10336499 0.07782934 -0.054502405 0.06618287 0.024548065 0.2362087
0.264121 0.012430478 0.20708196 -0.15248047 0.03843778 0.26844037 0.09738062 -0.045608073
0.19934015 -0.19060613 0.0554118 0.29060546 -0.057275984 -0.080605924 0.092175476 0.080333166
0.28803393 -0.1369367 -0.01035447 -0.0428664 0.054461878 0.15512815 0.032646846 0.2965079
00000000: 8bbf c5bb fbcf 863c 06b1 d3bd fd64 9f3d
00000010: ea3d 5fbd e28a 873d 0619 c93c b2e0 713e
00000020: de3a 873e 34a9 4b3c 4b0d 543e d723 1cbe
00000030: ef70 1d3d 0471 893e 7e6f c73d 88cf 3abd
00000040: d31f 4c3e 412e 43be 7cf7 623d 3dca 943e
00000050: 399a 6abd b814 a5bd 7fc6 bc3d b785 a43d
00000060: 2f79 933e 2239 0cbe cca5 29bc ae94 2fbd
00000070: 6b13 5f3d ead9 1e3e b3b8 053d e2cf 973e

linear4.weight f4 [16, 32]
-0.0272857 -0.037112176 0.0024036348 0.1683622 -0.08626861 -0.0012998087 -0.16509826 0.13292359
-0.12672788 -0.14012407 0.16097072 0.15894814 -0.06728513 -0.17077442 0.121295005 0.09595497
-0.13175772 0.032523606 0.092738 -0.023090994 0.1574786 -0.10913294 -0.07290233 -0.07236099
-0.15114722 -0.075051315 -0.15700094 -0.12635867 -0.14794001 0.15604977 -0.016062817 -0.15294984
0.12373329 0.09724505 -0.20158626 0.06266519 0.039020266 0.07867277 -0.1073157 0.19701612
0.19242455 0.11873984 0.12419034 -0.0054591126 0.07834839 0.15052369 0.290296 0.018126179
0.14800207 0.014547169 0.016378032 0.20920949 -0.00069080794 -0.12866844 0.17788102 0.27132186
0.18669209 0.09147017 0.009222238 -0.08310482 0.22304794 0.007313766 0.25722742 0.019340834
0.0148076685 0.21937107 -0.183686 -0.0808097 0.06831538 0.30044058 0.049713746 0.2145697
0.26795658 0.097703815 0.23492143 -0.08122364 -0.03670023 0.06653818 0.18302462 0.117945656
0.21593162 -0.12947348 0.06424045 0.114658356 0.05204027 -0.19407132 0.12921852 0.16981336
0.24318309 0.05477615 0.25440887 0.12746748 0.16574742 0.07649738 0.023148647 0.012675356
0.044769436 0.29136747 0.073669426 -0.00018282728 0.0039479164 0.2847566 -0.011835713 0.122300394
0.26016608 0.05776288 -0.021036249 -0.16865031 -0.090824895 0.22003278 0.18167163 0.06601912
0.10042417 0.011730305 -0.022054836 0.19401726 -0.020191712 0.013009586 0.17212924 0.23711053
0.17109299 -0.1371379 0.03431581 -0.1533743 0.11162859 0.18694595 0.019194128 0.08750211
0.20041916 0.08885165 -0.3519952 -0.0021731756 -0.039898545 0.0813191 0.057344407 0.037863184
0.24905369 0.27968925 0.08468147 -0.14313653 -0.00024074783 0.08839255 0.20678733 0.06524697
0.09331439 -0.28673702 -0.16916405 0.19620055 0.122376405 -0.31988084 0.21648683 0.1932689
0.15259187 -0.1639527 0.12532167 0.17237613 0.3355222 -0.043062683 0.30108798 0.24781786
0.30557808 0.27510223 -0.14392929 -0.072846316 0.008313381 0.2403269 -0.042313512 0.27336955
0.20330068 0.32982567 0.30767125 -0.16499722 -0.15007049 0.27471384 0.2738198 -0.12886201
0.20232087 -0.24003777 -0.17700732 0.046190973 -0.13275476 -0.2932672 0.00043468835 0.17005266
0.15435088 -0.12931038 0.33435398 0.031864468 0.070922926 0.06255079 0.2844621 0.30331594
0.07737295 0.16870873 0.15353699 -0.014917244 -0.16815123 -0.16134857 0.06081358 -0.07470055
-0.040890515 -0.13269235 -0.035035662 0.17082123 -0.05913858 0.016646381 0.021158118 -0.021036861
0.12705332 0.01774827 0.1556396 0.10555855 -0.057102762 -0.17529859 0.13527654 -0.16545317
-0.14724478 -0.026223747 -0.1610254 0.037422437 0.087444976 -0.06738265 0.13329671 -0.15947638
0.10424826 0.15819225 0.0028427127 0.0014031456 -0.014381263 0.06604941 -0.071890704 0.18618199
0.12644759 -0.023635842 0.11829864 -0.027193693 -0.006826396 0.23313089 0.03482928 0.16155186
0.2022925 -0.08445479 0.1534669 0.25191674 -0.03854481 -0.080396056 0.085236415 0.21688084
0.049974903 -0.057497256 -0.012250934 0.024804559 0.18030663 0.0018272189 0.12049296 0.09148869
00000000: 4386 dfbc f002 18bd 4d86 1d3b 2467 2c3e
00000010: 99ad b0bd 585e aaba 850f 29be 1f1d 083e
00000020: f4c4 01be af7c 0fbe 82d5 243e 4dc3 223e
00000030: c9cc 89bd 7ddf 2ebe 8469 f83d 0a84 c43d
00000040: 7feb 06be 7937 053d 6ced bd3d 5329 bdbc
00000050: 1242 213e 1781 dfbd d14d 95bd 0032 94bd
00000060: 56c6 1abe 81b4 99bd dbc4 20be 2b64 01be
00000070: 967d 17be 83cb 1f3e 2b96 83bc e29e 1cbe
00000080: e167 fd3d 6a28 c73d a16c 4ebe 9b56 803d
00000090: b7d3 1f3d 301f a13d 55c8 dbbd 98be 493e
000000a0: f10a 453e e02d f33d 8157 fe3d 5be2 b2bb
000000b0: 1f75 a03d e222 1a3e ada1 943e 5a7d 943c
000000c0: db8d 173e 4057 6e3c 392b 863c 033b 563e
000000d0: 5617 35ba a9c1 03be 7126 363e b3ea 8a3e
000000e0: 362c 3f3e b654 bb3d df18 173c dc32 aabd
000000f0: ae66 643e 51a8 ef3b 50b3 833e ab70 9e3c
00000100: dd9b 723c cfa2 603e 2f18 3cbe 8e7f a5bd
00000110: efe8 8b3d 59d3 993e a4a0 4b3d 29b8 5b3e
00000120: 9b31 893e f018 c83d 3e8f 703e 9458 a6bd
00000130: fb52 16bd 2b45 883d ce6a 3b3e 7e8d f13d
00000140: 2e1d 5d3e b294 04be 7f90 833d 00d2 ea3d
00000150: 2e28 553d a2ba 46be dc51 043e 8ee3 2d3e
00000160: fd04 793e f55c 603d e141 823e d686 023e
00000170: b1b9 293e a9aa 9c3d 3ba2 bd3c 4cac 4f3c
00000180: 2860 373d 1e2e 953e ffdf 963d 53b5 3fb9
00000190: 865d 813b 9ecb 913e 94ea 41bc a178 fa3d
000001a0: 7d34 853e c598 6c3d 3654 acbc abb2 2cbe
000001b0: 6702 babd 4650 613e 2108 3a3e 0835 873d
000001c0: 30ab cd3d 7730 403c 58ac b4bc 76ac 463e
000001d0: 1769 a5bc 2926 553c a642 303e 1acd 723e
000001e0: 0033 2f3e e16d 0cbe bc8e 0c3d 270e 1dbe
000001f0: 889d e43d c26e 3f3e 013d 9d3c 4e34 b33d
00000200: ae3a 4d3e dbf7 b53d b738 b4be d66b 0ebb
00000210: a86c 23bd a18a a63d f8e1 6a3d 6d16 1b3d
00000220: ee07 7f3e 6e33 8f3e 7b6d ad3d 6292 12be
00000230: 4171 7cb9 2707 b53d 0fc0 533e 34a0 853d
00000240: 9d1b bf3d 32cf 92be 5739 2dbe cce8 483e
00000250: 7ba0 fa3d 6cc7 a3be b9ae 5d3e 48e8 453e
00000260: 0b41 1c3e 37e3 27be 5354 003e 5e83 303e
00000270: 91c9 ab3e 7f62 30bd 3428 9a3e f7c3 7d3e
00000280: bb74 9c3e 33da 8c3e 3362 13be 7330 95bd
00000290: d934 083c 4118 763e ef50 2dbd 18f7 8b3e
000002a0: 0e2e 503e e9de a83e 1687 9d3e 08f5 28be
000002b0: 14ac 19be 4ba7 8c3e 1c32 8c3e 67f4 03be
000002c0: 342d 4f3e 76cc 75be 6841 35be bf32 3d3d
000002d0: ddf0 07be 1e27 96be e2e6 e339 4922 2e3e
000002e0: 280e 1e3e f169 04be 7230 ab3e 5184 023d
000002f0: 0a40 913d a11a 803d 04a5 913e 3a4c 9b3e
00000300: b675 9e3d fbc1 2c3e cd38 1d3e 7567 74bc
00000310: d62f 2cbe 8f38 25be a917 793d 9afc 98bd
00000320: d07c 27bd 81e0 07be 8e81 0fbd c3eb 2e3e
00000330: 4c3b 72bd fe5d 883c ca53 ad3c 7f55 acbc
00000340: 441a 023e d264 913c fd5f 1f3e 152f d83d
00000350: 96e4 69bd 7981 33be ef85 0a3e 8e6c 29be
00000360: 56c7 16be 2fd3 d6bc d8e3 24be 4548 193d
00000370: 5a16 b33d eaff 89bd ef7e 083e c74d 23be
00000380: 1d80 d53d 26fd 213e ce4c 3a3b c1e9 b73a
00000390: 649f 6bbc ea44 873d 6f3b 93bd 7ea6 3e3e
000003a0: 7a7b 013e f49f c1bc 8f46 f23d 4fc5 debc
000003b0: f6af dfbb ddb9 6e3e 26a9 0e3d da6d 253e
000003c0: c425 4f3e a2f6 acbd 6d26 1d3e 3bfb 803e
000003d0: 2ae1 1dbd b0a6 a4bd 6e90 ae3d 0316 5e3e
000003e0: 7cb2 4c3d 3e82 6bbd 24b8 48bc ee32 cb3c
000003f0: 4da2 383e 4b7f ef3a 03c5 f63d 6c5e bb3d

linear4.bias f4 [16]
-0.17103128 0.18013938 0.28527638 0.20821425 0.18093492 0.2539169 -0.04957858 0.2041935
0.20812449 0.056191742 0.17094125 -0.030597525 0.22627337 0.2774306 0.048846427 0.2536168
00000000: d322 2fbe 7576 383e bf0f 923e 1e36 553e
00000010: 0147 393e 6501 823e e912 4bbd 1a18 513e
00000020: 961e 553e 5029 663d 390b 2f3e a9a7 fabc
00000030: 35b4 673e 620b 8e3e 3113 483d 10da 813e

output_layer.weight f4 [2, 16]
-0.07953659 0.229849 0.34129938 -0.054536566 0.41267118 0.33953393 -0.0007415116 -0.030934025
0.21067052 0.38679546 0.24439298 -0.31703708 0.19172649 0.21031226 -0.119490385 0.2023039
0.06047094 0.1512056 -0.028662942 0.38618693 0.38752046 0.256029 0.08676544 0.37257296
0.32741776 0.3004649 0.23408031 -0.23442537 0.08627843 0.25071815 -0.1469007 0.019662157
00000000: 14e4 a2bd 895d 6b3e cbbe ae3e bc61 5fbd
00000010: a349 d33e 64d7 ad3e 0062 42ba 5a69 fdbc
00000020: 03ba 573e 0e0a c63e 2742 7a3e af52 a2be
00000030: f353 443e 195c 573e 60b7 f4bd c128 4f3e
00000040: 60b0 773d a4d5 1a3e 8cce eabc 4bba c53e
00000050: 1569 c63e 3c16 833e 14b2 b13d e2c1 be3e
00000060: 4da3 a73e 89d6 993e c0b2 6f3e 340d 70be
00000070: bfb2 b03d 215e 803e 236d 16be 8812 a13c

output_layer.bias f4 [2]
-0.084973924 -0.054146867
00000000: cf06 aebd 1bc9 5dbd
