results/models/exp-3:batchsize=128,lr=1e-4,layers=6,num_episodes_train=1500,adam-corrected/1/model-9.0.pt (torch, 12692 bytes, 10 tensors)

linear1.weight f4 [16, 4]
0	0x3e86a0e2	0.2629462
1	0x3e886782	0.2664147
2	0x3e4a84a0	0.19777155
3	0x3de6c3e0	0.11267829
4	0xbdb01d90	-0.085993886
5	0xbebb51c0	-0.36585808
6	0x3efd35f2	0.4945522
7	0x3eba8862	0.36432177
8	0x3e6ad9c8	0.2293464
9	0xbd0c58c0	-0.034264326
10	0x3e28e684	0.16494185
11	0x3ea50416	0.3222968
12	0xbe3be408	-0.18348706
13	0xbeddaac6	-0.43294352
14	0x3ed8bdb8	0.42332244
15	0xbe89aeba	-0.26891118
16	0xbc3f18c0	-0.011663616
17	0x3e35a4e0	0.17738676
18	0x3eaa4e7a	0.33262998
19	0xba9d8400	-0.0012017488
20	0xbe6b866c	-0.23000497
21	0x3e0f6744	0.14004236
22	0x3d8290c0	0.06375265
23	0x3e0e3710	0.13888192
24	0x3e1e0b34	0.15433961
25	0x3e4a1064	0.19732815
26	0x3dd16318	0.10223979
27	0xbdc1de50	-0.09466231
28	0x3e974d06	0.29550952
29	0xbe8ece20	-0.27891636
30	0x3ebc385e	0.36761755
31	0xbe823758	-0.2543285
32	0xbeb7105a	-0.35754663
33	0xbe645364	-0.22297436
34	0xbedfb94a	-0.43696052
35	0xbe3ed924	-0.1863752
36	0xbd8092c8	-0.06277996
37	0x3e027eec	0.1274373
38	0x3ef7abda	0.483733
39	0xbe000c70	-0.12504745
40	0xbe8e4d44	-0.27793324
41	0xbd781eb0	-0.06057614
42	0xbda598a0	-0.080857515
43	0x3ef9acce	0.48764652
44	0x3d6ab240	0.0572989
45	0x3ebc03fc	0.3672179
46	0xbed23092	-0.4105268
47	0x3ec1c9e6	0.3784935
48	0xbe457914	-0.19284469
49	0xbee59db2	-0.44846874
50	0xbdb7d068	-0.08975297
51	0x3e7b69a0	0.24552011
52	0x3d849a10	0.064746976
53	0x3ec919b0	0.3927741
54	0xbcd63a00	-0.026150703
55	0x3ed227fa	0.41046125
56	0x3efd099c	0.49421394
57	0x3bd68d00	0.00654757
58	0x3eaafa3c	0.3339404
59	0x3e301d1c	0.17198604
60	0x3ecbae9e	0.3978166
61	0xbebcf85c	-0.36908233
62	0xbd82c740	-0.0638566
63	0xbe0899dc	-0.13339943

linear1.bias f4 [16]
0	0xbe8eaabe	-0.2786464
1	0x3ea9217e	0.33033365
2	0xbed93e7e	-0.4243049
3	0x3ed148aa	0.4087575
4	0x3df11410	0.11771405
5	0xbeb8f9ee	-0.3612818
6	0xbecf6548	-0.4050696
7	0xbe564024	-0.20922905
8	0x3da95f18	0.08270091
9	0xbe718c90	-0.23588777
10	0x3d8a1650	0.06742537
11	0xbe8740c6	-0.26416606
12	0x3ea710f0	0.3263011
13	0xbedfd0f4	-0.43714106
14	0x3e252d64	0.16130596
15	0xbef41074	-0.47668803

linear2.weight f4 [32, 16]
0	0x3da2c8b8	0.0794844
1	0xbd936e78	-0.071988046
2	0x3e08f9da	0.13376561
3	0x3d589338	0.052874774
4	0xbda31394	-0.079627186
5	0x3d62b288	0.055346042
6	0x3d051e88	0.03249982
7	0x3e3ce59e	0.18446967
8	0xbd7809d8	-0.060556263
9	0xbe174afa	-0.14774695
10	0x3e04e20c	0.12976855
11	0xbe25cdfa	-0.16191855
12	0xbd7e25e0	-0.06204784
13	0xbdb98c18	-0.09059924
14	0x3d6a7678	0.057241887
15	0xbe742340	-0.23841572
16	0x3e14ed9e	0.14543769
17	0xbe1abe8a	-0.15111747
18	0x3cd00640	0.025393605
19	0xbdb5bd40	-0.08873987
20	0x3bf9cc80	0.0076232553
21	0x3d0f17d0	0.03493482
22	0xbc9a1090	-0.018806726
23	0xbe0bcae6	-0.13651618
24	0xbd0deba8	-0.034648567
25	0xbe05dd22	-0.13072637
26	0xbe25eb88	-0.1620313
27	0x3dd874b4	0.10569134
28	0x3e4a3c68	0.19749606
29	0x3e62db7c	0.22154039
30	0xbe34a8f8	-0.17642581
31	0x3d37f5e0	0.04491222
32	0x3e686092	0.22693089
33	0xbe22f412	-0.15913418
34	0x3e46e568	0.19423449
35	0xbd2f3a18	-0.042780012
36	0xbdee1aa0	-0.11626172
37	0x3d894cec	0.06704125
38	0xbe4fb8aa	-0.20285287
39	0xbdf93160	-0.12167621
40	0x3e4c6b1a	0.19962731
41	0x3e73b4a8	0.23799384
42	0xbb924180	-0.0044633746
43	0x3e36c5e6	0.1784893
44	0x3d7edcc0	0.062222242
45	0x3e4eb288	0.20185292
46	0x3db6b770	0.08921707
47	0x3e16e650	0.14736295
48	0x3e56f8d8	0.20993364
49	0x3dd012f0	0.10159862
50	0xbdd494f0	-0.1037997
51	0xbd43a5d8	-0.047765583
52	0x3c606e20	0.013698131
53	0x3e38dcaa	0.18052927
54	0xbca69370	-0.020333976
55	0x3e0af7d6	0.13571104
56	0xbe245796	-0.16049036
57	0x3d5630a8	0.052292496
58	0x3e7bc42e	0.24586555
59	0xbd3a52d8	-0.045489162
60	0x3e1fff8a	0.15624824
61	0xbd21fe50	-0.039549172
62	0x3e574012	0.21020535
63	0xbe07aa9a	-0.13248673
64	0x3df04ab4	0.117329985
65	0xbe33e5da	-0.1756815
66	0x3e7220d2	0.23645332
67	0xbdae5440	-0.08512163
68	0x3d22ee98	0.039778322
69	0x3e650f1e	0.22369048
70	0x3de66a00	0.11250687
71	0x3e7889da	0.24271336
72	0xbd68c7e0	-0.05683124
73	0x3c696b80	0.014246821
74	0xbe76ddfc	-0.24108118
75	0xbe27feda	-0.16405812
76	0xbce8c710	-0.028415233
77	0xbd8cfc9c	-0.06884119
78	0x3e3482da	0.17628041
79	0x3e1604b8	0.14650238
80	0xbc6af5c0	-0.014340818
81	0xbe2f774a	-0.17135349
82	0xbd8d3584	-0.06894973
83	0xbd6772e8	-0.056506068
84	0x3e5b7f96	0.21435389
85	0x3e17d9d4	0.14829189
86	0x3decc418	0.115608394
87	0x3c565680	0.013082147
88	0x3e5b4238	0.21411979
89	0xbe01770a	-0.12643066
90	0xbe65736c	-0.22407311
91	0xbe2401a2	-0.16016248
92	0x3e7e351c	0.24824947
93	0x3e1ce714	0.15322524
94	0xbdf6b2f8	-0.12045854
95	0xbd237198	-0.039903253
96	0x3dc4783c	0.095932454
97	0x3dd5b7e0	0.10435462
98	0xbce802d0	-0.028321654
99	0xbe1af57a	-0.15132704
100	0x3de1150c	0.109903425
101	0xbd406788	-0.046973735
102	0x3e74db46	0.23911771
103	0xbd066be0	-0.03281772
104	0x3e7b6ec0	0.24553967
105	0xbe4934f4	-0.19649106
106	0x3e60672e	0.2191436
107	0x3e043b78	0.1291331
108	0xbdf6b1dc	-0.12045643
109	0xbe4cca2a	-0.19998994
110	0xbe480492	-0.19532993
111	0xbe586e32	-0.21135786
112	0x3ddf38ac	0.10899481
113	0xbe307a36	-0.1723412
114	0xbe3ef8d8	-0.18649614
115	0x3d4e8468	0.05041924
116	0x3e23aa3a	0.15982905
117	0x3dd5c66c	0.104382366
118	0xbe263b46	-0.16233549
119	0x3e691a82	0.22764018
120	0xbe4e46a0	-0.20144129
121	0x3d620ee0	0.055189967
122	0x3e464a46	0.1936427
123	0xbdf74b18	-0.1207487
124	0x3dfb933c	0.12283942
125	0xbe6b593c	-0.22983259
126	0x3d083e18	0.033262342
127	0xbe57d0d6	-0.21075758
128	0xbe726c68	-0.23674166
129	0xbe128458	-0.14308298
130	0xbdc59e08	-0.09649283
131	0x3ccee580	0.025255919
132	0xbe0f510c	-0.1399576
133	0xbde4eb30	-0.11177671
134	0xbddd9c60	-0.10820842
135	0x3cd439d0	0.025906473
136	0x3e2e0d92	0.16997364
137	0xbda76074	-0.08172694
138	0x3e358b9e	0.17729041
139	0x3cf234f0	0.029566258
140	0x3e5cf6a0	0.21578455
141	0x3ce62d10	0.02809766
142	0x3d947804	0.07249454
143	0x3d3f0278	0.046633214
144	0x3de8eab8	0.11372894
145	0x3dc2b458	0.09507054
146	0xbdc1ce08	-0.094631255
147	0x3e77748e	0.24165556
148	0xbdec8590	-0.115489125
149	0x3b431700	0.0029768348
150	0x3dd9a708	0.10627562
151	0xbe4537ba	-0.19259539
152	0x3cf2bbe0	0.029630601
153	0x3d95a9b8	0.07307762
154	0xbe408c3a	-0.18803492
155	0x3c7f4840	0.015581191
156	0xbd8f34f4	-0.06992522
157	0xbe6d3f72	-0.23168734
158	0xbe639898	-0.22226179
159	0x3e560db6	0.20903668
160	0xbd470db0	-0.048597038
161	0xbda00278	-0.07812971
162	0x3d880074	0.066407114
163	0x3d38d1f8	0.045122117
164	0x3e0cf69a	0.13765946
165	0x3e0d833c	0.13819593
166	0x3e4707b2	0.1943653
167	0xbe63490e	-0.22195837
168	0x3e57095e	0.20999667
169	0x3bab4100	0.0052262545
170	0x3dc1e5d4	0.09467664
171	0x3d036ff0	0.032089174
172	0x3e678498	0.22609174
173	0xbe2f9388	-0.17146122
174	0xbcf871a0	-0.030327618
175	0x3c953170	0.01821205
176	0xbccff850	-0.02538696
177	0x3d6abb98	0.05730781
178	0x3c806330	0.015672296
179	0xbe15c496	-0.14625773
180	0x3dc8a4e8	0.09797078
181	0xbcb05860	-0.021526515
182	0xbdea89dc	-0.11452076
183	0xbd600be0	-0.054698825
184	0xbe7dfa1a	-0.24802437
185	0xbdadad08	-0.08480269
186	0x3e45bb60	0.19309759
187	0xbe227a90	-0.15867066
188	0xbda5bb50	-0.08092368
189	0xbcc66350	-0.024217278
190	0xbdd2b260	-0.102879286
191	0xbdd87a74	-0.10570231
192	0xbda308fc	-0.07960698
193	0x3e4416ea	0.19149366
194	0x3c7303c0	0.014832437
195	0x3c8349c0	0.016026378
196	0x3c8ac650	0.016940266
197	0xbdb2a868	-0.08723527
198	0x3e28423c	0.16431516
199	0x3d748338	0.059695452
200	0xbdbf37f0	-0.09336841
201	0x3dc6618c	0.09686574
202	0xbd8ecfcc	-0.06973228
203	0x3d93aa98	0.072102726
204	0xbe0b9974	-0.13632756
205	0x3e2b8156	0.16748556
206	0xbe244c00	-0.16044617
207	0x3e436694	0.19082099
208	0x3e77ddf4	0.24205762
209	0xbe12299a	-0.14273682
210	0xbe1e42d0	-0.15455174
211	0xbe465cbc	-0.19371313
212	0x3dcd2c8c	0.10018262
213	0x3e1ddd84	0.15416533
214	0x3e493d2e	0.19652244
215	0x3d5397b0	0.051658332
216	0xbdf6d500	-0.12052345
217	0x3e0db19c	0.13837284
218	0xbe3dd3fe	-0.185379
219	0xbe08ffce	-0.13378832
220	0xbe3e1372	-0.18562105
221	0x3e330c22	0.17485097
222	0xbe1a2a26	-0.15055141
223	0xbe259310	-0.16169381
224	0xbd9486f4	-0.07252303
225	0x3cc2c3a0	0.023774922
226	0xbd261e20	-0.040556073
227	0xbe03da7c	-0.12876314
228	0x3cd074f0	0.025446385
229	0x3d3977d0	0.045280278
230	0x3e56cbec	0.20976228
231	0x3d8c0648	0.068371356
232	0xbe68963e	-0.22713563
233	0xbe442ce4	-0.1915775
234	0xbe59bdb8	-0.21263778
235	0xbdb11f00	-0.08648491
236	0xbe37a1ae	-0.1793277
237	0xbe507d64	-0.20360333
238	0xbc767980	-0.015043616
239	0xbd8438fc	-0.064561814
240	0xbe57359c	-0.21016544
241	0xbe0c2be0	-0.13688612
242	0x3e4e3f4e	0.20141336
243	0xbe701fcc	-0.2344963
244	0xbdc64ec4	-0.09682992
245	0xbe12fada	-0.14353505
246	0xbd190eb8	-0.037367553
247	0x3e1b25f8	0.15151203
248	0xbe7c9088	-0.2466451
249	0x3e70225e	0.2345061
250	0x3e3981c2	0.18115905
251	0xbe762348	-0.24036896
252	0xbca36e10	-0.019949943
253	0xbd022bc8	-0.031780034
254	0xbe398736	-0.18117985
255	0x3df59a6c	0.11992344

linear2.bias f4 [32]
0	0xbe616f54	-0.22015125
1	0x3e6eec22	0.23332265
2	0xbd12b238	-0.035814494
3	0xbe0ea242	-0.13929084
4	0xbe31d55c	-0.17366546
5	0xbe49cbfa	-0.19706717
6	0xbd23c420	-0.03998196
7	0xbe352840	-0.17691135
8	0xbe58eed0	-0.2118485
9	0x3cc3e510	0.023912936
10	0xbe1a4640	-0.15065861
11	0x3e278206	0.16358194
12	0x3e277084	0.16351515
13	0x3d56b620	0.05241978
14	0xbd5ef820	-0.05443585
15	0xbe17db06	-0.14829645
16	0x3e7333b4	0.23750192
17	0x3e4d5f84	0.20055968
18	0x3c0660c0	0.008201778
19	0x3bbedc40	0.0058245957
20	0xbda6f300	-0.08151817
21	0x3da775f4	0.08176795
22	0xbd6b7e20	-0.05749333
23	0x3ddf915c	0.10916397
24	0x3cf50380	0.029908895
25	0xbcb83090	-0.022484094
26	0xbda96aa8	-0.08272296
27	0xbe5f901a	-0.21832314
28	0x3e44f724	0.19234902
29	0xbb928fc0	-0.0044727027
30	0xbdc76554	-0.09736124
31	0xbe019af6	-0.12656769

linear3.weight f4 [32, 32]
0	0xbe23bf5e	-0.1599097
1	0x3e19f55a	0.15035
2	0xbc97f8f8	-0.018551335
3	0xbd101322	-0.035174496
4	0x3d395ae8	0.04525271
5	0x3dd5c635	0.104381956
6	0xbe00454b	-0.12526433
7	0xbd2e7116	-0.042588316
8	0x3e32b9b5	0.17453654
9	0xbcad1ec2	-0.02113283
10	0xbdddbbde	-0.108268484
11	0xbd40b671	-0.04704899
12	0xbcfa35d7	-0.030543251
13	0x3e190a3a	0.14945307
14	0xbdddbce5	-0.108270444
15	0x3e1cf8b9	0.15329255
16	0xbc2ed497	-0.010670803
17	0x3df1580a	0.1178437
18	0xbba6d5f5	-0.0050914236
19	0x3da358b1	0.07975901
20	0xbe0e38f6	-0.13888916
21	0x3db123ff	0.08649444
22	0x3e30a988	0.17252171
23	0x3ccedf1d	0.025252873
24	0x3d76644a	0.060154237
25	0xbd8fa1d1	-0.07013286
26	0x3dda3b91	0.10655893
27	0x3de52bcc	0.11189994
28	0xbdbdfaa0	-0.092763186
29	0x3e0d8433	0.13819961
30	0x3d7f85fc	0.062383637
31	0x3e082fef	0.13299535
32	0xbdaf6a9b	-0.08565255
33	0x3d51efc3	0.051254045
34	0xbdf5006d	-0.11962972
35	0x3e31e403	0.17372136
36	0xbe170a1e	-0.14749953
37	0xbe34104c	-0.17584342
38	0xbd89947b	-0.067177735
39	0xbd0a22ad	-0.033724476
40	0xbe0d5319	-0.1380123
41	0xbe1d1db2	-0.15343359
42	0x38c4d742	9.386103e-05
43	0xbd42e68f	-0.04758316
44	0xbb3950db	-0.0028276953
45	0x3e2d8b05	0.16947563
46	0xbca22be0	-0.019796312
47	0xbdebf58f	-0.11521446
48	0x3e328363	0.17432933
49	0xbda099aa	-0.07841809
50	0x3e305610	0.1722033
51	0xbdaf422e	-0.08557545
52	0x3e28e94c	0.16495246
53	0xbca3b084	-0.01998163
54	0x3d3330d8	0.043747753
55	0x391ed578	0.00015147578
56	0x3e1ee0f5	0.15515502
57	0x3da29ccd	0.079400636
58	0x3e0556f2	0.13021448
59	0xbdd4c0fd	-0.10388372
60	0xbd899774	-0.067183405
61	0xbdc0cc7c	-0.09414002
62	0x3c8eb966	0.01742239
63	0x3d9eb893	0.077500485
64	0xbe2115fa	-0.1573104
65	0x3d5ed483	0.054401886
66	0x3d8568dc	0.06514141
67	0xbd871b39	-0.06596989
68	0x3cae8b3a	0.021306623
69	0xbe017e47	-0.12645827
70	0xbe33bfe5	-0.1755367
71	0x3e035fce	0.12829515
72	0x3c83b31e	0.01607662
73	0xbd5c7a1a	-0.053827383
74	0x3e337643	0.17525582
75	0x3e1bd3b7	0.15217482
76	0x3e101b13	0.14072828
77	0xbe1770d6	-0.14789137
78	0x3da202d1	0.079106934
79	0x3e279117	0.16363941
80	0xbdfab905	-0.12242321
81	0xbd8fd2f3	-0.07022657
82	0xbe05d4cc	-0.13069457
83	0xbd8a2052	-0.06744446
84	0x3cd36ff6	0.025810223
85	0x3e016d39	0.12639321
86	0xbe0d558c	-0.13802165
87	0x3c1d7ec9	0.0096127475
88	0x3d525f32	0.051360317
89	0x3e2578fd	0.16159435
90	0xbd64581e	-0.055748098
91	0x3b5acd1c	0.0033386415
92	0xbde494ff	-0.11161231
93	0x3daefbb3	0.085441016
94	0x3e25798f	0.16159652
95	0xbe083620	-0.13301897
96	0xbdfd25ac	-0.12360701
97	0xbd1c9105	-0.03822424
98	0x3e12edcc	0.14348525
99	0xbe2014e4	-0.15632969
100	0x3de5f654	0.11228624
101	0x3d9128d6	0.07087867
102	0xbdf53a55	-0.119740166
103	0x3e15cfe4	0.14630085
104	0xbe054ecc	-0.1301834
105	0x3e099959	0.13437404
106	0x3e0b1f8a	0.1358625
107	0x3e2837c9	0.1642753
108	0x3e22c44e	0.15895197
109	0xbe2b73c2	-0.16743377
110	0xbd1b55fc	-0.037923798
111	0x3e0b8d02	0.13628009
112	0x3c729c75	0.01480781
113	0x3d41a32b	0.04727475
114	0x3df107a1	0.11769033
115	0x3e116d2c	0.14201802
116	0xbc8a2ea7	-0.016867949
117	0x3d129e60	0.03579557
118	0xbbb965b7	-0.0056578773
119	0x3da137a5	0.078719415
120	0x3a57d115	0.0008232755
121	0xbe0bd4e2	-0.13655427
122	0x3e196c19	0.14982642
123	0x3e208fb7	0.15679823
124	0x3dcc1a16	0.09965913
125	0x3dc3ea69	0.095661946
126	0xbdea3bd6	-0.11437194
127	0xbdb72d63	-0.08944204
128	0xbdd76f88	-0.1051932
129	0xbe28bea3	-0.16478972
130	0x3ce3a03a	0.027786363
131	0x3dcbc2d0	0.09949267
132	0x3d473a54	0.04863961
133	0xbd96e0fd	-0.07367132
134	0x3d351c32	0.044216342
135	0xbe156ade	-0.14591548
136	0x3cf09111	0.029366048
137	0x3dbdb75a	0.09263487
138	0xbbb6e97e	-0.0055820337
139	0xbd196949	-0.037453923
140	0xbbedd78d	-0.0072583617
141	0xbda202d4	-0.07910696
142	0xbe0542fc	-0.13013834
143	0x3e1e8c7f	0.15483283
144	0xbe221ced	-0.15831347
145	0xbdc8404d	-0.097778894
146	0xbe0d08e1	-0.13772918
147	0xbd6f367f	-0.05840158
148	0x3ca56fce	0.020194914
149	0xbe2244ef	-0.15846609
150	0xbd8f1c3e	-0.06987809
151	0xbcda1c06	-0.02662469
152	0xbda1e447	-0.079048686
153	0x3dedd1ea	0.116123036
154	0xbe04e703	-0.12978749
155	0x3dca1292	0.09866823
156	0xbdb091e6	-0.08621578
157	0x3e1e9799	0.15487517
158	0xbdf6d7ef	-0.12052905
159	0x3cbc40d1	0.022980126
160	0xbe076619	-0.13222541
161	0xbdd17360	-0.10227084
162	0xbe261c59	-0.16221751
163	0xbbbf51ed	-0.0058386237
164	0xbe151e11	-0.1456225
165	0x3dce1304	0.10062221
166	0x3dd85da1	0.10564733
167	0x3d4033c2	0.04692436
168	0x3d75b05a	0.059982635
169	0x3dd0ee5a	0.10201712
170	0xbc15dd51	-0.009147004
171	0x3d48f013	0.049057078
172	0xbce1911f	-0.02753502
173	0x3d467d61	0.048459414
174	0xbe270a84	-0.16312605
175	0xbdad7668	-0.0846985
176	0xbe094ccb	-0.134082
177	0xbdc39d61	-0.09551502
178	0xbd3480ad	-0.044068027
179	0xbd221758	-0.039573044
180	0xbe19e366	-0.15028152
181	0x3e281834	0.16415483
182	0xbdad0c62	-0.084496275
183	0x3c41808b	0.011810432
184	0xbe16397d	-0.14670368
185	0x3d97b66a	0.074078396
186	0xbdc5ce94	-0.09658542
187	0xbdf22fad	-0.118255
188	0x3e011b44	0.12608057
189	0x3df1e192	0.11810602
190	0x3d9be011	0.07611097
191	0x3df9c2a9	0.121953316
192	0x3ccb314b	0.024803778
193	0xbdca41f6	-0.09875862
194	0xbd8f2413	-0.069893025
195	0xbd9fb6dc	-0.077985495
196	0xbd960ab1	-0.07326258
197	0x3d3cb93f	0.046075102
198	0xbdae3e2c	-0.08507952
199	0xbd40277f	-0.046912666
200	0xbdbdb96b	-0.09263881
201	0xbd7ae6f9	-0.06125543
202	0x3e155d0f	0.1458628
203	0xbd2d7a9d	-0.04235326
204	0xbe2e0543	-0.16994195
205	0x3c18ff43	0.009338203
206	0xbd0a8aee	-0.0338239
207	0xbd767ea6	-0.060179375
208	0x3c9d0eaa	0.019172031
209	0x3e2c9448	0.1685344
210	0xbe32b04e	-0.17450067
211	0xbd39b160	-0.045335174
212	0xbd68f6e3	-0.056876075
213	0xbda2e964	-0.07954672
214	0xbe231c0c	-0.15928668
215	0x3c451bef	0.012030586
216	0xbcf60337	-0.03003083
217	0xbe029aed	-0.12754412
218	0xbcda2fde	-0.026634153
219	0xbe136992	-0.1439574
220	0xbd0c1349	-0.03419808
221	0x3cd547b1	0.026035162
222	0xbe2386cc	-0.1596939
223	0xbdb71356	-0.08939235
224	0x3dd0ec54	0.10201326
225	0x3dc492e9	0.095983334
226	0x3e33757c	0.17525285
227	0xbe2a88b5	-0.16653712
228	0xbcef9534	-0.02924595
229	0x3de4ceef	0.11172282
230	0xbd3b3e37	-0.04571363
231	0x3e1edcf7	0.15513979
232	0xbd9ef369	-0.077612706
233	0xbe0a0f0b	-0.13482301
234	0x3e11cb51	0.14237715
235	0x3df6e194	0.12054744
236	0x3de3e049	0.111267634
237	0xbcfc936f	-0.03083202
238	0xbde18d5b	-0.110132895
239	0xbe19047f	-0.14943121
240	0x3d9ce27b	0.07660385
241	0xbd298c9f	-0.041393872
242	0xbda1e47a	-0.079049066
243	0x3dafd249	0.085850306
244	0x3e1f44ac	0.1555354
245	0x3cb13743	0.021632796
246	0xbc45913a	-0.0120585505
247	0x3e0a3649	0.1349727
248	0x3e1a1ff9	0.15051259
249	0x3c944eba	0.018103946
250	0x3d941010	0.07229626
251	0xbdaa267c	-0.083081216
252	0x3da8e36a	0.08246501
253	0x3bddf966	0.0067741154
254	0xbe0f695d	-0.14005037
255	0xbd77c72b	-0.060492676

linear3.bias f4 [32]
0	0xbe18e748	-0.14931977
1	0xbe16ddc2	-0.14733031
2	0xbdb8cc04	-0.09023288
3	0x3deabda5	0.11461953
4	0xbd5f3dea	-0.054502405
5	0xbdb580df	-0.08862471
6	0x3ccdbb9c	0.025113873
7	0x3db837a5	0.08994988
8	0x3e096d7f	0.13420676
9	0xbe0b3d98	-0.13597715
10	0x3d823402	0.06357576
11	0xbe1c23d7	-0.15248047
12	0x3c41601a	0.011802698
13	0x3df2b088	0.11850077
14	0xbd82f0c3	-0.06393578
15	0xbd3acf88	-0.045608073
16	0x3d9e93d7	0.07743042
17	0xbe244b28	-0.16044295
18	0x3d59def8	0.053191155
19	0x3e0f904b	0.14019887
20	0xbd6a9a39	-0.057275984
21	0xbd76fff6	-0.060302697
22	0xbd7be6a8	-0.061499268
23	0xbd45ca2c	-0.04828851
24	0x3e197a3e	0.14988038
25	0xbe0c3922	-0.1369367
26	0xbe1fda16	-0.15610537
27	0xbd23a2d1	-0.039950196
28	0xbdc843a1	-0.09778524
29	0x3e2b985f	0.16757344
30	0xbddbe7fc	-0.10737607
31	0x3e14052f	0.14455102

linear4.weight f4 [16, 32]
0	0xbcdf8643	-0.0272857
1	0xbd1802f0	-0.037112176
2	0x3b1d864d	0.0024036348
3	0x3e2c6724	0.1683622
4	0xbdb0ad99	-0.08626861
5	0xbaaa5e58	-0.0012998087
6	0xbe290f85	-0.16509826
7	0x3e081d1f	0.13292359
8	0xbe01c4f4	-0.12672788
9	0xbe0f7caf	-0.14012407
10	0x3e24d582	0.16097072
11	0x3e22c34d	0.15894814
12	0xbd89ccc9	-0.06728513
13	0xbe2edf7d	-0.17077442
14	0x3df86984	0.121295005
15	0x3dc4840a	0.09595497
16	0xbe06eb7f	-0.13175772
17	0x3d053779	0.032523606
18	0x3dbded6c	0.092738
19	0xbcbd2953	-0.023090994
20	0x3e214212	0.1574786
21	0xbddf8117	-0.10913294
22	0xbd954dd1	-0.07290233
23	0xbd943200	-0.07236099
24	0xbe1ac656	-0.15114722
25	0xbd99b481	-0.075051315
26	0xbe20c4db	-0.15700094
27	0xbe01642b	-0.12635867
28	0xbe177d96	-0.14794001
29	0x3e1fcb83	0.15604977
30	0xbc83962b	-0.016062817
31	0xbe1c9ee2	-0.15294984
32	0xbd5504e4	-0.052006617
33	0xbdb618be	-0.08891438
34	0xbc297b8b	-0.010344396
35	0x3cc98759	0.024600672
36	0x3d1fd3b7	0.039020266
37	0xbdd4aaef	-0.103841655
38	0xbddda212	-0.10821928
39	0x3d17e9ca	0.037088193
40	0x3cdd729b	0.027032187
41	0xbd899138	-0.067171514
42	0xbd4f3b9d	-0.05059396
43	0xbbb2e25b	-0.0054591126
44	0x3e243799	0.16036834
45	0xbd3b2862	-0.04569281
46	0x3dc5e7c2	0.09663345
47	0x3c947d5a	0.018126179
48	0xbc780c7c	-0.015139695
49	0x3e0c8077	0.1372088
50	0x3d4d7e4a	0.050169267
51	0x3d565be2	0.05233372
52	0xba351756	-0.00069080794
53	0x3cef5284	0.029214151
54	0xbaac5190	-0.0013146866
55	0x3db4c766	0.08827095
56	0x3d0145c5	0.031560678
57	0x3dbb54b6	0.09147017
58	0xbe346090	-0.1761496
59	0xbda43db8	-0.080195844
60	0x3d24e28a	0.040255107
61	0xbc49fbcd	-0.0123281
62	0x3dcb4983	0.099261306
63	0xbe1209d6	-0.14261565
64	0xbe08ec13	-0.13371305
65	0x3d964fdb	0.0733945
66	0xbceaa3cb	-0.028642556
67	0xbdebad85	-0.115077056
68	0x3d8be8ef	0.06831538
69	0x3e1e6ddc	0.15471596
70	0x3d4ce61c	0.050024137
71	0x3d93e39d	0.07221148
72	0x3df993fe	0.121864304
73	0xbd757160	-0.059922576
74	0x3da6d806	0.08146672
75	0xbda65894	-0.08122364
76	0x3d728b50	0.05921489
77	0xbde0810d	-0.109621145
78	0x3ce187d8	0.027530596
79	0x3df18d7e	0.117945656
80	0x3d964c22	0.0733874
81	0xbc62a13a	-0.013832385
82	0x3ddd095b	0.107928
83	0xbcd8cb00	-0.026463985
84	0x3d55282e	0.05204027
85	0xbd573c9c	-0.052548036
86	0xbc6a67bb	-0.014306958
87	0x3c5dee16	0.013545534
88	0x3dd45188	0.10367113
89	0x3d605cf5	0.05477615
90	0x3dda9e05	0.10674671
91	0x3e058206	0.13037881
92	0x3c0e54c5	0.008687203
93	0x3d89dc2a	0.06731446
94	0xbddd82fb	-0.10815998
95	0xbe0739b0	-0.132056
96	0xbd94ffe4	-0.0727537
97	0x3e1c8992	0.15286854
98	0x3ddec7f6	0.10877983
99	0xbd016619	-0.03159151
100	0x3b815d86	0.0039479164
101	0x3e2e9b32	0.1705139
102	0xbc484d70	-0.012225494
103	0xbc385e0d	-0.011252892
104	0x3df906d3	0.12159505
105	0xbd979f06	-0.07403378
106	0xbe2757b3	-0.16342048
107	0xbe2cb2ab	-0.16865031
108	0xbe0f5f74	-0.14001256
109	0x3d7bb425	0.061451096
110	0x3d2500f2	0.040284105
111	0x3d873508	0.06601912
112	0xbd1241f7	-0.03570744
113	0x3d22dd7d	0.03976201
114	0xbd5ae329	-0.053439293
115	0x3d89e5d2	0.06733288
116	0xbca56917	-0.020191712
117	0x3d167e3a	0.036741473
118	0x3d0e0905	0.03467657
119	0x3dbcb3a5	0.09213952
120	0x3d3c8b9e	0.046031587
121	0xbe0c6de1	-0.1371379
122	0xbdccf13c	-0.10006949
123	0xbe2002d8	-0.15626085
124	0xbcf2616a	-0.029587466
125	0x3e238922	0.15970281
126	0xbdcba3fa	-0.099433854
127	0xbd2c8863	-0.042122256
128	0x3ce84606	0.028353702
129	0xbdb622dd	-0.088933684
130	0xbe23fe29	-0.16014923
131	0xbd0bd2c9	-0.034136567
132	0xbd236ca8	-0.039898545
133	0xbdd1aa25	-0.102375306
134	0x3d67b489	0.056568656
135	0xbddb97da	-0.10722323
136	0x3dcafcef	0.099115245
137	0x3dcdc251	0.100468285
138	0xbd9d807d	-0.07690523
139	0xbe129262	-0.14313653
140	0x3d9b3249	0.075779505
141	0xbdbbffcc	-0.09179649
142	0x3c963ec3	0.018340474
143	0x3d85a034	0.06524697
144	0xbd618098	-0.055054277
145	0xbe212ffa	-0.15740958
146	0xbe15830e	-0.14600775
147	0x3d63a769	0.055579577
148	0x3dfaa07b	0.122376405
149	0xbe240c29	-0.16020264
150	0x3d3d2c16	0.04618462
151	0x3c9b0f35	0.01892815
152	0x3c62c69d	0.013841298
153	0xbe27e337	-0.1639527
154	0xbd6262ea	-0.055270113
155	0x3e337ec8	0.17528832
156	0x3e274c13	0.16337614
157	0xbd87530a	-0.06607635
158	0x3e148972	0.14505556
159	0x3dcf7a23	0.101307176
160	0x3e07ae46	0.13250074
161	0x3dc4e7f6	0.096145555
162	0x3d3f969b	0.046774488
163	0xbdd82315	-0.10553566
164	0x3c0834d9	0.008313381
165	0x3d69d1d9	0.057084892
166	0xbd30c6ae	-0.043158226
167	0x3e0107c2	0.12600616
168	0x3d515ca9	0.05111376
169	0x3e18ef34	0.14934999
170	0x3e13b624	0.1442495
171	0xbe28f508	-0.16499722
172	0xbd91363d	-0.07090423
173	0x3dbb9b30	0.09160459
174	0x3dac5dfe	0.08416365
175	0xbe03f467	-0.12886201
176	0x3d55a8c9	0.05216292
177	0xbde67010	-0.11251843
178	0xbe199349	-0.14997591
179	0xbdc6babe	-0.09703587
180	0xbe07f0dd	-0.13275476
181	0xbe099b56	-0.13438162
182	0xbe2f32d2	-0.1710923
183	0xbbb73c0d	-0.0055918754
184	0x3c552d71	0.013011322
185	0xbe0469f1	-0.12931038
186	0x3e1c716b	0.1527764
187	0x3d0e710e	0.034775786
188	0xbdd33e4f	-0.10314619
189	0x3d25ec31	0.040508453
190	0x3e040794	0.12893516
191	0x3e1e1891	0.15439059
192	0x3d9e75b6	0.07737295
193	0x3e2cc1fb	0.16870873
194	0x3e1d38cd	0.15353699
195	0xbc746775	-0.014917244
196	0xbe2c2fd6	-0.16815123
197	0xbe25388f	-0.16134857
198	0x3d7917a9	0.06081358
199	0xbd98fc9a	-0.07470055
200	0xbd277cd0	-0.040890515
201	0xbe07e081	-0.13269235
202	0xbd0f818e	-0.035035662
203	0x3e2eebc3	0.17082123
204	0xbd723b4c	-0.05913858
205	0x3c885dfe	0.016646381
206	0x3cad53ca	0.021158118
207	0xbcac557f	-0.021036861
208	0x3e021a44	0.12705332
209	0x3c9164d2	0.01774827
210	0x3e1f5ffd	0.1556396
211	0x3dd82f15	0.10555855
212	0xbd69e496	-0.057102762
213	0xbe338179	-0.17529859
214	0x3e0a85ef	0.13527654
215	0xbe296c8e	-0.16545317
216	0xbe16c756	-0.14724478
217	0xbcd6d32f	-0.026223747
218	0xbe24e3d8	-0.1610254
219	0x3d194845	0.037422437
220	0x3db3165a	0.087444976
221	0xbd89ffea	-0.06738265
222	0x3e087eef	0.13329671
223	0xbe234dc7	-0.15947638
224	0xbc9f9436	-0.019479852
225	0x3c5a982a	0.013341943
226	0x3d5b7797	0.053580847
227	0xbcfdec26	-0.030996393
228	0xbc6b9f64	-0.014381263
229	0xbd65f621	-0.05614293
230	0xbd940b1f	-0.07228684
231	0x3d458d9a	0.048230745
232	0xbc88925d	-0.016671354
233	0xbe253c67	-0.16136323
234	0xbcf0ea4b	-0.029408595
235	0xbcdec54f	-0.027193693
236	0xbd3ad464	-0.045612708
237	0x3d8d14f5	0.06888763
238	0xbde79de6	-0.113094136
239	0x3e256dda	0.16155186
240	0x3d7c23de	0.061557643
241	0xbd335252	-0.04377968
242	0x3e02af4e	0.12762186
243	0x3df70c34	0.120628744
244	0xbd1de12a	-0.03854481
245	0xbd2e2090	-0.042511523
246	0xbd6d4f1f	-0.057936784
247	0x3d8770d9	0.06613321
248	0xbda35de3	-0.07976892
249	0xbd6b823e	-0.057497256
250	0xbe1c7ab0	-0.15281177
251	0x3cb3b973	0.021939015
252	0x3d09ca0b	0.03363995
253	0xbccafbf3	-0.024778342
254	0xbb634bd1	-0.0034682641
255	0xbd304438	-0.04303381

linear4.bias f4 [16]
0	0xbe2f22d3	-0.17103128
1	0x3d6d0f65	0.05787601
2	0x3e293f04	0.16527945
3	0x3dd05990	0.10173333
4	0x3dae03ba	0.084968045
5	0x3e1ce7f4	0.15322858
6	0xbd4b12e9	-0.04957858
7	0x3dc30568	0.095225155
8	0x3dd78b79	0.10524649
9	0xbd7f80e7	-0.06237879
10	0x3d7ded03	0.06199361
11	0xbcc836db	-0.02444022
12	0x3df4222a	0.11920579
13	0x3e2dc36d	0.1696908
14	0x3d8e61d1	0.06952251
15	0x3e336ca8	0.17521918

output_layer.weight f4 [2, 16]
0	0xbda2e414	-0.07953659
1	0x3d93b344	0.072119266
2	0x3e477d10	0.19481301
3	0xbe4c9d3c	-0.19981855
4	0x3e7fb928	0.24972975
5	0x3e3e6cd6	0.18596205
6	0xba426200	-0.0007415116
7	0xbe39c6ee	-0.18142292
8	0x3d606cf0	0.05479139
9	0x3e640872	0.22268847
10	0x3dac2380	0.084052086
11	0xbe3f30d8	-0.18670976
12	0x3d050010	0.032470763
13	0x3d6cbf90	0.057799876
14	0xbe0953e0	-0.13410902
15	0x3d7d1258	0.061785072
16	0x3d77b060	0.06047094
17	0xbbff9740	-0.007800013
18	0xbe3382fe	-0.17530438
19	0x3e72fc96	0.23729166
20	0x3e6bb714	0.23019058
21	0x3dd50104	0.10400584
22	0x3db1b214	0.08676544
23	0x3e62ccc4	0.22148424
24	0x3e310e50	0.17290616
25	0x3e0c2940	0.1368761
26	0x3d990d18	0.074732006
27	0xbe7c1e46	-0.24620923
28	0xbd8dfbc8	-0.06932789
29	0x3dcd0aa4	0.10011795
30	0xbe25551c	-0.16145748
31	0xbddcd5c8	-0.10782963

output_layer.bias f4 [2]
0	0xbe2fc520	-0.17165041
1	0xbe0ba306	-0.13636407
