results/models/batchsize=96,lr=1e-4,width=128,eps=0.9,num_episodes_train=5000/3/model-171.0.pt (torch, 72304 bytes, 6 tensors)

linear1.weight f4 [128, 4]
-0.16357921 -0.16243285 -0.0027846857 0.2561466 -0.41980574 -0.4986178 0.25160205 -0.23659463
0.44095576 -0.15562233 0.06503517 0.042960446 0.19357206 0.121645816 0.0049316674 0.18434832
-0.13883635 0.45602396 0.037181865 0.16893518 0.429306 -0.24534379 0.3531181 -0.29318395
0.6543243 0.16738091 0.22828057 -0.39052024 -0.5412096 -0.45467982 0.4219841 0.054316383
-0.023844287 -0.2244543 -0.21182294 0.04908051 -0.43682998 0.30532923 -0.5496367 0.34447035
-0.30432624 -0.065816574 -0.039916325 0.011187949 0.22734028 -0.087451145 0.34810358 0.2515885
0.18202849 -0.51511407 0.07780852 0.1915107 0.33597785 -0.09808749 -0.30516672 0.22657983
0.4193127 -0.018861767 -0.08730254 -0.16991046 -0.6740331 -0.18279125 0.46121514 0.49434924
-0.17559917 -0.13939874 -0.32233945 -0.2175748 -0.0017171423 0.09441826 0.28245607 -0.28564823
0.5727511 0.47741324 -0.26694554 -0.5781034 -0.36149615 0.40964442 -0.48226103 0.33239326
0.4835486 0.012673959 -0.7940216 -0.5908183 0.3854989 0.3648969 0.22659145 -0.099874675
-0.11112517 -0.016320944 0.14742416 -0.11425102 -0.41315696 0.34034318 0.6121278 -0.11397706
-0.034570504 -0.38468403 -0.15737207 0.46774673 0.0726825 -0.101875074 -0.43573895 0.10171857
-0.23841125 -0.18289708 0.26178825 0.010148806 0.08786571 0.115671396 -0.09902716 0.1579284
0.07235128 -0.55612445 0.18994607 0.25170037 0.57727224 -0.030964658 0.17683676 0.2511902
0.23434323 0.13232686 -0.3638074 0.18012127 0.025424384 0.14992851 -0.29977915 -0.6276445
-0.14142518 0.044167586 0.42245206 -0.17492701 -0.2531158 0.15614039 0.024282267 -0.29870427
0.056284815 0.46784437 -0.07804727 -0.20338935 -0.2373469 -0.0037577841 -0.2770692 -0.14469382
-0.09555779 0.4406111 0.11304877 -0.23221534 -0.4709219 0.31536692 0.06399216 0.1333143
0.2501377 0.28488624 0.5714312 0.6097431 -0.30699602 -0.6580746 -0.42214587 -0.19405255
-0.50091505 0.45726144 0.3167702 0.02785831 -0.038332265 -0.35474896 -0.067104384 0.16597389
-0.38440818 -0.28317663 -0.14312893 -0.09409604 -0.060908854 -0.31492144 0.28021187 -0.29938954
-0.5266262 0.1812102 0.42988715 -0.060807656 0.19483002 0.32130712 0.21214089 -0.1491746
0.2332708 -0.5299875 -0.4429947 -0.06611398 -0.3434383 0.37946755 -0.38373494 -0.2374442
-0.37950632 0.38396028 -0.09616006 -0.4204702 0.38858432 0.28639168 0.39028463 0.16628796
-0.47009403 0.18710469 -0.17913671 -0.104637936 -0.40041837 0.47993895 -0.47804138 0.22945791
0.099406585 -0.14936213 0.1609539 -0.4679825 -0.1653387 -0.26461172 0.044295996 -0.35519618
0.16548945 0.10999194 0.15675405 0.22576623 -0.24501182 -0.36114413 0.0044780886 0.51485074
0.51113856 0.18660401 -0.23714244 0.28214237 0.4924179 0.06177842 -0.11018941 0.1338832
-0.27484468 -0.09115473 -0.27766982 0.18049057 0.10465355 -0.027504295 0.50172716 0.605992
0.12762006 -0.29938024 -0.33759046 -0.16335133 0.34176627 -0.49509758 0.022653684 -0.030913841
-0.043820802 0.43498883 0.0009274196 -0.37228847 0.70981205 -0.06748685 0.085865036 -0.5166164
00000000: 4f81 27be cc54 26be 467f 36bb a625 833e
00000010: c7f0 d6be d54a ffbe fcd1 803e dd45 72be
00000020: f4c4 e13e 765b 1fbe 2931 853d 4bf7 2f3d
00000030: c137 463e 7121 f93d d399 a13b cec5 3c3e
00000040: 1e2b 0ebe f97b e93e 034c 183d 58fd 2c3e
00000050: ffcd db3e 673b 7bbe e5cb b43e 351c 96be
00000060: cc81 273f e765 2b3e 62c2 693e 45f2 c7be
00000070: b68c 0abf cbcb e8be 4d0e d83e db7a 5e3d
00000080: 1855 c3bc 59d7 65be 1de8 58be a508 493d
00000090: 2ea8 dfbe 1d54 9c3e feb4 0cbf 6b5e b03e
000000a0: a6d0 9bbe d7ca 86bd 4d7f 23bd a94d 373c
000000b0: e4cb 683e 9619 b3bd a23a b23e 35d0 803e
000000c0: ad65 3a3e 84de 03bf 135a 9f3d 621b 443e
000000d0: 4a05 ac3e 18e2 c8bd d03e 9cbe 8b04 683e
000000e0: 27b0 d63e fe83 9abc adcb b2bd 02fd 2dbe
000000f0: 6f8d 2cbf a12d 3bbe 6424 ec3e 581b fd3e
00000100: 45d0 33be 8bbe 0ebe ad09 a5be eecb 5ebe
00000110: bc11 e1ba 5c5e c13d 159e 903e 7c40 92be
00000120: d19f 123f 826f f43e 16ad 88be 96fe 13bf
00000130: 0616 b9be eabc d13e ebea f6be 732f aa3e
00000140: af93 f73e 70a6 4f3c 0045 4bbf de3f 17bf
00000150: 1d60 c53e c4d3 ba3e 9707 683e 188b ccbd
00000160: 9895 e3bd 80b3 85bc 5cf6 163e 70fc e9bd
00000170: 4f89 d3be 7641 ae3e 68b4 1c3f ce6c e9bd
00000180: cd99 0dbd 4ef5 c4be 2526 21be 807c ef3e
00000190: 90da 943d e1a3 d0bd 2d19 dfbe d351 d03d
000001a0: 1422 74be 5f49 3bbe 1c09 863e 2d47 263c
000001b0: f0f2 b33d 20e5 ec3d c0ce cabd fcb7 213e
000001c0: e82c 943d 2c5e 0ebf 3981 423e dfde 803e
000001d0: 1dc8 133f 98a9 fdbc b214 353e 009c 803e
000001e0: acf7 6f3e b180 073e f744 babe b671 383e
000001f0: cc46 d03c dc86 193e a77c 99be 4fad 20bf
00000200: c3d1 10be 12e9 343d a34b d83e 1120 33be
00000210: 6598 81be 44e3 1f3e 9beb c63c c4ef 98be
00000220: e88a 663d 4c89 ef3e 3fd7 9fbd 4c45 50be
00000230: 110b 73be 2845 76bb 04dc 8dbe 9e2a 14be
00000240: cdb3 c3bd c797 e13e 1d86 e73d dcc9 6dbe
00000250: ad1c f1be c677 a13e 520e 833d 8b83 083e
00000260: 0c12 803e 9cdc 913e 5149 123f 2018 1c3f
00000270: 952e 9dbe 9477 28bf 8123 d8be b6b5 46be
00000280: f83b 00bf 2c1e ea3e b42f a23e 1c37 e43c
00000290: 4b02 1dbd a8a1 b5be 066e 89bd 0ff5 293e
000002a0: 26d1 c4be 87fc 90be 6490 12be 6db5 c0bd
000002b0: 907b 79bd 623d a1be ee77 8f3e 9649 99be
000002c0: fad0 06bf 2b8f 393e 2b1a dc3e 7311 79bd
000002d0: 8581 473e 5e82 a43e 763b 593e 3ac1 18be
000002e0: 8ade 6e3e 43ad 07bf 34d0 e2be c466 87bd
000002f0: 25d7 afbe 9249 c23e e878 c4be 9324 73be
00000300: a74e c2be 7196 c43e 91ef c4bd df47 d7be
00000310: 86f4 c63e eea1 923e 63d3 c73e 6447 2a3e
00000320: 2ab0 f0be 5f98 3f3e 9d6f 37be 6a4c d6bd
00000330: a303 cdbe 8fba f53e d7c1 f4be 04f7 6a3e
00000340: ae95 cb3d 63f2 18be 19d1 243e 679b efbe
00000350: 8c4e 29be 307b 87be b86f 353d 46dc b5be
00000360: 1176 293e 7443 e13d 2284 203e 432f 673e
00000370: 61e4 7abe e2e7 b8be eebc 923b 42cd 033f
00000380: fad9 023f 1f15 3f3e 78d5 72be f774 903e
00000390: 331e fc3e 5e0b 7d3d fcaa e1bd ad18 093e
000003a0: 71b8 8cbe 55af babd bd2a 8ebe 85d2 383e
000003b0: 9a54 d63d b050 e1bc 3171 003f 4b22 1b3f
000003c0: d5ae 023e 5e48 99be a8d8 acbe 9245 27be
000003d0: fdfb ae3e 6e7d fdbe 3894 b93c 063f fdbc
000003e0: 717d 33bd dbb6 de3e 131e 733a 989c bebe
000003f0: 3eb6 353f 8c36 8abd 02da af3d f940 04bf

linear1.bias f4 [128]
0.5550294 -0.19021821 0.541778 0.6411212 0.16729183 0.30938563 -0.1897246 0.013600717
0.56688374 0.38905638 0.29505512 0.6589106 -0.096986674 0.510022 0.5723384 -0.21775569
0.37103134 0.52133787 0.034799665 0.3826868 -0.11303947 0.6996025 -0.49870938 0.24758108
0.10979001 0.17960495 0.5184108 -0.40613353 -0.27146137 0.57648075 0.55958706 -0.086722486
0.25227353 0.18351842 0.17374481 0.37445977 0.3059069 0.15661554 -0.017971246 -0.22357292
-0.044291314 0.1088583 0.47298864 -0.47454554 -0.10739772 0.6732642 0.03183238 -0.04169478
0.30191943 0.18841305 0.39747036 -0.4526031 0.050793033 0.4742894 0.41253203 0.061314806
0.35620946 0.3983067 -0.46158436 -0.18035462 0.53046227 -0.38783807 0.52627087 -0.20577464
0.6962206 0.7040517 0.57850605 -0.24796315 -0.10849696 -0.46117777 0.26882797 0.35281232
-0.21105708 -0.029578468 -0.16199821 0.019316826 0.6325215 -0.26498452 0.4133335 -0.26855826
0.40490493 -0.3610194 0.36355683 -0.035148654 0.5873369 -0.24262515 -0.28232664 0.55557024
0.35080266 -0.024205873 -0.14084087 0.33685663 0.22045787 -0.11454353 0.63586426 0.20797153
-0.25928164 -0.2111763 0.19361803 -0.38337168 -0.32830617 0.3378049 -0.2596054 0.19575936
0.36809024 0.48950914 -0.24959368 0.24267082 -0.23245087 -0.20455383 -0.083932295 -0.19819498
0.52236205 0.080430605 -0.08773382 0.17997538 0.58764136 0.22499639 -0.11016868 0.4044786
-0.053062886 0.26603386 0.39346653 -0.024888583 -0.4364177 0.14560896 -0.3255334 0.5176874
00000000: 6816 0e3f 90c8 42be f7b1 0a3f 8520 243f
00000010: 8d4e 2b3e cb67 9e3e 2a47 42be 8bd5 5e3c
00000020: 4b1f 113f 6632 c73e 7711 973e 5dae 283f
00000030: f3a0 c6bd cd90 023f c584 123f 59fb 5ebe
00000040: d2f7 bd3e 6676 053f 188a 0e3d 86ef c33e
00000050: 3d81 e7bd 2619 333f d656 ffbe e585 7d3e
00000060: 96d9 e03d 5cea 373e 92b6 043f bcf0 cfbe
00000070: fcfc 8abe 3e94 133f 1941 0f3f 8f9b b1bd
00000080: ff29 813e 41ec 3b3e 29ea 313e 31b9 bf3e
00000090: d49f 9c3e d35f 203e 6f38 93bc 4df0 64be
000000a0: cf6a 35bd 1af1 de3d 912b f23e a2f7 f2be
000000b0: 56f3 dbbd 0b5b 2c3f ab62 023d 25c8 2abd
000000c0: 2f95 9a3e 5aef 403e 3c81 cb3e 98bb e7be
000000d0: 5b0c 503d 0fd6 f23e 6637 d33e 3c25 7b3d
000000e0: 1661 b63e dbee cb3e c954 ecbe e2ae 38be
000000f0: 60cc 073f b692 c6be b0b9 063f 96b6 52be
00000100: 833b 323f bb3c 343f f918 143f 0dea 7dbe
00000110: a733 debd 7e1f ecbe d2a3 893e d1a3 b43e
00000120: 591f 58be 8b4e f2bc dce2 25be 523e 9e3c
00000130: eeec 213f 0dac 87be 73a0 d33e 7880 89be
00000140: b34f cf3e 89d7 b8be 1f24 ba3e 09f8 0fbd
00000150: b65b 163f ba72 78be 1e8d 90be da39 0e3f
00000160: 689c b33e 654b c6bc 9738 10be 7978 ac3e
00000170: b5bf 613e cc95 eabd 00c8 223f 7df6 543e
00000180: 90c0 84be 9a3e 58be ce43 463e 4b49 c4be
00000190: bf17 a8be c4f4 ac3e 00eb 84be 2475 483e
000001a0: 5376 bc3e f1a0 fa3e 7c95 7fbe b37e 783e
000001b0: 9a07 6ebe 8f76 51be b2e4 abbd a0f3 4abe
000001c0: 85b9 053f cdb8 a43d caad b3bd 774b 383e
000001d0: aa6f 163f 7465 663e 1ea0 e1bd d217 cf3e
000001e0: 7858 59bd 9735 883e 7274 c93e 24e3 cbbc
000001f0: 2472 dfbe 841a 153e 50ac a6be 2987 043f

linear2.weight f4 [128, 128]
-0.04790512 0.06301302 0.03107588 0.05532955 -0.0849874 0.025128642 -0.017561203 0.01714022
0.020898886 -0.015922975 -0.05836399 0.03951869 -0.096330896 0.025286224 -0.10305051 -0.020320073
0.031020425 -0.038978036 -0.085330635 -0.011540671 -0.05416175 -0.0045240256 -0.042548075 0.041195605
-0.08093602 0.009739373 0.035916857 0.012663158 -0.054524448 0.062552154 0.012923919 -0.03158676
0.06762499 -0.09651594 0.06930126 -0.076061614 -0.08760939 -0.016049715 -0.008394547 0.083102606
0.014794789 0.026432624 0.04793162 -0.054066673 -0.061977897 -0.049064912 -0.030064419 0.042293906
-0.0715671 -0.033156473 -0.055115927 -0.016933085 0.014371502 -0.08735589 0.01653698 -0.05734439
-0.024400426 -0.048836995 -0.038713187 -0.06394333 0.04023109 0.030346649 -0.04584974 0.01856889
0.03712681 0.037905518 -0.06378135 0.04145693 0.046395957 0.031883933 -0.00051055255 0.008782897
0.029647123 -0.029003873 -0.0834746 0.06873965 -0.08915597 -0.034792222 -0.08028608 0.065100156
-0.08990778 0.055162653 -0.0057714893 0.051894605 0.03102934 0.05757814 -0.023161583 0.032848347
0.03611268 0.015129092 -0.012071908 0.053960674 0.0388757 -0.08774718 -0.035275362 -0.07362632
0.040561467 -0.0041289283 -0.04549526 -0.020731745 0.058859073 -0.053948153 0.018084912 0.06394938
-0.028072009 -0.0102131255 0.050294142 0.030782228 0.033342395 -0.02044983 -0.04398537 0.048449688
-0.10124589 0.011645753 -0.0038321933 -0.025072653 0.068812855 -0.041753665 -0.09360295 0.05096645
0.0044540386 0.0490264 0.06621269 -0.07545452 0.030576263 0.06343802 0.076467715 -0.05714215
-0.017735558 -0.036798093 0.02856402 0.07366066 0.047389098 0.021632373 0.06266917 0.043150432
-0.08681244 -0.09196651 -0.07277099 0.06949476 0.082498424 0.025984315 0.07725313 -0.057471246
-0.02661245 -0.03017198 -0.06723625 -0.011003298 -0.050199468 0.05750481 -0.035643432 -0.033346623
0.046670437 0.034842324 0.04969082 0.06275178 0.016935205 -0.07420267 0.00427574 0.08156856
-0.03232359 -0.055253908 -0.01677591 -0.080077864 0.059392773 -0.06842077 0.015812343 0.022921141
-0.007948113 0.0430283 -0.020791935 -0.03197659 0.04231434 -0.021448882 -0.054031838 -0.07251558
0.031167852 0.052947465 0.04242878 0.020937826 -0.044310182 -0.02537401 0.081374705 -0.07762348
-0.008015351 -0.07333354 0.06580384 0.073068276 0.053622898 0.008669915 -0.056709684 0.053263027
-0.06291327 -0.02348714 0.043246593 0.012344517 -0.002544479 -0.016158912 -0.026411127 0.057345547
-0.04717747 0.0044737468 0.055157106 0.058512982 -0.07030382 -0.0034216077 -0.020575311 -0.04409359
-0.091225736 -0.02128537 0.003819257 0.039904896 -0.03173944 -0.06822365 -0.08579534 0.07058519
-0.081487715 0.06251317 0.008408981 0.058185134 0.01840764 0.047982175 -0.063846 0.03272812
0.08111976 -0.053197294 -0.06355295 0.082108416 0.038838003 -0.05698949 0.0022336459 -0.008188859
0.031362407 -0.0016618707 -0.04545079 -0.0820373 -0.005934723 0.027637227 -0.066869006 -0.022728452
0.070957564 0.059070904 -0.021348622 0.022997625 -0.04548339 -0.021135285 -0.022647958 0.06610288
0.030309381 0.08330168 -0.037390828 -0.06139996 0.0016712911 -0.057420872 0.07260791 -0.05966311
00000000: 2938 44bd f80c 813d d892 fe3c 3da1 623d
00000010: e00d aebd 95da cd3c 83dc 8fbc a669 8c3c
00000020: 2434 ab3c e670 82bc 140f 6fbd 5ade 213d
00000030: 2249 c5bd 0e25 cf3c 250c d3bd 4876 a6bc
00000040: 8c1e fe3c 6fa7 1fbd d4c1 aebd 1515 3dbc
00000050: b6d8 5dbd 473e 94bb e446 2ebd b9bc 283d
00000060: c9c1 a5bd e491 1f3c 8e1d 133d 2279 4f3c
00000070: 0755 5fbd 581b 803d d8be 533c 1e61 01bd
00000080: f97e 8a3d 26aa c5bd d2ed 8d3d 31c6 9bbd
00000090: 8d6c b3bd b17a 83bc 4889 09bc b331 aa3d
000000a0: d865 723c 3b89 d83c f253 443d 0475 5dbd
000000b0: 89dc 7dbd 4af8 48bd a849 f6bc 603c 2d3d
000000c0: c691 92bd 15cf 07bd 3dc1 61bd 41b7 8abc
000000d0: 7376 6b3c a5e7 b2bd 9078 873c f3e1 6abd
000000e0: 67e3 c7bc 4d09 48bd b891 1ebd b8f4 82bd
000000f0: 5bc9 243d 8999 f83c f0cc 3bbd c91d 983c
00000100: 4812 183d d142 1b3d cc9f 82bd bece 293d
00000110: b009 3e3d ba98 023d 9ad6 05ba 24e6 0f3c
00000120: 86de f23c 8899 edbc bbf4 aabd 60c7 8c3d
00000130: 6897 b6bd 4a82 0ebd 076d a4bd 3b53 853d
00000140: 9221 b8bd 3cf2 613d c31e bdbb 708f 543d
00000150: 3e31 fe3c 0ed7 6b3d 5cbd bdbc fd8b 063d
00000160: e4ea 133d 03e0 773c 41c9 45bc de05 5d3d
00000170: 203c 1f3d cbb4 b3bd e67c 10bd 65c9 96bd
00000180: c823 263d f64b 87bb 3d59 3abd 9fd5 a9bc
00000190: 3616 713d bdf8 5cbd cf26 943c e4f7 823d
000001a0: 45f7 e5bc f454 27bc 3b01 4e3d 032b fc3c
000001b0: 0992 083d 6786 a7bc 012a 34bd 2e73 463d
000001c0: 015a cfbd d4cd 3e3c 8925 7bbb 2a65 cdbc
000001d0: c1ed 8c3d e405 2bbd e7b2 bfbd 32c2 503d
000001e0: 2ff3 913b e8cf 483d 859a 873d e687 9abd
000001f0: 127b fa3c cbeb 813d 1b9b 9c3d e30d 6abd
00000200: 294a 91bc 99b9 16bd 17ff e93c 66db 963d
00000210: 121b 423d 6036 b13c b258 803d 82be 303d
00000220: b8ca b1bd f058 bcbd f508 95bd 4553 8e3d
00000230: eff4 a83d 0fdd d43c e436 9e3d f866 6bbd
00000240: 5a02 dabc 3a2b f7bc 29b3 89bd 2d47 34bc
00000250: f59d 4dbd 2a8a 6b3d d9fe 11bd 7896 08bd
00000260: 8029 3f3d d3b6 0e3d 9a88 4b3d 0184 803d
00000270: b3bb 8a3c 92f7 97bd 821b 8c3b 6b0d a73d
00000280: be65 04bd ec51 62bd a26d 89bc ddff a3bd
00000290: d645 733d 3020 8cbd e388 813c 1ec5 bb3c
000002a0: cd38 02bc 713e 303d d953 aabc e3f9 02bd
000002b0: cd51 2d3d 91b5 afbc 7d50 5dbd 0c83 94bd
000002c0: b953 ff3c 71df 583d cdc9 2d3d ce85 ab3c
000002d0: 987e 35bd 28dd cfbc c8a7 a63d 0ff9 9ebd
000002e0: d252 03bc e52f 96bd 2ac4 863d d2a4 953d
000002f0: afa3 5b3d 420c 0e3c 6a48 68bd 552a 5a3d
00000300: acd8 80bd 1a68 c0bc 5723 313d a840 4a3c
00000310: 46c1 26bb b25f 84bc 265c d8bc 2ae3 6a3d
00000320: 2a3d 41bd 8298 923b 6bec 613d 4fab 6f3d
00000330: 73fb 8fbd 0d3d 60bb 8e8d a8bc 7b9b 34bd
00000340: 8fd4 babd a85e aebc 804c 7a3b 5173 233d
00000350: 3701 02bd d7b8 8bbd 78b5 afbd f88e 903d
00000360: 08e3 a6bd e806 803d d3c5 093c 8953 6e3d
00000370: 9ecb 963c f588 443d b1c1 82bd ec0d 063d
00000380: 1e22 a63d 68e5 59bd 0d28 82bd 7528 a83d
00000390: 9914 1f3d d06d 69bd 5c62 123b 902a 06bc
000003a0: de75 003d 21d3 d9ba 9c2a 3abd 2c03 a8bd
000003b0: 1178 c2bb 7767 e23c 9ef2 88bd 0531 babc
000003c0: 3352 913d 55f4 713d 4ee3 aebc 8465 bc3c
000003d0: cb4c 3abd e823 adbc 3688 b9bc f260 873d
000003e0: 614b f83c 129a aa3d 2027 19bd 867e 7bbd
000003f0: 390f db3a 2632 6bbd 75b3 943d 4e61 74bd

linear2.bias f4 [128]
0.016369786 0.0023700916 0.2151217 0.15074714 0.13182072 0.21375151 0.12487761 -0.041537132
0.13881044 0.068781145 0.10802688 0.19061205 0.036124527 0.06658469 0.16145946 0.115882374
-0.09109026 0.12957565 -0.07489958 0.0679292 0.09292512 0.2400508 0.18152225 0.106060326
0.19835503 0.21405149 -0.08210862 0.084350616 0.06649526 0.08850687 0.23499207 -0.019277768
0.20534965 0.015905682 0.22991164 0.07024912 0.09275697 0.07652172 0.08619911 0.022571482
-0.044111807 -0.06691109 -0.00274946 0.0005248327 0.0687189 0.07062043 0.050052457 0.21875422
0.03214223 0.036607772 0.11911575 0.23826538 0.1351542 0.23925216 0.1657066 0.20381017
0.19964847 0.20629466 -0.033990305 0.154175 0.1265652 0.17110094 0.15393427 -0.08828309
0.036960423 -0.014089755 0.17852798 0.14319202 0.11010837 0.017061442 0.1260503 0.19821385
0.17881015 0.21923472 0.20862448 0.115503795 0.23321556 0.04042559 0.11438396 0.13554855
0.049418174 0.18370935 -0.018735265 0.13487312 -0.017316135 -0.026012802 0.19078492 0.04202919
0.12990099 0.0054297466 0.1889278 -0.061650977 0.17564316 -0.062269323 0.18204077 0.068297066
0.04533553 0.08019541 0.0003121358 0.24335344 0.24188234 0.029107295 -0.06399291 0.2135107
-0.027996445 0.006242773 0.0627237 0.18184371 0.20654482 -0.04212622 0.11440589 0.10252654
0.22326718 0.23872171 0.15294239 0.14813492 0.028921587 0.22894631 -0.054572165 0.16578202
-0.012408607 0.15560111 0.0027856755 0.18148772 -0.04112684 0.025784736 0.15594652 0.15696712
00000000: ee19 863c 8a53 1b3b dd48 5c3e 755d 1a3e
00000010: 03fc 063e ade1 5a3e d5bf ff3d d722 2abd
00000020: 5324 0e3e 21dd 8c3d 323d dd3d ce2f 433e
00000030: 50f7 133d 8e5d 883d a155 253e bd53 ed3d
00000040: 888d babd 7baf 043e f364 99bd 771e 8b3d
00000050: 864f be3d e0cf 753e f8e0 393e 2836 d93d
00000060: 951d 4b3e 5030 5b3e 9028 a8bd 04c0 ac3d
00000070: ab2e 883d 1743 b53d c3a1 703e 69ec 9dbc
00000080: 2e47 523e a24c 823c f56d 6b3e c5de 8f3d
00000090: 5ef7 bd3d 6bb7 9c3d 2989 b03d d4e7 b83c
000000a0: 95ae 34bd ae08 89bd 4930 34bb ed94 093a
000000b0: 7fbc 8c3d 72a1 903d ce03 4d3d 1b01 603e
000000c0: 92a7 033d 08f2 153d f5f2 f33d d7fb 733e
000000d0: dd65 0a3e 85fe 743e feae 293e 9db3 503e
000000e0: a670 4c3e e83e 533e 6b39 0bbd 0de0 1d3e
000000f0: 4f9a 013e 1635 2f3e f2a0 1d3e c4cd b4bd
00000100: d063 173d b7d8 66bc 0ad0 363e eea0 123e
00000110: 7f80 e13d 70c4 8b3c 5413 013e 92f8 4a3e
00000120: 021a 373e 117f 603e a8a1 553e 418d ec3d
00000130: 0fd0 6e3e 4e95 253d 2342 ea3d 3dcd 0a3e
00000140: b66a 4a3d 4e1e 3c3e b37a 99bc 2e1c 0a3e
00000150: 91da 8dbc cd18 d5bc 1f5d 433e cd26 2c3d
00000160: c404 053e 04ec b13b 4a76 413e bc85 7cbd
00000170: cddb 333e 1e0e 7fbd e568 3a3e 55df 8b3d
00000180: c0b1 393d 7e3d a43d 28a6 a339 a531 793e
00000190: 01b0 773e 6c72 ee3c b70e 83bd 8da2 5a3e
000001a0: cd58 e5bc 2d90 cc3b 4975 803d 3d35 3a3e
000001b0: 7c80 533e 8b8c 2cbd a34d ea3d 6ff9 d13d
000001c0: 27a0 643e 7773 743e ee9c 1c3e aeb0 173e
000001d0: f7ec ec3c e770 6a3e 1087 5fbd c3c2 293e
000001e0: 784d 4bbc e655 1f3e e18f 363b ebd7 393e
000001f0: 9e74 28bd 833a d33c 72b0 1f3e fdbb 203e

output_layer.weight f4 [2, 128]
-0.053673677 -0.081197955 0.19957958 0.20497282 0.15624093 0.1813487 0.12377387 -0.06100463
0.21187815 0.26278028 -0.106138155 0.25763217 -0.0067600803 0.19267845 0.24265185 0.25574324
0.045644037 0.10094565 -0.026925871 -0.046420034 0.20016906 0.18801987 0.23809297 0.19451666
0.22866537 0.18959603 0.020449335 0.040370524 -0.061354477 -0.02346232 0.24811071 -0.08785718
0.18502395 -0.04006569 0.24165837 0.030322144 0.24405852 0.11453104 -0.006014292 0.031757202
-0.028272811 -0.041696355 0.07015183 -0.025739564 0.022951992 -0.058992807 -0.15540743 0.13689022
-0.0105909975 -0.059398297 0.20868172 0.15841407 0.21321902 0.1653236 0.05691642 0.22984475
0.1408329 0.17949426 -0.06146571 0.24299905 0.2510017 0.1370596 0.22903822 -0.04024607
-0.034629308 -0.07903433 0.26701728 0.06478851 0.20925799 0.019411597 0.24525085 -0.21757554
0.1996468 0.26363766 0.23905003 0.21410483 0.18075453 -0.013234292 0.11777966 0.20638372
-0.08835056 0.22604166 0.0032854518 0.20200373 -0.0011229859 -0.018665707 0.18167566 0.025196869
-0.04498452 -0.052596558 0.109461576 0.076547086 0.2651552 -0.029560925 0.15805678 -0.040409867
-0.17134415 -0.07884534 0.059047338 0.20387346 0.2777253 -0.116697796 -0.008042398 0.25503454
-0.06802834 -0.017488835 0.09640471 0.12032361 0.13622746 0.034910504 0.23909275 0.2381064
0.21303089 0.2438682 0.23057851 0.19177054 -0.05707175 0.16620162 -0.2690371 0.19102718
-0.047360137 0.24599715 -0.0049865423 0.05563223 0.01868297 -0.055904478 0.23058257 0.27241084
-0.011361467 -0.04017671 0.22543265 0.1887245 0.2256618 0.24946746 0.25270936 0.020496923
0.18828325 0.18255487 0.12059598 0.091915615 0.041207973 0.18764065 0.15817688 0.24436237
-0.034152128 -0.13869955 0.044519324 -0.07790946 0.24573214 0.16718397 0.14304866 0.10622994
0.16095772 0.21780919 0.009906774 0.2184575 -0.022726322 -0.12161149 0.218621 -0.079030626
0.21106432 -0.012538376 0.18592803 -0.05244777 0.10684312 0.25076425 0.0272411 -0.082297705
-0.06634422 -0.021063786 0.010237374 -0.06433055 -0.06556596 -0.06726938 -0.022982026 0.23829418
-0.027498627 -0.0596948 0.24366114 0.25006166 0.120506406 0.23856851 0.15257315 0.19596717
0.22769499 0.16739485 0.030885948 0.14649574 0.2523665 0.26175973 0.17893101 0.048266135
-0.02417882 0.085704796 0.19362254 0.22038244 0.1808049 -0.052457903 0.21604575 0.056684535
0.27783707 0.09848613 0.19949226 0.1725884 0.24875295 -0.13534811 0.26506308 0.15190203
-0.12102819 0.09398061 -0.05237704 0.17343704 -0.06462163 -0.060765527 0.20364134 -0.04554937
-0.18503001 -0.0668939 0.25940493 -0.08670393 0.22436364 -0.07105508 0.20584795 -0.006083492
0.007764493 -0.077153355 -0.14252847 0.24670811 0.2208793 0.12228879 -0.034138747 0.22746532
-0.074784316 -0.16262831 -0.19370465 0.2629691 0.24482891 -0.023173036 0.2432083 0.13824345
0.12200446 0.16704491 0.20556222 0.19677277 -0.054600354 0.20237073 -0.2044139 0.2104286
-0.06363221 0.19473174 0.0044925474 0.20561682 0.08678326 -0.0515535 0.0928932 0.09955223
00000000: eed8 5bbd 1d4b a6bd 975e 4c3e 65e4 513e
00000010: 9ffd 1f3e 79b3 393e 287d fd3d fedf 79bd
00000020: 96f6 583e 238b 863e f65e d9bd 5de8 833e
00000030: aa83 ddbb 804d 453e ba79 783e c7f0 823e
00000040: 3ef5 3a3d 98bc ce3d a593 dcbc ef22 3ebd
00000050: 1ef9 4c3e 4888 403e a5ce 733e 602f 473e
00000060: 4127 6a3e 7625 423e 5d85 a73c 905b 253d
00000070: d54e 7bbd 0d34 c0bc bc10 7e3e 77ee b3bd
00000080: eb76 3d3e ec1b 24bd 4b75 773e 2566 f83c
00000090: 7aea 793e 408f ea3d 8a13 c5bb d713 023d
000000a0: 629c e7bc ccc9 2abd c3ab 8f3d c7db d2bc
000000b0: d105 bc3c 71a2 71bd 2023 1fbe f32c 0c3e
000000c0: dd85 2dbc a14b 73bd a9b0 553e 4c37 223e
000000d0: 1656 5a3e 974a 293e 3121 693d 6c5c 6b3e
000000e0: 8036 103e 58cd 373e 78c3 7bbd bed4 783e
000000f0: 4b83 803e 5a59 0c3e ff88 6a3e 10d9 24bd
00000100: 76d7 0dbd c0dc a1bd 7db6 883e d7af 843d
00000110: ba47 563e 1205 9f3c 0a23 7b3e 1fcc 5ebe
00000120: 3670 4c3e 84fb 863e 88c9 743e 4c3e 5b3e
00000130: b717 393e a5d4 58bc 7636 f13d 4156 533e
00000140: 23f1 b4bd 7777 673e bc50 573b 11da 4e3e
00000150: 2731 93ba d3e8 98bc 2f09 3a3e aa69 ce3c
00000160: b041 38bd 7d6f 57bd 642d e03d b8c4 9c3d
00000170: 6cc2 873e c129 f2bc a3d9 213e d184 25bd
00000180: d774 2fbe aa79 a1bd 9fdb 713d 34c4 503e
00000190: 0332 8e3e 41ff eebd 43c4 03bc e393 823e
000001a0: 7152 8bbd bf44 8fbc d56f c53d 3a6c f63d
000001b0: 367f 0b3e 51fe 0e3d bbd4 743e 2ad2 733e
000001c0: c524 5a3e 96b8 793e c61c 6c3e 7f5f 443e
000001d0: 11c4 69bd c230 2a3e 3bbf 89be a19c 433e
000001e0: b4fc 41bd ade6 7b3e 2666 a3bb 9fde 633d
000001f0: 070d 993c 18fc 64bd d61d 6c3e 6f79 8b3e
00000200: 7225 3abc 5590 24bd d1d7 663e ff40 413e
00000210: e313 673e 6674 7f3e 1f63 813e 2ae9 a73c
00000220: 53cd 403e aaef 3a3e 06fb f63d 413e bc3d
00000230: b1c9 283d df24 403e 1ff9 213e 213a 7a3e
00000240: 1ae3 0bbd 4107 0ebe e559 363d ff8e 9fbd
00000250: 35a1 7b3e 4632 2b3e 597b 123e 158f d93d
00000260: 1ad2 243e 5f09 5f3e 0650 223c 53b3 5f3e
00000270: 8d2c babc 720f f9bd 2fde 5f3e cfda a1bd
00000280: 3f21 583e c36d 4dbc eb63 3e3e 79d3 56bd
00000290: 91d0 da3d 2c64 803e ba28 df3c b38b a8bd
000002a0: 7adf 87bd f68d acbc a9ba 273c bcbf 83bd
000002b0: 7247 86bd 87c4 89bd cd44 bcbc 6403 743e
000002c0: cd44 e1bc 8982 74bd 4e82 793e 1508 803e
000002d0: 10cc f63d 4e4b 743e 233c 1c3e 9eab 483e
000002e0: e028 693e 8e69 2b3e 8704 fd3c fb02 163e
000002f0: 2f36 813e 5f05 863e b139 373e b6b2 453d
00000300: a912 c6bc ff85 af3d fd44 463e efab 613e
00000310: eb24 393e 19de 56bd 193b 5d3e 0b2e 683d
00000320: a940 8e3e 19b3 c93d b347 4c3e 03bb 303e
00000330: 18b9 7e3e b298 0abe 59b6 873e 358c 1b3e
00000340: a1dd f7bd e878 c03d 4f89 56bd 7b99 313e
00000350: 5858 84bd 46e5 78bd 5b87 503e fa91 3abd
00000360: 8278 3dbe abff 88bd b9d0 843e d491 b1bd
00000370: 95bf 653e 5385 91bd cec9 523e 0858 c7bb
00000380: 4a6d fe3b 9402 9ebd fcf2 11be 0da1 7c3e
00000390: 2f2e 623e 8c72 fa3d 12d5 0bbd abec 683e
000003a0: 8528 99bd 0988 26be 835a 46be e3a3 863e
000003b0: 6eb4 7a3e 61d5 bdbc 990b 793e b18f 0d3e
000003c0: 79dd f93d d20d 2b3e e77e 523e cd7e 493e
000003d0: 9fa4 5fbd 463a 4f3e e151 51be 987a 573e
000003e0: 9b51 82bd c267 473e 3836 933b 378d 523e
000003f0: 6cbb b13d c329 53bd ca3e be3d 0ae2 cb3d

output_layer.bias f4 [2]
0.215082 0.098834395
00000000: 753e 5c3e b069 ca3d
