results/models/batchsize=96,lr=1e-4,layer=6,eps=0.9,num_episodes_train=5000/0/model-11.0.pt (torch, 17506 bytes, 12 tensors)

linear1.weight f4 [16, 4]
000000 88 7a 91 3e b8 0e 85 bd 68 64 54 3e a8 30 64 be
       0.28413796 -0.06496948 0.20741427 -0.22284186
000010 94 4e 04 be f4 df a6 3e 9c 7e bf 3e 58 8f 06 be
       -0.129206 0.32592738 0.37401283 -0.13140619
000020 b2 4c af 3e 82 83 f3 3e 40 90 31 be 70 3b 7d be
       0.342382 0.4756127 -0.17340183 -0.24729705
000030 b0 24 c7 be 9c 2e 64 3e 40 cb 30 bd 50 4d a1 3d
       -0.38895178 0.22283405 -0.043162584 0.07876074
000040 60 53 19 3d 90 eb 1c bd bc 5e 53 3e 74 2e a3 be
       0.03743303 -0.038310587 0.20641607 -0.31871378
000050 e8 e6 f8 bd 60 0f 88 bd b6 0c f0 be ea e1 dd 3e
       -0.12153417 -0.066435575 -0.46884698 0.4333642
000060 f8 e1 c0 3e 12 82 fa 3e 98 9a 3d be c8 d8 43 3e
       0.376724 0.4892736 -0.18516004 0.19125664
000070 0c 03 9d be d2 8e 80 3e 3c c7 c0 be 6a 8f e7 3e
       -0.30666387 0.25108963 -0.37652004 0.45226604
000080 00 b3 54 bd c8 49 83 3e 10 18 27 3e 40 a6 4c 3d
       -0.05192852 0.25642228 0.16317773 0.049963236
000090 48 ce 7c be a0 f4 8e be a0 82 3f bd c0 30 fc bd
       -0.24688065 -0.2792101 -0.046755433 -0.12313986
0000a0 0c 3e 04 be 4e 5f de be 26 61 f2 3e 30 bf 7d 3d
       -0.12914294 -0.43432087 0.47339743 0.06194991
0000b0 98 e6 1a 3e a4 c8 bc 3e de 00 88 3e 70 8f a2 bd
       0.15127027 0.36871827 0.26563162 -0.07937515
0000c0 d2 67 98 be 5e 64 84 3e 0c 3d 5d be 74 5b 86 3e
       -0.2976671 0.25857824 -0.21605319 0.26241648
0000d0 68 6c 81 3e 2a de 8d 3e a8 3b 8d bd b8 db 42 3e
       0.2527802 0.2770856 -0.06896144 0.19029129
0000e0 b0 f7 49 3e 68 59 a5 3e d2 b4 a8 3e 80 82 c3 bb
       0.19723392 0.32294774 0.32950455 -0.0059664845
0000f0 70 32 1d bd e8 7f be 3d f4 22 55 be 22 0f e8 3e
       -0.03837818 0.0930174 -0.20814115 0.45324045

linear1.bias f4 [16]
000000 e0 0b db 3e 88 64 44 3e e0 80 ea bd da 51 8e 3e
       0.42782497 0.19178975 -0.11450362 0.27796823
000010 14 81 ff 3e a0 cd c5 be c8 8a a5 3e 80 9c 0f bc
       0.49903166 -0.38633442 0.32332444 -0.00876534
000020 08 08 b0 be 1c 1f 91 3e b6 4f fa 3e 5c 12 b6 3e
       -0.34381127 0.28344047 0.4888894 0.35560882
000030 c8 e0 7c 3e a0 85 76 3d 3e 6c 9e be f4 5c bd 3e
       0.24695122 0.06018603 -0.30941957 0.3698498

linear2.weight f4 [32, 16]
000000 b8 4c b1 bd 00 74 ca bd e4 5f 92 3d 00 61 ff 3c
       -0.08657211 -0.098854065 0.07147196 0.031174183
000010 88 54 76 3e 70 b0 1d 3e f0 ba de 3d 1a 98 21 3e
       0.24055684 0.15399337 0.10875499 0.15780678
000020 2c af e2 3d e0 c0 3a 3c ee df 55 be c0 d7 d8 bc
       0.11068568 0.011398524 -0.20886204 -0.026470065
000030 80 a9 70 be 84 16 fb 3d 3c 94 ee 3d a4 cb 94 3d
       -0.23502159 0.12260154 0.11649367 0.07265404
000040 bc bc d2 3d a0 14 28 3e f4 9f 09 be 68 07 c8 bd
       0.102899045 0.16414118 -0.13439924 -0.09767038
000050 44 62 9f 3d 36 ff 22 be 68 9b 3f 3d 44 d9 fb bd
       0.077824146 -0.15917668 0.046779066 -0.122972995
000060 94 a8 98 bd bc 38 89 3d 80 d9 8e 3b 08 03 34 be
       -0.07454029 0.06700274 0.004359424 -0.17579281
000070 ee 0d 74 3e 88 de 59 3d 4c 93 97 bd fc 51 72 3e
       0.23833439 0.053190738 -0.074011415 0.23664087
000080 a0 99 d5 bc 30 4d c6 3c ec b4 b2 bd e8 d9 65 bd
       -0.02607423 0.024206728 -0.08725914 -0.056116015
000090 60 a4 2f 3d 88 a1 b5 3d ae 9e 32 3e da 0e 75 be
       0.04288137 0.088687 0.17443344 -0.23931447
0000a0 a0 d0 47 be 64 f3 ff bd f8 24 a1 bd 70 51 74 3e
       -0.19513178 -0.12497595 -0.07868379 0.23859191
0000b0 38 67 8d bd ce 41 5e be e4 4a e6 3d 98 44 d5 3d
       -0.06904453 -0.2170479 0.11244753 0.10413474
0000c0 20 48 20 be 00 09 a9 3b d0 71 9d bc 5c 7c 3d 3e
       -0.15652514 0.0051585436 -0.01921931 0.1850447
0000d0 c0 ec 1c 3c d0 00 be 3c e6 29 68 be d2 8b 00 3e
       0.00957793 0.023193747 -0.22672233 0.12553337
0000e0 b0 40 71 bd 40 41 e8 3c 70 eb d2 bd a8 24 73 3d
       -0.05889958 0.028351426 -0.102988124 0.05936113
0000f0 7c 9c d2 bd d8 21 ee 3d 72 d1 21 be 20 3e c1 3c
       -0.10283753 0.11627549 -0.15802553 0.023589194
000100 dc 8c 29 be 5c d8 31 3e 50 ec 44 3e 20 39 80 3c
       -0.1655764 0.17367691 0.19230771 0.01565224
000110 26 bb 24 be 62 d3 28 3e 68 7e 16 3d 00 e4 11 ba
       -0.16087016 0.16486886 0.036741644 -0.00055652857
000120 18 57 c8 3d 80 26 56 bd 18 8f 07 3d fe cb 79 be
       0.09782237 -0.05228281 0.03309545 -0.24394223
000130 ee 6c 5d be e0 2c 32 be 2c dc 3c be 00 7c 52 bc
       -0.21623585 -0.17399931 -0.18443364 -0.012846947
000140 0a bf 5c be 4c aa ff 3d 90 2b 93 3d 4c 3f d9 3d
       -0.2155725 0.124836534 0.07186043 0.10607776
000150 40 2f c1 bc f6 38 23 be 68 db 7c 3e 38 3b 7d 3d
       -0.0235821 -0.15939698 0.24693072 0.061824054
000160 8e ef 07 3e 18 e1 78 be 86 70 13 3e 00 04 c0 ba
       0.13274977 -0.24304616 0.14398393 -0.001464963
000170 00 a3 d8 bd 7a 0e 62 be 48 16 20 be b2 04 67 3e
       -0.10577965 -0.22075835 -0.156335 0.22560385
000180 a2 bf 24 be f8 b0 0b 3e 66 f8 11 3e 00 72 d1 bd
       -0.16088727 0.13641727 0.14254913 -0.10226822
000190 b4 cb 94 3d 04 59 17 3e 8c b2 56 be 8c c7 aa 3d
       0.07265416 0.1478005 -0.20966548 0.08338842
0001a0 8c 16 94 bd 0e c0 45 be b6 0c 0d 3e de 49 1b 3e
       -0.07230863 -0.19311544 0.1377438 0.15164897
0001b0 a0 f7 81 bc f0 d4 63 bd 46 99 50 3e 7e 11 6a 3e
       -0.015865147 -0.055622995 0.20370969 0.22858235
0001c0 aa f8 03 be bc 51 a8 3d 56 82 79 be 1e 3a 2b 3e
       -0.12887827 0.082187146 -0.24366125 0.16721389
0001d0 68 91 32 3e f4 25 02 3e 38 d7 10 bd 44 19 05 be
       0.1743828 0.1270979 -0.0353615 -0.1299792
0001e0 f0 cd ee bd a8 7d 0e 3e ae 94 66 be 48 1d 50 be
       -0.11660373 0.13915122 -0.22517654 -0.2032367
0001f0 ee ce 66 be 40 cb 9b 3b 20 29 ff bd 52 75 4c 3e
       -0.22539875 0.004754454 -0.12459016 0.19966629
000200 7e 91 64 3e 80 58 7d 3b 2a f2 4c 3e ca 04 3e 3e
       0.22321126 0.0038657486 0.20014253 0.18556514
000210 a0 d5 b0 3d 3c 55 7a 3e cc e2 8f bd be 96 69 3e
       0.08634496 0.24446577 -0.0702568 0.2281141
000220 c0 8f 27 bc 40 f9 83 3b c4 06 62 3e 60 bb 32 3c
       -0.010227144 0.0040275156 0.22072893 0.0109089315
000230 b4 37 b1 3d aa 62 0a 3e e0 f3 80 3d b4 2a 02 be
       0.08653203 0.135142 0.062965155 -0.12711602
000240 10 55 1e be b8 67 ec 3d ba 23 78 3e b0 30 3a bd
       -0.15462136 0.1154322 0.24232379 -0.04545659
000250 30 40 ea bd ac 78 51 3e 36 dd 75 be f8 1e 55 3e
       -0.11438024 0.20456189 -0.24010167 0.20812595
000260 70 67 d8 bc 20 fc e9 3d 66 1e 31 3e 90 01 07 bd
       -0.02641651 0.11425042 0.17296752 -0.032960474
000270 e4 b9 4f be 88 e8 e0 bd e0 8c 2e bd c0 3d 34 be
       -0.20285755 -0.10981852 -0.042614818 -0.17601681
000280 ec 73 25 3e f0 e0 07 3d c8 10 b2 bd f8 20 02 bd
       0.16157502 0.0331735 -0.08694607 -0.031769723
000290 90 8e 87 3c c6 07 78 3e 1e 78 03 3e d8 9a 0e 3e
       0.016547471 0.24221715 0.1283879 0.13926256
0002a0 f4 03 38 3e bc 9a 2f 3e b2 75 3f 3e 4c eb 38 be
       0.17970258 0.1714887 0.18697241 -0.18058509
0002b0 f8 db 63 3e 4a 49 5a be f8 40 22 be 60 58 b9 3c
       0.2225188 -0.2131702 -0.15845096 0.022625148
0002c0 7c 94 f2 bd c4 36 d3 bd b0 d7 cb bd 00 2e 6b 3c
       -0.118447274 -0.1031318 -0.099532485 0.014354229
0002d0 54 99 85 bd 84 11 28 3e 58 08 8f 3d 60 6f 5a bd
       -0.06523386 0.16412932 0.06984013 -0.05332887
0002e0 78 e2 54 bd 6c 03 5b be e8 3d f5 bd d0 3a 70 3d
       -0.05197379 -0.21388024 -0.11974698 0.058649838
0002f0 f6 a8 7d be 68 1f 86 3d f8 99 4d 3e ec a3 31 3e
       -0.24771485 0.06548959 0.20078266 0.17347687
000300 2e 92 6c 3e c8 51 fb bd a0 d6 73 3d 54 47 8e bd
       0.23102638 -0.12271458 0.059530854 -0.069471985
000310 1a 06 29 be 1a ce 29 be cc b6 b8 3d ae 84 23 3e
       -0.16506234 -0.16582528 0.09019241 0.15968582
000320 ee 48 0a be b6 fa 0c be 70 90 ee 3c 4c 60 50 3e
       -0.13504383 -0.13767514 0.029121608 0.20349234
000330 54 a8 e0 3d c4 16 94 3d 48 a7 38 bd e4 8a 48 3e
       0.10969606 0.07230905 -0.045081407 0.19584233
000340 d8 31 b0 3d 58 5c 19 3d d0 50 de bd 60 ea a1 3d
       0.08603257 0.03744158 -0.108552575 0.079060316
000350 34 6f 73 be 46 ed 40 be 2e 0e 38 be 0c 38 5e 3e
       -0.2377289 -0.18840513 -0.17974159 0.21701068
000360 b8 05 66 be 64 81 df 3d 3c 5e 80 bd 2c cc a9 bd
       -0.22463119 0.10913351 -0.06267974 -0.08290896
000370 00 dc 44 ba aa 28 1f 3e 74 d9 86 3d 98 0f 2d be
       -0.0007509589 0.15542856 0.06584445 -0.1690048
000380 96 16 62 be 7c 91 5d be da 6b 44 3e 28 13 37 be
       -0.22078928 -0.21637529 0.19181767 -0.17878401
000390 a0 b4 33 3e b0 48 fc bd 08 bd 13 3d 30 70 57 be
       0.17549372 -0.123185515 0.036068946 -0.2103889
0003a0 d8 ff 08 3d 34 54 b2 3d dc 40 7e 3e 6c ad 39 3e
       0.033447117 0.08707467 0.2482943 0.18132561
0003b0 00 18 4d b9 9c 48 b6 3d 94 33 7f be 9e 51 7f 3e
       -0.00019559264 0.08900568 -0.24922019 0.24933478
0003c0 70 2f b2 bd ec c2 d6 bd 18 54 ae bd 4c 1b c3 bd
       -0.08700454 -0.10486397 -0.08512133 -0.09526691
0003d0 b0 a8 5f be e0 b8 19 bd d4 15 05 be d8 0e 10 bd
       -0.21841693 -0.037529826 -0.12996608 -0.035170406
0003e0 a6 80 0f be b0 0d 75 3e d2 e3 78 be b4 bb 9a 3d
       -0.14013919 0.23931003 -0.24305657 0.07555333
0003f0 48 d0 57 3e fc 2e 2f be 78 1b d5 bd d0 a8 a9 bd
       0.21075547 -0.17107767 -0.1040563 -0.082841516

linear2.bias f4 [32]
000000 14 ff a8 bd 04 14 8e 3d 20 7c a9 bc ac 2b c3 bd
       -0.08251777 0.069374114 -0.02068907 -0.09529814
000010 00 5f 47 3d 18 f3 13 be c0 b0 cc 3d 98 60 29 be
       0.048674583 -0.14448202 0.0999465 -0.16540754
000020 d2 91 66 be fe 52 50 be 2a 48 22 3e 20 e7 49 bc
       -0.22516564 -0.20344159 0.15847841 -0.012323171
000030 b4 a8 10 3e 2e 3e 70 3e 80 83 0f bd a2 7b 0c be
       0.14126855 0.2346122 -0.035037518 -0.13719037
000040 b8 15 be 3d aa b5 29 be 58 79 70 3d 68 71 34 3e
       0.09281486 -0.16573206 0.058709472 0.17621386
000050 fe 83 75 3e dc a5 e1 3d 04 8e 65 3e 8c f0 08 3e
       0.23976132 0.11017963 0.22417456 0.13373011
000060 c0 be 98 3b 2e 62 48 be 04 c7 cd 3d c0 67 30 3d
       0.004661411 -0.19568703 0.10047725 0.043067694
000070 60 d7 16 bd ec 90 59 be 94 63 c2 3d 36 5d 3a 3e
       -0.03682649 -0.2124669 0.09491649 0.1819962

linear3.weight f4 [32, 32]
000000 c6 65 1d bc 5b 79 df bb d4 05 1f 3e af a1 8f bc
       -0.009606784 -0.0068198866 0.15529567 -0.017533151
000010 40 c0 34 bd e4 91 14 3e dd 8d 23 3e 63 90 23 be
       -0.044128656 0.14508778 0.15972085 -0.15973048
000020 dd 09 62 bd 66 4f 6b 3d 1b 80 83 3d 4d f7 21 be
       -0.055185188 0.057448767 0.064209186 -0.15816994
000030 5f 48 07 be 1d 82 e2 bc b1 30 e1 3c 5e e9 b9 bd
       -0.13211201 -0.027649933 0.027489038 -0.090777144
000040 a8 9a fd 3c bc 3b e6 bc fb 11 86 bd f5 b1 44 bc
       0.030957535 -0.028104655 -0.06546398 -0.012005319
000050 ea 1f 9f bd a1 ad d4 3b 69 b1 ef 3d 7f 27 ff bd
       -0.07769759 0.0064904247 0.1170376 -0.12458705
000060 66 34 d1 bd 29 1b 1a 3e b8 8f 5b 3d ba 95 2f be
       -0.10215072 0.15049423 0.053603858 -0.1714696
000070 a0 74 25 be 06 5b e6 bc 9b 95 19 be 33 ee 9d 3d
       -0.1615777 -0.028119575 -0.14998476 0.077114485
000080 e7 d7 9d 3d dc d2 ad 3d 54 69 ae 3d f4 95 2c bd
       0.07707196 0.08487484 0.085161835 -0.042135194
000090 95 79 b6 3d 30 96 04 3e 8f fc f0 bd 56 09 e5 3d
       0.08909909 0.12947917 -0.11766922 0.11183421
0000a0 df 47 10 3e 65 7e 1c 3d ed b5 c6 bc c9 a7 ce bb
       0.14089917 0.038206477 -0.02425667 -0.0063066226
0000b0 75 3a 24 3e 5f b9 24 be 4c 20 14 3e 7f 61 49 3d
       0.16037925 -0.16086338 0.14465445 0.049165245
0000c0 41 f3 55 bc 1c 8b 27 3d 45 ea 03 3d 78 e3 0d 3e
       -0.0130584845 0.04090415 0.03220584 0.13856304
0000d0 c8 7e d9 3d 1b 78 11 3e 99 00 56 bd 60 6d 88 bc
       0.10619885 0.14205973 -0.052246664 -0.016653717
0000e0 b6 5e 82 bd 62 f1 32 3d 1e 23 a1 bd 4d 2c e0 3c
       -0.06365721 0.04368723 -0.07868026 0.027364874
0000f0 c5 ab 6a 3d 01 bc 67 bd 62 67 e1 bd e7 8a 4a bc
       0.05729272 -0.05657578 -0.11006047 -0.012362218
000100 65 05 1e be 75 05 db bd ca d6 9b 3c 47 e5 31 3e
       -0.15431745 -0.106944 0.019023318 0.17372619
000110 2d d2 76 bd 1a 67 75 3d d8 62 86 3d d0 45 1a bd
       -0.060259033 0.05991278 0.06561822 -0.037664235
000120 b2 ee 7c bd 99 f0 9f bd 08 31 7d 3c a9 46 12 be
       -0.061751075 -0.07809562 0.0154535845 -0.14284767
000130 38 1f 02 be 02 8f 0d be 55 71 ea bd 7b 72 03 be
       -0.12707222 -0.13824084 -0.114473976 -0.1283664
000140 f9 88 84 bc 29 0e f5 3c a4 83 81 bd 3f 35 95 3c
       -0.016178595 0.029913979 -0.063239366 0.018213866
000150 14 0f a9 3d a3 4b 4a 3d 8c 1a d1 bd 02 a6 c3 bc
       0.08254829 0.04938854 -0.102101415 -0.02388287
000160 5d 52 06 be 4b a8 00 be d5 d5 c8 bd f9 09 d5 bd
       -0.13117357 -0.12564199 -0.0980641 -0.10402293
000170 1f b8 92 bd 69 73 15 3e 11 ae 12 3d f3 29 72 3d
       -0.071640246 0.14594807 0.035810534 0.059122037
000180 7b 80 c2 bd 32 a9 32 3e 48 cb 1b 3e d3 d5 2e 3e
       -0.09497162 0.17447355 0.15214264 0.17073755
000190 24 57 10 be 49 db c7 3c 65 c6 94 bd 8d 58 1b 3e
       -0.14095742 0.024396555 -0.07264403 0.15170498
0001a0 8c 8e 0a be 4c bf 2e be bd 29 94 bb 3b d1 fe 3d
       -0.1353094 -0.17065161 -0.004521577 0.12442251
0001b0 a8 fb d8 bb 82 f6 b6 bd 53 df 9e bd 03 18 69 3d
       -0.0066217966 -0.089337364 -0.077574395 0.056907665
0001c0 e6 80 16 bd 5d 0a 33 3e 83 a8 bb 3d 6b 42 9b 3d
       -0.03674402 0.17484422 0.091630004 0.075810276
0001d0 1f 1b f9 3d 27 c3 30 3e b9 ca da bd f8 ae 1b be
       0.12163376 0.17261945 -0.106831975 -0.15203464
0001e0 a9 34 c5 bd b3 69 fb bc df 96 e7 3d 72 f3 97 3d
       -0.09629185 -0.03069005 0.11308073 0.074194804
0001f0 c0 ef c2 3d 4f a8 47 3d ba 34 13 3d a9 33 ad 3b
       0.09518385 0.048744496 0.035938956 0.0052856994
000200 14 a4 2b 3e 26 df 93 3d 98 12 0e be d3 96 b7 bd
       0.1676181 0.072202966 -0.1387428 -0.08964314
000210 b8 e0 1b be 77 b0 6c bd 23 e9 e5 3c 59 a0 11 be
       -0.15222442 -0.057785477 0.02806527 -0.14221324
000220 1e cc 21 3e b9 f5 52 bd d4 9c c7 bd 1e e4 2f bc
       0.15800521 -0.05150387 -0.097467095 -0.01073554
000230 13 b3 ec bc 74 65 8a bd 30 de 15 be 6c 59 0c bd
       -0.028893983 -0.06757632 -0.14635539 -0.034264967
000240 c8 c4 0c be 5d 3b 11 be 89 5b 33 3e c6 9a b6 3d
       -0.13746941 -0.14182802 0.17515387 0.089162394
000250 59 c1 32 3e 1b 31 0a 3e ae 57 21 3e 36 8d 4c 3d
       0.17456569 0.13495295 0.15756103 0.049939357
000260 d6 cd 86 3d 98 f1 c9 bc 0b d5 a1 bd ce aa 9f 3d
       0.06582229 -0.024651334 -0.07901963 0.0779625
000270 64 84 12 bd bd f2 2e be fe 5e 29 3e 1d 79 db 3d
       -0.03577079 -0.17084785 0.16540143 0.1071646
000280 86 cf c4 bd 1e ff 62 3d ce 25 07 3d 02 da c6 bd
       -0.096098945 0.05541908 0.032995038 -0.097095504
000290 dd 45 28 3e 15 3b ba bc cf f3 a6 bd f4 c8 2a 3e
       0.164329 -0.02273325 -0.081519715 0.1667822
0002a0 b2 70 3d 3d b6 92 2e 3e 15 db 33 3c 39 29 11 be
       0.046250053 0.17048153 0.010977526 -0.14175881
0002b0 df b0 0e bc 60 0f 3a bd f2 92 78 3d e1 35 17 3e
       -0.008709162 -0.04542482 0.060687013 0.14766647
0002c0 c1 7c 1b 3e 83 a5 22 be 23 79 8d bd 5e cf ba bd
       0.15184309 -0.1588345 -0.069078706 -0.091215834
0002d0 e4 55 ad bd 2b ff 30 be 76 7e 85 bd 92 61 4c 3c
       -0.08463648 -0.17284839 -0.06518261 0.012474434
0002e0 21 c6 16 bb 42 84 00 be d3 e0 2c 3e 3f 74 cb 3c
       -0.0023006278 -0.12550452 0.16882639 0.024835704
0002f0 cc de 2d be 44 4d 93 3d 83 8c 7d 3d 39 c8 4e 3c
       -0.16979522 0.071924716 0.06190158 0.012620979
000300 26 bf 40 3d 2d 99 5f bc 84 0e 6c bd f9 e1 17 3e
       0.047057293 -0.01364736 -0.05763103 0.14832295
000310 fe 78 d9 bd ca f3 dc bd 06 fe d1 3d 0d 13 41 3d
       -0.106187806 -0.107886866 0.10253529 0.04713731
000320 81 41 a7 bd fc 6e 22 3e f0 67 2b be 58 3c 25 bd
       -0.08166791 0.1586265 -0.16738868 -0.04034075
000330 ae 8c 21 3e dd 3a 75 bd 42 1f c3 3c 9a 51 14 bc
       0.15776321 -0.05987059 0.023818616 -0.009052658
000340 12 d7 09 be 68 d3 d6 bd 28 1c 6f 3d 50 74 10 3d
       -0.13460949 -0.10489541 0.05837646 0.035267174
000350 56 dd 8d bd ae 32 59 bd e0 67 81 bd 68 0d 0f 3e
       -0.06926982 -0.053026848 -0.06318641 0.13969958
000360 c2 48 0b 3e 93 bd da 3d 59 f8 8f bd df d5 11 be
       0.13601974 0.1068069 -0.070297904 -0.14241742
000370 f2 4b 42 bd e8 3b e3 bb f5 19 ef bd 36 1b b7 bc
       -0.04743571 -0.0069346316 -0.11674873 -0.022351842
000380 bc ab de 3d c4 66 9b 3d de 59 ea 3d a3 ff 75 bc
       0.108725995 0.0758796 0.11442922 -0.015014562
000390 ab 1d 7a 3d 70 02 77 bd cf 67 96 bd 9f c3 be bb
       0.06106345 -0.06030506 -0.07344019 -0.0058216597
0003a0 4a 92 96 bd 2e 91 17 be e6 a1 d8 bd e9 06 8c bc
       -0.07352121 -0.14801475 -0.10577755 -0.017093139
0003b0 6b e9 83 bd 4d 3b 88 bc de dc ba bd b2 9d 1c be
       -0.06441005 -0.01662984 -0.09124158 -0.15294531
0003c0 5f a3 d1 3d e3 f4 a9 bd 20 8e ba bc b3 ec 12 be
       0.10236239 -0.082986616 -0.022772849 -0.14348106
0003d0 bd bd 26 3c 21 59 5d bd 87 c1 d0 bd 5d a3 89 3d
       0.010177073 -0.054040078 -0.101931624 0.06720612
0003e0 84 1a ad 3d f3 4c f9 3d 99 2f e3 3d d1 f7 8b bd
       0.08452323 0.1217288 0.11093063 -0.068343766
0003f0 c5 fa a0 3d 4c cf 30 bd d6 93 f1 3d a0 e3 5a 3d
       0.078603305 -0.043166444 0.117957756 0.053439736

linear3.bias f4 [32]
000000 56 03 f4 3d ee 57 27 3d 87 96 99 bd 77 f9 31 3e
       0.11914699 0.04085534 -0.07499414 0.1738032
000010 6c 23 f2 bd 2c 59 2f 3c ec 76 27 3e c7 bc e3 bb
       -0.118231624 0.010702413 0.16353959 -0.0069499942
000020 ab c1 98 bd 6b 07 2d 3e 74 da 86 bc 93 25 fd bd
       -0.07458814 0.16897361 -0.016461588 -0.12360682
000030 5d db f3 bc 12 46 39 3c a6 89 29 3e e4 1b 06 be
       -0.029767687 0.01130821 0.16556415 -0.13096577
000040 80 e6 1f bd 52 8a c3 3d 77 70 b9 3d 58 17 b3 bd
       -0.03903818 0.09547867 0.09054654 -0.08744687
000050 48 ee c0 3d 69 a4 90 bd 9e 24 4e bd 74 fc cb bc
       0.094204485 -0.07062609 -0.05032789 -0.024900652
000060 b4 99 98 3c b1 01 76 3d 7b 4c da bd e4 de 7d 3b
       0.018627979 0.060060207 -0.10659119 0.003873759
000070 c5 60 c0 bd 8f 14 44 bd 8d f3 e6 bd 01 52 29 be
       -0.09393457 -0.04787117 -0.112769224 -0.16535188

linear4.weight f4 [32, 32]
000000 1e 9b c2 bc f7 17 dd 3c e9 33 9f bc f1 3d 2f 3e
       -0.023755606 0.026988966 -0.019433932 0.17113473
000010 e2 d8 b9 bd 53 9d 0e be 0b ec 1c be fe 0b 19 bc
       -0.0907457 -0.13927202 -0.15324418 -0.009341238
000020 9a 9c a2 bd 1e ad 14 be 19 09 25 bc eb b8 af 3d
       -0.07940026 -0.14519164 -0.01007297 0.08580192
000030 e6 c7 1b be a9 4d 50 3d 7e 20 ca 3d 89 cb 0f be
       -0.15212974 0.050855312 0.09869479 -0.14042486
000040 fd 37 10 be 9f 10 e9 3d a1 8a 26 be e1 9c 7a bd
       -0.14083858 0.11380123 -0.1626382 -0.061184768
000050 d6 f9 2b 3d ab 2e 2e 3e fe 11 25 be 40 09 03 be
       0.04198631 0.1700999 -0.16120145 -0.12796497
000060 50 be f4 3d 96 c1 34 3e 32 32 19 be 82 ae 1a be
       0.11950362 0.17651972 -0.14960554 -0.15105632
000070 f8 ba 1f 3d 31 69 1f be 5d 93 30 3e f8 dd 9f bc
       0.038996667 -0.15567471 0.17243715 -0.019515023
000080 70 fa 14 be 8e b3 0a be 37 19 a4 ba b3 02 1d 3e
       -0.1454866 -0.13545057 -0.0012519722 0.15333061
000090 04 a5 64 bd 60 3e e8 3d a0 a8 0f bc 37 22 2b bb
       -0.055821434 0.11340022 -0.008768231 -0.0026112923
0000a0 14 ba fd 3d b1 f8 80 3d 99 63 73 bd 30 2c b6 3d
       0.12389007 0.06297434 -0.059421156 0.08895147
0000b0 1e de 1f 3e af 39 11 3e a4 07 47 3b 96 29 19 3e
       0.15612075 0.14182161 0.0030369544 0.1495727
0000c0 6b a0 08 bc 6b 92 fc 3d 49 7c b3 3d d6 04 25 3e
       -0.008339028 0.123326145 0.0876394 0.16115126
0000d0 3d cd 26 3e 2b c9 25 3d 7b 43 19 3e 22 52 18 3e
       0.1628923 0.04047505 0.14967148 0.14875081
0000e0 00 1f c6 3d 0b b0 36 bd 08 fa 63 3d 3c 8c 01 bd
       0.096738815 -0.04460148 0.05565837 -0.03162788
0000f0 6a 32 26 3e f1 9f 30 3d d3 61 a4 bc 73 94 34 be
       0.16230169 0.043121282 -0.020066177 -0.17634754
000100 0a 7b eb bd ed e9 16 bd 1c 2c 6f 3d d9 89 e2 3c
       -0.11498077 -0.036844183 0.058391675 0.027653622
000110 4a e8 9f 3d 22 8b 05 bd c4 32 40 3d 96 cc 15 be
       0.078079775 -0.03260339 0.046923414 -0.14628825
000120 4d da cb bd 45 74 f9 bc 7e 86 09 bd 5e 2a 51 3d
       -0.09953747 -0.03045095 -0.033575527 0.051065795
000130 c2 f2 20 3d 69 cc 11 3d f3 8f 09 bc 33 b1 93 bd
       0.039294012 0.03559533 -0.008396137 -0.072115324
000140 5b 52 14 3e 8a 48 0c bb 09 0b 00 be 0b b6 ab 3c
       0.14484541 -0.0021405541 -0.1250421 0.020960828
000150 10 88 f4 3d ae c1 d7 3d 48 34 20 be 3b 2f 40 3d
       0.11940014 0.10534988 -0.15644944 0.046920042
000160 c2 31 8e bd c5 6a 83 3c 0f a9 8a 3d 1c 53 28 bd
       -0.06943084 0.016042123 0.067705266 -0.041094884
000170 6a db 22 3e d4 bd 43 bc ff ca aa bd ad f3 4c bd
       0.15904012 -0.011947114 -0.083395 -0.050037075
000180 97 04 30 be 0b 5b d6 bd a0 73 1b be b5 f6 75 3d
       -0.17189251 -0.10466584 -0.15180826 0.06004973
000190 59 01 ec bd 8a fd 31 be 36 99 cc bc 64 7f 97 39
       -0.115236945 -0.17381874 -0.0249754 0.00028895878
0001a0 1c d9 be bd c3 31 c2 3c 0f 5b f7 bd 23 7e f7 3d
       -0.09318754 0.023705369 -0.12077915 0.120846055
0001b0 1c 99 0b bd 16 7f c9 bb f4 11 1a 3e 80 9d 19 3e
       -0.034081563 -0.006149183 0.15045911 0.15001488
0001c0 c9 a0 ff 3c f0 01 8a 3d f3 28 8a bc 7b c5 b1 3d
       0.031204598 0.06738651 -0.01686523 0.086802445
0001d0 22 af 2a 3e a0 ce 68 bd 58 9a a5 3d d6 c4 0d be
       0.1666837 -0.056837678 0.08086079 -0.13844618
0001e0 9f 3f 20 be 6d 82 02 3e ed 3e 69 3c 01 f7 91 bd
       -0.1564927 0.12745066 0.014236194 -0.071271904
0001f0 0b 69 e9 bc 74 72 99 3d e8 c2 a4 bd 7b 3c 3d bd
       -0.028492471 0.07492533 -0.08044988 -0.046200257
000200 99 5e f0 3c 8d fc 9b bd 65 29 e6 bc 86 aa b7 bd
       0.029341983 -0.076165296 -0.02809591 -0.08968072
000210 d2 57 7b bd 1d 59 cf 3d c8 98 02 3e a5 75 b3 bd
       -0.06136305 0.10124419 0.12753594 -0.08762673
000220 c0 1b 2b be 80 bf f5 bd 70 41 40 bd 57 ad 2d 3e
       -0.16709805 -0.11999416 -0.046937406 0.16960655
000230 8f 53 f4 3d 86 76 08 be 7c db 1a 3e 70 54 8a 3b
       0.1193 -0.13326463 0.15122789 0.0042214915
000240 f0 f6 29 be 4d 8a 7d bd e7 c4 7d bd f4 3a 18 bd
       -0.16598105 -0.061899472 -0.06195536 -0.037165597
000250 d3 06 29 3e 1c 94 43 bb 5e ed f6 bd 88 62 c6 bd
       0.1650651 -0.0029842919 -0.12056993 -0.09686762
000260 49 5a ee bd 5d 69 0b 3e 98 99 a9 3c 2a 9d 31 be
       -0.11638314 0.13614412 0.020703122 -0.1734511
000270 ba 45 0b 3e 84 ac 1e 3e ff 07 1c bd a7 b4 bc bd
       0.13600817 0.15495497 -0.038093563 -0.09214144
000280 ce 88 2a be 18 9c 11 3e 83 11 33 bd d8 c5 55 3d
       -0.1665375 0.14219701 -0.043717872 0.05219063
000290 38 57 a6 bd cf 10 09 be 71 a4 cf bc bc 70 dc 3d
       -0.081221044 -0.13385318 -0.025346966 0.1076369
0002a0 73 ef 0e bc e2 8b 6a bd 8e d6 82 3d 14 12 14 3e
       -0.008724081 -0.05726231 0.06388579 0.14460021
0002b0 72 8a 7b bd ef cf b5 bc 62 fd 0f be e7 74 05 3d
       -0.06141133 -0.022193877 -0.14061502 0.03258219
0002c0 14 e1 bc 3d a1 1e e7 3b 6d ff e6 bc 50 c9 e8 bd
       0.09222618 0.007053212 -0.028197968 -0.11366522
0002d0 fa c8 17 bd c6 f9 b3 bd 6f cc 99 bd 38 2a c3 3d
       -0.0370569 -0.08787875 -0.07509696 0.09529537
0002e0 e4 ac 1b bb ed c9 6f bd 51 c0 d1 3c 27 83 12 be
       -0.0023754174 -0.05854218 0.025604399 -0.14307843
0002f0 b5 21 d3 3d a4 72 03 be 96 4e 2a 3e d9 06 9a 3d
       0.103091635 -0.128367 0.1663154 0.07520837
000300 2c 88 89 3d a8 97 c5 3d ca 1a ff 3d 9d d9 bf bd
       0.06715426 0.09648067 0.124562815 -0.09367678
000310 73 88 35 3d 11 f0 30 bd 44 aa ba 3d dd 88 c3 3d
       0.04431958 -0.043197695 0.09114507 0.09547589
000320 e8 7d 1c 3d 93 d8 91 bd 4c b0 b4 bd dd ac 2c 3e
       0.03820601 -0.071213864 -0.088226885 0.16862817
000330 af 3a 6d bd 14 f8 cf 3d d3 a7 fd 3c 24 3f 59 bd
       -0.057917293 0.10154739 0.030963814 -0.05303873
000340 24 62 77 bd d9 ab ad bd 65 fc a8 bc 13 13 41 bd
       -0.06039633 -0.08480043 -0.020628164 -0.04713733
000350 8d 5c 1e 3e fe 87 62 bd 1c 56 f0 bd 12 b7 a5 bd
       0.15464993 -0.055305474 -0.11735174 -0.080915585
000360 3e a0 f5 3d 0b ce 5d 3d 2e fc 96 bc 00 7c 2c 3e
       0.119934544 0.054151576 -0.018430796 0.16844177
000370 15 c9 ee 3d db c9 1e be e3 dd 1f 3e 8c a2 c8 3d
       0.11659447 -0.15506689 0.15611987 0.09796628
000380 3c a8 2f be c9 6e 76 3d 05 7e 11 3e 59 ed c1 bd
       -0.1715402 0.060164247 0.14208229 -0.094690986
000390 b5 2e 0c be 49 af 33 bd a2 34 d3 3d 8d df 4b 3a
       -0.13689692 -0.043868337 0.10312773 0.0007777147
0003a0 f9 17 c4 3d 10 54 0f be 5c e1 95 bd 80 74 0d be
       0.09574885 -0.13996911 -0.073183745 -0.13813972
0003b0 f7 4f e0 bd 68 cb 08 be f4 e5 1f 3e e3 e2 08 bc
       -0.10952752 -0.13358843 0.15615064 -0.008354875
0003c0 4e cf 23 be ac 01 fe bc 8f 8e 21 be fb df dc 3d
       -0.15997049 -0.031006657 -0.15777038 0.107849084
0003d0 31 b8 ca 3d 1f 0b 15 3e 33 79 9c 3c fb e8 3b 3d
       0.09898413 0.14555024 0.019100761 0.045876484
0003e0 d4 6a 21 be d1 6a db 3d ec f1 d8 bd b1 3a a2 bd
       -0.15763408 0.10713733 -0.10593018 -0.07921351
0003f0 24 96 2f 3e 45 c5 17 be 05 20 e1 bd 38 15 15 be
       0.17147118 -0.14821346 -0.10992435 -0.14558876

linear4.bias f4 [32]
000000 c3 74 16 be c3 81 1d be b5 95 c2 3d d9 b9 00 be
       -0.14692979 -0.15381531 0.095012106 -0.12570895
000010 2e 15 33 3c 9b 08 ca bd 46 dc 2f be 7e 0b 22 be
       0.010930343 -0.098649226 -0.17173871 -0.15824696
000020 a6 24 61 bd 9f 0f 87 3c a8 a7 09 be 1c f1 d1 bd
       -0.05496659 0.01648694 -0.13442862 -0.10251066
000030 8a f2 99 3d 3b b2 10 3d 60 9d a8 3c 27 c1 03 be
       0.07516964 0.035326224 0.020582855 -0.1286665
000040 63 56 22 bd 50 47 28 3e bd 3d 32 be d8 20 c4 3d
       -0.039633166 0.16433454 -0.17406364 0.09576577
000050 58 82 c7 bd 68 8a a2 ba 47 35 e3 bc b1 df e3 bc
       -0.09741658 -0.0012400867 -0.027735366 -0.027816625
000060 85 c0 b1 3d 4c 55 b9 bd 51 4d 1c 3e 5c a9 ff bc
       0.08679298 -0.09049472 0.15263869 -0.031208687
000070 c6 5e 10 3e 82 30 9d bd ef 23 52 3d 56 da 0c be
       0.14098653 -0.07675268 0.0513038 -0.13755164

linear5.weight f4 [16, 32]
000000 20 3d 33 3e 88 b5 ac bd 27 57 e5 bd 26 00 32 3d
       0.17503786 -0.08433062 -0.111982636 0.043457173
000010 bb e4 56 bd 36 11 13 be e6 22 f3 3c c4 fe 14 3e
       -0.052464228 -0.14362034 0.029679727 0.1455031
000020 c7 69 cc bd af 86 e3 3b 7d 36 16 be 76 9c 1b be
       -0.09981113 0.006943546 -0.14669223 -0.15196404
000030 d0 7c 96 3d 66 27 af 3d c1 f1 f8 bd 38 8b 01 bd
       0.07348025 0.085524365 -0.12155486 -0.03162691
000040 99 cc 0c 3e 03 24 0c be 20 c9 ee 3d 91 70 82 3d
       0.13749923 -0.13685612 0.11659455 0.063691266
000050 14 58 70 3d d1 67 dc bd d5 9f 03 3e 59 55 0a be
       0.058677748 -0.10761989 0.1285394 -0.1350912
000060 e1 02 24 3e 1d 60 d6 bd c5 87 92 bd ae f2 89 bc
       0.16016723 -0.10467551 -0.07154802 -0.016839352
000070 d9 aa 07 be 76 97 05 be c6 ea 17 3e 1d 25 99 bd
       -0.13248767 -0.13046059 0.14835653 -0.07477782
000080 1e 5e 92 bd fe d8 8d 3d 5d d6 c4 bd 74 66 7a 3d
       -0.07146858 0.069261536 -0.09611199 0.061132863
000090 f1 b1 0c 3e d4 40 01 be 30 82 76 bc 47 1e 23 bd
       0.13739754 -0.12622386 -0.015045688 -0.039823797
0000a0 4c 98 06 3d 94 59 c4 3d c0 db 10 3d c9 b4 1b 3e
       0.032860085 0.09587398 0.03536582 0.15205683
0000b0 f0 f5 7d 3d 8f c1 f4 3d d9 5e 26 be 9c f3 cc bd
       0.062002122 0.11950981 -0.16247119 -0.10007402
0000c0 92 36 99 3d e1 03 a8 bd 0e 80 97 bd 3b 21 03 3d
       0.074811116 -0.08203865 -0.07397471 0.032014113
0000d0 03 16 52 3d 2c d9 2e 3e d4 b8 ea bc b5 f8 34 3e
       0.051290523 0.17075032 -0.028652586 0.17672999
0000e0 53 9a f0 bd c5 da d7 3d db 6d ca 3d b9 a7 01 3d
       -0.11748185 0.10539774 0.098842345 0.031654093
0000f0 09 0a 13 3c ef 77 bf bd 0c 01 16 be 14 ab f6 3d
       0.008974561 -0.093490474 -0.14648837 0.12044349
000100 10 dd b0 3c 10 75 80 bb 71 51 9d 3d aa 22 90 3d
       0.021589786 -0.003920205 0.07681549 0.07037862
000110 bc d9 ca 3d c7 e9 97 bd 5f 13 dc bd 3b 6f 10 bd
       0.09904811 -0.07417636 -0.10745882 -0.035262328
000120 87 96 78 bd aa a9 84 bd dd 44 ab ba 62 b6 cd 3d
       -0.06069043 -0.06477673 -0.0013066788 0.100445524
000130 ef 03 d2 bd 83 73 a2 bd 4b 88 df 3c ef 91 2f 3e
       -0.102546565 -0.07932188 0.02728667 0.17145513
000140 d4 c3 1d 3e 01 da 9d bc 1e 30 97 bd 88 50 5d bd
       0.15406734 -0.019268991 -0.073822245 -0.05403188
000150 8f 31 33 be 77 91 b9 3c 75 aa bb bd 23 ae a8 bd
       -0.17499374 0.02265237 -0.091633715 -0.08236339
000160 d8 22 fb 3d 64 8d 2c be 2c 78 ec 3d f3 01 8e bc
       0.12262505 -0.16850811 0.115463585 -0.017334914
000170 f3 1b e4 bd cd ba 2d be cb 60 40 3d 2f 35 a1 bc
       -0.111381434 -0.1696579 0.04696731 -0.01967868
000180 2f 1d 9d bd 78 48 ae bd 37 40 e7 3c be 2a f5 bd
       -0.07671582 -0.08509916 0.028228862 -0.11971043
000190 db 24 1d 3e 42 f8 89 3d f5 d5 19 3d 41 05 cb bd
       0.1534609 0.067368045 0.03755756 -0.099131115
0001a0 25 41 19 3e e8 70 3f bd 09 c2 28 bd d9 3b 01 bd
       0.14966257 -0.046738535 -0.04120067 -0.031551216
0001b0 44 87 6a 3d 07 29 21 3d aa e5 1d 3e 5a e6 10 3e
       0.057257906 0.039345767 0.15419641 0.14150372
0001c0 dc b1 5f bd 06 01 de 3d f6 b9 15 bc ca 17 13 3e
       -0.05461298 0.10840039 -0.009138575 0.14364544
0001d0 ca 7c 2e 3e 9a 69 33 3e 36 f1 b5 bc f0 c9 6d bd
       0.17039791 0.17520753 -0.022209745 -0.05805391
0001e0 5e 29 df bc 94 37 c1 3c fd 05 8b 3d 20 c8 bb bb
       -0.027241405 0.023586072 0.067882515 -0.005730644
0001f0 63 13 90 3d 52 82 00 3d c1 a9 2c bd 75 a0 a4 3d
       0.07034948 0.031374283 -0.042154077 0.08038417
000200 1a 34 10 bc 42 40 57 3d d5 f5 b0 bd d4 b8 f7 bc
       -0.0088014845 0.052551515 -0.08640639 -0.0302395
000210 2b cd 2c be c7 ac 28 3d df c5 65 bd b9 40 a8 3d
       -0.1687514 0.0411804 -0.056096908 0.0821547
000220 fa 4b cd 3d a5 02 bf bd f5 5f b9 bd d0 12 06 3e
       0.10024257 -0.09326676 -0.090515055 0.13093114
000230 18 5b 4c 3d e9 95 1f bd ed e2 93 bd 0f c7 01 bd
       0.04989156 -0.038961325 -0.07221017 -0.031683978
000240 13 94 fa 3d 33 27 8b bc d8 7d 8b bd a1 fe 30 3e
       0.12235274 -0.016986465 -0.06811112 0.17284633
000250 54 60 03 3e 53 a5 a1 3d b5 16 61 3d 3f 4f cd bc
       0.12829715 0.07892861 0.054953296 -0.025062202
000260 24 98 84 3d 8a 1f b4 3d 61 49 32 bd 0a 61 ee bc
       0.06474331 0.08795078 -0.04352701 -0.029099006
000270 6e 75 77 3d 5f d2 ab 3c 12 ca 99 bc 00 ce 65 3d
       0.060414724 0.020974336 -0.018773112 0.05610466
000280 e7 4e 20 be 8f 45 05 be 60 4d 84 3d aa 87 cc bc
       -0.15655099 -0.13014816 0.064600706 -0.024967033
000290 f4 67 6e 3d 2e a4 05 3e 33 5e 8d bd 03 da 82 bd
       0.058204606 0.13050911 -0.06902733 -0.06389239
0002a0 2a 63 eb bd a4 93 0b 3e dc 5c 2f 3d 73 66 c4 bd
       -0.114935234 0.13630539 0.042813167 -0.09589853
0002b0 c9 8b 57 bb 71 9c 1e be 25 b5 b4 bd 21 9e 93 3c
       -0.0032889715 -0.15489365 -0.08823613 0.018019738
0002c0 a1 bf 2c 3d 58 02 23 be 51 44 a1 bd 48 b4 65 3d
       0.04217494 -0.15918863 -0.078743584 0.056080133
0002d0 1d 90 19 be 6d 4f c0 3d 37 e5 23 3e 79 8a 37 3d
       -0.14996381 0.09390149 0.16005407 0.044809792
0002e0 4b 5c d8 3d fa 11 21 3e 38 cb 1e 3e fe d6 59 bd
       0.105644785 0.15729514 0.1550721 -0.05318355
0002f0 de b9 04 be 1c 30 34 3c ae d7 11 bc cd f0 ec bd
       -0.12961528 0.010997798 -0.00890152 -0.115693666
000300 fc f8 cf 3d f3 c1 fe bd 71 05 d1 bd b1 86 ad 3d
       0.10154912 -0.12439337 -0.10206116 0.08472956
000310 ad d0 00 3d 1b 87 56 bd e4 3d ea bd 27 c6 31 be
       0.03144901 -0.05237494 -0.11437586 -0.17360745
000320 32 fe 11 be 87 2c 56 bd e3 29 3b 3d 6f 6f 46 3d
       -0.14257124 -0.05228856 0.045694243 0.048446115
000330 65 58 ba bd 80 92 c2 3d 08 3b 08 3e 1e 81 de 3c
       -0.09098891 0.09500599 0.13303769 0.027161177
000340 19 ee e3 bd 12 10 e2 bd 90 15 ff 3d 4a 55 ba bd
       -0.11129398 -0.110382214 0.124552846 -0.09098299
000350 46 2a 02 3d 87 e6 22 3d 06 53 11 be bb 3d 58 3d
       0.031778596 0.03977063 -0.14191827 0.052793246
000360 2c da 0e 3e 35 5a 0e 3d 18 e8 03 be da 45 95 bd
       0.13950413 0.034753997 -0.12881505 -0.07288714
000370 d7 9f 01 3e 87 64 05 3d fb 86 c8 3c 6a d6 21 3e
       0.1265863 0.032566573 0.024478426 0.15804449
000380 ef 31 5c bd 8b b7 de 3d bf 74 29 3e 21 64 13 3e
       -0.053758558 0.10874852 0.16548441 0.14393665
000390 f1 da ed 3d 2e 67 5d 3d ca db b3 bd 8d 75 e4 3d
       0.116140254 0.054053478 -0.08782156 0.111552335
0003a0 96 88 0e 3d da c7 ef bc 8d 66 01 3e d7 a2 12 bd
       0.034798227 -0.029270101 0.12636776 -0.035799827
0003b0 dc 89 94 3d 8f 3c 50 3d af 65 0c 3d a3 63 2a be
       0.07252857 0.050839003 0.03427666 -0.16639571
0003c0 77 64 bb 3d ef 8c 2d ba e3 09 01 3d 21 1c c2 bd
       0.091500215 -0.0006620427 0.03150357 -0.094780214
0003d0 d6 72 dd bd f3 d0 0a be 87 3e 2a 3c fb d9 04 bd
       -0.10812919 -0.1355627 0.010390884 -0.032434445
0003e0 5b f0 73 bd bc 85 2a be ab e6 e0 3c 85 46 2b 3d
       -0.059555393 -0.16652578 0.027453741 0.0418153
0003f0 62 6f c7 3d 55 be 24 3e 66 80 47 bd 2f d1 27 be
       0.097380415 0.16088231 -0.048706435 -0.16388391

linear5.bias f4 [16]
000000 dc 21 ab 3b d1 84 07 3e 96 8b 07 3e 11 36 ef 3d
       0.005222542 0.13234259 0.13236842 0.11680234
000010 d4 34 36 3c bf 2a 1e bd c0 bb c3 3d 7d 09 a9 3d
       0.011120994 -0.038614985 0.09557295 0.08253763
000020 55 a0 92 bd 72 5c b0 bd ca 6d db bd bf 1b 71 3d
       -0.07159487 -0.086113825 -0.107143 0.05886435
000030 01 be 19 3c 09 d1 7d bd 34 6a a3 3c 95 3a 02 3c
       0.009383679 -0.06196693 0.019948103 0.007948537

output_layer.weight f4 [2, 16]
000000 80 05 81 bc c8 6f 9f 3d a0 b2 2e 3d 3c 72 9e bd
       -0.015749693 0.077849925 0.04265082 -0.07736632
000010 f2 2f 67 be b8 7b ea 3d ee a1 28 be 00 81 af bb
       -0.22576883 0.11449379 -0.16468021 -0.005355954
000020 9c 0f 1f 3e 72 68 78 3e c0 9d 96 3b 40 52 14 3e
       0.15533298 0.24258593 0.004596442 0.14484501
000030 b4 66 d1 3d f0 cd 7b 3d d0 94 d9 bc a0 26 0b bd
       0.10224667 0.061475694 -0.026560217 -0.033972383
000040 c0 3b 98 bd 00 ba 07 3c 20 9e e2 3c aa 94 2c 3e
       -0.074332714 0.008284092 0.02766329 0.16853586
000050 14 48 71 3e 00 14 2f 3d 96 77 4c 3e d8 7b a6 bd
       0.23562652 0.042743683 0.19967493 -0.0812909
000060 38 81 5a bd a0 38 b4 3c 3e c7 6b be 80 aa bd 3c
       -0.05334589 0.021999657 -0.23025224 0.02315259
000070 4c 93 b0 3d b4 91 29 be cc 22 3f 3e ca 19 05 be
       0.08621845 -0.16559488 0.18665618 -0.12998119

output_layer.bias f4 [2]
000000 6c 40 59 3e fc 6b 46 3e
       0.21215981 0.1937713
