results/models/batchsize=96,lr=1e-4,layer=6,eps=0.9,num_episodes_train=5000/0/model-10.0.pt (torch, 17506 bytes, 12 tensors)

linear1.weight f4 [16, 4]
0	0x3e9810d8	0.2970035
1	0xbdf5d5a0	-0.12003636
2	0xbe483bbc	-0.19554037
3	0xbec0a498	-0.37625575
4	0x3dbb2b70	0.091391444
5	0x3cf82e60	0.03029555
6	0xbec23c40	-0.37936592
7	0xbe346a48	-0.17618668
8	0xbefe5a58	-0.49678302
9	0xbead353a	-0.3382967
10	0x3d125ae0	0.035731196
11	0x3db3d080	0.087800026
12	0xbe956b2c	-0.29183328
13	0x3ecaecf4	0.39633906
14	0xbe346a68	-0.17618716
15	0xbec95b4a	-0.3932746
16	0x3db91a38	0.09038204
17	0x3e671560	0.22566748
18	0xbcc76820	-0.024341643
19	0x3ee90324	0.4551021
20	0x3ecb3abe	0.39693254
21	0x3dcb89d0	0.09938395
22	0xbc1bbc80	-0.009505391
23	0x3dd0b860	0.10191417
24	0x3e94aa9c	0.29036415
25	0x3eb17f84	0.346676
26	0xbe603398	-0.21894681
27	0xbe373e14	-0.17894775
28	0x3e13ff10	0.14452767
29	0x3e138c0c	0.14408892
30	0x3edb896a	0.42878276
31	0x3e8a8660	0.27055645
32	0xbddddca0	-0.108330965
33	0x3e7f0470	0.24904037
34	0xbea7cc02	-0.32772833
35	0xbeca7708	-0.3954394
36	0xbec089c0	-0.37605095
37	0x3e117c88	0.14207661
38	0xbe0c5f6c	-0.13708276
39	0xbecff4aa	-0.4061635
40	0x3dfa42f0	0.122197986
41	0xbea55a9a	-0.32295686
42	0x3d23eab0	0.040018737
43	0xbdf118c0	-0.11772299
44	0x3ee9b946	0.45649165
45	0xbecf1e6a	-0.40452892
46	0xbe905f9c	-0.28197944
47	0x3eeec3ba	0.46633703
48	0xbebb3020	-0.36560154
49	0x3e8be534	0.27323306
50	0x3d880de0	0.066432714
51	0x3d66ebc0	0.056377172
52	0x3e0a344c	0.13496512
53	0x3ec6f7d8	0.38860965
54	0x3d363090	0.044479907
55	0xbe16ee28	-0.14739287
56	0xbee7a53a	-0.45243245
57	0x3eab849e	0.33499616
58	0xbe9543b8	-0.29153228
59	0x3e984fec	0.29748476
60	0x3deaf5c8	0.1147266
61	0xbd6e94e0	-0.058247447
62	0xbd153c20	-0.036434293
63	0x3e013bcc	0.12620467

linear1.bias f4 [16]
0	0xbef6867e	-0.48149484
1	0x3e4cf624	0.2001577
2	0x3eef3bac	0.46725214
3	0xbbaab800	-0.005209923
4	0x3e1c47ac	0.15261716
5	0x3e0223dc	0.12708992
6	0x3eccc36e	0.3999285
7	0x3eb76092	0.35815865
8	0x3ec8a354	0.3918711
9	0x3ee97ac0	0.45601463
10	0xbd567ee0	-0.05236709
11	0x3edd515e	0.4322614
12	0x3ed60fda	0.4180897
13	0x3dedbf98	0.11608809
14	0xbdcb3fd8	-0.099242866
15	0x3cd7ebc0	0.026357532

linear2.weight f4 [32, 16]
0	0xbd8d7384	-0.069067985
1	0xbe5c9de2	-0.21544603
2	0x3e15b848	0.14621079
3	0x3e6022dc	0.21888298
4	0x3d5aefd8	0.05345139
5	0x3e5ad4e4	0.21370274
6	0x3e0306fc	0.12795633
7	0xbd279918	-0.040917486
8	0xbe6eee24	-0.23333031
9	0x3e659fc0	0.22424221
10	0xbe00a192	-0.12561634
11	0x3e172148	0.1475879
12	0xbe1adf5e	-0.1512427
13	0x3e28de02	0.1649094
14	0x3e2cdd1a	0.16881219
15	0x3dbe8254	0.09302202
16	0xbdf2ca94	-0.11855045
17	0x3da00ac4	0.078145534
18	0xbd01b098	-0.031662554
19	0x3e048bd4	0.12943965
20	0x3e2e77f2	0.17037943
21	0xbe5e81d8	-0.21729219
22	0x3e236244	0.15955454
23	0x3df2aeec	0.1184977
24	0x3e5b0e82	0.21392253
25	0x3dee8870	0.11647117
26	0x3ddc36f4	0.10752669
27	0xbe79b7b2	-0.2438648
28	0xbd06f4e0	-0.032948375
29	0x3e39b048	0.18133652
30	0xbcb17340	-0.0216614
31	0xbe2ea862	-0.1705642
32	0x3e371fb8	0.17883193
33	0xbc482040	-0.01221472
34	0x3e1cdd06	0.15318689
35	0xbe6a45fe	-0.22878262
36	0xbdf50bd0	-0.11965144
37	0x3d5a4358	0.05328688
38	0xbe66e996	-0.22550043
39	0x3e7f68b2	0.24942282
40	0x3e61de5c	0.2205748
41	0xbc93f600	-0.018061638
42	0xbcf465d0	-0.029833704
43	0xbe273082	-0.16327098
44	0x3e3c1eda	0.18371144
45	0x3cfc9a40	0.03083527
46	0xbe1c9d2a	-0.15294328
47	0xbe08dafe	-0.13364789
48	0xbe29525e	-0.16535327
49	0xbd8cf22c	-0.06882128
50	0xbc473320	-0.012158185
51	0x3e5fbda8	0.21849692
52	0x3e5458fe	0.20737073
53	0xbe7adb52	-0.24497727
54	0xbdc78d78	-0.0974378
55	0xbe23f090	-0.16009736
56	0xbe20aac0	-0.15690136
57	0x3d6a37d8	0.057182163
58	0xbccfa770	-0.025348395
59	0xbda2ac18	-0.079429805
60	0xbda8a518	-0.08234614
61	0xbe1db2aa	-0.15400186
62	0x3e495922	0.19662908
63	0x3c7d59e0	0.015463322
64	0x3d539c18	0.051662534
65	0x3d981c1c	0.074272364
66	0xbe0e79dc	-0.13913673
67	0xbdf205d8	-0.11817521
68	0xbd8fed08	-0.07027632
69	0xbc392960	-0.0113013685
70	0xbdc97ac8	-0.09837872
71	0xbe0f162a	-0.13973299
72	0x3e1e37a4	0.15450913
73	0x3e6ea24a	0.23304096
74	0x3d306948	0.043069154
75	0x3cedfd70	0.029051512
76	0xbdfec514	-0.124399334
77	0xbe3e9588	-0.18611729
78	0xbe03b568	-0.1286217
79	0xbe2dd7ec	-0.16976899
80	0xbd736350	-0.059420884
81	0x3e469ab8	0.19394958
82	0xbe762f44	-0.24041468
83	0xbe57a98c	-0.21060771
84	0xbdf1e670	-0.118115306
85	0x3e25a502	0.16176227
86	0x3d5b4db0	0.053540885
87	0xbe34070c	-0.17580813
88	0xbe3c1c6e	-0.1837022
89	0x3c886840	0.016651273
90	0x3db0c180	0.08630657
91	0xbd8d6dfc	-0.069057435
92	0xbe0ee8f2	-0.13956049
93	0x3d680b30	0.056651294
94	0x3e0b8336	0.13624272
95	0xbe4cd17c	-0.20001787
96	0xbd491510	-0.049092352
97	0x3e2c0c86	0.16801652
98	0x3e20b828	0.1569525
99	0x3d19afe0	0.037521243
100	0xbe2ccf86	-0.16876039
101	0x3d344db8	0.04401943
102	0xbe042366	-0.12904128
103	0x3ae34500	0.0017339289
104	0xbe37250c	-0.17885226
105	0x3e7e7850	0.24850583
106	0xbe2bf12a	-0.16791216
107	0x3e25d110	0.16193032
108	0x3df1957c	0.1179609
109	0xbca19eb0	-0.019728988
110	0x3dbc3c80	0.09191227
111	0x3e53401c	0.20629925
112	0xbdf8f060	-0.12155223
113	0xbdc32a58	-0.09529561
114	0xbd7b4920	-0.061349034
115	0x3e6a8eea	0.2290608
116	0xbe7a36ec	-0.24435014
117	0xbe50f32c	-0.20405263
118	0xbe3f9ffc	-0.18713373
119	0xbe25a80a	-0.16177383
120	0x3e0a5438	0.1350869
121	0xbe289182	-0.16461757
122	0x3da28a24	0.079365045
123	0xbe6e77a2	-0.23287824
124	0xbe4dcace	-0.20096895
125	0xbe3cc26e	-0.18433544
126	0x3c177b40	0.009245694
127	0x3e52c618	0.2058338
128	0xbe075b84	-0.13218504
129	0x3c28f5e0	0.010312527
130	0xbe630dda	-0.22173253
131	0x3e7990a2	0.2437158
132	0x3e2663ce	0.1624901
133	0xbe2b0da4	-0.16704422
134	0x3d1593f8	0.036518067
135	0x3e55d418	0.20881689
136	0x3e7586e0	0.23977232
137	0xbd6f09b8	-0.058358878
138	0x3e312e6c	0.17302865
139	0x3cd04a20	0.02542597
140	0x3e016f6e	0.12640163
141	0xbe495ed8	-0.19665086
142	0x3d77b478	0.060474843
143	0x3b1f0580	0.0024264753
144	0xbc9f22d0	-0.01942578
145	0x3d6b9bf8	0.05752179
146	0xbe0a5544	-0.13509089
147	0x3e045c58	0.12925851
148	0x3e117e12	0.14208248
149	0xbe3a2940	-0.18179798
150	0x3da32c0c	0.07967386
151	0xbd9107a4	-0.070815355
152	0xbbf5c480	-0.0075002313
153	0x3d54cbd0	0.051952183
154	0xbe360c42	-0.17778113
155	0xbc901270	-0.017586917
156	0xbdd38f5c	-0.10330078
157	0x3e50bb0c	0.20383853
158	0xbe3d1644	-0.18465525
159	0x3ddaf19c	0.106906146
160	0xbe01ab98	-0.12663114
161	0x3d6e0f68	0.05812016
162	0xbe47ba90	-0.19504762
163	0xbd57cd30	-0.052685916
164	0x3d9a14fc	0.07523534
165	0xbdb7143c	-0.08939406
166	0xbd3033b0	-0.043018043
167	0x3e28500a	0.16436782
168	0x3e6152f2	0.22004297
169	0xbccd4700	-0.02505827
170	0xbe0ff8be	-0.14059731
171	0xbe5a6ad6	-0.21329817
172	0xbd66db50	-0.056361496
173	0xbcf12750	-0.029437691
174	0xbe3b84a6	-0.1831232
175	0xbe66d3ea	-0.22541776
176	0x3e0663de	0.13124034
177	0x3e0ad8f4	0.13559324
178	0x3dbe2a70	0.09285438
179	0x3e4b059e	0.19826362
180	0x3be5fb40	0.0070184767
181	0x3df18414	0.1179277
182	0x3e341c68	0.17588961
183	0xbe6f5ee2	-0.23376039
184	0xbe047dc2	-0.12938598
185	0x3de8d7b0	0.11369264
186	0xbe213fee	-0.15747043
187	0x3e1b3514	0.15156966
188	0x3dd3e414	0.10346237
189	0xbe3ba74c	-0.18325537
190	0xbe5d0c5e	-0.21586749
191	0xbc0ede20	-0.008719951
192	0x3e706a5a	0.2347807
193	0xbe27091a	-0.16312066
194	0xbe71dab8	-0.23618591
195	0xbd9505dc	-0.07276508
196	0x3e2946c0	0.16530895
197	0xbbc637c0	-0.0060491264
198	0x3d706f98	0.058700174
199	0xbe09d17e	-0.13458821
200	0xbe5797a0	-0.21053934
201	0xbcba1310	-0.022714168
202	0xbe4babbe	-0.19889733
203	0xbdebbd04	-0.11510661
204	0xbe0fe47e	-0.14052007
205	0x3dd71a88	0.10503107
206	0xbb071e00	-0.0020617247
207	0x3e54890e	0.20755407
208	0x3da7eae4	0.08199099
209	0xbdf5db90	-0.12004769
210	0xbd8bf9a0	-0.068347216
211	0x3dd3fb5c	0.10350677
212	0xbe1dbd1e	-0.15404174
213	0x3c519c00	0.012793541
214	0x3d8b2f90	0.06796181
215	0x3e753942	0.23947623
216	0xbc92a4d0	-0.017900854
217	0x3da503d0	0.08057368
218	0x3e626026	0.2210699
219	0x3dd67028	0.10470611
220	0xbe5ab1d2	-0.21356896
221	0xbdb61b48	-0.08891922
222	0x3e00d380	0.12580681
223	0xbe6bc414	-0.23024017
224	0x3d9cdf98	0.076598346
225	0x3d5ae028	0.05343643
226	0x3abb8500	0.0014306605
227	0x3e2726d4	0.16323406
228	0x3d94747c	0.0724878
229	0xbc4d8200	-0.012543201
230	0x3db75f90	0.08953774
231	0xbe10606a	-0.14099279
232	0x3e10f3b4	0.14155465
233	0xbe71dd60	-0.23619604
234	0xbd6664a0	-0.056248307
235	0x3d8acdec	0.06777558
236	0x3dc81c0c	0.097709745
237	0x3da0855c	0.07837936
238	0x3d37a260	0.044832587
239	0x3e6b6f54	0.22991687
240	0xbdeffa7c	-0.11717698
241	0xbe2e072c	-0.16994923
242	0x3e72ca4c	0.23709983
243	0x3e1faf9e	0.15594336
244	0x3dff1320	0.1245482
245	0x3e7c33ca	0.24629131
246	0x3c493500	0.012280703
247	0x3e182ace	0.14860079
248	0x3e00062e	0.12502357
249	0x3ddf9658	0.10917348
250	0xbd31f200	-0.04344368
251	0xbcab9420	-0.020944655
252	0x3e6420da	0.22278157
253	0x3e4b496a	0.19852224
254	0x3e174d32	0.14775541
255	0xbe05de0e	-0.13072988

linear2.bias f4 [32]
0	0xbd3335f0	-0.04375261
1	0xbdbd8dc4	-0.09255555
2	0x3e57e498	0.21083295
3	0xbcfbc3e0	-0.030733049
4	0x3e684d82	0.22685817
5	0xbe5260ec	-0.20544785
6	0x3e6e54fe	0.2327461
7	0x3e74e4ec	0.23915452
8	0xbe011a06	-0.12607583
9	0x3e71a8ea	0.23599592
10	0xbe2b9e76	-0.16759667
11	0x3e5fa56e	0.2184045
12	0x3e541618	0.20711553
13	0x3db56034	0.0885624
14	0x3e78475e	0.24245974
15	0x3e42c682	0.19021037
16	0xbe21c9d2	-0.15799645
17	0xbe294c62	-0.16533044
18	0xbe4f3238	-0.20234
19	0x3c536460	0.012902349
20	0xbdb97674	-0.09055796
21	0xbde00f1c	-0.10940382
22	0xbacea400	-0.0015765429
23	0xbdf0d550	-0.11759436
24	0x3da66b78	0.08125967
25	0xbe126206	-0.14295205
26	0x3e7f346e	0.24922344
27	0x3df4506c	0.11929402
28	0x3e6fb130	0.23407435
29	0xbe3d071c	-0.18459743
30	0xbe1d8000	-0.1538086
31	0x3e79136e	0.24323818

linear3.weight f4 [32, 32]
0	0xbbe133d4	-0.0068726335
1	0x3d48fdd1	0.049070183
2	0xbdf89021	-0.121368654
3	0x3da3c13c	0.07995841
4	0xbe04f860	-0.12985373
5	0xbd0ccc04	-0.034374252
6	0x3d47b04e	0.04875212
7	0xbdf4eb99	-0.11958999
8	0xbe07485c	-0.13211197
9	0x3e1f2e0a	0.15544906
10	0xbe1bc3b9	-0.15211381
11	0xbcbed624	-0.02329547
12	0xbb50b93b	-0.0031848687
13	0xbdea913e	-0.11453484
14	0xbe1527be	-0.14565942
15	0xbd224a69	-0.039621744
16	0x3e130473	0.14357166
17	0x3e1b6ebb	0.15178959
18	0x3d0786a3	0.033087384
19	0x3d53f848	0.05175045
20	0x3e0e23c9	0.13880838
21	0x3dc150c7	0.09439235
22	0xbdc42e12	-0.095791
23	0x3dcde7fb	0.100540124
24	0xbd6bbd22	-0.057553418
25	0xbe14bb37	-0.14524542
26	0x3e2cd662	0.16878656
27	0x3dec88e6	0.11549549
28	0xbd33911f	-0.04383957
29	0xbba82799	-0.0051316735
30	0xbd044fa1	-0.032302503
31	0x3c24cb51	0.01005824
32	0x3e2de474	0.16981679
33	0x3d96850b	0.07349595
34	0x3d57c3bc	0.0526769
35	0x3d75f206	0.060045265
36	0x3d349419	0.04408655
37	0xb960aee5	-0.00021427458
38	0x3e1eec9c	0.15519947
39	0xbdc841bd	-0.097781636
40	0xbe25ea6e	-0.16202709
41	0xbd3a23a9	-0.045444164
42	0x3da12a7d	0.07869432
43	0xbe00882e	-0.12551948
44	0x3e1fb034	0.1559456
45	0xbe035890	-0.12826753
46	0x3def29fd	0.116779305
47	0xbde2acea	-0.11068137
48	0xbd8c9069	-0.068634816
49	0x3e0c10e2	0.13678315
50	0xbe2155cd	-0.15755387
51	0x3df8a8e6	0.1214159
52	0x3cd4f52e	0.025995817
53	0x3d754b86	0.059886478
54	0x3da7fd9b	0.08202668
55	0xbdcb86e0	-0.09937835
56	0x3db7246a	0.08942492
57	0xbdd7fa91	-0.105458386
58	0xbcfc5366	-0.030801486
59	0xbe1c0315	-0.1523555
60	0xbd988c9a	-0.074486926
61	0x3d81ce70	0.06338203
62	0x3d635e39	0.05550978
63	0x3ca55e65	0.020186612
64	0xbe08a4aa	-0.13344064
65	0x3cfbbb53	0.030728972
66	0xbd1e6504	-0.038670555
67	0xbe01d8f9	-0.12680425
68	0x3d80ac73	0.06282892
69	0x3d196bbd	0.037456263
70	0xbe33bd7f	-0.17552756
71	0x3d7afd2e	0.061276607
72	0xbe036ce7	-0.12834512
73	0xbd8e370f	-0.06944095
74	0x3d36f250	0.04466468
75	0xbbee0364	-0.007263588
76	0x3e3230ef	0.17401479
77	0x3cd0cc47	0.025488032
78	0x3e04338d	0.1291029
79	0xbce7e060	-0.028305233
80	0xbd0c7d38	-0.034299105
81	0x3d2fd4bd	0.042927492
82	0xbd09700b	-0.033554118
83	0x3d1d7b7e	0.03844785
84	0xbe08055e	-0.13283297
85	0xbe2eb171	-0.17059876
86	0xbd506061	-0.050873164
87	0x3dd63862	0.10459973
88	0x3ca0cfd8	0.019630358
89	0x3c59740b	0.013272296
90	0xbe1ea727	-0.15493451
91	0x3ddff065	0.109345235
92	0xbdd09be8	-0.10185987
93	0x3e046438	0.12928855
94	0x3d80c916	0.06288354
95	0xbe16ffc8	-0.1474601
96	0xbe2514d4	-0.16121227
97	0x3e2e6baa	0.17033258
98	0xbd9573f2	-0.072975054
99	0xbc5c2754	-0.013437111
100	0xbd26c4e0	-0.0407151
101	0xbd1e3724	-0.038626805
102	0xbdcff62b	-0.10154375
103	0xbdcd7001	-0.10031129
104	0x3d651611	0.055929247
105	0xbc069dff	-0.00821638
106	0xbcf389ea	-0.029728848
107	0xbd3c339b	-0.045947652
108	0xbe28dce9	-0.1649052
109	0xbded4561	-0.115854986
110	0x3e154a8c	0.14579219
111	0x3de3d9e1	0.111255415
112	0xbd62528a	-0.055254497
113	0x3e2c15e7	0.1680523
114	0xba10b827	-0.0005520605
115	0xbe1160b3	-0.14197044
116	0xbe2520f7	-0.16125856
117	0xbd126465	-0.035740275
118	0x3e1ca267	0.15296327
119	0x3e231371	0.15925385
120	0xbe15003a	-0.14550868
121	0x3e11e0dc	0.14245933
122	0x3e317def	0.17333196
123	0x3dd65461	0.10465313
124	0x3c53a07d	0.012916681
125	0xbe26576b	-0.16244285
126	0xbc46d6d9	-0.012136185
127	0xbd41889b	-0.047249418
128	0xbcf9819e	-0.030457314
129	0x3d905684	0.070477515
130	0xbe34c595	-0.17653497
131	0x3e14d13f	0.14532946
132	0xbe06a799	-0.13149871
133	0x3e1eec0d	0.15519734
134	0x3dc20a35	0.09474603
135	0x3e254160	0.1613822
136	0xbd8a7140	-0.06759882
137	0xbe26aec0	-0.162776
138	0xbe1a90fb	-0.15094368
139	0x3e2f9bf1	0.1714933
140	0x3e07479f	0.13210915
141	0x3d8632f8	0.0655269
142	0xbd5ba8b6	-0.053627692
143	0x3d9a092e	0.07521282
144	0xbe06a1fb	-0.13147728
145	0xbdf1d171	-0.11807526
146	0xbdeec8c9	-0.116593905
147	0xbda1c8cd	-0.07899628
148	0xbe0b46fa	-0.13601294
149	0x3e0d1b13	0.13779859
150	0xbd3b7816	-0.04576882
151	0x3cc3261c	0.023821883
152	0xbd48eabf	-0.049051996
153	0x3e2d4632	0.16921309
154	0xbd215522	-0.03938783
155	0xbd4d0056	-0.05004915
156	0xbcb7ef4d	-0.022452975
157	0xbe235d44	-0.15953547
158	0xbe2ee4b7	-0.17079435
159	0x3d545b19	0.05184469
160	0xbd81f4e9	-0.06345541
161	0x3c609dd6	0.013709506
162	0x3d899ad8	0.06718987
163	0xbd4309f0	-0.0476169
164	0x3b3ffbcf	0.0029294377
165	0xbdcaf511	-0.09910024
166	0x3d761ba8	0.06008497
167	0xbd2d0e18	-0.04224977
168	0x3dc7c9fc	0.09755322
169	0x3dc5b1b5	0.096530356
170	0x3d8673b4	0.06565037
171	0x3e13c6c9	0.144313
172	0xbe1b22a5	-0.15149935
173	0xbca413de	-0.020029005
174	0x3e305306	0.17219171
175	0xbd892e20	-0.06698251
176	0xbd491d16	-0.049100004
177	0x3de6e1ac	0.11273512
178	0x3df3255f	0.11872362
179	0x3e0f4c5e	0.13993976
180	0xbdba022c	-0.090824455
181	0xbdedee17	-0.11617678
182	0xbdd686c3	-0.104749225
183	0xbd69a350	-0.057040513
184	0x3d0dc036	0.034607135
185	0xbd11a3aa	-0.035556473
186	0xbe21e986	-0.15811738
187	0xbb3e13e8	-0.0029003564
188	0xbd12367f	-0.035696503
189	0xbe2353ad	-0.15949889
190	0xbc8fc499	-0.0175498
191	0x3e280814	0.16409332
192	0xbd8dc7c5	-0.06922869
193	0xbcc5a0d4	-0.02412454
194	0xba65149b	-0.0008738727
195	0x3d43e52f	0.04782599
196	0x3cb30107	0.021851076
197	0x3d58fc9b	0.05297528
198	0x3dda602c	0.106628746
199	0xbe075092	-0.13214329
200	0x3daacbe1	0.08339668
201	0x3e27f843	0.16403298
202	0xbd9bade5	-0.07601527
203	0x3e2bcc54	0.16777164
204	0xbd32c21e	-0.043642156
205	0x3cfabec1	0.030608537
206	0xbd213846	-0.039360307
207	0xbd095290	-0.033526003
208	0x3bcba591	0.0062148054
209	0x3e11bc05	0.1423188
210	0xbc0881d6	-0.008331737
211	0x3d664559	0.05621848
212	0x3d5ca0d1	0.053864304
213	0xbe0bd789	-0.13656439
214	0x3d75d89d	0.06002103
215	0x3dbb6896	0.091508076
216	0x3e287030	0.16449046
217	0xbe14c9d0	-0.1453011
218	0xbe002e0f	-0.1251757
219	0x3d304328	0.043032795
220	0xbc960818	-0.018314406
221	0x3cf10dea	0.02942558
222	0x3d610dd2	0.05494482
223	0xbdbbaad0	-0.09163439
224	0x3dee793c	0.11644217
225	0xbdcce41f	-0.10004448
226	0x3d674651	0.056463543
227	0x3dc2823a	0.09497495
228	0x3d892e86	0.06698327
229	0x3e054954	0.13016254
230	0xbe15751e	-0.14595458
231	0x3d2ab0a3	0.04167236
232	0x3cd46280	0.025925875
233	0x3de78005	0.11303715
234	0xbe0eb9da	-0.13938084
235	0xbd1f5010	-0.038894713
236	0x3d942c1d	0.072349764
237	0xbbb9e0ed	-0.005672565
238	0xbd110dd8	-0.035413593
239	0x3d1cf9c9	0.03832415
240	0x3d93ce71	0.0721711
241	0xbd330123	-0.043702256
242	0xbdfe5158	-0.12417859
243	0x3e18bb3b	0.14915173
244	0xbc98e74f	-0.018664984
245	0xbe16bf6f	-0.14721464
246	0x3e118213	0.14209776
247	0xbe13705f	-0.14398335
248	0xbd21b3e9	-0.039478216
249	0xbd33b759	-0.043876026
250	0x3e13022f	0.14356302
251	0xbe305348	-0.1721927
252	0x3e04f756	0.12984976
253	0x3e0ff54b	0.14058416
254	0xbc6d5aec	-0.0144870095
255	0xbd0e228b	-0.03470091

linear3.bias f4 [32]
0	0xbd233b50	-0.039851487
1	0x3da50c9d	0.080590464
2	0xbdcb0ce1	-0.09914566
3	0x3df6b354	0.12045923
4	0x3e1d878e	0.15383741
5	0x3c396e1c	0.011317756
6	0xbd62b26b	-0.055345934
7	0x3c9be641	0.019030692
8	0x3d927e86	0.07153039
9	0x3dfc2b72	0.12312974
10	0xbe195c0c	-0.1497652
11	0xbd00ffbe	-0.031493895
12	0xbc5c588f	-0.013448848
13	0xbbebb02f	-0.0071926336
14	0xbe1bed7b	-0.1522731
15	0xbd75087b	-0.05982254
16	0xbdb4deff	-0.08831596
17	0x3d8edba7	0.06975489
18	0x3d772aa7	0.06034341
19	0xbd47937e	-0.048724644
20	0x3d9916a4	0.074750215
21	0xbe11997e	-0.14218709
22	0xbe3355f2	-0.17513254
23	0x3defaa43	0.11702397
24	0x3dab78a6	0.08372621
25	0x3d34523a	0.04402373
26	0xbe0d6ac2	-0.13810256
27	0x3cae83ab	0.021303019
28	0xbd9390c2	-0.07205345
29	0x3d50c3c0	0.05096793
30	0xbc8b9fce	-0.017043974
31	0x3cf09f08	0.029372707

linear4.weight f4 [32, 32]
0	0x3e2bfb3e	0.1679506
1	0x3e313c8d	0.17308255
2	0xbdfaadce	-0.12240182
3	0x3d29f6c7	0.04149511
4	0x3e31f686	0.17379197
5	0x3ded19c2	0.115771785
6	0xbda96525	-0.08271245
7	0x3e0f236b	0.13978355
8	0xbe0ed904	-0.13949972
9	0x3c2a731e	0.010403423
10	0xbd28a6ec	-0.041174814
11	0x3e235125	0.15948923
12	0xbc90cc2c	-0.017675482
13	0x3d65304b	0.05595426
14	0xbe150d33	-0.14555816
15	0xbe305de8	-0.17223322
16	0x3baa2ef8	0.0051935874
17	0x3d38bd39	0.04510233
18	0x3dc56e64	0.09640196
19	0x3d978d91	0.074000485
20	0x3dc71d87	0.09722429
21	0xbe0ef5f5	-0.13961013
22	0x3dcad350	0.09903586
23	0x3d4f7f46	0.050658487
24	0xbdc62558	-0.096750915
25	0xbdcdb0bd	-0.10043476
26	0x3b8eb315	0.0043548443
27	0x3d0e48cb	0.03473739
28	0xbcd0d54b	-0.025492331
29	0xbcaf801b	-0.02142339
30	0xbe0c7087	-0.13714801
31	0x3de9fc49	0.11425073
32	0xbe294b03	-0.16532521
33	0x3df6348c	0.12021741
34	0x3d34d36e	0.044146948
35	0xbdfae211	-0.1225015
36	0x3e02a60c	0.12758654
37	0xbd1eeef8	-0.038802117
38	0x3d58fe60	0.052976966
39	0x3e25265e	0.16127917
40	0xbc5f1301	-0.013615371
41	0xbe00ac4c	-0.12565726
42	0x3dfcf0d7	0.12350624
43	0x3dd04694	0.10169712
44	0x3cc18a44	0.0236255
45	0xbdaf30c7	-0.085542254
46	0x3e30b292	0.17255619
47	0xbdbae045	-0.09124807
48	0xbda9e8e3	-0.08296373
49	0xbc468d66	-0.012118673
50	0x3e01048a	0.12599388
51	0xbd988933	-0.07448044
52	0xbd6f51b8	-0.058427542
53	0xbd4460f9	-0.047944043
54	0x3d7ca2ba	0.061678626
55	0xbda0a598	-0.078440845
56	0xbdeed583	-0.11661818
57	0x3e02cfe6	0.1277462
58	0x3a54a990	0.0008112425
59	0x3e06ac6f	0.13151716
60	0x3df686b4	0.12037411
61	0x3da40efb	0.0801067
62	0xbe1ab376	-0.15107521
63	0xbca22730	-0.019794077
64	0xbdf60fab	-0.12014707
65	0x3d3767c7	0.044776704
66	0xbe14fb31	-0.14548947
67	0xbc8c0aab	-0.01709493
68	0x3da4eaea	0.08052619
69	0xbe02a251	-0.12757231
70	0xbd6b47e8	-0.057441622
71	0x3bc1153d	0.0058924244
72	0x3dc6d430	0.0970844
73	0x3ca20194	0.019776143
74	0x3e2a985b	0.16659681
75	0xbe25e90e	-0.16202185
76	0x3e2d85c9	0.16945566
77	0xbe071aef	-0.13193868
78	0x3ce06f6e	0.027396884
79	0x3dfef1a5	0.12448434
80	0xbe1d6250	-0.15369534
81	0x3e0d463b	0.13796322
82	0xbcc83050	-0.0244371
83	0x3dfa8014	0.1223146
84	0x3e2f56fe	0.17123029
85	0x3e043ff6	0.12915024
86	0x3de6fe3f	0.11278962
87	0xbd562be3	-0.052287947
88	0x3db1cdc1	0.086818226
89	0xbd9b6b32	-0.07588805
90	0x3d057ad9	0.03258786
91	0xbd742da7	-0.05961385
92	0x3e00ffe8	0.1259762
93	0xbde73f9c	-0.112914294
94	0x3d20b751	0.039237324
95	0xbd8a6ade	-0.067586645
96	0xbd0132a7	-0.031542446
97	0xbe154996	-0.14578852
98	0x3bac644d	0.00526098
99	0x3e26a47a	0.1627368
100	0x3e33e45e	0.17567584
101	0x3e22dfc1	0.15905668
102	0x3d269ac8	0.040674955
103	0x3d84bc6a	0.0648125
104	0xbe1c8315	-0.15284379
105	0xbcadbb6d	-0.021207536
106	0xbd8efed4	-0.06982198
107	0xbd55a90d	-0.052163173
108	0x3e191455	0.14949162
109	0x3e0c333e	0.13691422
110	0xbdff117d	-0.124545075
111	0x3c0ecd82	0.008715989
112	0xbb4fe7ed	-0.0031723932
113	0xbd02d614	-0.031942442
114	0x3ddf7d50	0.10912573
115	0xbe262709	-0.16225828
116	0xbdbed969	-0.093188114
117	0x3baaa897	0.0052080858
118	0xbdb215bf	-0.08695554
119	0xbe343d56	-0.17601523
120	0xbd632e62	-0.055464156
121	0x3d9aed63	0.07564809
122	0x3d0edbe5	0.034877677
123	0x3d5ca717	0.053870287
124	0xbcdbb1fe	-0.026818272
125	0xbe1a6bc2	-0.15080169
126	0x3d99cc69	0.07509691
127	0xbd6bb966	-0.057549857
128	0xbde6446e	-0.11243521
129	0xbe13f6a2	-0.14449552
130	0xbe188d8a	-0.14897743
131	0xbcca93a7	-0.02472861
132	0x3d76d551	0.060262028
133	0x3d75825e	0.05993878
134	0xbd24b521	-0.0402118
135	0xbe218a76	-0.15775475
136	0x3d8b97a4	0.068160325
137	0xbe1f1e7b	-0.15538971
138	0xbc046291	-0.008080141
139	0x3d8ecfa7	0.069732
140	0xbe2dfb1c	-0.16990322
141	0xbdf81498	-0.12113303
142	0xbd34d396	-0.044147097
143	0x3e342355	0.17591603
144	0xbe0aefca	-0.13568035
145	0x3e146442	0.1449137
146	0x3aab1089	0.0013051193
147	0xbd78d38f	-0.060748633
148	0x3da5f93a	0.08104177
149	0xbd1e918b	-0.03871302
150	0x3e2ed062	0.17071679
151	0xbd2740c0	-0.040833235
152	0xbd29641e	-0.041355245
153	0x3dec921d	0.115513064
154	0x3dd5a403	0.104316734
155	0x3dadf938	0.084948
156	0xbde293a0	-0.110633135
157	0xbd506c71	-0.050884668
158	0xbdfa193a	-0.12211843
159	0xbe193bd6	-0.14964232
160	0xbd2de30b	-0.042452853
161	0x3da23bce	0.07921563
162	0xbda4f45a	-0.08054419
163	0x3db089d3	0.08620038
164	0xbd2b367a	-0.0418
165	0xbd5c9e57	-0.053861942
166	0xbe06806d	-0.13134928
167	0xbe20b247	-0.15693007
168	0xbd0dc4c9	-0.034611497
169	0xbdc57c30	-0.096428275
170	0xbd94cfc9	-0.072661944
171	0xbdb20716	-0.08692758
172	0x3da5c087	0.08093362
173	0xbda0391f	-0.07823395
174	0x3e2b5159	0.1673025
175	0xbd463930	-0.048394382
176	0x3dc96799	0.09834213
177	0xbc529150	-0.012852028
178	0x3e2b69ee	0.16739628
179	0xbdd47e1c	-0.10375616
180	0x3dbe229d	0.09283946
181	0x3e184369	0.14869465
182	0x3d28e48d	0.041233588
183	0x399b3016	0.0002959973
184	0xbd1208a0	-0.035652757
185	0x3df854dd	0.121255614
186	0x3d23735a	0.03990493
187	0x3e10cf5d	0.14141603
188	0xbd7786dd	-0.06043135
189	0x3dbb4b87	0.09145265
190	0x3d3d7069	0.04624978
191	0x3d515c21	0.05111325
192	0xbd525f81	-0.05136061
193	0x3b465518	0.0030263122
194	0x3d62817f	0.05529928
195	0xbdca0372	-0.098639384
196	0xbca29de5	-0.01985068
197	0x3cca977f	0.024730442
198	0xbcb70085	-0.022339115
199	0x3dc7734c	0.09738788
200	0xbe12d604	-0.14339453
201	0xbe2de58f	-0.16982101
202	0xbc91d64f	-0.017802386
203	0xbda8fcf2	-0.082513705
204	0xbc6c3015	-0.0144157605
205	0x3d5bb324	0.05363764
206	0xbdb763b1	-0.089545615
207	0x3df394e5	0.11893634
208	0x3dce6ee5	0.10079745
209	0xbd3299b3	-0.04360361
210	0xbd4c1e5a	-0.049833633
211	0x3e2a3046	0.16619977
212	0x3db83bd0	0.08995783
213	0x3e301f7a	0.17199507
214	0x3dd0af6e	0.101897106
215	0x3d91092f	0.0708183
216	0xbd8061b7	-0.062686376
217	0x3ba1405d	0.004921003
218	0xbd9c29e8	-0.076251805
219	0x3d46f497	0.048573103
220	0x3a6cb70d	0.0009029962
221	0x3d285ccf	0.041104134
222	0xbdcb8724	-0.099378854
223	0xbc23a529	-0.009988108
224	0x3ded80eb	0.11596855
225	0x3d4f2513	0.050572466
226	0x3df01988	0.1172362
227	0xbe1dc14f	-0.15405773
228	0x3d86018a	0.06543262
229	0x3d08b662	0.03337706
230	0x3d3b0d9a	0.04566727
231	0xbd76a83d	-0.06021904
232	0x3d433dcc	0.047666356
233	0xbd842271	-0.06451882
234	0x3d8f9ffc	0.070129365
235	0xbde1e4d6	-0.11029975
236	0x3dc27605	0.09495167
237	0x3b8bd0dc	0.0042668413
238	0x3e039bb6	0.12852368
239	0xbe123da7	-0.14281331
240	0xbdf8928f	-0.12137329
241	0x3deebc7d	0.11657045
242	0xbd52eb50	-0.051493943
243	0xbc435a20	-0.011923343
244	0x3e23b62f	0.15987466
245	0xbdf7a2ad	-0.12091575
246	0xbd801edf	-0.06255888
247	0xbd95c710	-0.07313359
248	0xbdc507fe	-0.09620665
249	0xbd9ca7fb	-0.07649227
250	0xbe18c779	-0.14919843
251	0xbe2fa5ba	-0.17153063
252	0xbe08c0b2	-0.13354757
253	0xbdd16249	-0.102238245
254	0x3d5bee24	0.053693905
255	0x3e0b2fdf	0.1359248

linear4.bias f4 [32]
0	0x3e2556d3	0.16146402
1	0x3d8fc915	0.07020775
2	0x3dd64547	0.10462432
3	0xbcb078be	-0.02154195
4	0x3d3bc3fe	0.04584121
5	0x3d9469cc	0.07246742
6	0x3dab93c8	0.083777964
7	0xbcd422fe	-0.025895592
8	0xbd23a0b2	-0.039948173
9	0x3dd2e89e	0.102982745
10	0xbe1f0946	-0.15530881
11	0xbd472ef3	-0.04862876
12	0x3ad35134	0.0016122223
13	0xbda49bf9	-0.08037562
14	0x3d9faa24	0.077961236
15	0x3d51c4f5	0.051213223
16	0x3d10c224	0.035341397
17	0xbbde4f22	-0.0067843357
18	0xbddae46f	-0.106881015
19	0xbb38be7c	-0.002818971
20	0xbde3ea2a	-0.111286476
21	0xbe03f7ad	-0.1288745
22	0xbe133c8f	-0.1437857
23	0x3e2457ae	0.16049072
24	0xbe2b369f	-0.16720055
25	0x3d43ff53	0.047850918
26	0xbdbb665e	-0.09150384
27	0xbde6d128	-0.11270362
28	0xbdca52f7	-0.098791055
29	0xbd109ef0	-0.035307825
30	0x3e2f666a	0.17128912
31	0xbe1e61f3	-0.15467052

linear5.weight f4 [16, 32]
0	0xbdc0bd07	-0.09411054
1	0xbe197b6f	-0.14988492
2	0xbe1b7ebc	-0.15185064
3	0x3dd532d5	0.10410086
4	0xbd81a24a	-0.06329782
5	0xbcf3a44c	-0.029741429
6	0x3dc74d9f	0.09731602
7	0xbe104e34	-0.14092332
8	0xbd9afeb6	-0.075681135
9	0x3d62ba49	0.055353437
10	0x3db184a3	0.086678766
11	0xbe310ca0	-0.17289972
12	0xbd5567e9	-0.05210105
13	0xbda9a721	-0.082838304
14	0x3cbe0788	0.02319695
15	0x3d3995f4	0.045309022
16	0x3e01ab6e	0.12663051
17	0x3e27bc80	0.16380501
18	0xbe1a159a	-0.15047303
19	0xbc8908b7	-0.016727788
20	0x3e2a7ad1	0.16648413
21	0x3db1e509	0.08686263
22	0xbe300ccb	-0.1719238
23	0xbd57e40a	-0.05270771
24	0xbd1077df	-0.035270568
25	0x3e0e6078	0.13903987
26	0xbd262462	-0.04056204
27	0xbe2e91f4	-0.17047864
28	0x3dfdb893	0.1238872
29	0x3dba2f3d	0.09091041
30	0xbdeaa9d0	-0.114581704
31	0xbe02f4f8	-0.1278876
32	0x3d94748c	0.07248792
33	0x3a95d721	0.0011431911
34	0x3d816ea9	0.06319935
35	0xbdea1ac2	-0.11430885
36	0xbbfab924	-0.007651465
37	0x3d974e12	0.073879376
38	0xbdf341c4	-0.11877778
39	0x3e2369fc	0.15958399
40	0x3e08c261	0.133554
41	0xbc852e20	-0.016257346
42	0x3dfef65d	0.12449334
43	0x3e1c5da4	0.15270096
44	0x3e131759	0.14364375
45	0xbc8509f9	-0.016240107
46	0xbd2e6cdd	-0.04258429
47	0xbd538270	-0.051638067
48	0x3c5a3dec	0.013320427
49	0xbe0ad9e2	-0.13559678
50	0x3bcb891b	0.0062114126
51	0xbe271ffa	-0.16320792
52	0x3de4e3df	0.111762755
53	0xbdfe0847	-0.124039225
54	0xbd7ce192	-0.061738558
55	0xbdef018a	-0.116702154
56	0xbd807781	-0.062727936
57	0x3e316c05	0.17326362
58	0xbe0a6020	-0.13513231
59	0x3cee6c4f	0.02910438
60	0x3e18dd29	0.14928116
61	0x3d440221	0.047853593
62	0x3d2ad61d	0.0417081
63	0xbbd4301e	-0.0064754626
64	0xbe2450cb	-0.16046445
65	0xbdff42b8	-0.124638975
66	0x3dba6d82	0.09102918
67	0x3cbf362c	0.02334126
68	0xbdddd350	-0.1083132
69	0x3c6c9659	0.014440143
70	0x3e0cd466	0.13752899
71	0x3b4f4167	0.0031624676
72	0xbd0fb3f0	-0.03508371
73	0xbe1662f3	-0.14686184
74	0x3d995886	0.07487588
75	0xbb34de69	-0.0027598387
76	0xbe19d49e	-0.15022513
77	0xbbee3a8b	-0.0072701625
78	0xbdba3b6a	-0.090933636
79	0x3d494b45	0.04914405
80	0x3e0f3966	0.1398674
81	0xbe2879ae	-0.16452667
82	0xbdaa6d27	-0.083216004
83	0x3e20a20b	0.15686814
84	0x3c934ed8	0.017981932
85	0x3cf9ac0b	0.030477544
86	0xbe1244a8	-0.14284003
87	0x3e152ab3	0.1456707
88	0xbe0e65e7	-0.1390606
89	0x3e04a86d	0.12954874
90	0xbcaa78d1	-0.020809563
91	0x3e11cbfc	0.1423797
92	0xbd9161de	-0.07098745
93	0x3e0fb96b	0.14035575
94	0x3e33c0fc	0.17554086
95	0xbd077f85	-0.033080596
96	0x3d2573c9	0.040393624
97	0xbcac119d	-0.021004492
98	0x3c5cb4ed	0.01347087
99	0x3e2931b7	0.16522871
100	0x3df9909f	0.121857874
101	0x3dd82bcd	0.10555229
102	0xbd71cb5a	-0.05903182
103	0xbdfce806	-0.123489425
104	0x3de733dd	0.11289189
105	0xbe14c131	-0.14526822
106	0x3d52ff01	0.051512722
107	0xbe1a65c1	-0.15077879
108	0x3daaec87	0.08345895
109	0xbe111ba6	-0.14170703
110	0x3e03241b	0.12806742
111	0x3c3c0276	0.011475196
112	0x3d39aa3d	0.045328368
113	0x3e29df14	0.16589004
114	0x3d2097df	0.039207336
115	0xbe0be528	-0.13661635
116	0x3e05340d	0.13008137
117	0x3e009b7e	0.12559316
118	0x3dee2366	0.116278455
119	0x3dd260aa	0.102723435
120	0x3d95f539	0.07322163
121	0x3e1b00a6	0.15136966
122	0xbe24e621	-0.16103412
123	0x3e243ab6	0.16038021
124	0xbe195a2e	-0.14975807
125	0x3d962b68	0.07332498
126	0x3d866d68	0.06563836
127	0xbe19b01a	-0.15008584
128	0xbd369187	-0.04457238
129	0x3bf1f35f	0.0073837484
130	0xbd1513a8	-0.0363957
131	0x3da82aea	0.0821131
132	0xbe0108cb	-0.1260101
133	0x3e0d8b36	0.13822636
134	0xbbcec27a	-0.0063098045
135	0x3e0c43c3	0.13697724
136	0x3e13bdf8	0.14427936
137	0xbdcf04b1	-0.10108317
138	0x3e145129	0.14484085
139	0xbe20ed5b	-0.15715544
140	0xbe2a7a30	-0.16648173
141	0xbc811456	-0.015756767
142	0x3d9ef1d4	0.07760969
143	0x3c180fd2	0.009281116
144	0xbe1eab57	-0.15495048
145	0x3de83dba	0.113398984
146	0xbdc49483	-0.09598639
147	0xbd95c9b4	-0.073138624
148	0x3cc3ca56	0.023900192
149	0xbe10e13b	-0.14148419
150	0x3dfe6f8d	0.124236204
151	0x3e2e65be	0.17030999
152	0x3c57bec9	0.013168045
153	0xbb809c7b	-0.003924904
154	0x3d04edde	0.03245341
155	0xbe238fe0	-0.15972853
156	0xbdf3130e	-0.11868869
157	0x3e233dfe	0.15941617
158	0x3c454ec2	0.012042703
159	0xbe2075cb	-0.15669934
160	0xbe1a27d8	-0.15054262
161	0x3d11fbb3	0.03564043
162	0x3d381746	0.04494407
163	0x3d103bc4	0.035213247
164	0xbe2c7c8f	-0.1684439
165	0x3da4cccc	0.080468744
166	0x3da812bb	0.082066976
167	0x3de85c3e	0.11345719
168	0xbd668acd	-0.056284714
169	0xbd76f747	-0.060294416
170	0x3d5a3fc1	0.053283457
171	0xbd9c97a1	-0.076461084
172	0x3dcf9a77	0.10136884
173	0xbe34145d	-0.17585893
174	0x3cbb8f61	0.022895517
175	0x3e14c01d	0.1452641
176	0x3e1da25b	0.15393965
177	0x3e164025	0.14672907
178	0xbe0ee3a3	-0.13954024
179	0x3e03660c	0.12831897
180	0x3ba717b8	0.005099263
181	0xbddf9284	-0.109166175
182	0x3cb21809	0.021739976
183	0xbe000ae8	-0.1250416
184	0x3e29f1df	0.16596173
185	0xbca66a6e	-0.020314422
186	0xbe2a25d6	-0.16615996
187	0x3d8f5e77	0.070004396
188	0xbda9164b	-0.08256205
189	0xbd743cd5	-0.059628326
190	0xbe1230d6	-0.14276442
191	0x3d02d41d	0.03194057
192	0xbc224012	-0.009902971
193	0x3dce98d0	0.100877404
194	0xbe254260	-0.16138601
195	0x3d2d6a81	0.0423379
196	0xbdea67c1	-0.11445571
197	0xbcd8a2f5	-0.026444891
198	0x3e19ca5b	0.15018599
199	0x3ceed331	0.029153438
200	0xbe264f54	-0.16241199
201	0x3dd1c435	0.10242502
202	0x3e1b6782	0.15176204
203	0x3cb1772b	0.021663269
204	0x3dd8de0f	0.10589229
205	0xbdbffb67	-0.09374123
206	0xbe1d6829	-0.15371765
207	0x3d41e8f3	0.0473413
208	0x3e347817	0.17623936
209	0x3e26d025	0.16290338
210	0x3d8aac46	0.0677114
211	0x3de9332b	0.11386713
212	0xbe0af566	-0.13570175
213	0xbd82277b	-0.063551866
214	0x3e043a6b	0.1291291
215	0xbcc46ca9	-0.023977594
216	0x3dd44f96	0.10366742
217	0xbdf73962	-0.12071492
218	0x3de2e30e	0.110784635
219	0xbd8a9586	-0.067668006
220	0xbdee969d	-0.11649821
221	0xbd56e0c1	-0.052460436
222	0x3e03f846	0.12887678
223	0xbdc5f088	-0.09665018
224	0xbd2de1a1	-0.042451505
225	0x3e034c51	0.12822081
226	0xbe3087e7	-0.17239343
227	0x3de69fea	0.1126097
228	0x3e234741	0.1594515
229	0xbe198bd7	-0.14994751
230	0xbccc3a3d	-0.024930114
231	0xbde6e045	-0.11273245
232	0x3e330cfb	0.1748542
233	0x3d826fa0	0.06368947
234	0x3ca4db67	0.02012415
235	0xbda890c0	-0.08230734
236	0xbe26969d	-0.16268392
237	0xbb3114f8	-0.0027020555
238	0xbc548142	-0.012970271
239	0xbdcba0d7	-0.09942787
240	0x3d9ed090	0.07754624
241	0xbe1dcaec	-0.1540944
242	0xbe18fdf1	-0.14940621
243	0xbdf9fc1d	-0.1220629
244	0xbe011b4b	-0.12608068
245	0x3ded2fdb	0.11581393
246	0x3d827551	0.063700326
247	0x3e0d9767	0.13827287
248	0x3e1accb9	0.15117158
249	0xbda77486	-0.08176522
250	0x3db48381	0.08814145
251	0xbd839086	-0.0642405
252	0xbddf0674	-0.10889903
253	0x3e18b3db	0.1491236
254	0x3e1fca12	0.15604427
255	0x3db10284	0.08643058

linear5.bias f4 [16]
0	0x3e1e2799	0.15444793
1	0xbe143265	-0.14472349
2	0x3d11dcc3	0.035610925
3	0xbda7dbaa	-0.081961945
4	0xbdb601da	-0.08887072
5	0x3e2aaa33	0.16666488
6	0x3e2d9aad	0.16953535
7	0xbe1b4be8	-0.15165675
8	0xbe1d9f56	-0.15392813
9	0x3e28bd02	0.16478351
10	0xbe063cf7	-0.13109194
11	0xbde650a7	-0.11245852
12	0x3e1fb916	0.15597948
13	0xbd90e1a1	-0.07074285
14	0x3a692df4	0.0008895092
15	0x3c7445b2	0.014909195

output_layer.weight f4 [2, 16]
0	0xbe4c7f3a	-0.19970408
1	0x3e4d729c	0.20063251
2	0xbca92790	-0.020648748
3	0x3e415468	0.18879855
4	0xbe5a1578	-0.21297252
5	0xbcb2a450	-0.021806866
6	0xbe5e16e0	-0.21688414
7	0x3e173b44	0.14768702
8	0x3d11b890	0.035576403
9	0xbe1786a0	-0.14797449
10	0xbdfc1118	-0.12307948
11	0x3e7ded20	0.24797487
12	0x3e71e50a	0.23622528
13	0x3da8230c	0.0820981
14	0xbe3a1de2	-0.18175462
15	0x3e04ba7a	0.1296176
16	0x3e232970	0.15933776
17	0xbcdce850	-0.026966244
18	0xbd5031d0	-0.050828755
19	0x3e232ede	0.15935847
20	0xbc573960	-0.013136238
21	0x3e5c0384	0.21485716
22	0x3da6524c	0.08121166
23	0x3e35621a	0.17713204
24	0x3d657e38	0.056028575
25	0x3d45f3e8	0.04832831
26	0x3a14f200	0.0005681813
27	0xbe79d818	-0.2439884
28	0x3e144ac4	0.14481646
29	0xbe64c4ec	-0.22340745
30	0xbe00f54c	-0.12593573
31	0x3e26aae0	0.16276121

output_layer.bias f4 [2]
0	0x3dde5eb8	0.1085791
1	0x3d6c5608	0.057699233
