results/models/exp-3:batchsize=128,lr=1e-4,layers=6,num_episodes_train=1500,adam-corrected/0/model-200.0.pt (torch, 12720 bytes, 10 tensors)

linear1.weight f4 [16, 4]
00000000: 5ec7 c6be a741 af3e 3014 9f3f b9ff 083f
00000010: 7362 023f fd64 80be 8ab8 c7bf dee7 e3be
00000020: 67a8 a53d 66e5 513d 350c 693e abd8 0a3e
00000030: e8fb 33be 6404 b03e 0844 98bd 0025 c13d
00000040: 40c6 95bf 6346 2abf 93f5 5ebf 22a7 04bf
00000050: 8281 2a3f 84c9 b6be 47dd d7be b105 6cbe
00000060: 74f2 00bf 30c8 e43e 66ff bd3f e832 2d3f
00000070: dd4a 5dbd 7d35 913e badd fc3e 6e5d 853e
00000080: d658 253f acbf bbbe e3d7 8ebc 6888 d5bc
00000090: 395d 62bc f5bc 823e e453 963d 209f 9d3e
000000a0: 229a da3f 7571 273f 26a9 87be 497e b03e
000000b0: 7f95 06be 1757 043e 857c fb3e d5ac c03d
000000c0: b34e e4be 6ceb c0bd 5d86 ac3f bfaa 113f
000000d0: d6d0 47be 45b0 6dbe ce8e 2d3e cf75 0cbd
000000e0: 6d94 173e eb87 5d3e 95cc 87be 4d9a 053e
000000f0: fb82 09bd f44b 8cbe b99c febd ade8 ff3c
-0.3882398 0.34229776 1.2428036 0.535152 0.5093147 -0.25077048 -1.5603192 -0.44512838
0.08088761 0.051244162 0.22758563 0.13559215 -0.17576563 0.3437835 -0.07434851 0.09430885
-1.1701126 -0.6651365 -0.87093467 -0.51817524 0.66603863 -0.3570062 -0.4216101 -0.23049046
-0.50369954 0.4468398 1.4843566 0.676558 -0.054026473 0.2836112 0.49387914 0.26047844
0.6458868 -0.36669672 -0.017436927 -0.02606602 -0.013816171 0.25534788 0.073402196 0.30785465
1.7078288 0.65407497 -0.26496238 0.34471348 -0.13142966 0.12923847 0.49118438 0.09407965
-0.44591293 -0.09419903 1.3478504 0.5690116 -0.19513258 -0.23211773 0.16949007 -0.03429204
0.14802714 0.2163388 -0.2652327 0.13047142 -0.03357218 -0.27401698 -0.12432236 0.031238878

linear1.bias f4 [16]
00000000: 3036 b53e 4a92 0a3f 875d 9b3e f6d0 e5be
00000010: 1cdb c3bc 4b03 e33e 8296 b4be 20ce 003f
00000020: 477b 993e 564b e33e fe35 013d 2804 903e
00000030: 831f 333f 6417 163f 4356 113f a469 a13e
0.35392904 0.5412947 0.30344793 -0.44885987 -0.02390819 0.4433845 -0.35271078 0.5031452
0.29976866 0.44393414 0.03154563 0.2812817 0.6996996 0.5862944 0.5677225 0.3152591

linear2.weight f4 [32, 16]
00000000: e446 9b3d eade 6e3e cb6a 2f3e 08b7 773d
00000010: dbdc e93e 11db 483e c1cb d9bf 9c9e a8be
00000020: b1fe 203e cc8d d03d 6ebe 823f 7590 f23c
00000030: d9d8 f93b 0126 913e ffe3 32bd 3367 f73e
00000040: 63d8 c9be b3cf 98be 077b 713e 4a15 033e
00000050: 22c9 7fbe c8b7 903d 1939 bdbe 6655 9b3d
00000060: bd07 2b3e 62c2 f43d 86b1 85bf cc96 0b3d
00000070: 1f50 39be 38ba c13e e335 ac3e 2dca 2b3e
00000080: f0c0 11bf d708 e6bd 4e01 883e 6077 39bc
00000090: 30f5 06bf 4930 233d d48f 05bf a6ee a13e
000000a0: ed6c f63d 2543 bc3e f2f8 85bf a908 8f3d
000000b0: 3a2f 8dbe a0a0 a33e 5c6d 583d 6826 9fbd
000000c0: 9c18 1cbf 1d2c e43d be15 d73e 8482 f63d
000000d0: 2194 05bf 8555 d33d f038 17bf 489c b33e
000000e0: 4777 e83e 2c0a 8a3e 6774 a0bf fc78 b23c
000000f0: 9a84 92be 199e 4a3e a0ec 223d c1a4 a2bc
00000100: ac93 a8be e214 11be d614 a03e 28f9 05be
00000110: afd4 46bf 5ba0 3e3e ce59 65bf da63 35bc
00000120: aa1e 843e 8869 043f 3e8c 8abf 5611 3a3e
00000130: 48c2 debd 762c 863e 6172 b83e 9a1b 903e
00000140: 2586 c3be 5b60 6abd 56e5 c93e 6ec5 52be
00000150: 1d7b d4be fc73 d93d 70ee 67bf 60b3 c33e
00000160: 25ba de3e b4dc b43e a139 9bbf 1619 cfbc
00000170: 3995 82be 5539 0a3e 5e8d 393c 2338 653e
00000180: 8688 5bbd 44bf d8be 75c0 ce3e 9c0d 5a3e
00000190: 6853 65be 00ff a63d 397e 193e 7cc8 e93e
000001a0: eaf9 ab3e 31c5 063f f7a1 c9bf 4c08 cc3e
000001b0: 1e78 113e 9d9f 5f3e b626 ef3d c56e 473e
000001c0: b420 c7be 2de9 c3bb 45b0 8d3d b890 1d3d
000001d0: 6c4e 06bf a989 4e3e 3497 54bf 842d 763e
000001e0: 678a 103d 698b 853e 6232 abbf ef90 dfbd
000001f0: 309a e13d ff69 8cbc 1ca3 c93e 24b6 d6bd
00000200: 34be d0be ff32 303f 1d73 263d dc0c d33d
00000210: 5427 29bc f104 463f 328c a2bf c457 8c3e
00000220: cb08 e93e d1c3 c93e faf8 ad3f 4615 ffbd
00000230: e16c 043e 3a10 653d ac35 0d3f 4986 113e
00000240: d0df febe 5a66 a8be 0f0b d03d c48d 2cbe
00000250: 9606 fabe 6947 5b3e 5604 f2be 4b41 103f
00000260: a3c0 c23e 9480 a13e d9c4 96bf f527 113e
00000270: 2959 163c 1479 c93e 101d a23e ec9f 523e
00000280: 1887 cfbe 8d55 763e a05e 923d 969f 61be
00000290: 94f5 acbe e148 e93e 3d38 95bf 2dce c03e
000002a0: c9b1 013e 9e48 c13e 4528 c2be 7575 98bc
000002b0: c739 6bbe 7c29 82bc eac0 9e3e 89b2 203d
000002c0: d017 ddbe bc9e 2dbd 7d65 643e dcb1 a23d
000002d0: a513 d2be 5e56 6b3e 039c 52bf b39b 193e
000002e0: 4624 9a3e 48a4 623e 6983 8fbf d7ae 523e
000002f0: 5f3b 1fbe 7053 413e 8183 c23e f02b 193d
00000300: 28a5 e9be 816a 8abe e67f 423e ae0c 253e
00000310: 0f8b c8be 1785 a53e cf06 5fbf b247 cc3e
00000320: daf7 afbd ac7b 8b3e 6221 a6bf 882a c1bb
00000330: d870 febd 386a 9a3e 8b9a 1d3e 9398 513e
00000340: 1572 24bf ae16 57be 1212 0f3e f069 b1bc
00000350: 522b 84be 36ec 393e 3d3c 15bf 07ba cc3e
00000360: 08dd 743e 7f17 c03e 2436 98bf 7b1e 8f3e
00000370: 142b 38be 7bbb b43d 7913 f63c 11b3 95bc
00000380: 37ef 97be 6927 c7be 1a90 3b3e d842 16be
00000390: b164 86be 4d3f 513e 68b0 46bf 5bee b83d
000003a0: d348 16bc 9bd2 153f d297 b3bf c5f6 1ebd
000003b0: 4eb7 003e f173 173e 414a e83e a787 f23d
000003c0: b2fe 38bf 3d86 cfbd b000 bf3e 722c 283e
000003d0: 765e e3be c42f 143c 6b57 ccbe 0dee c53e
000003e0: 9cf9 40be 2421 813e 8af3 bebf 9182 1d3e
000003f0: 75b6 673d 1596 c33d 88bd b53e 5340 233e
0.07581881 0.23327222 0.17130582 0.060477287 0.45676312 0.19614817 -1.7015306 -0.3293351
0.15722157 0.101832956 1.0214365 0.029609898 0.007624727 0.28349307 -0.043674465 0.48320922
-0.39422902 -0.29845962 0.23582087 0.1280109 -0.2497907 0.070663035 -0.36957625 0.07584648
0.1670217 0.11951138 -1.0444801 0.034079358 -0.1809697 0.37837386 0.33634862 0.16776343
-0.56935024 -0.11232155 0.26563495 -0.011319965 -0.52717876 0.03984097 -0.5217259 0.31627387
0.12032495 0.36769977 -1.0466597 0.06984074 -0.27575094 0.31958485 0.05283867 -0.07770997
-0.6097505 0.111412264 0.42008775 0.12036613 -0.5217915 0.10319046 -0.59071255 0.3508017
0.454035 0.26960886 -1.2535523 0.021786205 -0.28616792 0.19786872 0.039776444 -0.019853951
-0.32925165 -0.14168122 0.31265897 -0.13083327 -0.7766828 0.18615858 -0.89590156 -0.01107117
0.25804645 0.5172353 -1.0824049 0.18170676 -0.108769 0.26205796 0.36024764 0.28146058
-0.38188282 -0.057220798 0.39432782 -0.20583126 -0.41500178 0.106178254 -0.905982 0.3822279
0.43501392 0.35324633 -1.2126962 -0.025280517 -0.25504473 0.13498433 0.0113252085 0.22384696
-0.053596996 -0.42333424 0.40381208 0.21294254 -0.22395098 0.08154106 0.14989556 0.4566077
0.33589107 0.5264464 -1.5752553 0.3985008 0.14205977 0.21838231 0.116773054 0.19475849
-0.38892138 -0.0059787245 0.06918386 0.038468093 -0.5246341 0.201697 -0.8304322 0.240408
0.03528824 0.26082924 -1.3374751 -0.10916316 0.11015737 -0.017140387 0.39382255 -0.10483959
-0.40770113 0.68827814 0.040637124 0.10305187 -0.010324318 0.7735129 -1.2699034 0.2741071
0.4551452 0.3940721 1.3591607 -0.124552295 0.12932159 0.055923678 0.5516002 0.14211382
-0.4978013 -0.32890588 0.10158359 -0.16850954 -0.4883315 0.2141396 -0.47268933 0.5634963
0.38037595 0.3154341 -1.1778823 0.14175399 0.009176531 0.39350188 0.31662798 0.20568818
-0.40532756 0.24056073 0.071469545 -0.22033533 -0.3378111 0.45563415 -1.1657788 0.376573
0.12665476 0.37750715 -0.37921348 -0.018610695 -0.22971259 -0.015888922 0.31006557 0.039232764
-0.4318223 -0.04238771 0.2230434 0.0794408 -0.41030613 0.22982165 -0.82269305 0.15000801
0.301058 0.22132981 -1.1211978 0.20574509 -0.15549992 0.18879485 0.37990955 0.037395418
-0.45633817 -0.2703438 0.18994102 0.16118118 -0.39168593 0.32328102 -0.87119764 0.3989845
-0.08592196 0.27242792 -1.2978938 -0.0058949627 -0.12423867 0.30159163 0.15390985 0.20468359
-0.64236575 -0.21004745 0.13971737 -0.02165696 -0.258143 0.18156514 -0.5829504 0.39985678
0.23912442 0.37517926 -1.1891522 0.27952942 -0.17985183 0.088248216 0.030038582 -0.018273862
-0.29674694 -0.38897255 0.18316689 -0.14673936 -0.26248696 0.20434304 -0.77612925 0.09029838
-0.009172636 0.58524483 -1.4030707 -0.038809557 0.12569925 0.14790322 0.4536915 0.1184228
-0.72263634 -0.10133026 0.37305212 0.16423205 -0.44408005 0.009044591 -0.39910445 0.3865818
-0.18845218 0.25220597 -1.4918072 0.15381838 0.05657049 0.0955011 0.35496163 0.15942506

linear2.bias f4 [32]
00000000: 0090 303e bd5a 183e fb89 a53e a556 b33e
00000010: a9b4 883e cbb3 433e cc25 cb3e 5a04 1d3e
00000020: f0ef 9b3e 0ee6 5e3e d888 dd3e d4e9 033e
00000030: 5930 6d3e 5656 7b3e 4a24 993e 4f61 5d3e
00000040: cecd 57be ce26 0cbc 98e8 be3d cd68 a83e
00000050: bd42 c13e f8fd 9f3e 108a 2cbe c25c 293e
00000060: 72ed 023e 8ba5 0e3d d3fb 973e 9b74 e33e
00000070: 7c6c 253d d16d 143e b060 b93d 3376 013e
0.17242432 0.14878364 0.32331833 0.35027042 0.26700333 0.19111554 0.39677274 0.15333691
0.30456495 0.21767446 0.43268466 0.12882167 0.23162974 0.24544653 0.299105 0.21619152
-0.21074602 -0.008554174 0.093217075 0.32892457 0.3774623 0.3124845 -0.16849542 0.1653929
0.1278589 0.034825843 0.29684314 0.444249 0.040386662 0.14495017 0.09051645 0.12642746

linear3.weight f4 [32, 32]
00000000: a6df 343f 72c7 1c3d eb3b bebe 6c9b a2be
00000010: e6ac f43d b3e0 e7bd d53d 76be bcb8 f5be
00000020: 765e 0b3f 6b16 623e 3989 373e 727d babd
00000030: 348e 57be 6e65 1dbe 9753 0a3d 1321 c9be
00000040: d829 2cbe 9718 b73d 7361 d2bc 32ee 44be
00000050: 8f2a adbe 52af 92bd 200b 413f b680 ed3c
00000060: 73aa 523d b4e6 363f 682b 553c 8aec ac3c
00000070: 909e 5dbe 4b8e 9bbd 6372 303f 182c 913e
00000080: c24d 893f 096e aa3d e287 b63d 67cc 9d3e
00000090: d4df c63e 0b5a 463e 42bd 3dbe 38dc 353e
000000a0: 90ce 603f 9b7d 003e d8aa 493f 0be3 a73e
000000b0: 85b6 ac3d 543a 0a3e 95ad 183e c82f 4bbd
000000c0: e5a1 233e 2a5f 29bf b5db 2bbe fe4b 873e
000000d0: ce5c 7dbe 7dd4 e43d c60f 403f ebee ca3e
000000e0: 9874 c93c 5ed6 153f 1aa7 cebe 71f9 2ebe
000000f0: a4ae 94bd 1ece 343f afa7 5d3f 9f57 393e
00000100: c5d0 0ebe 8db4 273e 8db6 a13d 4fb3 203c
00000110: e102 08be 1a9c f13d 34c8 ffbd 6ffb 9d3d
00000120: b700 3dbd 1ac3 1d3e 43dd 3cbe d161 f03d
00000130: 9e97 b6bc c89e 213e fdc1 86bd 1b1c 29bd
00000140: 0ac8 debd e2a4 c3bd 31b8 223d 6033 1d3e
00000150: 2f70 c73d 5860 403c 9fcf cd3d 14d8 3abe
00000160: 1170 1dbe cdc9 823c befc a83d 78fe 6abc
00000170: fa67 e1bd fae8 063e 3575 b73c ec0e 09be
00000180: a066 32bf 94a6 f83e 8a30 563f d134 6b3f
00000190: a783 e03e eb73 6d3f 75ec ad3e 80c1 873f
000001a0: b1db 083e b614 053f 201f 693e 1a91 2b3f
000001b0: b35a 013f 6860 5d3f e91e e33e 8c09 283f
000001c0: 7b2f f53d 2fe2 4fbf 1f7d c6bd 631c 1c3f
000001d0: 32b6 bc3e aee2 1c3f 67d3 edbe f04f 503f
000001e0: c396 ed3e 9978 4dbf 08f1 463e a336 a43e
000001f0: 3134 7e3f 0e70 f63e d8f6 4c3e 9e99 10be
00000200: 2593 2bbf 47d0 073f 35af 853f e11d df3e
00000210: 6af8 043f b207 fc3e 70bd 9d3e 881f 593f
00000220: 4ac4 f1bd b9ac 063f 747e 493e 9911 0d3f
00000230: e794 5a3f deb1 513f 5613 183f e2da 353f
00000240: f632 cb3d dc16 7cbe 2966 923d fdf3 353f
00000250: 1e11 1c3f caa1 293f 27a7 0abf 9992 1b3f
00000260: ebd7 403f ac54 68bf 6c3d fa3e 31d2 2e3e
00000270: c865 583f 7703 fd3e 37bd 10bf 9d36 80be
00000280: 2fdc 4fbf f021 163f 22cd 673f 3bd2 143f
00000290: 443d 413f c39b 323f d632 9f3e 3fd6 933f
000002a0: 6261 98be 2cae 3f3f 914a 183e 46be 1e3f
000002b0: 72e1 153f fed8 4c3f 0022 4a3f ef0c 623f
000002c0: 2986 00be 6ed3 c6be 10ac 00bd 60c4 2d3f
000002d0: 2f24 2a3f 9dba 253f 09d5 12bf a677 523f
000002e0: 3c71 0f3f 2740 55bf 51d0 0b3f 6d5c e03e
000002f0: 279f 3d3f b4b2 a13e 5737 e3bc a80e eabd
00000300: 5a95 6cbf 2092 393f d7cf 683f ea68 c33e
00000310: 8c2a 103f 8bb3 263f e131 383f 9031 6d3f
00000320: 7e3c c0be b342 373f 9e97 13be 7df8 7c3e
00000330: 4f3d 303f dda1 643f 49cf 443f 451b 813f
00000340: a417 30be dc73 653e 4c17 1ebe 82be 383f
00000350: 7c87 573f 3c1c 7c3f 975a ddbe ce6c 243f
00000360: efec 4e3f acaf 13bf 1a95 563f 603d b43e
00000370: cc05 3c3f 3377 ba3d e4fd 8ebf 76c0 eb3b
00000380: d8b5 a33d 2fa6 02be 87c7 0fbe 15e6 793d
00000390: e060 03be 104d 383d db53 10be 5b6f 84bd
000003a0: aec1 0cbe c02d ee3b 3941 46bd 3107 71bd
000003b0: c3a6 3ebe 7d4f 6fbe 3cc8 093e c33f c9bc
000003c0: a457 ae3d 9b0d 8bbd a96c 213e 1aff 153d
000003d0: 0b31 043e 7d45 a4bd 08a6 ba3b bcb1 2b3c
000003e0: c474 2cbe 32f7 433c d056 983d b91f 74bd
000003f0: 1456 2dbe 7442 a2bd a521 f5bc 8c14 acbd
0.7065376 0.038276143 -0.3715509 -0.31759202 0.1194704 -0.11322155 -0.24047025 -0.47992504
0.5444101 0.22078864 0.1792344 -0.09105958 -0.2105034 -0.15370724 0.033771124 -0.39283046
-0.16812837 0.08940237 -0.025681233 -0.1923149 -0.33821532 -0.07162346 0.754076 0.028992038
0.051432084 0.71445775 0.013010837 0.021108884 -0.21642518 -0.075954996 0.6892454 0.28353953
1.0726855 0.08321769 0.08912636 0.3082001 0.38842642 0.19370286 -0.18529227 0.17759788
0.8781519 0.12547915 0.7877631 0.32790408 0.0843325 0.13498813 0.14909966 -0.049606115
0.15979727 -0.66160834 -0.1678303 0.26425165 -0.24742433 0.111733414 0.7502407 0.39635405
0.024591729 0.58530223 -0.40361863 -0.17087342 -0.072598726 0.7062701 0.8658399 0.18099831
-0.13946827 0.16377468 0.07896147 0.0098083755 -0.13282348 0.11797352 -0.124893576 0.07713973
-0.04614326 0.15406457 -0.1844378 0.11737407 -0.022289094 0.15783226 -0.06579969 -0.04128657
-0.10877998 -0.09552933 0.03972644 0.1535163 0.09738194 0.01174172 0.10049366 -0.1824649
-0.15374781 0.015965367 0.08251332 -0.014342897 -0.1100616 0.13174811 0.022394756 -0.13384598
-0.69687843 0.4856459 0.83667815 0.91877466 0.43850443 0.92755 0.33969465 1.0605927
0.13365056 0.5198473 0.2276578 0.6701828 0.5052902 0.8647523 0.4435952 0.6563957
0.11971947 -0.81204504 -0.09691834 0.60980815 0.36857754 0.61283386 -0.4645035 0.81371975
0.46404085 -0.8026214 0.19427884 0.32072935 0.9929839 0.48132366 0.20016038 -0.141211
-0.670214 0.5305218 1.0444094 0.43577483 0.5194155 0.4922462 0.30808592 0.8481374
-0.11805017 0.52607304 0.19677144 0.55104977 0.85383457 0.8191203 0.59404504 0.71037114
0.099218294 -0.24618095 0.07148392 0.7107542 0.6096362 0.66262496 -0.54161304 0.60770565
0.75329465 -0.907542 0.48874986 0.17072369 0.84530306 0.49416706 -0.5653872 -0.25041667
-0.8119535 0.58645535 0.9054738 0.58133286 0.7548411 0.69768924 0.31093472 1.1549758
-0.29761797 0.7487514 0.14872195 0.62009084 0.5854713 0.80018604 0.7895813 0.88300985
-0.12551178 -0.38833183 -0.03141409 0.6787777 0.6646146 0.64737874 -0.57356316 0.8221382
0.56032157 -0.83301014 0.5461474 0.43820515 0.7407097 0.31581652 -0.027736349 -0.11428577
-0.9241539 0.72488594 0.9094214 0.3816598 0.5631492 0.6511771 0.7195111 0.9265375
-0.37546152 0.7158615 -0.14413306 0.24704166 0.6884355 0.89309484 0.7687879 1.0086447
-0.17196518 0.22407478 -0.15438575 0.7216569 0.8419111 0.9848058 -0.43233177 0.6422852
0.8083028 -0.5768993 0.8382126 0.35203075 0.73446345 0.09104767 -1.1171231 0.007194574
0.07993668 -0.12758707 -0.14040957 0.06101044 -0.12829924 0.044995368 -0.14094488 -0.06466552
-0.13745758 0.0072686374 -0.048402045 -0.05884475 -0.18618302 -0.23370166 0.1345529 -0.024566537
0.0851281 -0.067897044 0.15764107 0.036620237 0.12909333 -0.08021066 0.005696062 0.010479387
-0.16841418 0.011960791 0.07438433 -0.059600566 -0.16927367 -0.07922831 -0.02992327 -0.084023565

linear3.bias f4 [32]
00000000: b80b 5d3e 6039 ec3e b84a b7bd 7229 5b3e
00000010: 1eff 123e 369b fe3d 7aed 263e 3239 7a3d
00000020: 4713 093e 0445 d53e 1171 153e 2d17 39bd
00000030: 0a66 46be d5c2 e5bc bab8 043c ca83 25be
00000040: ba76 673e 228c 373d bc0e 9e3e 70dc 8d3e
00000050: 45a8 a03d ea13 32be e9f6 513e ca6e 183d
00000060: bce5 533d 4e1f 33be 3ead 003e d64a 3b3e
00000070: e3e1 af3d b897 fe3d 0973 773e 1b96 083e
0.21586502 0.46137524 -0.08949798 0.21402529 0.14355132 0.12431948 0.16301528 0.061089702
0.1338626 0.41654217 0.14593913 -0.045188118 -0.19374862 -0.028047005 0.008100683 -0.16163555
0.22603884 0.044811375 0.30870616 0.27707243 0.07844595 -0.17390409 0.20504345 0.03721503
0.051732764 -0.1749241 0.12566087 0.18290266 0.08588006 0.12431282 0.24164976 0.1333851

linear4.weight f4 [16, 32]
00000000: 3865 ce3e 4681 7e3f 0daf c43d 6cd4 5d3e
00000010: dfdf f6bc d96b 0a3e 0a41 123d b5fa ab3c
00000020: 7e66 cbbd c44d ffbe 915d ce3e 55f6 b2bd
00000030: 1362 b83d 677e 99bd 9729 9dbf fb8e 283e
00000040: 05d3 a53d 8a2a b83d ad4e c43e ba30 2b3e
00000050: 1414 c03c 738e 293e 5de5 a23e 7412 af3e
00000060: 1851 ee3e 7b4f 12be d5be d73c 85b3 a03e
00000070: 3acf 18be cdb0 fd3e afe7 a63e 7e0d 543e
00000080: 7548 973f 23b0 8f3f 6f15 20bc a531 16bf
00000090: 3bea 63bf 7bee 88bf af16 13bf 60b1 1a3e
000000a0: 4413 58bf 1f48 e83e d761 1ebe f539 d93d
000000b0: 0941 97bd 67db 4fbf 1da2 0b3f b6e0 0a3c
000000c0: 1f6c 3fbf e66e 85bf 2f0f 8c3e 15be 07be
000000d0: b859 53bf b6b1 34be 5872 0dbf 3b54 16bf
000000e0: 66e8 483e 99ae 81bd fc4c 5ebf bf94 23bf
000000f0: d132 71bf 0e4e cdbe c573 743e 7c61 07be
00000100: 268a 4cbf c687 17bf 3635 213d 4e70 533f
00000110: a83a 4a3f fd0e 393f ef39 3c3f ec1c 1abe
00000120: a0e0 403f 8a0d 763e b9da 2a3f 959d 3a3d
00000130: bd72 5cbe c8b3 1d3f a071 8ebf 29ff 823d
00000140: 167c 413f 52f3 463f a94a ea3e 6e59 1c3f
00000150: bb56 4a3f cb6b 09be af17 473f 424d 5d3f
00000160: bb49 473f 2cc0 ba3d b6bb 743f a31d 513f
00000170: c82c 5e3f 7549 303f c6f7 243f 9cc8 283f
00000180: 6674 fb3b 642d 423f c108 d2bd 65a9 fd3e
00000190: 8cd2 463c 6683 e33d 567f 34be c587 113e
000001a0: f00b a83d b81d 9ebf 5d19 533f b056 eb3d
000001b0: 01fc 163d c4de 383e 476a 94bf ba67 9bbd
000001c0: c91d e53e 10f8 6d3e b171 503f 420d 583e
000001d0: 4928 31be 2268 12be 5d50 103f 9c78 503f
000001e0: c85b 683f aef4 b33d 9143 bc3e 105e 163f
000001f0: 225e d53d 0e71 643f 12c9 893f a4ad 2e3f
00000200: 959c 06bf 3726 9a3d 87a7 443b a2a7 283f
00000210: fb4d 953e 435f 4a3e 5e86 08be 0d27 1fbe
00000220: d144 b33e 0f9d a9bf 54fc 383f 57c4 c4bc
00000230: 55d5 643d 8c87 153e bb13 9ebf 575b 2e3d
00000240: 114e b83e 442d d03e 42ca 683f 33e0 073f
00000250: be7f 50bd 7c53 273e c486 433f 76f9 3c3f
00000260: c8b7 263f a0bf 5f3c 73a4 4e3f 7da4 483f
00000270: a315 eb3e 7cf8 4e3f 2001 833f 4dfb 2c3f
00000280: 8fe0 3fbf 4168 81bf 5e1e bebd f646 ee3d
00000290: e871 303f 1d5b 143f 0686 303f 14de 99bd
000002a0: 9070 c93e 1049 863f 5977 33be 0f36 d7bd
000002b0: 7680 1a3d 35f1 fe3e 5182 99bf 4452 ea3d
000002c0: 13d7 f83e a1c0 193f 4d30 81be b6cf 853e
000002d0: 5b87 3d3f 3dec 2d3d 78d0 b73e 19af f93c
000002e0: 4224 91be fcd0 173e b995 cf3e d6e5 c53c
000002f0: fee6 083f 6c9c 433e eb29 66be ecfd dcba
00000300: 4e4d 2ebe 30a4 603d 07a2 91bb a3a7 6cbd
00000310: 2191 1dbe a27f 23be c04e 7e3d 2bea d6bd
00000320: 4397 19bc 20aa fabd 0f4e 1dbe 3207 95bc
00000330: c5eb f1bc bfa3 0dbb 13a4 f13d 8afa 143e
00000340: 648c 31bd 5812 44bd a8a7 33be 27ed 22be
00000350: 0bc1 39be 59f1 30bd 9398 233e ccc2 e3bd
00000360: 5a14 783c 5165 a83d 785f 283e eb4f 5cbd
00000370: 3fb1 d13d 3e85 adbc b627 0cbd b5a7 b0bd
00000380: fb96 a6bf c371 91bf 6598 e9bd ed16 de3e
00000390: f4ac f13e f156 f23e 900f 183f 7fd0 893d
000003a0: 37f6 053f 8968 453f fe56 a83d cf4a 0ebd
000003b0: e0ba 693d b8c6 be3e a3db 83bf 160d 45bc
000003c0: 5b35 163f 842f 143f 7358 dbbd f395 2e3e
000003d0: 08c8 323f 6da3 94bd d0a7 d53e ecf4 ae3e
000003e0: da07 89bd 5930 20be da14 fb3e 3a53 c93e
000003f0: 266b 333f 1c42 ed3d b4a2 f9bc c6de 913e
0.403116 0.99416006 0.09603701 0.21663064 -0.030136047 0.13517703 0.035706557 0.02099357
-0.09931658 -0.49864018 0.4030576 -0.0873839 0.09003081 -0.074948125 -1.2278317 0.16460793
0.080968894 0.08992489 0.38341275 0.16717806 0.023447074 0.16558246 0.31815615 0.34193766
0.46546245 -0.14288132 0.026336113 0.31386963 -0.149228 0.4954895 0.32598636 0.20708272
1.1818987 1.1225628 -0.009770735 -0.586695 -0.8902928 -1.0697778 -0.5745649 0.15106726
-0.84404397 0.45367524 -0.1546701 0.106067576 -0.07385451 -0.81194156 0.5454424 0.008476427
-0.74774355 -1.0424469 0.27355334 -0.13256104 -0.82558775 -0.17645916 -0.552526 -0.58722275
0.19619903 -0.0633213 -0.8683622 -0.63898844 -0.94218165 -0.40098614 0.23872288 -0.13220781
-0.798983 -0.5919155 0.039357387 0.8259324 0.7899575 0.72288495 0.735259 -0.15050095
0.7534275 0.24028602 0.66739994 0.04556044 -0.21528144 0.6160245 -1.1128426 0.06396324
0.75579965 0.7771503 0.45760086 0.6107396 0.7903859 -0.13420026 0.77770513 0.8644601
0.7784688 0.09118685 0.95598924 0.8168585 0.8678708 0.68862087 0.6444057 0.65931106
0.007673788 0.7585051 -0.10255576 0.495433 0.012135159 0.11109047 -0.176267 0.14211948
0.08205402 -1.235282 0.82460576 0.11491144 0.036861423 0.18053728 -1.1594933 -0.07588144
0.44749287 0.2323916 0.8142348 0.21098807 -0.17300524 -0.14297536 0.56372625 0.81434035
0.9076505 0.08786903 0.367703 0.5873728 0.10418345 0.8923501 1.0764487 0.68233705
-0.52582675 0.0752682 0.003000708 0.6588079 0.29161057 0.19762902 -0.13332507 -0.1554224
0.3501344 -1.3251055 0.7226002 -0.024019403 0.05586751 0.14602488 -1.2349771 0.042567577
0.3599706 0.40659535 0.9093362 0.53076476 -0.050903074 0.1634044 0.7637751 0.7381815
0.6512418 0.013656527 0.8071968 0.7837599 0.45914945 0.8084791 1.0234718 0.67570955
-0.74952024 -1.0109941 -0.09283136 0.116346285 0.6892381 0.5795153 0.68954504 -0.07513061
0.3934369 1.0491047 -0.17525996 -0.10508358 0.037720166 0.497934 -1.1992894 0.11441472
0.4860159 0.60059553 -0.25232163 0.26135033 0.7403466 0.042461623 0.35901237 0.030479
-0.28347975 0.14825815 0.40543917 0.024157446 0.53477466 0.19102639 -0.22476928 -0.0016860343
-0.17021677 0.05484408 -0.004444364 -0.05777706 -0.15387394 -0.15966657 0.06208682 -0.10493883
-0.0093744425 -0.1223948 -0.15361808 -0.018191908 -0.029531369 -0.0021612493 0.11798873 0.14548698
-0.043346778 -0.047869056 -0.17544425 -0.15910779 -0.18140046 -0.043198917 0.15976171 -0.11121139
0.015141571 0.082224496 0.16442668 -0.053787153 0.10238885 -0.021181699 -0.03421756 -0.086257376
-1.3014826 -1.1362842 -0.1140602 0.43376866 0.47202265 0.47331956 0.59398746 0.067292206
0.5232882 0.77112633 0.082197174 -0.03473931 0.057062984 0.37260985 -1.0301403 -0.012027046
0.58675164 0.57885003 -0.1071023 0.17049389 0.69836473 -0.072577335 0.41729593 0.34171236
-0.06690951 -0.15643443 0.49039346 0.3932131 0.7008537 0.11584875 -0.03047309 0.28490275

linear4.bias f4 [16]
00000000: fd20 793e f1a3 4c3f 68e4 ab3d 52cd 8b3e
00000010: c126 2ebe ba90 45be 7ee4 de3d 096e 0bbe
00000020: 174f 243e 1cc9 fa3c d6f5 86bc 3729 9b3d
00000030: 45f2 d83e 1a23 353e 98d8 d53d 7378 2dbd
0.2432899 0.79937655 0.083931744 0.27305084 -0.17006971 -0.1929349 0.10883425 -0.13616194
0.16045795 0.030613475 -0.016474646 0.075762205 0.42372337 0.17689171 0.104417026 -0.042351197

output_layer.weight f4 [2, 16]
00000000: 107b 1d3f af4e 433d 37f8 003f a622 ad3f
00000010: 018c 813f 0f2a 3dbf 5497 1c3e 3ec9 d3bd
00000020: 93c8 5d3f ac98 2b3f 6294 093f d4f9 103f
00000030: 6982 7f3f 9d9a 80bf 9419 183f ecbc 5d3f
00000040: 9d5e 6abf d328 ec3f 2111 483f 0afb 4cbe
00000050: a8db 9a3e b7fa 963f 3910 4cbe 2558 973f
00000060: 1e49 0c3f 057d 7fbf b350 323f fe23 433f
00000070: bdaa a1bf af01 86bf 0f5d 283f d9ca 0d3f
0.61515903 0.04768246 0.50378746 1.3526199 1.0120851 -0.738923 0.15292102 -0.10341118
0.86634177 0.67029834 0.5374204 0.5663121 0.99808365 -1.0047184 0.5941403 0.86616397
-0.9155062 1.8449959 0.78151137 -0.20017639 0.3024571 1.1795262 -0.19928063 1.1823775
0.5479907 -0.9980014 0.6965439 0.76226795 -1.263023 -1.0469264 0.65766996 0.55387646

output_layer.bias f4 [2]
00000000: 3e32 0c3f 5d4a c83c
0.54764163 0.024449522
