results/models/batchsize=128,lr=1e-4,width=128,num_episodes_train=5000/2/model-8.0.pt (torch, 72284 bytes, 6 tensors)

linear1.weight f4 [128, 4]
0	0x3e837086	0.25671786
1	0x3ce21840	0.027599454
2	0x3e7bc274	0.24585897
3	0xbe53ca3c	-0.20682615
4	0x3ee2986a	0.44256908
5	0xbecd900e	-0.40148968
6	0x3eac2116	0.33618993
7	0xbee56ff2	-0.4481197
8	0x3e9223da	0.28542978
9	0x3e9fcf82	0.31213003
10	0x3e535aac	0.20640057
11	0xbe29ced8	-0.16582811
12	0xbd81c030	-0.06335485
13	0xbea1183c	-0.31463802
14	0xbdaa49a8	-0.0831483
15	0xbef21ed4	-0.47289145
16	0xbeaae59a	-0.33378297
17	0xbeb2cade	-0.349204
18	0xbeb63382	-0.35586172
19	0x3ee4c7aa	0.44683582
20	0xbe274948	-0.16336548
21	0xbee40c50	-0.44540644
22	0x3e1c7678	0.15279567
23	0x3e3ad104	0.18243796
24	0x3e27b024	0.16375786
25	0x3e12a7cc	0.14321822
26	0x3d8cc218	0.06872958
27	0x3e03b2f0	0.12861228
28	0x3ea23824	0.31683457
29	0xbd617670	-0.05504459
30	0x3edeb12e	0.43494552
31	0x3ee77e92	0.45213753
32	0x3e2f8740	0.17141438
33	0xbdf91d70	-0.12163818
34	0x3e8598b2	0.2609306
35	0xbe865ddc	-0.26243484
36	0xbd1c9240	-0.038225412
37	0x3daf78e0	0.08567977
38	0xbecf001a	-0.40429765
39	0xbd5bd330	-0.0536682
40	0x3de54050	0.11193907
41	0xbc971600	-0.018443108
42	0xbd097da0	-0.03356707
43	0x3ea7d648	0.3278067
44	0xbe8995b4	-0.26872027
45	0xbed0e6b2	-0.40801007
46	0x3ee00394	0.4375273
47	0xbedc1c88	-0.42990518
48	0xbe94a13c	-0.29029262
49	0x3eb9de58	0.36302447
50	0x3e03f27c	0.12885469
51	0x3e4d9924	0.2007795
52	0x3df9ddd0	0.122005105
53	0x3eccffc8	0.40038896
54	0x3d9f8b00	0.07790184
55	0x3ef54194	0.47901595
56	0xbea111fc	-0.31459033
57	0x3e92ba34	0.28657687
58	0xbec59848	-0.38592744
59	0xbec656f8	-0.38738227
60	0xbefa5964	-0.48896325
61	0x3ee9f1ac	0.45692194
62	0x3e15d294	0.1463111
63	0xbe77ab00	-0.24186325
64	0xbe5373dc	-0.20649666
65	0xbe7b31d8	-0.24530733
66	0xbed486f6	-0.41509217
67	0xbd9f85c0	-0.07789183
68	0xbe8afafa	-0.27144605
69	0x3e7257fc	0.23666376
70	0x3e91e6e6	0.28496474
71	0xbeef625a	-0.46754724
72	0xbe1a5440	-0.15071201
73	0xbe934648	-0.28764558
74	0x3eaaacc2	0.3333493
75	0xbe98884c	-0.29791486
76	0xbe646448	-0.2230388
77	0x3ec8c2b4	0.39211047
78	0x3ea57f76	0.32323807
79	0x3d082580	0.033238888
80	0x3d488fa0	0.048965096
81	0x3ee8fb68	0.45504308
82	0xbe7da1d4	-0.24768764
83	0xbedd5762	-0.4323073
84	0xbeb1abdc	-0.3470143
85	0xbe841c5e	-0.25802892
86	0x3d2d5f40	0.042327166
87	0x3ec633e0	0.38711452
88	0x3dc99518	0.098428905
89	0xbea73156	-0.32654828
90	0x3e0094a8	0.12556708
91	0x3eaa0016	0.3320319
92	0x3e99a484	0.30008328
93	0x3e9c9456	0.3058192
94	0xbe9c97bc	-0.30584514
95	0x3ee9ec62	0.45688158
96	0x3d11fd40	0.03564191
97	0x3efcd948	0.49384522
98	0xbebef19a	-0.37293702
99	0xbee205b4	-0.44144976
100	0x3e97230e	0.29518932
101	0x3ecd44e8	0.40091634
102	0x3e69675c	0.22793335
103	0x3e862a8e	0.26204342
104	0xbe83d06a	-0.25744945
105	0x3defb010	0.11703503
106	0x3c030b00	0.007998228
107	0x3e83bde2	0.25730807
108	0x3ec50976	0.3848378
109	0x3e51f578	0.20503795
110	0xbe553904	-0.20822531
111	0xbe82e6ac	-0.25566614
112	0x3eed18b4	0.4630791
113	0x3cfc4960	0.030796707
114	0x3d294790	0.041328013
115	0xbeb531da	-0.35389596
116	0xbeb6f89a	-0.35736543
117	0xbee10b98	-0.43954158
118	0xbef9fc50	-0.48825312
119	0x3e9c183e	0.30487245
120	0x3ef2ed62	0.47446734
121	0xbef141d6	-0.4712054
122	0xbec0a6ac	-0.3762716
123	0xbef4613c	-0.47730434
124	0x3e347c68	0.17625582
125	0xbe367314	-0.17817336
126	0xbe0836cc	-0.13302153
127	0x3e82d49c	0.25552833
128	0xbeae8224	-0.34083664
129	0xbea8e722	-0.3298884
130	0x3d390e40	0.045179605
131	0x3e1c10bc	0.15240759
132	0xbe519384	-0.20466429
133	0xbe9ee180	-0.31031418
134	0xbea4da38	-0.32197738
135	0xbefcc172	-0.49366337
136	0xbeac86ea	-0.3369668
137	0xbdaed9f0	-0.08537662
138	0x3ef75036	0.48303384
139	0x3e24e424	0.16102654
140	0xbeeb87a4	-0.46001923
141	0x3ea876cc	0.32903135
142	0x3da1f868	0.07908708
143	0x3e15ed38	0.14641273
144	0x3de06fa8	0.10958797
145	0xbea19da2	-0.31565577
146	0x3e0fdc58	0.14048898
147	0xbe46b420	-0.1940465
148	0xbd0f6350	-0.03500682
149	0xbef9a010	-0.4875493
150	0xbeea934a	-0.45815498
151	0x3e71a318	0.23597372
152	0x3ba6c500	0.005089402
153	0x3e982120	0.29712772
154	0x3e104fcc	0.1409294
155	0x3e684cac	0.22685498
156	0xbebde82a	-0.3709119
157	0xbe9d98ae	-0.30780548
158	0x3ef01dde	0.46897787
159	0xbed81c8a	-0.42209274
160	0xbd46a9a0	-0.04850161
161	0x3e8be8a0	0.27325916
162	0xbec5e538	-0.38651443
163	0x3e949d22	0.29026133
164	0xbe6512ec	-0.223705
165	0xbe71122c	-0.23542088
166	0x3e193e30	0.14965129
167	0xbeb607f6	-0.3555295
168	0x3e801286	0.25014132
169	0x3eefd142	0.4683934
170	0xbce120a0	-0.027481377
171	0xbdcd0b78	-0.10011953
172	0xbc4fc000	-0.012680054
173	0xbdf9a688	-0.121899664
174	0xbdead7e8	-0.11466962
175	0xbe358574	-0.1772669
176	0xbde7f6d8	-0.113263786
177	0x3e131384	0.14362913
178	0x3d8584a0	0.06519437
179	0x3e82cd62	0.2554732
180	0x3e8a2b3a	0.26986104
181	0xbeb12d60	-0.3460493
182	0x3e713274	0.23554403
183	0xbe410664	-0.18850094
184	0x3e51d324	0.204907
185	0x3eefe604	0.46855175
186	0x3de94260	0.11389613
187	0xbdc360e0	-0.09539962
188	0x3e9142aa	0.28371173
189	0x3ed48d4c	0.4151405
190	0x3eb1c6b2	0.34721905
191	0xbee9acb0	-0.45639563
192	0x3e0395b8	0.12850082
193	0xbea26b50	-0.31722498
194	0xbe874f78	-0.26427817
195	0x3e4529e8	0.19254267
196	0x3e2dfdb8	0.16991317
197	0x3ede4d7c	0.4341849
198	0xbe2c709c	-0.16839832
199	0xbc887cc0	-0.016661048
200	0x3db5cee0	0.08877349
201	0xbefa98e8	-0.48944783
202	0xbef7ca40	-0.48396492
203	0x3ef613c6	0.4806196
204	0xbee49da0	-0.44651508
205	0xbde51670	-0.1118592
206	0xbefad728	-0.48992276
207	0x3c461640	0.012090266
208	0xbefc852a	-0.49320346
209	0x3e95061a	0.29106218
210	0xbedb3aa4	-0.42818177
211	0xbe889b50	-0.26680994
212	0x3dd6b8b8	0.10484451
213	0x3e29300c	0.16522235
214	0x3d5945d0	0.053045094
215	0xbebc7f66	-0.36815947
216	0x3eb95324	0.36196244
217	0xbe953226	-0.29139823
218	0xbee31c96	-0.44357747
219	0x3ea30c04	0.31845105
220	0xbe772158	-0.24133813
221	0xbe20ecc8	-0.15715325
222	0xbeceee42	-0.4041615
223	0x3eb24614	0.3481909
224	0xbef1df58	-0.4724071
225	0x3eb1a53e	0.34696382
226	0x3ca9a840	0.02071011
227	0x3da04b68	0.078268826
228	0xbd6a1870	-0.05715221
229	0x3e09cbd4	0.1345666
230	0x3e527970	0.20554137
231	0x3ea35c56	0.31906384
232	0x3e50a9bc	0.20377249
233	0xbe220190	-0.15820909
234	0x3e90223c	0.2815112
235	0x3ed6cf3c	0.41954982
236	0xbdb29160	-0.08719134
237	0xbe98190a	-0.29706603
238	0xbebb57ca	-0.36590415
239	0xbeb6a4ea	-0.35672694
240	0xbefe86c6	-0.497122
241	0xbdef6da8	-0.11690837
242	0x3eaab4b2	0.33340985
243	0x3d89d080	0.06729221
244	0xbd5d5250	-0.054033577
245	0xbaa2dc00	-0.0012425184
246	0x3e857cec	0.2607187
247	0xbec3f8e4	-0.38275826
248	0x3eb92d4a	0.36167365
249	0xbe7e3634	-0.24825364
250	0x3e7a72fc	0.24457926
251	0x3cc40c20	0.023931563
252	0x3e743580	0.23848534
253	0xbe127aac	-0.14304608
254	0xbd8a5d00	-0.067560196
255	0x3e787250	0.24262357

linear1.bias f4 [128]
0	0x3e8d290a	0.27570373
1	0xbec6c008	-0.38818383
2	0x3eeaba42	0.45845228
3	0xbe0de8a8	-0.13858283
4	0x3eb32f2e	0.34996933
5	0xbe50eed4	-0.20403606
6	0xbe65edcc	-0.22453994
7	0x3e84137c	0.25796115
8	0x3eefbeba	0.468252
9	0xbe911988	-0.2833979
10	0x3ef77cca	0.48337394
11	0x3d8c2868	0.068436444
12	0x3d526e10	0.051374495
13	0xbec3ae54	-0.3821894
14	0xbeed5946	-0.46357173
15	0xbe03c9e4	-0.12869984
16	0x3e88687e	0.2664222
17	0xbe924e6a	-0.2857545
18	0x3ef13dd8	0.47117496
19	0x3dd31bf0	0.10308063
20	0xbe8228f2	-0.25421864
21	0x3ed0d6b0	0.40788794
22	0xbe2a4ca0	-0.16630793
23	0x3eaa6fc4	0.33288395
24	0xbe2f00ac	-0.170901
25	0x3cff5480	0.031168222
26	0xbe209a7c	-0.15683931
27	0x3ef8fe1a	0.48631364
28	0xbe547804	-0.20748907
29	0xbe9f6d60	-0.31138134
30	0x3cb5f8a0	0.02221328
31	0x3e346260	0.17615652
32	0x3e92cc3e	0.2867145
33	0xbed6be06	-0.4194185
34	0xbe6079b4	-0.21921426
35	0xbe8a5f1a	-0.27025682
36	0xbe0ae0a4	-0.13562256
37	0x3ecf6f48	0.40514588
38	0x3e8fc5e4	0.28080666
39	0xbd66f960	-0.056390166
40	0x3d4e7b00	0.05041027
41	0x3daabf90	0.08337319
42	0x3ed19298	0.40932155
43	0x3dbd7e40	0.09252596
44	0x3e5080cc	0.20361632
45	0x3e39af7c	0.18133348
46	0x3ef7b78c	0.48382223
47	0x3e941cb2	0.28928143
48	0xbecc533e	-0.3990726
49	0x3eb34cd4	0.35019553
50	0xbe8319ac	-0.25605524
51	0x3ed07514	0.40714324
52	0x3e5ac928	0.21365798
53	0xbe3804c0	-0.17970562
54	0xbeaf1006	-0.34191912
55	0x3e8df7b0	0.27728033
56	0x3e7b57f0	0.24545264
57	0xbdcc3fc8	-0.09973103
58	0xbe51ccfc	-0.20488352
59	0xbed6f46a	-0.41983348
60	0x3e8753d6	0.2643115
61	0x3e0d3c60	0.13792562
62	0xbe83616e	-0.2566027
63	0x3ec38528	0.38187528
64	0x3e6ab884	0.2292195
65	0x3e1b4ed4	0.1516679
66	0x3eabb226	0.33534354
67	0xbee10216	-0.43946904
68	0x3eb8ad8e	0.36069912
69	0x3e99a57c	0.30009067
70	0xbeb0eaec	-0.3455423
71	0xbcf5bf20	-0.029998362
72	0xbeead3c4	-0.4586469
73	0xbdbf1650	-0.09330428
74	0x3ece8c78	0.40341544
75	0x3e2f9a48	0.17148697
76	0xbe936ad4	-0.2879244
77	0xbdeb61f8	-0.114932954
78	0xbe05679c	-0.13027805
79	0xbdc04560	-0.09388232
80	0xbebe1142	-0.37122542
81	0x3ece58b4	0.4030205
82	0x3e0446bc	0.12917608
83	0xbdc67900	-0.09691048
84	0x3dbe5840	0.09294176
85	0x3dc0ae38	0.094082296
86	0x3e920d22	0.28525645
87	0x3dcd9400	0.100379944
88	0x3edcd790	0.4313321
89	0xbedb499e	-0.42829603
90	0x3e97a008	0.29614282
91	0xbeee758c	-0.46574056
92	0xbe7eedc0	-0.24895382
93	0xbe0f15c0	-0.1397314
94	0xbefb8280	-0.49123
95	0xbe4cfafc	-0.20017618
96	0xbeaa4298	-0.33253932
97	0x3ebec37c	0.37258518
98	0x3ea15b40	0.3151493
99	0x3e997ed4	0.29979575
100	0xbbc6a500	-0.00606215
101	0x3dfa5410	0.12223065
102	0x3eae6e92	0.34068733
103	0x3ea793ae	0.32729858
104	0x3e8a7252	0.27040344
105	0xbeaeffb2	-0.34179455
106	0xbdb50b38	-0.088400304
107	0xbebb9714	-0.366387
108	0x3e822b30	0.25423574
109	0xbe554cc4	-0.20830065
110	0xbbe04380	-0.006843984
111	0x3e971520	0.29508305
112	0xbddcda80	-0.10783863
113	0xbe6408dc	-0.22269005
114	0xbecee5a0	-0.40409565
115	0xbea56ca6	-0.32309455
116	0x3e4fb7ac	0.20284909
117	0x3e06ac74	0.13151723
118	0x3e7160bc	0.23572057
119	0x3e588570	0.21144652
120	0x3e579318	0.21052206
121	0x3e9a72a0	0.30165577
122	0xbd589db0	-0.052884758
123	0x3eca97b8	0.39568877
124	0xbec98c02	-0.3936463
125	0xbeea4ff0	-0.45764112
126	0x3ef889a8	0.48542523
127	0x3d46d380	0.048541546

linear2.weight f4 [128, 128]
0	0xbd8e00e2	-0.06933762
1	0x3cb52fe8	0.02211757
2	0x3d9ec239	0.07751889
3	0x3c983349	0.018579142
4	0x3d2ff007	0.042953517
5	0x3cce1077	0.025154335
6	0x3d47152a	0.048604168
7	0x3d5c63eb	0.053806227
8	0xbd8dd475	-0.069252886
9	0xbd8c113f	-0.06839227
10	0x3d4b7103	0.049668323
11	0x3d41b0c5	0.04728772
12	0xbcfc0ae0	-0.030766904
13	0xbd70022d	-0.058595825
14	0xbc3b80d7	-0.011444292
15	0x3dab5ab3	0.08366909
16	0x3d3b3bcf	0.045711335
17	0x3c6d2222	0.01447347
18	0xbc02e3c2	-0.007988872
19	0x3c0a2964	0.00843272
20	0x3d089eac	0.033354446
21	0x39a5c722	0.00031619618
22	0x3d9d0a60	0.076679945
23	0xbd003c0d	-0.03130727
24	0xbda25299	-0.079259105
25	0xbd950005	-0.07275394
26	0x3d3c8198	0.046022028
27	0x3cd1996d	0.025585854
28	0xbd94673f	-0.07246255
29	0xbcc67901	-0.024227621
30	0xbc4c2c73	-0.012461769
31	0xbc0a4c9d	-0.008441118
32	0x3c4352ca	0.011921594
33	0xbd06a33f	-0.032870527
34	0x3d9a969b	0.07548257
35	0xbd9d2bdf	-0.07674383
36	0xbc9427a9	-0.018085318
37	0x3d8b6b35	0.068075575
38	0xbd040124	-0.03222765
39	0x3c9ce6b7	0.019152982
40	0x3dad6c7c	0.084679574
41	0x3d105c24	0.035244122
42	0x3daeb66d	0.08530889
43	0x3c8f42fa	0.017487992
44	0xbcc7ce45	-0.02439035
45	0x3d9e1719	0.07719249
46	0x3d84019f	0.06445622
47	0x3d5f45e2	0.054510005
48	0xbc7f6673	-0.015588391
49	0xbbc6ab8a	-0.0060629295
50	0xbdb19058	-0.086701095
51	0x3d25f395	0.0405155
52	0xbc98ccb4	-0.018652298
53	0xbd961575	-0.07328311
54	0x3d8d9588	0.069132864
55	0x3c83309c	0.01601439
56	0xbcb60a34	-0.022221662
57	0x3d9dcfa8	0.07705623
58	0x3d8a0f25	0.0674117
59	0xbd299f10	-0.04141146
60	0xbd0a5ea5	-0.033781666
61	0x3d526dd6	0.05137428
62	0xbd62f310	-0.055407584
63	0x3d34ec58	0.044170707
64	0xbd3190a3	-0.043350827
65	0x3d0be2c2	0.0341518
66	0xba0df457	-0.00054151326
67	0x3cd82a0b	0.026387235
68	0xbdb1491b	-0.08656522
69	0x3cc26a7c	0.023732416
70	0xbce6839e	-0.028138932
71	0xbd1a9c4a	-0.037746705
72	0x3d4d3e4f	0.05010825
73	0xbd6f9dde	-0.058500163
74	0xbd496100	-0.049164772
75	0x3d408930	0.047005832
76	0xbd1d1053	-0.038345646
77	0x3dad7a60	0.08470607
78	0xbd8f9630	-0.07011068
79	0xbd8b2613	-0.067943715
80	0x3d8e513c	0.06949088
81	0xba449908	-0.000749961
82	0x3d155dd1	0.036466423
83	0xbcd9b8ad	-0.026577318
84	0xbcb11383	-0.02161575
85	0x3d970381	0.07373715
86	0xbd722a6a	-0.05912248
87	0xbdb245fb	-0.08704754
88	0xbd5d780b	-0.05406956
89	0x3d3a68f2	0.04551024
90	0x3d1d1a74	0.038355306
91	0x3d09d594	0.03365095
92	0x3c37916f	0.011204108
93	0xbd2d9223	-0.042375695
94	0xbcd63f3f	-0.026153205
95	0x3c26c425	0.0101786
96	0x3d0c986e	0.034325056
97	0xbd58d894	-0.05294092
98	0xbdaaff06	-0.08349423
99	0xbd49a915	-0.049233515
100	0xbd19b46d	-0.037525583
101	0xbba80df8	-0.0051286183
102	0x3b0575cf	0.002036441
103	0xbb89fab9	-0.0042107967
104	0xbb67f8f3	-0.0035396188
105	0xbcc0b4fc	-0.0235238
106	0xbd91fb29	-0.07127983
107	0x3cc59bae	0.024122085
108	0x3daab75c	0.08335754
109	0x3c109a47	0.008825845
110	0xbd411129	-0.047135506
111	0xbd93a00d	-0.07208262
112	0x3cb1334f	0.021630911
113	0xbd88372d	-0.06651149
114	0xbc75f0c9	-0.015011021
115	0x3d9747fc	0.07386777
116	0xbda9c34f	-0.08289205
117	0xbdb43093	-0.08798327
118	0x3da4361c	0.08018133
119	0xbda1a13a	-0.0789208
120	0xbc01dd99	-0.007926368
121	0x3b4b387f	0.0031009016
122	0x3d954fb2	0.07290591
123	0x3da92a69	0.08260042
124	0x3d23944d	0.039936353
125	0x3ce1d04c	0.027565144
126	0xbc34ac62	-0.011027427
127	0xbd1c7e4e	-0.03820639
128	0x3a87550d	0.001032503
129	0x3c5afb61	0.013365597
130	0x3d77c41e	0.060489766
131	0x3d2e6787	0.0425792
132	0x3c8eb8f5	0.017422179
133	0xbc80954d	-0.015696192
134	0xbc1234c1	-0.00892371
135	0xbc77756e	-0.015103681
136	0xbd11bcd5	-0.035580475
137	0x3d982333	0.07428589
138	0x3cef6081	0.029220821
139	0x3d95ce35	0.073147215
140	0xbd5f2947	-0.054482725
141	0x3cde38d1	0.027126702
142	0xbd148a6f	-0.036264833
143	0xbaa6241e	-0.0012675559
144	0xbc2616fe	-0.010137318
145	0x39d8ba6d	0.00041337628
146	0x3d84221d	0.06451819
147	0x3d06a94a	0.03287629
148	0xbcc77269	-0.024346547
149	0xbd2f5e68	-0.042814642
150	0x3da05c33	0.078300856
151	0x3caffe5e	0.021483596
152	0xbd444c85	-0.047924537
153	0xbdaa9f61	-0.0833118
154	0x3da18f29	0.07888634
155	0x3d78b94c	0.060723588
156	0xbda817a7	-0.08207636
157	0xbd8e3c04	-0.06945041
158	0x3d9d892b	0.07692178
159	0x3d37cfca	0.044875897
160	0xbcf3e3f0	-0.029771775
161	0xbbe47dd1	-0.0069730063
162	0x3d1066d6	0.035254322
163	0x3d5ec59c	0.054387674
164	0x3a650ef3	0.00087378843
165	0x3da9c35b	0.08289214
166	0xbd78631e	-0.0606414
167	0x3d2054c6	0.039143346
168	0x3db1a94e	0.086748704
169	0x3d04ed07	0.03245261
170	0x3d8cac8a	0.06868847
171	0x3d018d1f	0.031628724
172	0xbd4a8386	-0.049441837
173	0x3d95fca6	0.073235795
174	0x3d6e2c50	0.05814773
175	0x3d20b31b	0.03923331
176	0x3ceafcfa	0.028685082
177	0x3bf05792	0.007334658
178	0xbbb8ec9f	-0.005643442
179	0x3d7375ce	0.05943852
180	0xbd66a417	-0.056308832
181	0x3c872d63	0.016501134
182	0x3d85768b	0.06516751
183	0xbd06309b	-0.032761198
184	0x3acf69b5	0.001582435
185	0x3d8c3774	0.06846514
186	0xbd2c56f4	-0.042075112
187	0xbd6b1acc	-0.057398602
188	0xbb90fda0	-0.0044247657
189	0x3db2c6b9	0.087293096
190	0xbd2cd2a5	-0.042193074
191	0x3bc89dc9	0.006122325
192	0x3d571577	0.052510705
193	0x3d4869b1	0.04892892
194	0x3d2a0907	0.041512515
195	0xbb37b2d8	-0.0028030183
196	0x3c77ed3e	0.015132247
197	0xbc0f2f66	-0.008739328
198	0x3d5a5e89	0.053312812
199	0xbd85cf27	-0.06533652
200	0x3d24cae5	0.040232558
201	0x3d32fe60	0.043699622
202	0x3d5072e8	0.050890833
203	0xbd84cc90	-0.0648433
204	0xbd1c1599	-0.038106535
205	0x3d950679	0.07276625
206	0x3d399a92	0.045313425
207	0x3d845e71	0.06463326
208	0xbd998855	-0.074967064
209	0x3d58e9d9	0.05295739
210	0xbd9865db	-0.074413024
211	0x3d361b38	0.04445955
212	0x3cf1b61e	0.029505786
213	0xbc7ff922	-0.015623363
214	0x3cb1d7ee	0.021709409
215	0x3ceacdff	0.02866268
216	0xbd6144d5	-0.054997284
217	0x3da4d9e9	0.080493756
218	0xbc6ecb1b	-0.014574791
219	0x3db4ed0d	0.08834276
220	0x3d11ac53	0.03556473
221	0x3b070d75	0.0020607386
222	0xbd608f6a	-0.05482427
223	0x3d2315e2	0.03981579
224	0xbd345a9a	-0.044031717
225	0xbd9dc251	-0.077030785
226	0xbcc8e49b	-0.02452307
227	0xbc0b0c1c	-0.008486774
228	0xbd42785f	-0.047478076
229	0xbc8872d5	-0.016656319
230	0x3cb5a23c	0.022172086
231	0x3c0bb31e	0.008526592
232	0x3d66eaa0	0.0563761
233	0xbdaabc4d	-0.08336697
234	0x3ce91600	0.028452873
235	0x3c79b487	0.015240795
236	0x3d8eaeec	0.069669574
237	0x3c8dafed	0.017295802
238	0x3d7bae4f	0.06144553
239	0xbd09c326	-0.033633374
240	0xbb9e7728	-0.004835982
241	0x3c2aa50e	0.010415329
242	0xbd4a54e3	-0.04939736
243	0x3cf04902	0.029331688
244	0x3d0bc6a7	0.034124997
245	0x3d9afe78	0.07568067
246	0xbd394360	-0.04523027
247	0x3d0e5e15	0.034757692
248	0xbd4d172d	-0.05007093
249	0x3d09a02b	0.033600014
250	0xbc43dc3c	-0.011954363
251	0x3d5bd211	0.05366713
252	0xbd7a9911	-0.06118113
253	0x3d3801c3	0.044923555
254	0xbd67860e	-0.05652433
255	0xbc18037d	-0.009278175

linear2.bias f4 [128]
0	0x3d926703	0.07148554
1	0x3d3142bb	0.04327653
2	0xbd24e72e	-0.040259533
3	0xbd11672f	-0.035498794
4	0xbd5009ef	-0.050790723
5	0xbd59016a	-0.052979864
6	0x3c4b7fc8	0.012420602
7	0x3d6ff9ef	0.058587965
8	0x3dad24c4	0.08454278
9	0x3cdce7bf	0.026965974
10	0x3d330c24	0.04371275
11	0xbd445eaf	-0.04794186
12	0x3d5ce81a	0.053932287
13	0xbc81ccce	-0.015844729
14	0x3ccc0c14	0.024908103
15	0x3d964fe5	0.073394574
16	0xbd370458	-0.044681877
17	0x3cae5117	0.021278901
18	0x3d75a559	0.05997214
19	0x3d0b0991	0.03394467
20	0xbd9df9b6	-0.07713644
21	0x3c2997a6	0.010351097
22	0x3d8fc09c	0.07019159
23	0xbb3f2808	-0.0029168148
24	0xbdafcefa	-0.085843995
25	0x3c41a177	0.011818281
26	0xbcd48b3f	-0.025945304
27	0x3d176664	0.03696288
28	0xbcf792dd	-0.030221397
29	0x3d259902	0.040429123
30	0x3da25d36	0.07927935
31	0x3d634182	0.055482395
32	0x3d2f4b4e	0.042796426
33	0x3c6ed353	0.014576751
34	0xbc438cdc	-0.011935439
35	0x3d908c02	0.07057954
36	0xbd9c99a6	-0.076464936
37	0x3d9d01bd	0.07666347
38	0xbbc74b9c	-0.0060820114
39	0x3d27db44	0.040980592
40	0x3cd14f6d	0.025550568
41	0x3ca8ba80	0.020596743
42	0x3d82a6c6	0.06379466
43	0xbd1ba081	-0.037994865
44	0x3da11fe4	0.07867411
45	0xbd05cc73	-0.03266568
46	0xbd184181	-0.037171844
47	0x3d0abb4d	0.03387003
48	0xbc8966a7	-0.016772581
49	0x3d0ca619	0.03433809
50	0x3a333e48	0.0006837589
51	0x3d936ac9	0.07198102
52	0xbc5d934f	-0.013523891
53	0xbd7de747	-0.06198814
54	0x3d92a912	0.07161154
55	0x3d836326	0.064153954
56	0xbd22ca93	-0.03974397
57	0xbd4d6511	-0.050145213
58	0xbd8de45d	-0.069283225
59	0xbd92bc42	-0.071648136
60	0x3d92677b	0.071486436
61	0xbda149a6	-0.078753754
62	0x3cfb5df7	0.030684454
63	0xbdb10beb	-0.08644851
64	0xbbfa285d	-0.007634206
65	0xbda79950	-0.08183539
66	0xbd5112b6	-0.051043235
67	0xbdb0678c	-0.086135
68	0x3db22167	0.08697777
69	0x3d96e163	0.07367208
70	0xbd680281	-0.056643013
71	0xbda5f421	-0.081032045
72	0xbd1e47e1	-0.038642768
73	0x3d3b1c6b	0.0456814
74	0xbda3a9f9	-0.07991404
75	0xbb5e92d7	-0.0033962035
76	0x3ae6bd3a	0.0017604001
77	0xbc9391d2	-0.018013868
78	0x3d953885	0.07286171
79	0x3d16e758	0.03684172
80	0x3d4e2372	0.050326772
81	0xbd22d9b3	-0.039758395
82	0xbd5eba65	-0.05437698
83	0xbda939fd	-0.082630135
84	0x3d97450a	0.07386215
85	0x3d587d65	0.05285396
86	0x3c6efed0	0.014587119
87	0x3d8a8807	0.067642264
88	0xbd1e67f4	-0.038673356
89	0x3c1ac244	0.009445731
90	0x3daeade0	0.08529258
91	0x3d889eb0	0.06670892
92	0xbd9ce798	-0.076613605
93	0x3d032522	0.032017834
94	0x3d4a1ff1	0.049346868
95	0x3d9bfd4d	0.07616673
96	0x3d897976	0.0671262
97	0x3c77eccc	0.01513214
98	0xbcc17a22	-0.023617808
99	0xbd5dcced	-0.05415051
100	0xbd8d6ee9	-0.0690592
101	0x3d4de4b6	0.050266944
102	0x3d005286	0.0313287
103	0x3d4c8bdd	0.04993807
104	0xbc99181a	-0.01868825
105	0x3d937ca0	0.07201505
106	0xbd07e8ec	-0.033181116
107	0xbda9f53f	-0.0829873
108	0x3d00bdf3	0.03143115
109	0x3d837702	0.06419183
110	0xbd42c8ce	-0.047554784
111	0x3d2a8c9e	0.04163801
112	0xbd07639f	-0.03305399
113	0x3d23f65b	0.040029865
114	0x3cbb947c	0.022897951
115	0x3c701ccb	0.014655302
116	0xbb8602ca	-0.004089688
117	0xbc9b4930	-0.018955797
118	0xbd358bff	-0.044322964
119	0x3d5af4ff	0.053456303
120	0xbcb97d18	-0.022642657
121	0xbda3f614	-0.0800592
122	0x3d88a8cf	0.06672823
123	0xbd5ed6a5	-0.05440392
124	0x3daef2f6	0.08542435
125	0xbc7334d7	-0.014844141
126	0xbd52491f	-0.051339265
127	0x3d7a3de0	0.061094165

output_layer.weight f4 [2, 128]
0	0x3cdb5e71	0.026778432
1	0xbd7a7956	-0.06115087
2	0x3db301d8	0.08740586
3	0xbc7642c4	-0.015030567
4	0xbd92208a	-0.071351126
5	0x3ba2af2d	0.0049647302
6	0xb990004e	-0.00027466047
7	0x3d25c52e	0.04047125
8	0xbd655998	-0.055993646
9	0x3d005d02	0.0313387
10	0x3d521994	0.051293924
11	0x3bf6a25c	0.007526679
12	0xbd018e4d	-0.03162985
13	0x3db2f6d8	0.08738488
14	0xbd74e06e	-0.059784345
15	0x3da3fd5c	0.08007309
16	0x3c60e086	0.013725406
17	0xbd322715	-0.043494303
18	0xbc3c2861	-0.011484236
19	0x3d827215	0.06369416
20	0xbd2975b2	-0.04137201
21	0x3d8f7a01	0.07005692
22	0xbc02c96b	-0.007982592
23	0xbd3c0328	-0.045901448
24	0x3ca3330d	0.019921804
25	0xbd842cb7	-0.06453841
26	0x3cdf1909	0.027233617
27	0x3d7d48f0	0.061837137
28	0x3d877327	0.066137604
29	0xbc32b5b8	-0.010907583
30	0xbd818f6f	-0.06326186
31	0x3d981be4	0.07427195
32	0x3da4e468	0.080513775
33	0xbc593878	-0.013258092
34	0xbd5b4e36	-0.053541385
35	0x3d390003	0.045166027
36	0x3d328926	0.043587826
37	0xbd3f0143	-0.046632063
38	0x3d512905	0.05106451
39	0x3d4e38de	0.0503472
40	0xbd90ed88	-0.070765555
41	0x3d1620bf	0.036652323
42	0xbd3afe58	-0.045652717
43	0xbb830c26	-0.003999251
44	0x3caf97ba	0.021434654
45	0x3c730703	0.014833215
46	0xbd9f48be	-0.07777546
47	0x3d18faca	0.037348546
48	0x3d85f2e9	0.06540472
49	0xbd791dfe	-0.06081962
50	0xbbf9cdc4	-0.007623406
51	0xbd9c6643	-0.076366924
52	0x3d1c86e7	0.03821459
53	0xbd71dbfb	-0.05904768
54	0xbc5fe34a	-0.01366503
55	0x3b62db90	0.0034615733
56	0xbd83ddcc	-0.06438789
57	0xbd97197f	-0.0737791
58	0x3c851c0d	0.016248727
59	0x3c540469	0.012940505
60	0xbd52a687	-0.051428344
61	0xbd9ec433	-0.07752266
62	0x3da3dbde	0.08000921
63	0xbdb1ecaa	-0.08687718
64	0x3ce82b49	0.028340952
65	0x3d9f019d	0.077639796
66	0x3d5b343f	0.053516623
67	0x3d1a6ad1	0.037699524
68	0x3daa228a	0.08307369
69	0x3d846840	0.064651966
70	0xbda22c9c	-0.07918665
71	0x3b3ff2cb	0.0029289003
72	0x3d609729	0.054831658
73	0x3c8c443b	0.017122379
74	0xbdac4ad3	-0.08412709
75	0xbc98506e	-0.01859304
76	0xbd157523	-0.036488663
77	0x3d82369c	0.06358072
78	0x3c7054be	0.014668642
79	0xba1c7c6d	-0.00059694686
80	0x3d9d0429	0.07666809
81	0x3c088f2f	0.008334919
82	0xbd8d7acb	-0.069081865
83	0xbd812361	-0.06305576
84	0x3daf66c8	0.08564526
85	0x3cdb8659	0.02679746
86	0x3d08a953	0.033364605
87	0x3cee9df0	0.029128045
88	0x3d76857d	0.060185898
89	0x3be202bf	0.0068973
90	0xbd81ca2e	-0.06337391
91	0x3c9fa572	0.01948807
92	0xbda1e4d9	-0.07904977
93	0x3d95157e	0.0727949
94	0x3c1d4fad	0.009601516
95	0x3d8f4454	0.069954544
96	0xbda676f6	-0.08128159
97	0x3d9f5756	0.0778033
98	0xbd52307c	-0.05131577
99	0xbd4c2219	-0.049837206
100	0xbcf66954	-0.030079521
101	0xbd8461f8	-0.064639986
102	0xbd9ad812	-0.075607434
103	0x3d8a7fa0	0.06762624
104	0xbbdb5293	-0.006693193
105	0xbd1526b4	-0.036413863
106	0xbd867b58	-0.06566495
107	0x3d297d5d	0.04137932
108	0xbc9f237e	-0.019426104
109	0x3d95ce22	0.07314707
110	0xbda292b9	-0.079381414
111	0xbc96b01f	-0.018394528
112	0x3d57a3dc	0.052646503
113	0xbda43be5	-0.080192365
114	0xbc89bbbf	-0.016813157
115	0x3b4d30d7	0.0031309628
116	0x3c32b4ed	0.010907394
117	0x3c50f04c	0.012752604
118	0x3cae8ff4	0.021308877
119	0xbcbac8f2	-0.022800896
120	0xbd02c7b4	-0.031928733
121	0x3c9e0841	0.019291045
122	0x3ae8e300	0.0017767847
123	0x3ccdfd1b	0.025145104
124	0xbc7b708c	-0.0153466575
125	0x3ca728c7	0.020405186
126	0x3c8c2f31	0.017112346
127	0xbdabb3a0	-0.0838387
128	0x3d0592bf	0.03261065
129	0x3cf36eab	0.029715857
130	0xbd50ddae	-0.05099266
131	0x3d9473e2	0.072486654
132	0x3d826120	0.063661814
133	0xbdab3c84	-0.08361152
134	0xbd9b3348	-0.075781405
135	0x3d6dd478	0.058063954
136	0xbba04951	-0.0048915525
137	0xbce044fb	-0.027376642
138	0x3ceb7913	0.028744256
139	0xbd32dc0f	-0.043666895
140	0x3c94d59c	0.018168263
141	0x3ce9d0da	0.028541971
142	0xbd579371	-0.052630845
143	0x3d99df10	0.07513249
144	0xbd950f41	-0.072783
145	0x3c18e0db	0.0093309535
146	0x3d9d369f	0.07676434
147	0xbd9bd3db	-0.076087676
148	0x3c897d8b	0.016783496
149	0xbd1fb22c	-0.038988277
150	0x3d8e3cf4	0.0694522
151	0x3a3b4a15	0.0007144523
152	0xbd6c69b9	-0.057718012
153	0xbd41fb20	-0.047358632
154	0xbd91964a	-0.071087435
155	0xbda6da40	-0.08147097
156	0x3bedc26d	0.0072558434
157	0x3d803788	0.06260592
158	0xbbb76828	-0.005597133
159	0xbd861db4	-0.06548634
160	0x3c81bf1a	0.015838195
161	0x3d3e99b4	0.0465333
162	0xbd315b40	-0.043299913
163	0xbda5de49	-0.08099038
164	0x3ca29faf	0.019851534
165	0xbdb1b076	-0.086762354
166	0xbcfca007	-0.030838026
167	0xbc9ac408	-0.018892303
168	0x3bd51330	0.0065025315
169	0xbb9a6b83	-0.0047125234
170	0xbd126b44	-0.035746828
171	0xbd3e93a1	-0.04652751
172	0x3d93d971	0.07219208
173	0xbaa3a430	-0.0012484845
174	0xbc9769d3	-0.018483078
175	0x3be0811c	0.0068513285
176	0xbc0c4d2e	-0.008563323
177	0x3d9d5260	0.076817274
178	0x39b0160e	0.00033585768
179	0x3c919049	0.017768996
180	0x3c9cea40	0.019154668
181	0xbd53f7e5	-0.051750083
182	0xbd9ad664	-0.07560423
183	0xbd42ac0e	-0.047527365
184	0xbd540743	-0.051764738
185	0x3c61bff8	0.013778679
186	0xbd5a4e7e	-0.053297512
187	0x3da36cdb	0.07979747
188	0xbd01643b	-0.031589728
189	0x3c8f9fb2	0.017532203
190	0xbcc2d3bb	-0.023782602
191	0x3d39f016	0.04539498
192	0xbd26695c	-0.040627822
193	0x3bb988b7	0.0056620496
194	0x3d00ac3a	0.031414248
195	0xbc0f9517	-0.008763573
196	0x3d74af02	0.059737213
197	0x3db3028c	0.0874072
198	0x3cfe0283	0.031007057
199	0xbcfd4162	-0.030914966
200	0xbd8d0141	-0.06885005
201	0x3d4979a9	0.04918829
202	0xbd3c51c1	-0.045976404
203	0x3cdccb66	0.026952457
204	0x3d93a6eb	0.072095715
205	0x3cce2e02	0.025168423
206	0xbd8da34c	-0.06915912
207	0xbdb43794	-0.08799663
208	0x3bdc888e	0.006730146
209	0xbb685293	-0.0035449609
210	0x3daec7d1	0.08534206
211	0x3dae8fa9	0.08523495
212	0xbd621818	-0.05519876
213	0x3d1a19f6	0.037622415
214	0x3d0e2543	0.034703504
215	0xbd701b0f	-0.058619555
216	0xbd43e8ff	-0.047829624
217	0xbda9658d	-0.082713224
218	0xbcb3cf20	-0.02194935
219	0x3d5ebf88	0.054381877
220	0xbdb1dee0	-0.08685088
221	0xbc17b111	-0.0092585245
222	0xbd9d9ebc	-0.07696292
223	0x3da9bf12	0.08288397
224	0x3af936b5	0.0019013496
225	0xbd8fecdf	-0.070276015
226	0x3bb434cb	0.0054994575
227	0xbd5bd87c	-0.053673252
228	0x3d0a6691	0.03378922
229	0xbcaba305	-0.020951757
230	0xbc164be4	-0.009173367
231	0xbdb19bf7	-0.08672326
232	0x3c205e17	0.009788058
233	0xbaf5c21e	-0.0018749868
234	0xbd0b32d0	-0.033984005
235	0xbc83e941	-0.016102435
236	0x3c0f908a	0.008762488
237	0x3d97d911	0.07414449
238	0xbd9e7f06	-0.077390715
239	0x3d8e1bc7	0.06938892
240	0xbd289abf	-0.041163202
241	0xbd050440	-0.032474756
242	0x3d4a3306	0.049365066
243	0x3c3ace9a	0.011401797
244	0x3c18332d	0.009289545
245	0xbda4d033	-0.08047523
246	0x3cd4d7ae	0.02598175
247	0x3c44f9d1	0.0120224515
248	0x3db23f47	0.087034754
249	0xba362d3a	-0.00069494883
250	0x3d9da5ff	0.07697677
251	0x3c9196d9	0.017772125
252	0xbda50f7b	-0.08059593
253	0x3c50433b	0.0127113415
254	0xbd446b3c	-0.04795383
255	0xbcd5f072	-0.02611563

output_layer.bias f4 [2]
0	0x3d8f4190	0.06994927
1	0xbc6e02c6	-0.014527028
