results/models/batchsize=96,lr=1e-4,layer=6,eps=0.9,num_episodes_train=5000/4/model-10.0.pt (torch, 17506 bytes, 12 tensors)

linear1.weight f4 [16, 4]
000000 a8 0d b2 be 96 12 ad be 18 90 c6 be 60 0b 74 bd
       -0.34776044 -0.33803242 -0.3878181 -0.05958116
000010 58 87 0e 3e ee 75 ae be 80 e1 c6 3d f6 6d a1 be
       0.13918817 -0.34074348 0.097109795 -0.31529206
000020 dc bd 4e 3e 10 ae 80 bd dc dd 39 be 90 ef 6f 3d
       0.20189613 -0.062832 -0.18151039 0.058578074
000030 80 08 7a 3e 5e 99 92 3e 02 87 d9 be b8 1a 16 be
       0.24417305 0.28632635 -0.42485815 -0.1465863
000040 b8 cd 4a 3e 70 4f f2 be 8c f4 69 be 2e 96 98 3e
       0.19805038 -0.4732623 -0.22847193 0.29802078
000050 f2 17 c6 be 0c cc db be 38 54 19 be 82 86 c3 3e
       -0.38690144 -0.42929113 -0.14973533 0.3818856
000060 70 35 72 3d 00 a1 5d bb 4e 30 b8 be 00 ea f1 3b
       0.059132993 -0.0033817887 -0.35974354 0.0073826313
000070 74 15 4e be 36 67 fa 3e 9e 36 f6 be ac cf 16 3e
       -0.20125371 0.4890687 -0.48088545 0.14727658
000080 8c 6a e9 3e 00 86 86 bd 22 9a fd be 4e 99 e5 be
       0.455891 -0.06568527 -0.49531657 -0.44843525
000090 70 7b 60 3e fa 8e 81 be 1e 6d b9 3e a0 30 c4 3d
       0.21922088 -0.25304395 0.36216062 0.09579587
0000a0 60 5a f1 be 98 37 3f 3e 10 c3 60 3d 80 46 26 bd
       -0.47139263 0.18673551 0.054873526 -0.040594578
0000b0 8e 46 d6 be 6a 84 c6 be 1c 9b a2 3e 06 7a b7 3e
       -0.41850704 -0.387729 0.31758964 0.35835284
0000c0 f0 7a 68 bd 9c 24 fe be 30 a3 e0 bd c0 1b d4 bd
       -0.056757867 -0.49637306 -0.109686255 -0.103568554
0000d0 f0 47 6c 3e 80 9f e0 be d2 b2 cb be 78 27 b3 bd
       0.23074317 -0.4387169 -0.39784867 -0.087477624
0000e0 c6 54 fa be c8 1b 98 be e4 fc 00 be c8 28 05 3e
       -0.48892802 -0.29708695 -0.1259647 0.13003838
0000f0 98 a5 b6 be d2 5c 8b be f8 73 0b 3e d0 e4 19 3d
       -0.35673213 -0.27219254 0.13618457 0.03757173

linear1.bias f4 [16]
000000 00 e9 ec 3d 22 ad b3 3e 20 84 fd be 0a cc f8 3e
       0.11567879 0.35093027 -0.49514866 0.4859317
000010 80 50 98 3e 44 c7 18 3e 10 ea 3f bd 7c 4a fc 3e
       0.29748917 0.14919764 -0.04685408 0.49275577
000020 0e e2 dc 3e 40 91 5d bd ae 9a d3 be b8 5e 1e be
       0.43141216 -0.0540936 -0.4132895 -0.1546582
000030 18 5b d3 3e 98 94 6b be 40 aa 2f bd 0c ee be be
       0.41280437 -0.23005903 -0.042886972 -0.3729099

linear2.weight f4 [32, 16]
000000 fa b9 7f 3e b4 55 71 3e 3c 72 c3 3d c4 c8 cb bd
       0.24973288 0.2356785 0.09543273 -0.099504024
000010 d2 fa 10 3e ac e1 62 3e 36 13 6d 3e a0 f3 1b 3d
       0.1415818 0.221564 0.2315186 0.038074136
000020 20 0b 33 3e 64 a8 07 3e 28 5e e7 3d c8 b0 86 bd
       0.17484713 0.1324783 0.11297256 -0.06576687
000030 6e be 28 3e d0 24 b8 bc f8 c0 7b bd 48 fa 25 bd
       0.16478893 -0.022478491 -0.061463326 -0.04052189
000040 5a 35 70 3e 28 f8 f4 bd a0 9d b4 3d 22 5c 76 3e
       0.23457852 -0.119613945 0.08819127 0.24058583
000050 58 ee dc 3d 0c 41 c3 3d 38 5f 00 3e a8 80 2d bd
       0.10787648 0.09533891 0.12536323 -0.042359024
000060 c0 f4 9a 3b 80 50 df bb b4 9b d4 3d 10 16 89 3d
       0.0047288835 -0.0068150163 0.103812605 0.06693661
000070 b0 02 63 3d e0 30 7e bc e8 a3 60 be a8 2a 77 bd
       0.055422485 -0.015514582 -0.21937525 -0.060343415
000080 96 21 52 3e 00 67 fc 3c 94 1c 4c 3e 64 1a 39 3e
       0.20520625 0.030810833 0.19932777 0.18076473
000090 e4 b6 c1 bd 6c 4f 30 be 40 ab e6 bb 88 25 69 3d
       -0.09458712 -0.17217797 -0.0070394576 0.05692056
0000a0 82 4f 0b be 26 6b 12 3e 5e a6 7e 3e 58 f9 99 3d
       -0.13604549 0.14298686 0.24868152 0.07518262
0000b0 00 dd 68 bc a0 4f 31 bc e0 f6 e6 bd 90 c0 d2 3c
       -0.014212847 -0.010822207 -0.112775564 0.025726587
0000c0 14 e3 0e 3e a6 00 12 3e 2a 19 78 3e 00 b6 0b bd
       0.13953811 0.1425806 0.2422835 -0.034109116
0000d0 64 71 15 3e 68 c1 67 3e c6 e8 72 be 14 cc af bd
       0.14594036 0.22632372 -0.23721609 -0.08583847
0000e0 30 fb 11 3d 5a ac 6b be d8 77 7f bd b0 ca 2c bd
       0.03563994 -0.23014966 -0.06237015 -0.042185485
0000f0 a8 5b 13 3d c0 b6 db 3c 1c 0f 09 3e 8e e6 1c be
       0.035976082 0.02682054 0.1338467 -0.15322325
000100 94 5d 6d 3e c8 66 65 be d0 b6 58 3e 7e 7c 59 be
       0.23180228 -0.22402489 0.21163487 -0.21238896
000110 cc 17 ee 3d 8c 76 b9 3d f2 a0 3e be 72 90 3b 3e
       0.11625633 0.09055814 -0.18616083 0.1831682
000120 c6 d0 01 be fe ac 44 3e 90 a5 f1 3c 2c ad 6c be
       -0.12677297 0.19206616 0.029497892 -0.23112935
000130 2c f0 6f 3e 88 cb 4d 3e 0c b7 26 be a0 83 76 3c
       0.23431462 0.20097172 -0.16280764 0.01504603
000140 22 3e 7c be 94 b9 99 3d d8 b1 e0 bd 76 a0 59 be
       -0.24633077 0.07506099 -0.10971421 -0.21252617
000150 dc 11 3c be 18 71 84 3d 22 42 27 3e 3c f1 fc bd
       -0.18366188 0.064668834 0.16333821 -0.12350699
000160 18 5a 03 bd be a6 54 3e c4 e1 28 3e 58 d9 d2 3d
       -0.032068342 0.20766732 0.16492373 0.10295361
000170 d0 4d f2 bd b2 e1 11 be 70 5b 37 3e 7e f7 09 be
       -0.11831248 -0.14246252 0.17905974 -0.13473317
000180 c0 2a 54 be 90 60 b4 3c c6 d7 23 3e 04 eb 52 3e
       -0.20719433 0.0220187 0.1600028 0.20597464
000190 28 92 7f be 08 69 a8 bd 06 5f 6c 3e 40 fe 52 bd
       -0.24958098 -0.08223158 0.23083124 -0.051512003
0001a0 40 3a 43 be 40 ae ac bd 10 df 14 be 40 15 8d bb
       -0.1906519 -0.08431673 -0.14538217 -0.0043055117
0001b0 94 39 96 3d 68 f5 3b 3e ae 78 42 be b4 8e 1a be
       0.07335201 0.18355334 -0.18991348 -0.150935
0001c0 32 10 42 be 78 7e a3 bd 10 02 48 be 08 e0 49 3e
       -0.1895149 -0.079831064 -0.19532037 0.19714367
0001d0 6a 05 6f be 7c db 2e 3e b8 9b 6c bd 40 8f 41 be
       -0.23341909 0.17075914 -0.057765692 -0.18902302
0001e0 ca ce 71 3e fc 8f af 3d d0 1c 0f 3e 00 59 85 3a
       0.2361404 0.08572385 0.13975835 0.0010173619
0001f0 00 b2 02 ba b0 a7 98 bc 26 8e 10 be 1c 01 43 3e
       -0.00049856305 -0.018634647 -0.14116725 0.19043392
000200 2c fe a8 bd fc a0 c2 bd c0 f4 ca 3b 50 0c b7 3c
       -0.082516044 -0.095033616 0.0061937273 0.022344738
000210 c0 4a 60 3d a4 0b f8 bd 60 63 11 be 70 99 e0 3c
       0.054758787 -0.12111595 -0.14198065 0.027416915
000220 00 91 15 be 38 bc 65 be 44 f0 25 3e 82 00 66 3e
       -0.14606094 -0.22435081 0.16204935 0.22461131
000230 bc c8 69 3e 3c 82 6f be b0 c4 18 bd f4 fc 88 bd
       0.2283048 -0.23389524 -0.03729695 -0.06688872
000240 06 28 0a 3e 80 cd b9 bb 00 8e c4 3b a0 39 63 3d
       0.1349183 -0.0056702495 0.005998373 0.055474877
000250 98 f3 83 bd b0 8c ce bd 40 4f 49 be a4 fd 25 3e
       -0.06442946 -0.10085428 -0.19659138 0.16210037
000260 1c fb 06 3e 6e 2b 7a be 48 6b 05 be e8 19 17 3e
       0.13181728 -0.2443063 -0.13029206 0.14755976
000270 12 3b 26 be 30 75 16 3d 00 c4 20 3e 2c 33 83 bd
       -0.16233471 0.036732852 0.15699768 -0.06406245
000280 30 65 7e 3d 22 36 11 be ce 52 17 be 98 fb f2 bd
       0.06210822 -0.14180806 -0.14777681 -0.11864394
000290 4c 7a 25 be 94 a9 7b be b6 d0 4f 3e 84 a7 87 bd
       -0.16159934 -0.24576408 0.2029446 -0.06623748
0002a0 6a b4 65 be 22 3f 4d be 44 67 9c 3d 40 d2 94 bd
       -0.22432104 -0.20043615 0.07636884 -0.072666645
0002b0 ec 5a b6 3d a2 a7 23 3e 78 41 4b bd 00 0b ad 3d
       0.08904061 0.15981916 -0.049622983 0.08449364
0002c0 a0 61 57 be 0c 30 15 3e 48 83 17 3d e0 90 b9 bd
       -0.21033335 0.1456911 0.036990434 -0.09060836
0002d0 e8 d2 ad bd b0 ab be bd 48 72 16 3d fc 6a ec 3d
       -0.08487493 -0.093100905 0.03673008 0.11543843
0002e0 1a 46 2d 3e 58 bb 94 3d 98 fb 34 3e 60 5e 4b bd
       0.16921273 0.072622955 0.176741 -0.04965055
0002f0 a0 97 0c 3e 98 c2 fd bd 7a 2f 2b 3e d0 89 ef 3c
       0.13729715 -0.123906314 0.1671733 0.029240519
000300 8c 8a b4 3d 44 38 21 be 7c 38 7b 3e 10 43 00 bd
       0.08815488 -0.1574412 0.24533266 -0.031313956
000310 1a 3c 38 be 20 b5 72 bd 60 80 e6 bd 7a 1f 53 3e
       -0.17991677 -0.059254766 -0.11254954 0.20617476
000320 98 33 37 be 80 56 0d 3d b8 8c 49 3e 80 1b c4 bd
       -0.17890775 0.03450632 0.19682586 -0.09575558
000330 a4 c6 53 be 40 a3 60 3d 70 77 66 bd 66 df 20 be
       -0.20681244 0.054843187 -0.05626625 -0.1571022
000340 00 87 6e bd c0 5f 7c 3d 80 50 05 3d 5a 28 64 be
       -0.058234215 0.06161475 0.032547474 -0.22281018
000350 00 5a 52 bc 60 dd 7b 3c 50 8d a3 3c 6c ac e0 bd
       -0.0128388405 0.015372604 0.019964844 -0.10970387
000360 e0 ef aa 3d b8 31 79 bd 1a aa 49 be 44 f1 68 3e
       0.08346534 -0.06083843 -0.19693795 0.22748286
000370 d0 d8 be bd 7c 5d c7 3d 42 84 68 be 28 9c 08 3d
       -0.093186975 0.097346276 -0.22706702 0.033352047
000380 f0 89 30 3d 70 3a ac 3d 80 7d 25 bc 60 25 68 bc
       0.043100297 0.084095836 -0.010100722 -0.014169067
000390 d0 4e 72 be 04 dd d6 3d 7c e5 40 be fc ea eb bd
       -0.23662877 0.10491374 -0.18837541 -0.11519429
0003a0 8c 8a f0 3d 58 5e c2 bd 90 96 fc 3d a4 ea 9f bd
       0.11745176 -0.09490651 0.12333405 -0.07808426
0003b0 bc cb 0c be 70 bd 85 bc dc 2d e9 bd 68 3f 6c bd
       -0.13749593 -0.016325682 -0.113857 -0.057677656
0003c0 8a a4 17 be 76 c7 30 3e 7c a7 aa bd 08 e3 73 be
       -0.1480886 0.17263588 -0.08332726 -0.23817074
0003d0 0e 8c 13 3e 44 1c 0a be d0 a4 af bd c8 85 61 be
       0.14408895 -0.13487345 -0.08576357 -0.2202369
0003e0 30 9f 93 3c d4 a0 7c be 28 15 e4 3d c8 b2 22 3d
       0.018020242 -0.24670726 0.11136848 0.03972128
0003f0 f0 02 77 be 30 88 50 3e 5e 07 41 be 44 d6 0a be
       -0.24122214 0.20364451 -0.18850467 -0.13558298

linear2.bias f4 [32]
000000 5c cd 97 3d 4c f7 df 3d fc 8d 79 be 40 1e 39 bc
       0.07412216 0.1093584 -0.24370569 -0.011298716
000010 f4 c2 eb 3d e8 82 5e 3e 6c 99 69 be 80 a0 36 3e
       0.11511794 0.21729624 -0.22812432 0.17834663
000020 90 01 df bd 7c 8e 54 3e 20 dc 55 bc 30 7a ba 3c
       -0.1088897 0.20757478 -0.01305297 0.022763342
000030 1c 77 bd 3d d4 dc 7a 3e c4 39 97 bd 00 d1 85 bb
       0.09251234 0.24498302 -0.07384065 -0.0040837526
000040 68 6a f1 bd d8 c5 33 bd 3e bc 5b be ce 46 74 3e
       -0.117878735 -0.04388985 -0.21458527 0.23855135
000050 1e e3 19 be 20 80 b6 3d 98 a8 0a be 78 95 3f bd
       -0.15028045 0.08911157 -0.13540876 -0.046773404
000060 c0 5c 91 3b d0 86 4a 3e 68 3d ec 3d 98 35 78 3d
       0.0044361055 0.1977799 0.1153515 0.060597986
000070 30 f4 73 3e fc e1 c9 3d 6c ee c1 bd 50 f9 83 bd
       0.23823619 0.09857556 -0.094693035 -0.06444037

linear3.weight f4 [32, 32]
000000 a8 0c e2 3d 67 6a 0a 3e 79 f7 2e be 22 f2 54 3c
       0.1103757 0.13517152 -0.17086591 0.012997182
000010 13 29 d5 bd 6b 65 b0 3d 16 66 d3 bd 2e c4 84 bd
       -0.10408225 0.08613094 -0.10322206 -0.06482731
000020 8b 8b 31 be 9e ab 09 bb c6 2e 32 be 12 8c fd 3c
       -0.17338388 -0.0021006833 -0.17400655 0.03095058
000030 de 47 07 be f7 5f 2d 3d ce 9c fc bc 77 dc 06 bd
       -0.13211009 0.042327847 -0.030836489 -0.032925095
000040 55 8a 6b 3d 66 4e 96 3d 48 6f 20 3d e1 c8 33 3e
       0.05750497 0.07339172 0.039168626 0.17557098
000050 b1 e8 f0 bd 7b d8 68 bd b1 45 ad 3b c1 8f a4 bd
       -0.11763132 -0.056847077 0.005287849 -0.080352314
000060 12 ad ba 3d 0d 40 1b 3e f0 05 d8 3b 63 36 8a bb
       0.09115042 0.15161152 0.0065925047 -0.004217909
000070 b4 71 b0 bd 43 21 de bc 0f e4 ef bd 5b 5e 23 3e
       -0.08615437 -0.02711547 -0.117134206 0.15953963
000080 55 43 fe bd e3 9d 02 3d 7d cb 06 3e 14 a9 c5 bd
       -0.12415186 0.031888854 0.13163562 -0.0965139
000090 0e 13 0f 3e 79 2f 1a be 1b c8 a3 bd 9f cd e6 3d
       0.13972113 -0.15057172 -0.079971515 0.11269688
0000a0 7f 04 4c bc b3 40 1c 3e ee f2 bc bd 66 a1 f4 bd
       -0.012452244 0.15259056 -0.09226023 -0.11944847
0000b0 5f 8c 85 bd cc 11 d1 bc 53 0e 9b 3b 78 24 2a 3e
       -0.06520914 -0.025521182 0.004731932 0.16615474
0000c0 d7 54 16 bd 89 ef 7c bb 2c 74 66 bd 3f d5 0b 3e
       -0.036702003 -0.0038594923 -0.056263134 0.13655566
0000d0 35 1b 30 bd 97 de 10 3e a6 78 ad bd 54 a7 8d bd
       -0.042994697 0.14147411 -0.084702775 -0.06916681
0000e0 b5 2c cf bd 7c 6c db bd 8c c4 25 be 66 dc e9 3d
       -0.10115949 -0.10714051 -0.16188258 0.11418991
0000f0 1b da cf 3d 85 9c b4 3c 6c b4 a6 3d 69 79 2d be
       0.10149022 0.02204729 0.081398815 -0.16940846
000100 16 86 7c 3c 58 57 ef bd 69 5d 34 bd 72 59 01 be
       0.015412828 -0.116865814 -0.044034395 -0.12631777
000110 69 75 09 3e e5 ae 25 3d 60 2c d8 3d 4e dd 9b bd
       0.13423695 0.040449996 0.10555339 -0.0761057
000120 a7 4e 0a be f8 33 87 bd d2 33 28 bd 0a f6 0b 3e
       -0.13506566 -0.06601709 -0.041065045 0.13668075
000130 73 1a 0c 3e cf 89 91 3b 77 b0 b3 bd b1 9f d7 bd
       0.13681965 0.004441477 -0.087738924 -0.105285056
000140 f0 58 27 3e a6 3a e7 3c 97 d9 c6 3c 94 f2 af 3d
       0.1634252 0.028226208 0.024273677 0.0859119
000150 65 0d da bc 7f da a0 bc a7 97 c6 3c 7f 29 d7 ba
       -0.026617715 -0.019635437 0.024242235 -0.0016415565
000160 ab 13 41 3d ce cf 0b 3e 82 3b a4 3d f7 49 e6 bb
       0.047137897 0.1365349 0.08019163 -0.0070278603
000170 ec 42 0c 3e 80 6d 2c be 69 28 01 be 6d 71 82 bc
       0.13697404 -0.16838646 -0.12613072 -0.015923226
000180 2d 67 c9 3d c0 84 25 3e e5 03 b6 bd a3 50 9b bd
       0.09834132 0.16163921 -0.088874616 -0.075837396
000190 9c 8d 61 bd da b0 15 3e f4 d1 d7 3d 58 d6 97 3d
       -0.05506669 0.14618245 0.10538092 0.0741393
0001a0 5a a9 24 3d be 6c 09 be b5 0d ab 3b 50 38 5d bd
       0.04020057 -0.13420388 0.00522014 -0.054008782
0001b0 6c 18 5e bd d7 54 f2 bd 45 18 e4 3d 89 f5 ac bd
       -0.05422251 -0.11832588 0.111374415 -0.084452696
0001c0 f2 fb 28 be 60 e4 e5 3d 88 2e 3a bd ee 16 eb 3d
       -0.1650236 0.112252 -0.045454532 0.11478983
0001d0 30 e0 05 be 05 4d 13 3e 4a 5c 03 be ea eb c5 3b
       -0.13073802 0.1438485 -0.12828174 0.006040086
0001e0 b9 9e db bc 2b 3e 06 3e 90 93 15 3e d2 d0 d6 3d
       -0.026809083 0.13109653 0.14607072 0.10489048
0001f0 22 72 02 3d 98 fe d0 3d 28 6f 11 be 98 2b 2e 3e
       0.031847127 0.1020481 -0.14202559 0.17008817
000200 3c 7d a2 3d 1a 77 0a be cc ee 47 bd f4 24 f9 3d
       0.07934043 -0.13521996 -0.04881172 0.121652514
000210 22 6c d4 3d 25 89 9a 3d 6f 69 83 bd 74 aa 57 bc
       0.10372187 0.075456895 -0.06416594 -0.013163198
000220 a2 e6 8e bd 89 5a 5e bd 0d b7 24 be c9 cd 10 3e
       -0.069775835 -0.05428556 -0.16085453 0.14141001
000230 da 4d 73 bd f6 43 22 3d b2 14 26 bd d2 7b 4c bb
       -0.059400417 0.039615594 -0.04054708 -0.0031201732
000240 71 92 ef bd 3d ed 82 bd 1f 1d be bd 86 eb 27 3e
       -0.11697853 -0.06392906 -0.09282898 0.16398439
000250 a3 68 85 3c 94 8f 08 bd 69 89 f6 bd 52 79 1a 3e
       0.016285246 -0.03334005 -0.12037928 0.15085343
000260 79 a5 6e bd 4c 36 b4 bb 1b 7d 32 be 9f 0e de bd
       -0.058263276 -0.0054996368 -0.17430536 -0.108426325
000270 e4 16 42 bc 7b 86 ff 3d b8 b3 97 bb 66 6a 8f ba
       -0.011846278 0.12476822 -0.0046295784 -0.0010941743
000280 0f 96 2c be 31 c6 5a 3d 00 01 bc 3d 12 d6 ef bd
       -0.16854118 0.053411666 0.09179878 -0.117107525
000290 6a 13 bd 3d 35 d9 fe bd c7 78 e4 bd c2 c2 c5 bd
       0.092322186 -0.12443773 -0.11155849 -0.09656288
0002a0 d2 03 94 bd 87 db 0b 3e ec 74 20 be 4a 41 e9 3d
       -0.07227291 0.13657962 -0.15669602 0.11389406
0002b0 7f 9f ec bc 5c 61 0e 3e 85 7e 65 3d 15 09 b9 bb
       -0.028884647 0.13904327 0.05602886 -0.0056468346
0002c0 14 39 82 3c c6 5c 25 3e 81 ac e7 bd 79 32 80 3d
       0.015896358 0.16148672 -0.113121994 0.06259627
0002d0 99 54 1e bc a3 83 1a 3e 66 dc d8 bd 02 c1 c8 bd
       -0.009663724 0.15089278 -0.10588913 -0.09802438
0002e0 65 99 26 3e 55 67 12 3e cd 4a b9 3d ab 07 0f 3d
       0.16269453 0.1429723 0.0904747 0.034919422
0002f0 00 6f 77 3d 94 5c 08 3d 47 64 02 be 9f 25 b3 3c
       0.060408592 0.033291414 -0.12733565 0.021868525
000300 77 05 02 3e ff 3b 9d 3d 1a fb e9 bc c9 10 88 3c
       0.12697397 0.07677459 -0.028562117 0.016609566
000310 f1 a1 e5 3c 7c 63 99 3d e8 f3 c2 bd 30 83 94 3c
       0.028031321 0.07489678 -0.09519178 0.018128961
000320 d2 f1 15 be 26 08 10 bd 1e 39 00 be 71 57 e7 3d
       -0.14643028 -0.03516402 -0.12521788 0.11295975
000330 ec a7 00 3e 38 b2 2a 3e ee 30 23 3b 37 6f 21 be
       0.12564057 0.16669548 0.002490099 -0.15765081
000340 d0 ad 9a 3d 3c 08 c5 3d 3d 28 f0 3d 01 c1 77 bb
       0.07552683 0.09620711 0.11726425 -0.0037804248
000350 04 11 f8 bd 19 64 2b be 27 cd 31 be ac fd d9 bd
       -0.121126205 -0.16737403 -0.17363416 -0.10644087
000360 c1 fc d1 3d 74 4b 50 3d 55 0c 11 be 24 0a 1e be
       0.10253287 0.050853208 -0.1416486 -0.15433556
000370 5b e1 8b bd a7 1f 20 be 68 57 19 3d 86 e1 11 3e
       -0.068300925 -0.15637074 0.037436873 0.14246187
000380 5f 4a b0 3d ef 9f 64 3c cf bc d2 3d a2 2b 3b bd
       0.08607935 0.013954147 0.10289919 -0.04569591
000390 9f f0 3c 3d 43 ea 61 ba 92 e3 19 be b2 d4 33 3d
       0.04612791 -0.00086179766 -0.15028217 0.043904014
0003a0 54 06 e4 bd 5b db b1 bc 3b e2 29 3e 13 fd 68 3d
       -0.111340195 -0.021711042 0.16590206 0.056881975
0003b0 ba 42 04 bd 6a c5 74 bc 96 f6 c9 bc 51 ef f9 3d
       -0.032290198 -0.014939645 -0.024653714 0.12203849
0003c0 fb c4 cd 3d e5 5b ef 3d 14 7e aa 3d 7c 28 9b 3b
       0.10047337 0.11687449 0.08324829 0.0047350507
0003d0 c0 4d 69 bd 23 77 e3 bd 25 cb 81 bd a6 5a a3 3d
       -0.056958914 -0.11106708 -0.06337575 0.07976274
0003e0 a8 66 86 bd 21 cf 99 bd d5 f7 18 be bd 96 fc bd
       -0.06562549 -0.0751021 -0.1493829 -0.123334385
0003f0 36 ac 7b 3d e3 30 a5 3d 38 88 bd 3d 29 93 5c bd
       0.06144353 0.08065965 0.09254497 -0.05385128

linear3.bias f4 [32]
000000 c1 f6 42 3d e1 e2 05 bc 2b 98 d5 bd ef bf 0e 3e
       0.047598604 -0.008171768 -0.10429414 0.13940404
000010 49 18 70 3d fc 6f a5 bd 21 8f 5e bd 69 e0 97 3d
       0.05861691 -0.08078 -0.054335717 0.0741585
000020 10 06 d5 3d e9 55 fb 3d e2 91 d3 3d b1 5a 9b bb
       0.10401547 0.122722454 0.10330559 -0.004741036
000030 b0 65 ad bd 4e 21 5a 3d 7c 6d e2 3d 06 cb cd 3d
       -0.08466661 0.053254418 0.11056039 0.10048489
000040 f3 86 eb 3d 55 63 0f 3e b2 cb b2 bd 8a 7d 13 3e
       0.11500349 0.14002736 -0.08730258 0.14403358
000050 f3 5e fb 3d 39 00 f4 3c 80 b1 75 bb c8 f5 f5 3d
       0.122739695 0.029785262 -0.0037489831 0.1200977
000060 01 9f 23 3e 29 17 41 bd 89 94 f4 3c 14 88 4d bc
       0.15978624 -0.047141228 0.029855983 -0.012544651
000070 39 4f 31 be 2d 51 b9 3d 15 97 06 3e 12 26 f0 bc
       -0.17315377 0.09048686 0.1314357 -0.029315028

linear4.weight f4 [32, 32]
000000 fd 89 3b bd ea 62 83 bd 44 8a ed 3d bb 68 cc bc
       -0.045785893 -0.06415351 0.11598638 -0.024952283
000010 95 ae d8 3d 47 76 ed 3d c8 b2 60 bd cd 82 1f be
       0.10580174 0.11594825 -0.054858 -0.1557724
000020 51 8b 0c be d2 b7 92 bd e1 6a 28 be 82 09 fb bd
       -0.1372502 -0.07163967 -0.16447021 -0.12257673
000030 f7 34 21 be a5 0f 26 be 56 03 78 3d eb 70 fc bc
       -0.1574286 -0.16216905 0.060550056 -0.030815562
000040 59 84 c2 bd 62 b7 0f 3e 99 1a 1c be 35 d1 1d 3d
       -0.094978996 0.14034799 -0.15244521 0.038529593
000050 1c a2 de bd ca 47 75 3d 57 01 1d 3d da 66 5d bc
       -0.10870764 0.059882917 0.038331356 -0.013513291
000060 49 7b a1 3d 94 f9 47 3d a7 a9 88 3d 0f e7 29 be
       0.07884843 0.048822 0.066729836 -0.16592048
000070 55 5f 1c be 73 18 d7 3d 8a 22 02 bc 86 df c6 3d
       -0.15270741 0.1050271 -0.007942805 0.097106025
000080 9a 15 df 3d 22 16 33 3e 2d 8c 19 bd 1f 42 85 3d
       0.10892792 0.17488912 -0.037487198 0.06506752
000090 c8 dd da bd c8 ea 89 bd 59 b2 07 3e a3 b3 0d 3b
       -0.10686833 -0.06734234 0.13251628 0.0021621964
0000a0 52 01 8c 3d 24 ac 86 3d d3 da c6 3c 61 cc 06 bd
       0.06836189 0.06575802 0.024274265 -0.032909755
0000b0 da d5 16 be 34 7b 14 3e 38 da 07 be 5a e4 10 be
       -0.14730015 0.14500123 -0.13266838 -0.14149609
0000c0 6e 5b b2 3d c4 6d 6a 3d ba ed 34 3d b9 7d 0d 3c
       0.08708845 0.057233587 0.044172026 0.008635932
0000d0 8a 7c 29 3e 81 f7 75 bc 0e 1f f7 bd 82 ab eb 3d
       0.16551414 -0.015012623 -0.1206647 0.11507322
0000e0 48 46 d4 3d c4 9f 23 bd c5 12 7b 3c 5f 3e 99 bc
       0.103649676 -0.039947286 0.015324299 -0.018706499
0000f0 04 43 17 3e 0f d9 ec bd 58 94 fb 3d f6 72 28 be
       0.14771658 -0.11564838 0.12284154 -0.16450104
000100 18 6f 97 3d 33 a4 60 bc 75 1b 43 bd e2 e6 3f bd
       0.07394236 -0.013711023 -0.047633607 -0.046851046
000110 3c 67 bc bd 34 f8 d3 bd 8d 8d cf bc 44 9f 11 bd
       -0.09199378 -0.10350075 -0.025336051 -0.03555228
000120 97 63 2d 3d 12 ac 0f bc 9d 9b b4 bd 3c 6d 13 be
       0.042331304 -0.008769052 -0.088187434 -0.14397138
000130 60 86 05 3e 14 84 9b 3d 54 c9 0f 3d 61 78 20 3e
       0.13039541 0.07593551 0.03510411 0.15670921
000140 c9 5e e5 3d d1 4e 17 3e 79 a8 24 be 82 c0 f2 3d
       0.111997195 0.1477616 -0.16079892 0.11853124
000150 e4 42 1f 3c 97 7e 2a be 40 88 af 3d 41 bf fe bd
       0.009720538 -0.16649853 0.085709095 -0.124388225
000160 d4 cb a3 bd f1 e0 21 bd c8 19 10 3d 06 f2 c5 bd
       -0.079978615 -0.03952116 0.035180837 -0.09665303
000170 00 1e c9 3d 63 a1 82 3d 3c 11 2b 3e e2 92 c1 3c
       0.09820175 0.06378438 0.16705793 0.02362961
000180 7b 81 1d 3d d9 a7 46 bd 75 d9 c4 3d 05 b8 53 bd
       0.03845356 -0.048499916 0.09611789 -0.051689167
000190 2f ec 18 be f8 0c c6 bd 04 e9 41 bc 73 4c b0 bd
       -0.14933847 -0.09670442 -0.01183534 -0.086083315
0001a0 ec 88 9e bb e6 ee 2a 3e 2b 0b c4 bd 04 16 a5 3d
       -0.0048380997 0.16692695 -0.095724426 0.0806084
0001b0 69 09 ad 3c 42 cb 5d 3b 74 46 19 be d5 05 b5 3c
       0.021122651 0.0033843075 -0.14968282 0.022097507
0001c0 cb bd 12 be 9d d4 c7 3c dd 28 da 3d 84 e8 32 be
       -0.14330213 0.024393374 0.10652325 -0.1747151
0001d0 c5 34 bd bc b0 c0 24 be cf 8b 1d 3e 23 b3 0f be
       -0.023096452 -0.1608913 0.15385364 -0.14033179
0001e0 2e eb a4 bc 3e 50 2e 3e d9 42 c1 38 fa fb 9b 3d
       -0.020131674 0.17022797 9.2154085e-05 0.0761642
0001f0 ab d1 89 bc 84 7d d4 bd 6d d9 93 bd 49 b2 0f 3e
       -0.01682361 -0.10375503 -0.07219205 0.14032854
000200 b2 26 da 3d 35 cf 33 be 0c 53 8e 3c df 00 b7 bd
       0.10651912 -0.17559512 0.017373584 -0.08935713
000210 08 73 6d bd 0a 93 f7 bd b4 c9 df 3c 32 21 4d 3d
       -0.05797103 -0.12088592 0.02731786 0.050080486
000220 38 48 27 bd 9b 9d 0a 3e 12 2c 40 bc 12 14 fb bd
       -0.040840358 0.13536684 -0.011729257 -0.122596875
000230 71 54 44 3b 76 38 bd bd ca df a8 3d 8f 20 1b be
       0.0029957558 -0.09239285 0.082458094 -0.15149139
000240 df 9d ff bd 05 91 11 3e fa 26 6c bc 46 aa 33 be
       -0.124812834 0.14215477 -0.01441359 -0.17545423
000250 ae c4 25 bd 31 72 cd bd ff 0e 6d 3c 62 e2 be 3b
       -0.04047077 -0.10031546 0.014468907 0.005825327
000260 3b fb 59 3d 51 c3 23 be 9b fd bc bd 3c 0a c5 3d
       0.053218108 -0.15992476 -0.09228059 0.09621093
000270 47 97 0a 3e da 7c ac bd 08 af 0e 3e 2c a7 ad 3d
       0.1353427 -0.08422251 0.13933957 0.08479151
000280 61 02 f3 3d 17 2b 13 3e 3c 42 e8 3d 12 f7 33 3e
       0.11865688 0.14371906 0.11340758 0.17574719
000290 e8 82 86 3d 8e e4 a5 3d c2 02 3a 3d 51 5f 65 bd
       0.06567937 0.08100234 0.045412786 -0.055999104
0002a0 10 e0 09 be 39 ec 4d 3d 1c a6 d1 bd 1a 6a 1a be
       -0.1346438 0.050274108 -0.10236761 -0.15079537
0002b0 3a c1 9a 3d 49 56 c0 bd 45 0b 28 3d b3 72 ae 3d
       0.07556386 -0.093914576 0.041026372 0.08517971
0002c0 8d b4 60 3d a8 e6 2b bd cd 0b 2c bd 9e 3f f0 3c
       0.054859687 -0.041968018 -0.04200344 0.02932721
0002d0 61 96 6e 3d 44 94 21 be 49 c3 a6 bd af fa 2c 3e
       0.05824888 -0.15779215 -0.081427164 0.16892503
0002e0 9c e1 a0 bd b1 27 06 bd 4f 12 65 bd 13 ef 62 bd
       -0.078555316 -0.032752696 -0.055925664 -0.05540378
0002f0 e9 6a 6f 3d ec 73 2b be fe a2 d6 3d 2e 19 76 bc
       0.058451567 -0.1674344 0.10480307 -0.015020652
000300 cc 07 3e bd 90 74 fa bd 92 00 15 3e 2e ad 2e be
       -0.046394154 -0.12229264 0.14550999 -0.1705825
000310 ed f6 2a be dc 6d 31 be 7f e5 be 3d 1d 50 0d 3c
       -0.16695757 -0.17327064 0.09321117 0.0086250575
000320 40 64 0b be 36 f7 33 be 9f a5 da 3d 47 9a e4 3b
       -0.13612461 -0.17574772 0.10676121 0.006976399
000330 3f 23 99 3d 0d 8c f4 3d 2b 15 2d 3d 2f af 70 bd
       0.07477426 0.11940775 0.042256515 -0.058760818
000340 bb f4 cb 3d 58 53 34 be ad 84 0a 3e 88 dc f6 3d
       0.09958788 -0.17609918 0.13527174 0.12053782
000350 db fc 0b 3d 7b 5c 33 be d3 c4 cf 3d 2d 5f c1 3d
       0.03417669 -0.17515747 0.10144963 0.094419815
000360 f7 ed 14 3e 5e 16 34 bd 91 a9 23 be b0 43 0e 3d
       0.14543901 -0.043966644 -0.15982653 0.03473252
000370 ff 60 f6 3c 81 56 c3 3d ca 34 30 be 16 fa f8 bd
       0.030075548 0.09537984 -0.17207637 -0.12157075
000380 a3 ab 14 be a8 03 d9 bc 91 6a bd 3d 91 49 dc 3d
       -0.14518599 -0.026491001 0.092488416 0.10756219
000390 7f 26 15 be 54 b4 a1 3d 27 7f 81 bc 03 60 28 bd
       -0.14565466 0.07895723 -0.015807701 -0.04110719
0003a0 83 ed fa 3d 8d e3 92 3d 49 a4 69 bd d0 53 1b 3e
       0.12252333 0.07172308 -0.05704144 0.1516869
0003b0 8f 65 3d 3d ba 1b a5 bd b9 f4 70 bc 72 ff 04 3e
       0.046239432 -0.08061929 -0.014706784 0.1298807
0003c0 0a 67 00 be 98 7e 20 bd e7 13 30 be 8f 0f 1b 3c
       -0.12539306 -0.03918323 -0.17195092 0.009464159
0003d0 fb f8 f4 bd ef e4 12 bd 98 fc e3 3b 1a e4 2d be
       -0.11961552 -0.03586286 0.0069576018 -0.16981545
0003e0 19 27 1a 3d d7 55 f1 3d 0b e1 73 bd f8 4a b0 bd
       0.037634943 0.11783951 -0.05954079 -0.08608049
0003f0 92 d3 d8 bd 45 ff 2c 3e 10 72 31 bd d5 d1 02 be
       -0.10587229 0.16894253 -0.04332167 -0.12775357

linear4.bias f4 [32]
000000 d1 01 9b 3d e0 3a d7 bd be 9a a3 3d ab 86 2b 3d
       0.07568706 -0.105092764 0.07988499 0.041876476
000010 33 73 05 3d 78 4e 10 3e 50 b1 a5 bd 3f 7d 22 be
       0.032580566 0.14092433 -0.0809046 -0.1586809
000020 3b 23 89 3c 3e 04 89 3d d7 25 31 be ef ef 49 3d
       0.016740432 0.06690262 -0.17299591 0.049301084
000030 34 71 4a bd 41 fa 5e 3b 2a 3c c3 bd ba eb c9 3d
       -0.049424365 0.0034023675 -0.0953296 0.098594144
000040 2b 0e c9 bd 54 be 00 be be 26 a1 3d 62 a6 1e be
       -0.098171555 -0.12572604 0.078687176 -0.15493158
000050 df 17 0e be 45 17 bf 3d 70 b9 a2 3d a1 36 27 be
       -0.13876294 0.0933061 0.07945526 -0.16329433
000060 84 4a 8e 3c bb dd 2e be 1d 4b de 3c 02 fb 12 3c
       0.017369516 -0.17076771 0.027135426 0.008970978
000070 a1 9c 1b 3c 2c 13 93 3d b7 66 e4 3d 07 cc a1 3d
       0.009497792 0.07181391 0.11152404 0.07900243

linear5.weight f4 [16, 32]
000000 d6 fc 12 3e fd c7 89 3c 28 10 ac bd 90 ed a9 3c
       0.14354262 0.016818995 -0.08401519 0.020743161
000010 a2 b3 0a bd 99 bc 10 be c8 f9 94 bd c3 73 03 3e
       -0.033862717 -0.14134444 -0.072742045 0.12837128
000020 f1 b7 a7 3d c5 14 0f be 00 dc d2 bd 03 ed 83 bd
       0.08189381 -0.13972767 -0.10295868 -0.06441691
000030 a1 97 0d 3e 4f a6 09 be 4a a6 fb 3d d9 2e 27 be
       0.13827373 -0.13442348 0.122875765 -0.16326465
000040 74 f0 c1 bd 61 1a b4 bd ee e6 19 3e 3b 1b 62 3c
       -0.09469691 -0.08794094 0.15029499 0.013800438
000050 25 1b 1c be 02 ff 16 3e 6f 0b 09 3e bf 40 a6 bd
       -0.1524473 0.14745715 0.13383268 -0.08117818
000060 1e a8 28 bd a4 8b 06 3e 26 d9 25 3e 86 8c d1 bd
       -0.041175954 0.13139206 0.16196117 -0.10231881
000070 06 19 5d bd b8 a3 2c 3e aa 37 9b bd f7 82 fb bd
       -0.053978942 0.16859329 -0.075789765 -0.12280839
000080 ab 42 95 3d 86 97 bf 3d 17 39 9b bd eb e3 81 3d
       0.072881065 0.09355073 -0.075792484 0.063423
000090 0e 4a 2b bd 61 90 2d 3c 55 f8 23 bb fc b4 44 3d
       -0.04181867 0.010593505 -0.0025019844 0.048024163
0000a0 f3 48 7b bd 44 3e 8e bd ef 5d 46 3c b1 9f 8e 3d
       -0.061348867 -0.0694547 0.012107356 0.069640525
0000b0 bd a5 f2 3b 12 30 48 bd 20 e5 7c 3d e9 8e e4 3d
       0.0074050114 -0.04887397 0.061741948 0.111600704
0000c0 58 0c 14 3e 1b 35 2b 3d b6 cf d3 bd 17 d1 e6 3d
       0.14457834 0.041798692 -0.10342352 0.112703495
0000d0 a2 80 10 be 1a 17 30 3e 52 e1 18 3d f5 62 34 bd
       -0.1411157 0.17196313 0.037324257 -0.044039685
0000e0 4d b4 2f 3d ec e7 26 be 8b 1a a5 bd ee 84 f1 bc
       0.042896558 -0.16299409 -0.08061703 -0.029482331
0000f0 03 14 33 be 06 78 da 3d 44 c3 75 3d da 6b 0d be
       -0.17488103 0.10667424 0.060000673 -0.13810673
000100 59 14 cb 3d 23 c4 45 bc 55 df 07 be 58 63 0d be
       0.099159904 -0.012070688 -0.13268788 -0.13807428
000110 8e dd 19 3e 86 ef aa 3c ec e0 cb bc 03 b5 30 be
       0.15025923 0.020866167 -0.024887525 -0.1725655
000120 7c ea 8f bd 12 26 c4 bd cf 2e 38 3d 42 c1 9c 3d
       -0.07027146 -0.09577574 0.044966515 0.076540485
000130 dc d3 36 3d f7 fb 2f be cd c0 de bc b4 a1 bc 3d
       0.04463564 -0.1718596 -0.027191544 0.0921053
000140 80 55 7b bc 93 61 26 be 1b 74 51 3d 64 0f f2 3c
       -0.015340209 -0.16248159 0.051136117 0.029548354
000150 88 37 56 bd 70 3c 06 3e eb f4 a5 3d d8 e0 e6 bd
       -0.052299052 0.13108993 0.08103355 -0.11273354
000160 ee 73 30 3e 72 95 d4 3d de 3a b9 bd 09 58 7c 3d
       0.17231724 0.10380067 -0.09044431 0.061607394
000170 9f 94 8e bd a8 85 a6 bd e8 4e 57 bd 97 c4 fa 3d
       -0.06961941 -0.08130962 -0.052565485 0.12244528
000180 b3 d0 fc bd 9f ce e1 3d 59 60 04 be 46 78 23 be
       -0.12344494 0.11025738 -0.12927379 -0.1596385
000190 d3 27 cd bb 9d 33 3e 3d 03 d4 69 bd f8 f0 c6 3d
       -0.006260851 0.04643594 -0.057086956 0.0971393
0001a0 6d 0f 95 bd f9 28 2f 3e 05 5e ba 3d 2b 43 16 be
       -0.07278333 0.17105474 0.09099964 -0.1467406
0001b0 2c 2a ce 3d a5 49 5c 3d 6c cd 81 3c 70 4d 2f 3d
       0.100666374 0.05378117 0.015845023 0.04279846
0001c0 4a 00 bb bd 9c 6e 43 3d af 99 b7 3d df 78 f6 3d
       -0.091309145 0.047712907 0.0896486 0.12034773
0001d0 1f 6c 13 3e 8d 72 39 3d e7 2e 22 3e 45 c1 85 3d
       0.14396714 0.04527526 0.15838204 0.06531004
0001e0 93 b8 e8 3c 99 d8 41 bd 04 42 76 3d 3a 7d bd 3d
       0.028408324 -0.047325704 0.06012155 0.09252401
0001f0 c8 4f f2 3c ad 3e 1d be 0e 60 39 bd 4c 4f bb 3c
       0.029579058 -0.1535594 -0.04525762 0.02286496
000200 8d cf 34 be f6 c7 0e 3e bd e1 33 be 87 11 06 3d
       -0.176573 0.13943467 -0.17566581 0.03273156
000210 a6 69 ce bc 23 14 2a be b6 a4 32 3e 17 ee 71 bd
       -0.025196861 -0.16609244 0.17445645 -0.05906495
000220 f4 53 24 3e fe 5b eb bc 84 ea f0 bd 27 e5 24 be
       0.1604765 -0.028730389 -0.1176348 -0.1610304
000230 e5 03 c5 3d a8 6b f8 3d 23 c4 2c 3e c0 8b 1d 3e
       0.096198834 0.12129909 0.16871695 0.15385342
000240 da ff 25 be bb cf 83 bd be 90 26 3e 3b a0 b2 3d
       -0.16210881 -0.06436106 0.16266152 0.08721968
000250 90 5b 43 bd cb 53 93 3c b0 d1 51 bd 76 63 a4 3d
       -0.047694743 0.017984292 -0.051225364 0.08026783
000260 04 0f aa bd 05 94 86 3d 84 c9 1a 3e f6 53 04 be
       -0.08303645 0.06571201 0.15115935 -0.12922654
000270 83 af e0 bd de f6 8f 3d 14 c5 71 3d b6 5d 3a 3d
       -0.10970976 0.07029508 0.05902584 0.045499526
000280 50 b1 b4 bd 13 03 93 bd 3b 52 b6 3d 68 ba 25 bd
       -0.08822882 -0.07178321 0.08902403 -0.040460974
000290 f8 cd d2 3d b6 f0 05 3d 35 38 b4 bd c0 ef 98 bc
       0.10293192 0.032700263 -0.08799783 -0.01866901
0002a0 77 74 86 bd 73 61 e5 bd a7 09 0e 3e aa 6a 28 3d
       -0.06565183 -0.112002276 0.1387087 0.041117348
0002b0 4d cf 2a 3e 12 53 2b be f6 c9 e0 bd ae 51 16 3e
       0.16680641 -0.16730908 -0.10976021 0.14679596
0002c0 2b 9f 82 bd da b7 0e bd 09 d7 7f bd b3 30 ec 3b
       -0.06378015 -0.034843303 -0.062460933 0.007207954
0002d0 10 31 38 bc 0d c1 af bd 3f 4c f8 3d a2 e0 c5 bd
       -0.011242166 -0.085817434 0.12123918 -0.09661986
0002e0 69 b2 b3 bd c0 ce 09 be 14 cf 23 be 2a c3 1b bb
       -0.087742634 -0.13457775 -0.15996963 -0.002376745
0002f0 00 20 6f 3c 0a 44 b9 3d 31 47 1c 3e 21 2f be bb
       0.014595032 0.090461805 0.15261532 -0.005803958
000300 51 f5 fb bd e9 63 59 3d d6 e6 33 3c 71 ed d9 3c
       -0.1230265 0.053073797 0.010980329 0.026602479
000310 ce 48 60 3c 58 25 93 3c 79 33 c8 3d 54 cd 2c 3e
       0.013689233 0.017962143 0.09775443 0.16875201
000320 05 33 4f 3d e3 1f 39 bd f1 6e 32 bd 7c 0a c8 bd
       0.050585765 -0.045196425 -0.043562833 -0.09767625
000330 42 e9 0f 3e 49 8b a7 bc 3b 85 0f be 63 61 2e be
       0.14053825 -0.020452159 -0.14015667 -0.17029338
000340 f3 7b cf bd e8 bc 31 be c1 03 17 3e 8b 66 93 3d
       -0.10131063 -0.17357218 0.14747526 0.07197293
000350 2a 2c 0b 3e b7 62 7b 3d 66 62 0b 3e 4c 53 e9 bc
       0.13591066 0.06137344 0.13611755 -0.028482102
000360 34 7e cb 3d 8f 1f 18 3e 02 f0 09 be db e9 91 bd
       0.09936181 0.14855789 -0.13470462 -0.071246825
000370 d4 44 f9 bd ca 7c fb bc e8 14 99 3d 8d ce cc ba
       -0.12171331 -0.030699152 0.07474691 -0.0015625522
000380 bc 4e ac ba 06 f6 0a 3e 37 e5 10 3e dd d6 97 3d
       -0.0013146023 0.13570413 0.14149939 0.07414029
000390 8a f2 f4 bc a9 cb 2c be 30 6c 26 3e d6 aa 00 be
       -0.029900808 -0.16874565 0.16252208 -0.12565169
0003a0 b3 03 30 3e a8 ab 01 bd 2a 87 68 bd 17 c3 4b bc
       0.17188911 -0.031657845 -0.056769527 -0.01243665
0003b0 31 33 b2 bd 47 47 0b be 82 f6 5c bd 7b 70 92 bd
       -0.0870117 -0.13601409 -0.053946026 -0.0715036
0003c0 03 28 da bd 6f 76 0c 3e d2 58 fc bd 3f dd ea 3c
       -0.10652163 0.13717054 -0.12321629 0.028669951
0003d0 b3 b7 bc 3c 17 a2 d7 3d 56 72 01 be 69 14 bf bc
       0.023036813 0.10528963 -0.12641272 -0.023325162
0003e0 2a 17 1f 3d 1a a5 fe 3c b0 d0 13 3d b8 28 e0 3b
       0.03884045 0.031084586 0.03608769 0.0068407916
0003f0 36 b7 08 be 08 f6 99 bd 86 08 08 3e 9e 83 7f ba
       -0.1335114 -0.0751763 0.13284501 -0.00097470905

linear5.bias f4 [16]
000000 25 f7 32 3e c2 fd 71 3d 26 ff 9b bd b3 16 13 be
       0.1747709 0.059079893 -0.07617025 -0.14364128
000010 00 b5 e5 bd 44 ae 15 be d6 f4 12 3e 8c f3 88 3c
       -0.11216164 -0.14617258 0.1435121 0.016717695
000020 65 ef b2 3c e0 e1 22 be 6f 6f c6 bb 52 d8 17 3e
       0.021842668 -0.15906477 -0.0060557644 0.14828613
000030 29 c6 f1 bd 1a 09 53 3d ca e2 0e bd ae a9 f5 bd
       -0.11805374 0.05152235 -0.03488425 -0.119952545

output_layer.weight f4 [2, 16]
000000 de f1 4e be 90 08 a1 3d ec 1f 61 3e c8 6f bc bd
       -0.20209453 0.07862961 0.21984833 -0.09201008
000010 54 52 58 3e 70 43 bb 3d 16 3d 02 be 80 e3 91 bb
       0.21125156 0.09143722 -0.12718615 -0.004452169
000020 00 34 01 be e4 1a 64 be 00 03 01 bc a8 d9 ef 3d
       -0.12617493 -0.22275883 -0.00787425 0.117114365
000030 aa 70 5a be e4 b1 b3 3d 80 4d 3e 3b 70 4a 26 3d
       -0.2133204 0.08774164 0.0029037893 0.040598333
000040 08 b2 41 3d 38 8f a1 3d cc 6f 5d be a8 22 61 3e
       0.047288924 0.07888645 -0.21624678 0.21985877
000050 c4 59 b9 3d 46 a1 3b be 60 6b 11 be e0 a2 8a 3d
       0.090503246 -0.1832324 -0.14201117 0.06769347
000060 1e cb 42 be a6 e0 38 be ae 6f 09 be 20 fb 98 bd
       -0.19022796 -0.18054447 -0.13421509 -0.07469773
000070 94 e3 1c be c8 cf ec 3d a0 4b 09 bc 1a 4a 63 3e
       -0.15321189 0.11563069 -0.008379847 0.22196236

output_layer.bias f4 [2]
000000 80 60 0a 3b 3c 83 ff 3d
       0.0021114647 0.12476203
