results/models/batchsize=96,lr=1e-4,layer=6,eps=0.9,num_episodes_train=5000/4/model-74.0.pt (torch, 17506 bytes, 12 tensors)

linear1.weight f4 [16, 4]
0	0xbee9e782	-0.4568444
1	0xbec3da86	-0.38252658
2	0xbe8cf7fc	-0.27532947
3	0x3c85adc0	0.016318202
4	0xba3bc763	-0.0007163195
5	0xbef1ad61	-0.4720259
6	0x3eb39a6b	0.3507875
7	0xbe04b54d	-0.12959786
8	0x3e4ebddc	0.20189613
9	0xbd80ae10	-0.062832
10	0xbe39dddc	-0.18151039
11	0x3d6fef90	0.058578074
12	0xbd6badab	-0.05753867
13	0xbcce34a5	-0.025171587
14	0x3d3fcaa0	0.046824098
15	0x3e81b2fd	0.2533187
16	0x3e4a133c	0.197339
17	0xbe9c0c9b	-0.30478367
18	0xbdfd162c	-0.123577446
19	0x3e726878	0.23672664
20	0xbe904a0b	-0.2818149
21	0xbe59830f	-0.21241401
22	0xbe69b7ee	-0.2282407
23	0x3e591726	0.21200237
24	0x3e89a1cd	0.26881257
25	0xbc8d9438	-0.01728259
26	0xbf453023	-0.77026576
27	0xbe35275e	-0.17690799
28	0xbed4c039	-0.41552904
29	0x3ea160dd	0.31519213
30	0xbdd2f8fd	-0.10301397
31	0x3ed910c3	0.423956
32	0x3ec0672e	0.3757872
33	0xbe8aa4b3	-0.2707878
34	0xbed51b2c	-0.41622293
35	0xbe9f9e17	-0.311753
36	0x3e75116d	0.23932429
37	0xbdf1f47e	-0.11814211
38	0x3ebc0973	0.3672596
39	0x3ca156d3	0.019694721
40	0xbeea3cae	-0.4574942
41	0x3e628bb5	0.22123607
42	0x3d4b0f10	0.04957491
43	0xbd98280a	-0.07429512
44	0xbf4a1378	-0.78935957
45	0xbecb7b78	-0.39742637
46	0x3f76de61	0.96433073
47	0x3f25a59c	0.64705825
48	0xbe5fb3c9	-0.21845926
49	0xbf0516a3	-0.51987666
50	0x3e38561b	0.18001597
51	0x3d054098	0.032532305
52	0x3e5baa94	0.21451789
53	0xbf1b5f78	-0.6069255
54	0xbf112015	-0.5668958
55	0x3d9df0d1	0.07711948
56	0xbf2ffd8a	-0.68746245
57	0xbe55993f	-0.2085924
58	0x3e8f05da	0.27934152
59	0x3e81b5de	0.25334066
60	0xbf2a2f3b	-0.6647832
61	0xbea7ee27	-0.32798883
62	0x3f30149f	0.68781465
63	0x3e9bf2cb	0.30458674

linear1.bias f4 [16]
0	0x3eba59c0	0.363966
1	0x3ee5cb40	0.4488163
2	0xbefd8420	-0.49514866
3	0x3f173483	0.590645
4	0x3f2c3c09	0.67279106
5	0x3f116066	0.5678772
6	0x3da79f44	0.081846744
7	0x3f16cd43	0.58906955
8	0x3f14684a	0.5797163
9	0x3e566f50	0.209409
10	0xbec1f14b	-0.37879404
11	0x3d9bbd56	0.07604472
12	0x3f246edb	0.6423165
13	0xbd560f04	-0.052260414
14	0x3e3a6274	0.1820162
15	0xbe68e9be	-0.22745416

linear2.weight f4 [32, 16]
0	0x3edd4a77	0.43220875
1	0x3ea8bd2c	0.32956827
2	0x3dc3723c	0.09543273
3	0xbcb5e2e3	-0.022202915
4	0x3e8e7ab4	0.2782799
5	0x3e915619	0.28386
6	0x3d66fbb4	0.056392387
7	0x3e45cffe	0.19317624
8	0x3e00f812	0.12594631
9	0x3e53f240	0.2069788
10	0x3e19776c	0.14986962
11	0xbe8ee1f2	-0.27906758
12	0x3ec4221c	0.38307273
13	0x3e5cd077	0.21563898
14	0xbe524bed	-0.20536776
15	0xbe94fec0	-0.2910061
16	0x3f0078fd	0.50184613
17	0x3cb1a9e1	0.02168745
18	0x3db49da0	0.08819127
19	0x3eb4917b	0.35267243
20	0x3ea92608	0.33036828
21	0x3e801fa9	0.25024155
22	0xbe1621f3	-0.14661388
23	0x3e332455	0.17494328
24	0xbdbc5bdb	-0.091972075
25	0x3e25fa14	0.16208678
26	0x3e104a83	0.14090924
27	0xbd014927	-0.031563904
28	0x3eb61fd8	0.3557117
29	0x3e953b92	0.2914701
30	0xbe60be34	-0.21947557
31	0xbe776eee	-0.2416341
32	0x3e5c106e	0.21490642
33	0x3d25eeda	0.04051099
34	0x3e4c1c94	0.19932777
35	0x3e437218	0.19086492
36	0xbdad077c	-0.08448693
37	0xbe25f7b8	-0.16207778
38	0xbbe6ab40	-0.0070394576
39	0x3d8a7cbd	0.06762073
40	0xbe033886	-0.1281453
41	0x3e1cf74a	0.15328708
42	0x3e7ea65e	0.24868152
43	0x3daf119b	0.0854828
44	0xbb86c535	-0.0041128644
45	0xbafbf26d	-0.0019222029
46	0xbdd1de9b	-0.10247537
47	0x3d1390b0	0.036026657
48	0x3e79e5bf	0.24404047
49	0x3e3d8619	0.18508185
50	0x3e78192a	0.2422835
51	0x3c581e0a	0.013190756
52	0x3e5a906a	0.21344152
53	0x3e673e50	0.22582364
54	0xbe8a2424	-0.26980698
55	0x3c0def53	0.008663016
56	0x3d2123c5	0.039340753
57	0xbe6d3504	-0.23164755
58	0xbd0e6b46	-0.034770273
59	0xbea70de0	-0.32627773
60	0x3e3482e3	0.17628054
61	0x3e720273	0.23633747
62	0xbda2bb43	-0.079458736
63	0xbee045ba	-0.43803197
64	0x3ecdf813	0.40228328
65	0xbe05a7b5	-0.13052256
66	0x3e58b6d0	0.21163487
67	0xbdfce7c6	-0.12348895
68	0x3e7cae4e	0.24675867
69	0x3e1d8d3a	0.15385905
70	0xbe87d6a5	-0.26530948
71	0x3eae6ab0	0.3406577
72	0xbdfa69e4	-0.12227228
73	0x3e8a8746	0.2705633
74	0x3de73671	0.11289681
75	0xbeea6502	-0.45780188
76	0x3ee08ee2	0.4385901
77	0x3ede4476	0.43411607
78	0xbea4806c	-0.32129228
79	0xbe76d80e	-0.24105856
80	0xbdab449d	-0.08362696
81	0x3e1a309d	0.15057607
82	0xbde0b1d8	-0.10971421
83	0xbe1e557a	-0.15462294
84	0xbd4a2c0d	-0.049358416
85	0x3e026dc2	0.12737182
86	0x3c164cc1	0.009173573
87	0x3cada0a3	0.021194762
88	0xbda84878	-0.08216947
89	0x3e90fb09	0.28316525
90	0x3e4e8ede	0.20171687
91	0xbde3a31b	-0.11115094
92	0x3dbb92a6	0.0915883
93	0x3dd2d0a4	0.10293701
94	0x3c26368d	0.010144842
95	0xbeb53f6f	-0.35399958
96	0xbe542ac0	-0.20719433
97	0x3cb46090	0.0220187
98	0x3e23d7c6	0.1600028
99	0x3e52eb04	0.20597464
100	0xbe7f9228	-0.24958098
101	0xbda86908	-0.08223158
102	0x3e6c5f06	0.23083124
103	0xbd52fe40	-0.051512003
104	0xbe433a40	-0.1906519
105	0xbdacae40	-0.08431673
106	0xbe14df10	-0.14538217
107	0xbb8d1540	-0.0043055117
108	0x3d963994	0.07335201
109	0x3e3bf568	0.18355334
110	0xbe4278ae	-0.18991348
111	0xbe1a8eb4	-0.150935
112	0xbe123dad	-0.1428134
113	0xbd324ccd	-0.043530274
114	0xbe480210	-0.19532037
115	0x3e5e7532	0.21724394
116	0xbe5935ad	-0.21211882
117	0x3de92e42	0.11385776
118	0xbc0b53c0	-0.008503854
119	0xbdd5a696	-0.10432164
120	0x3e8da35f	0.27663705
121	0x3d160388	0.03662446
122	0x3e354c5d	0.17704912
123	0xbeefa553	-0.4680582
124	0x3dc3cb46	0.09560256
125	0xbc1b80d3	-0.009491163
126	0xbf0cf712	-0.550645
127	0xbe49cba9	-0.19706596
128	0x3d16a983	0.036782753
129	0xbda8a66a	-0.08234866
130	0x3bcaf4c0	0.0061937273
131	0x3d64c9a6	0.05585637
132	0x3e711d17	0.23546253
133	0x3da2fe8a	0.07958706
134	0xbf095bb3	-0.53655547
135	0x3e51d7d8	0.20492494
136	0xbecaf9c7	-0.3964369
137	0xbc177e77	-0.00924646
138	0x3e25f044	0.16204935
139	0x3f06d4be	0.5266837
140	0x3ec7c757	0.39019272
141	0xbedfa9d5	-0.4368426
142	0x3e8275d9	0.25480536
143	0x3e5398ee	0.20663807
144	0x3eba447b	0.3638037
145	0x3da0a190	0.078433156
146	0x3bc48e00	0.005998373
147	0x3de2deae	0.11077629
148	0x3e00476e	0.12527248
149	0x3cdbeb6b	0.026845654
150	0xbf00a19f	-0.50246614
151	0x3ea85785	0.32879272
152	0x39a52aae	0.0003150305
153	0xbddabcf2	-0.1068057
154	0xbd87bf9b	-0.06628343
155	0x3bf45878	0.0074568354
156	0x3dc839f3	0.09776678
157	0x3e943617	0.28947517
158	0x3de7353d	0.11289451
159	0xbe986a27	-0.29768488
160	0x3d7e6530	0.06210822
161	0xbe113622	-0.14180806
162	0xbe1752ce	-0.14777681
163	0xbdf2fb98	-0.11864394
164	0xbe257a4c	-0.16159934
165	0xbe7ba994	-0.24576408
166	0x3e4fd0b6	0.2029446
167	0xbd87a784	-0.06623748
168	0xbe65b46a	-0.22432104
169	0xbe4d3f22	-0.20043615
170	0x3d9c6744	0.07636884
171	0xbd94d240	-0.072666645
172	0x3db65aec	0.08904061
173	0x3e23a7a2	0.15981916
174	0xbd4b4178	-0.049622983
175	0x3dad0b00	0.08449364
176	0xbdd301e7	-0.10303097
177	0x3e5cc496	0.21559367
178	0x3d178348	0.036990434
179	0xbd2100a4	-0.03930725
180	0xbc0c78ed	-0.008573753
181	0xbdc779d5	-0.097400345
182	0xbd7194c7	-0.058979776
183	0x3e71662c	0.23574132
184	0x3e0f10c0	0.13971233
185	0x3dac47c7	0.08412128
186	0x3e5b2c0d	0.21403523
187	0xbea9a5ac	-0.3313421
188	0x3e959a53	0.29219303
189	0x3db66757	0.08906429
190	0xbda20e0d	-0.07912836
191	0xbe588865	-0.2114578
192	0x3e9f83f9	0.31155375
193	0xbda577cc	-0.0807949
194	0x3e7b387c	0.24533266
195	0x3ce3a3cb	0.027788064
196	0x3cc843b9	0.024446355
197	0x3d912a4a	0.07088144
198	0xbe3d974e	-0.1851475
199	0x3eb3d849	0.3512595
200	0xbe4362a5	-0.19080599
201	0x3e200f26	0.15630779
202	0x3e8d114a	0.27552253
203	0xbe914a7b	-0.28377137
204	0x3d69c7b9	0.057075236
205	0x3ec5227e	0.38502878
206	0xbe1d5154	-0.15363055
207	0xbeb78c29	-0.3584912
208	0x3d9e3de3	0.07726648
209	0x3e02935a	0.12751523
210	0x3d055080	0.032547474
211	0xbe32b299	-0.17450942
212	0x3dadcbf6	0.08486168
213	0x3d283be7	0.041072752
214	0xbdc4b37f	-0.09604549
215	0x3c8ce05a	0.017196823
216	0x3d43a501	0.04776478
217	0xbcb3c0bd	-0.02194249
218	0xbe2378f8	-0.15964115
219	0xbd2804dc	-0.04102026
220	0x3da8fda4	0.08251503
221	0x3e9fe847	0.312319
222	0xbee558dd	-0.4479436
223	0xbe6c790f	-0.23093055
224	0x3e97d4b5	0.2965447
225	0x3e35c70f	0.17751716
226	0xbc257d80	-0.010100722
227	0x3d2b56fa	0.041830994
228	0xbd1d15f4	-0.038351014
229	0x3e6bd538	0.23030555
230	0xbe9ca319	-0.30593184
231	0x3cc4aba5	0.024007628
232	0x3dc03516	0.09385125
233	0x3c9edca0	0.019392312
234	0x3e261f7f	0.16222952
235	0xbe7210dd	-0.23639245
236	0x3e0d6f30	0.13811946
237	0x3ebc3d5c	0.36765563
238	0xbe29d9c5	-0.16586979
239	0xbe701c9c	-0.23448414
240	0xbe17a48a	-0.1480886
241	0x3e30c776	0.17263588
242	0xbdaaa77c	-0.08332726
243	0xbe73e308	-0.23817074
244	0x3e138c0e	0.14408895
245	0xbe0a1c44	-0.13487345
246	0xbdafa4d0	-0.08576357
247	0xbe6185c8	-0.2202369
248	0x3c939f30	0.018020242
249	0xbe7ca0d4	-0.24670726
250	0x3de41528	0.11136848
251	0x3d22b2c8	0.03972128
252	0xbe7702f0	-0.24122214
253	0x3e508830	0.20364451
254	0xbe41075e	-0.18850467
255	0xbe0ad644	-0.13558298

linear2.bias f4 [32]
0	0x3e1e2132	0.1544235
1	0x3e3a6dd5	0.1820596
2	0xbe6f3648	-0.2336055
3	0x3dc290c9	0.09500272
4	0x3e79779e	0.24362037
5	0x3e9f056b	0.3105882
6	0xbe69996c	-0.22812432
7	0x3e95ef6a	0.2928422
8	0x3bb7e321	0.0056117927
9	0x3e7b9256	0.24567541
10	0xbc55dc20	-0.01305297
11	0x3ddef5a5	0.10886697
12	0x3e759156	0.23981223
13	0x3ea9681c	0.33087242
14	0x3d46e5d1	0.048559014
15	0xbb85d100	-0.0040837526
16	0xbd26351a	-0.040577985
17	0xbd08c40f	-0.0333901
18	0xbe5bbc3e	-0.21458527
19	0x3e9d8382	0.30764395
20	0xbe19e31e	-0.15028045
21	0x3e343cc2	0.17601302
22	0xbe0aa898	-0.13540876
23	0xbd3f9578	-0.046773404
24	0x3dcb0738	0.09913486
25	0x3e91099a	0.28327638
26	0x3e77a875	0.24185355
27	0x3d776432	0.060398288
28	0x3e948c12	0.29013115
29	0x3e309dc4	0.17247683
30	0x3c7e15bc	0.015508112
31	0x3d51234e	0.05105906

linear3.weight f4 [32, 32]
0	0x3e48c858	0.19607675
1	0x3e5f82ee	0.2182729
2	0xbe3a89b0	-0.18216586
3	0x3e9cb81a	0.30609208
4	0x3e39faf6	0.1816214
5	0x3e2e509f	0.17022942
6	0xbdd36616	-0.10322206
7	0x3d0c616b	0.034272593
8	0xbf0e00ae	-0.5546979
9	0x3dbe76c4	0.092999965
10	0xbe322ec6	-0.17400655
11	0x3e2a7258	0.16645181
12	0x3e6dc32e	0.23218986
13	0x3e058f0f	0.13042854
14	0x3e0ef3c5	0.13960178
15	0xbd06dc77	-0.032925095
16	0x3e2acf0f	0.16680549
17	0x3dac32dc	0.08408138
18	0x3d206f48	0.039168626
19	0x3e9d1d5e	0.30686468
20	0xbdf0e8b1	-0.11763132
21	0x3d786f9a	0.060653307
22	0x3bad45b1	0.005287849
23	0xbda48fc1	-0.080352314
24	0x3e806fbc	0.25085247
25	0x3e605f11	0.21911265
26	0x3e62324a	0.22089496
27	0xbb83ce7b	-0.004022417
28	0x3d573b54	0.052546814
29	0x3e0bdd1a	0.13658562
30	0x3d812956	0.06306712
31	0x3eaf538b	0.34243426
32	0xbcb98d23	-0.022650307
33	0x3e1237b8	0.14279068
34	0x3df5a0d5	0.11993567
35	0x3e6cbd25	0.23119028
36	0x3ee9c6f0	0.4565959
37	0xbdad00da	-0.08447428
38	0xbda3c81b	-0.079971515
39	0x3e0d8399	0.13819732
40	0xbe846ced	-0.25864354
41	0x3e8b4f2d	0.27208844
42	0xbdbcf2ee	-0.09226023
43	0xbc576592	-0.013146775
44	0x3e9f9319	0.31166914
45	0x3d13611b	0.03598128
46	0x3e53b023	0.2067266
47	0x3e2a2478	0.16615474
48	0x3da785e9	0.08179838
49	0x3bdfe606	0.006832841
50	0xbd66742c	-0.056263134
51	0x3e9779dc	0.2958516
52	0xbd301b35	-0.042994697
53	0x3e8d9ae7	0.27657244
54	0xbdad78a6	-0.084702775
55	0xbd8da754	-0.06916681
56	0x3cfbd5ac	0.030741535
57	0xbcd89743	-0.026439315
58	0x3cedbadf	0.029019771
59	0x3de9dc58	0.1141898
60	0x3e82741f	0.25479218
61	0x3e1679e5	0.14694937
62	0x3e911194	0.28333724
63	0x3ca65ffa	0.020309437
64	0x3dd60b6c	0.10451397
65	0xbcbdc23c	-0.023163907
66	0xbd6377c8	-0.055534154
67	0x3e35d945	0.17758663
68	0x3eda11ba	0.4259165
69	0x3df2c8f5	0.11854736
70	0x3dd82c60	0.10555339
71	0x3c0cdeba	0.008598024
72	0xbef03b41	-0.46920207
73	0x3d2d30b9	0.042282794
74	0xbd2833d2	-0.041065045
75	0x3e8a209d	0.26978007
76	0x3f02fda4	0.51168275
77	0x3dadf69d	0.084943034
78	0x3dce99a8	0.10087901
79	0xbdd79fb1	-0.105285056
80	0x3e910f5d	0.28332034
81	0x3d1f68fc	0.03891848
82	0x3cc6d997	0.024273677
83	0x3e68df5f	0.2274146
84	0xbcda0d65	-0.026617715
85	0x3dde8c1e	0.10866569
86	0x3cc697a7	0.024242235
87	0xbad7297f	-0.0016415565
88	0x3e53cdd9	0.20683993
89	0x3e5ac330	0.2136352
90	0x3e955848	0.29168916
91	0xbbe32fa0	-0.0069331676
92	0x3e943584	0.2894708
93	0xbc21f4ee	-0.009885056
94	0x3d931ace	0.07182847
95	0x3e360a2d	0.17777319
96	0x3e721e43	0.23644356
97	0x3e9fcfd7	0.31213257
98	0xbdcdfa0f	-0.100574605
99	0x3e99871a	0.29985887
100	0x3e991a7a	0.29903013
101	0x3e482c92	0.19548252
102	0x3dd7d1f4	0.10538092
103	0x3d510e2c	0.051038906
104	0xbdc9010b	-0.09814652
105	0x3cacd518	0.021097705
106	0x3bab0db5	0.00522014
107	0x3d2fae4c	0.04289083
108	0x3eb9fc6d	0.36325398
109	0xbd71c412	-0.059024878
110	0x3eb4bfc9	0.3530257
111	0xbdacf589	-0.084452696
112	0xbc92d29a	-0.017922688
113	0x3dfbc9ad	0.12294326
114	0xbd3a2e88	-0.045454532
115	0x3ea01819	0.31268385
116	0xbe05e030	-0.13073802
117	0x3e9f199c	0.31074226
118	0xbe035c4a	-0.12828174
119	0x3bc5ebea	0.006040086
120	0x3dcbbec5	0.09948496
121	0x3e748788	0.23879826
122	0x3ea9dcab	0.3317617
123	0x3dd735a5	0.10508279
124	0x3e5b7e94	0.21435004
125	0x3e5c1bb0	0.21494937
126	0x3dc3a400	0.09552765
127	0x3ec3c573	0.3823658
128	0x3d225dcc	0.039640233
129	0xbe331e65	-0.17492063
130	0xbd47eecc	-0.04881172
131	0x3da7d667	0.08195191
132	0x3d831d8c	0.0640212
133	0x3d12767d	0.03575753
134	0xbd83696f	-0.06416594
135	0xbd58868e	-0.052862696
136	0xbda2b439	-0.07944531
137	0xbdc07b89	-0.093985625
138	0xbe24b70d	-0.16085453
139	0x3dd04d98	0.1017105
140	0xbda11a76	-0.07866375
141	0xb8b06b76	-8.41235e-05
142	0xbd3e1ed0	-0.046416104
143	0xbb4c7bd2	-0.0031201732
144	0xbe1cb1d3	-0.1530221
145	0xbd82ed3d	-0.06392906
146	0xbdbe1d1f	-0.09282898
147	0x3dfe8876	0.124283716
148	0x3c8568a3	0.016285246
149	0xbd95963e	-0.07304047
150	0xbdf68969	-0.12037928
151	0x3e1a7952	0.15085343
152	0xbdc1a698	-0.09455603
153	0xbd3922e9	-0.04519931
154	0xbe573e42	-0.21019843
155	0xbdde74c5	-0.10862116
156	0xbd5321bf	-0.051545855
157	0x3dc94589	0.09827716
158	0xbc671912	-0.014105098
159	0xbc706730	-0.014673039
160	0xbe5c19b9	-0.21494187
161	0x3be5c9ec	0.0070125964
162	0x3dbc0100	0.09179878
163	0xbe1d64f3	-0.1537054
164	0x3d54ad51	0.0519231
165	0xbe245f60	-0.16052008
166	0xbde478c7	-0.11155849
167	0xbe1058b0	-0.14096332
168	0xbd95800f	-0.07299816
169	0x3dbbf6a3	0.091779016
170	0xbe2074ec	-0.15669602
171	0x3d8d811d	0.06909392
172	0xbd4292bb	-0.047503214
173	0x3dbe8d77	0.09304326
174	0x3cd5ba13	0.026089704
175	0xbbb90915	-0.0056468346
176	0xbceb1d91	-0.028700622
177	0x3e255cc6	0.16148672
178	0xbde7ac81	-0.113121994
179	0x3c86528e	0.016396787
180	0xbc1e5499	-0.009663724
181	0x3dd59739	0.10429234
182	0xbdd8dc66	-0.10588913
183	0xbdc8c102	-0.09802438
184	0x3df2acad	0.118493415
185	0x3dc63055	0.09677187
186	0x3d3b15ff	0.045675274
187	0x3d0fd5aa	0.035115875
188	0x3c6586b6	0.014009168
189	0xbc0ea479	-0.0087062055
190	0xbe25b073	-0.16180591
191	0xbc92a1d6	-0.017899435
192	0x3e69c110	0.22827554
193	0x3e3d1bcf	0.1846764
194	0xbd2417e5	-0.04006185
195	0x3eaa092e	0.3321013
196	0x3eac66e0	0.33672237
197	0x3e1b3bf7	0.15159594
198	0xbdc2f3e8	-0.09519178
199	0x3da37e9f	0.079831354
200	0xbee0e954	-0.43928015
201	0x3d9699bc	0.07353541
202	0xbe00391e	-0.12521788
203	0x3e6fd0ef	0.23419546
204	0x3efcdd5d	0.49387637
205	0x3e7f2d65	0.2491966
206	0x3e3fe437	0.18739401
207	0xbe216f37	-0.15765081
208	0x3e3e2f67	0.1857277
209	0x3ddaeda8	0.106898606
210	0x3df0283d	0.11726425
211	0x3e174438	0.14772117
212	0xbdf81104	-0.121126205
213	0xbd0ed5bf	-0.034871813
214	0xbe31cd27	-0.17363416
215	0xbdd9fdac	-0.10644087
216	0x3e7e998c	0.24863261
217	0x3e0681b8	0.13135421
218	0x3d60a8a0	0.054848313
219	0xbe1e16d4	-0.15438396
220	0x3daee64b	0.08540019
221	0xbc89324c	-0.016747616
222	0x3e64cf90	0.22344804
223	0x3ea4d693	0.32194957
224	0x3e39bbeb	0.18138091
225	0x3df1c70f	0.118055455
226	0x3dbb2f8e	0.0913993
227	0x3e87e331	0.2654052
228	0x3eafeec2	0.34361845
229	0x3d931f7e	0.07183741
230	0xbe19e392	-0.15028217
231	0x3df4f27c	0.11960313
232	0xbed98d6b	-0.42490706
233	0x3dc28a13	0.09498992
234	0x3e29e23b	0.16590206
235	0x3e42f403	0.19038396
236	0x3eb1a3e4	0.3469535
237	0x3d86adb5	0.06576101
238	0x3e2db9df	0.16965435
239	0x3df9ef51	0.12203849
240	0x3e66603d	0.2249765
241	0x3e02a09b	0.12756579
242	0x3daa7e14	0.08324829
243	0x3e20ce58	0.15703714
244	0xbd694dc0	-0.056958914
245	0x3cbff99b	0.02343445
246	0xbd81cb25	-0.06337575
247	0x3da35aa6	0.07976274
248	0x3dbcfaa1	0.09227491
249	0x3b9d3da1	0.0047986065
250	0x3d81adaa	0.06331952
251	0xbdfc2f96	-0.12313764
252	0x3e5f961d	0.21834607
253	0x3e6fc815	0.23416169
254	0x3e96c518	0.29447246
255	0x3e0fd110	0.14044595

linear3.bias f4 [32]
0	0x3e107c85	0.1411
1	0x3d77ecba	0.060528494
2	0xbc950965	-0.018192956
3	0x3e523b7e	0.20530507
4	0x3c9af6ba	0.018916477
5	0xbe019e57	-0.12658058
6	0x3d0b1e1b	0.033964258
7	0x3e24ecea	0.16106
8	0x3e47ccc1	0.19511701
9	0x3e4ac6a9	0.19802345
10	0x3ddc609e	0.10760616
11	0xbd38e551	-0.04514057
12	0x3bcc46f3	0.0062340437
13	0x3e0d78bb	0.13815586
14	0x3d79482c	0.060859844
15	0x3db98478	0.090584695
16	0x3e2f3609	0.17110457
17	0x3e4a1062	0.19732812
18	0xbc151e6c	-0.009101491
19	0x3e4b4c9d	0.19853444
20	0x3e584fa3	0.21124129
21	0x3de97218	0.11398715
22	0x3d687446	0.056751512
23	0x3e4faaa7	0.20279942
24	0x3e6c6dc3	0.23088746
25	0xbb1ff9be	-0.0024410333
26	0x3da97c4a	0.082756594
27	0xbca29102	-0.019844536
28	0xbe314f39	-0.17315377
29	0x3db9512d	0.09048686
30	0x3e2eefdb	0.17083685
31	0xbd025042	-0.03181482

linear4.weight f4 [32, 32]
0	0xbcdd14ec	-0.026987515
1	0xbbbc91e6	-0.005754697
2	0x3dfeef5a	0.124479964
3	0x3d49b74e	0.04924708
4	0x3e02273b	0.12710278
5	0x3e11f77b	0.14254563
6	0xbd4984cb	-0.049198907
7	0xbe1680a6	-0.14697513
8	0xbe042614	-0.1290515
9	0xbdb8af30	-0.09017789
10	0xbdbcf826	-0.09227018
11	0xbdc1d007	-0.09463506
12	0xbe2535c1	-0.16133787
13	0xbe234c12	-0.15946987
14	0x3e3566d9	0.17715015
15	0xbd0129d5	-0.031534035
16	0xbc580238	-0.013184123
17	0x3e5b7c8a	0.21434227
18	0xbe6895cd	-0.22713394
19	0x3dd7b5f7	0.10532754
20	0xbe12d8e8	-0.14340556
21	0x3f023d96	0.5087522
22	0x3db065a6	0.08613138
23	0x3d13ce92	0.036085673
24	0x3e1524eb	0.14564864
25	0x3d8bb3e3	0.0682142
26	0x3da92b20	0.082601786
27	0xbe1727b1	-0.14761235
28	0xbe1c5f55	-0.15270741
29	0x3dd71873	0.1050271
30	0x3ec1fa9a	0.37886506
31	0x3f0f244d	0.55914766
32	0x3e8b6161	0.27222732
33	0x3eb5bf7c	0.35497653
34	0x3e21ce90	0.15801454
35	0x3e624601	0.22097017
36	0xbd8990b9	-0.06717057
37	0xbc67ca2b	-0.014147322
38	0x3e9f8b59	0.31161
39	0x3e36bf74	0.17846471
40	0x3e71ef66	0.2362648
41	0x3e8b655f	0.27225778
42	0x3e4cc6cd	0.19997711
43	0x3cbd0196	0.023072045
44	0x3d5ed4b6	0.054402076
45	0x3ea87ed3	0.3290926
46	0x3d1a25a2	0.037633546
47	0xbe033bb6	-0.12815747
48	0x3e790715	0.24319108
49	0x3e5a4e6e	0.21318981
50	0x3e64808f	0.22314666
51	0x3e246421	0.16053821
52	0x3eb731bc	0.35780132
53	0xbe9f7008	-0.3114016
54	0x3d79305d	0.06083714
55	0x3e8d6664	0.2761718
56	0x3e8ff2a2	0.28114802
57	0x3e02eb7d	0.12785144
58	0x3e567412	0.20942715
59	0x3ab41c7b	0.0013741398
60	0x3e174304	0.14771658
61	0xbdecd90f	-0.11564838
62	0x3d112751	0.035437886
63	0xbe7ddf1f	-0.24792145
64	0x3e5c9d95	0.21544488
65	0x3df34852	0.118790284
66	0x3dfd4598	0.123667896
67	0x3d6e96fe	0.058249466
68	0xbd86a021	-0.06573511
69	0xbd876df6	-0.0661277
70	0x3e07d52b	0.13264911
71	0x3df332c3	0.118749164
72	0x3e443ba1	0.19163372
73	0x3e41e09b	0.18933336
74	0x3cb6caa6	0.022313427
75	0xbde64121	-0.11242891
76	0x3e9e9cc4	0.30978978
77	0x3e769e39	0.24083795
78	0x3e0832af	0.13300584
79	0x3e19708f	0.14984344
80	0x3e5964d9	0.21229877
81	0x3e84899f	0.25886247
82	0x3cacddbf	0.02110183
83	0x3e6b8d8d	0.23003216
84	0x3e5019b6	0.20322308
85	0xbf3eac45	-0.7448161
86	0x3e67a347	0.22620879
87	0xbba01e3a	-0.004886416
88	0x3d46bf6b	0.048522394
89	0x3de483c9	0.111579485
90	0x3e520136	0.20508274
91	0xbdb285f9	-0.087169595
92	0x3dc91e00	0.09820175
93	0x3d82a163	0.06378438
94	0xbe01d0ef	-0.12677358
95	0xbeb21f7a	-0.3478964
96	0x3d1d817b	0.03845356
97	0xbd46a7d9	-0.048499916
98	0x3dc4d975	0.09611789
99	0xbd53b805	-0.051689167
100	0xbe18ec2f	-0.14933847
101	0xbdc60cf8	-0.09670442
102	0xbc41e904	-0.01183534
103	0xbdb04c73	-0.086083315
104	0xbb9e88ec	-0.0048380997
105	0x3e2aeee6	0.16692695
106	0xbdc40b2b	-0.095724426
107	0x3da51604	0.0806084
108	0x3cad0969	0.021122651
109	0x3b5dcb42	0.0033843075
110	0xbe194674	-0.14968282
111	0x3cb505d5	0.022097507
112	0xbe12bdcb	-0.14330213
113	0x3cc7d49d	0.024393374
114	0x3dda28dd	0.10652325
115	0xbe32e884	-0.1747151
116	0xbcbd34c5	-0.023096452
117	0xbe24c0b0	-0.1608913
118	0x3e1d8bcf	0.15385364
119	0xbe0fb323	-0.14033179
120	0xbca4eb2e	-0.020131674
121	0x3e2e503e	0.17022797
122	0x38c142d9	9.2154085e-05
123	0x3d9bfbfa	0.0761642
124	0xbc89d1ab	-0.01682361
125	0xbdd47d84	-0.10375503
126	0xbd93d96d	-0.07219205
127	0x3e0fb249	0.14032854
128	0x3dd9f6d4	0.10642782
129	0xbe33b503	-0.17549519
130	0x3c8e530c	0.017373584
131	0xbdb94185	-0.090457
132	0xbd6d7308	-0.05797103
133	0xbdf7930a	-0.12088592
134	0x3cdfc9b4	0.02731786
135	0x3d4d2132	0.050080486
136	0xbd26dfa8	-0.04074064
137	0x3e0a9d9b	0.13536684
138	0xbc523083	-0.012828949
139	0xbdfb1412	-0.122596875
140	0x3b445471	0.0029957558
141	0xbdbd3876	-0.09239285
142	0x3da69f4e	0.08135854
143	0xbe1c409c	-0.15259022
144	0xbe00ef2c	-0.12591237
145	0x3e1070d7	0.14105545
146	0xbc6c26fa	-0.01441359
147	0xbe34ca8d	-0.17655392
148	0xbd25c4ae	-0.04047077
149	0xbdcfb2bc	-0.10141513
150	0x3c705519	0.014668726
151	0x3b9ada92	0.0047257626
152	0x3d557a0f	0.052118357
153	0xbe23c351	-0.15992476
154	0xbdbcfd9b	-0.09228059
155	0x3dc50a3c	0.09621093
156	0x3e0a9747	0.1353427
157	0xbdac7cda	-0.08422251
158	0x3e0d8eb0	0.13823962
159	0x3dab6688	0.08369166
160	0x3e59a8e9	0.2125584
161	0x3e8939e0	0.26801968
162	0x3e743b7e	0.2385082
163	0x3e898bfb	0.2686461
164	0x3d837395	0.0641853
165	0x3d90101d	0.07034323
166	0x3e1f3e02	0.15550998
167	0x3d401ba0	0.046901345
168	0xbd054ab2	-0.032541938
169	0x3e34cebb	0.17656986
170	0x3cca9de2	0.024733488
171	0xbe273018	-0.1632694
172	0x3e526546	0.20546445
173	0x3ca8a60a	0.020586986
174	0x3e235b62	0.15952829
175	0x3dc7d0d4	0.09756628
176	0x3e218c2b	0.15776126
177	0x3d4e2d90	0.05033642
178	0x3dbc5842	0.09196521
179	0x3deedb10	0.116628766
180	0x3e2fdf76	0.17175087
181	0xbed803c0	-0.4219036
182	0x3d17d9c5	0.037072916
183	0x3e8a8f0b	0.27062258
184	0x3d0bdc38	0.034145564
185	0x3d6bb3e8	0.05754462
186	0x3d8dac0a	0.069175795
187	0xbd3f4560	-0.04669702
188	0x3d6f6ae9	0.058451567
189	0xbe2b73ec	-0.1674344
190	0x3dc5d7b4	0.09660283
191	0x3c88d50c	0.016703151
192	0x3db230fb	0.087007485
193	0x3cde126c	0.027108394
194	0x3e9e9090	0.30969667
195	0xbd462a2a	-0.048380055
196	0xbe281a7f	-0.16416357
197	0xbe25df52	-0.16198471
198	0x3e779e18	0.24181402
199	0x3e1ebf91	0.15502764
200	0x3b3c938b	0.0028774466
201	0x3affcbd0	0.0019515697
202	0x3e7c7b3a	0.24656382
203	0x3cd5402f	0.026031582
204	0x3e7a7257	0.2445768
205	0x3e8d0211	0.2754064
206	0x3e34e5e0	0.17665815
207	0xbdcaeb0a	-0.099081114
208	0x3e652930	0.22378993
209	0xbd60dcbf	-0.05489802
210	0x3ea5254f	0.32255027
211	0x3e76b91a	0.24094048
212	0x3e4dcdf6	0.20098099
213	0xbf087321	-0.5330067
214	0x3e80f2a3	0.25185117
215	0x3e61eace	0.22062227
216	0x3e93fc72	0.28903538
217	0x3dbefd99	0.09325714
218	0x3b35e7f8	0.0027756672
219	0x3d0e43b0	0.03473252
220	0x3cf660ff	0.030075548
221	0x3dc35681	0.09537984
222	0xbe8e521a	-0.27797014
223	0xbe80c641	-0.25151256
224	0xbe14aba3	-0.14518599
225	0xbcd903a8	-0.026491001
226	0x3dbd6a91	0.092488416
227	0x3ddc4991	0.10756219
228	0xbe15267f	-0.14565466
229	0x3da1b454	0.07895723
230	0xbc817f27	-0.015807701
231	0xbd286003	-0.04110719
232	0x3dfaed83	0.12252333
233	0x3d92e38d	0.07172308
234	0xbd69a449	-0.05704144
235	0x3e1b53d0	0.1516869
236	0x3d3d658f	0.046239432
237	0xbda51bba	-0.08061929
238	0xbc70f4b9	-0.014706784
239	0x3e04ff72	0.1298807
240	0xbe00670a	-0.12539306
241	0xbd207e98	-0.03918323
242	0xbe3013e7	-0.17195092
243	0x3c1b0f8f	0.009464159
244	0xbdf4f8fb	-0.11961552
245	0xbd12e4ef	-0.03586286
246	0x3be3fc98	0.0069576018
247	0xbe2de41a	-0.16981545
248	0x3d1a2719	0.037634943
249	0x3df155d7	0.11783951
250	0xbd73e10b	-0.05954079
251	0xbdb04af8	-0.08608049
252	0xbdd8d392	-0.10587229
253	0x3e2cff45	0.16894253
254	0xbd317210	-0.04332167
255	0xbe02d1d5	-0.12775357

linear4.bias f4 [32]
0	0x3dd24d74	0.10268679
1	0xbcce5e6a	-0.025191505
2	0x3e08964b	0.13338582
3	0x3d2b86ab	0.041876476
4	0x3d00f1d0	0.03148061
5	0x3e18658f	0.14882492
6	0xbce7e117	-0.028305573
7	0xbe227d3f	-0.1586809
8	0x3d8fdaa3	0.070241235
9	0x3d89043e	0.06690262
10	0xbe64f685	-0.22359665
11	0x3e123ade	0.14280269
12	0xbd7f478a	-0.062324084
13	0x3b5efa41	0.0034023675
14	0xbe3028e6	-0.17203102
15	0x3e420b21	0.18949558
16	0xbdb7080d	-0.089370824
17	0xbd9c1c07	-0.07622533
18	0x3d761dbd	0.060086954
19	0xbde051c8	-0.109530985
20	0xbe0c507d	-0.13702579
21	0x3e2bd5af	0.16780733
22	0x3cfcc2dc	0.030854635
23	0xbdcc2bf6	-0.099693224
24	0xbd07b36f	-0.033130106
25	0xbe2eddbb	-0.17076771
26	0x3dc23986	0.09483628
27	0x3da8e6fe	0.08247183
28	0x3b376149	0.002798157
29	0x3d7abb82	0.061213978
30	0x3e40f292	0.18842533
31	0x3dc8ea20	0.09810281

linear5.weight f4 [16, 32]
0	0x3df3979f	0.11894154
1	0xbbeea66d	-0.007283023
2	0xbde1eef2	-0.11031903
3	0x3ca9ed90	0.020743161
4	0xbd050898	-0.0324789
5	0xbe296b5c	-0.1654486
6	0xbd94f9c8	-0.072742045
7	0x3e0373c3	0.12837128
8	0x3d83a20d	0.06427393
9	0xbe0f14c5	-0.13972767
10	0xbdd2dc00	-0.10295868
11	0xbdb96229	-0.09051926
12	0x3e0cbc45	0.13743694
13	0xbe09a64f	-0.13442348
14	0x3dcfd1a9	0.101474114
15	0xbe41cf17	-0.18926655
16	0xbdc1bd96	-0.09459989
17	0xbdb48688	-0.08814722
18	0x3e0dc842	0.13845924
19	0x3c621b3b	0.013800438
20	0xbe1c0113	-0.15234785
21	0x3dfb9be0	0.1228559
22	0x3dfbc36c	0.12293133
23	0xbda4d462	-0.08048321
24	0xbd6ca96b	-0.057778757
25	0x3e068ba4	0.13139206
26	0x3e0a7f81	0.13525201
27	0xbe01f71e	-0.12691924
28	0xbd902267	-0.07037812
29	0x3e26e384	0.16297728
30	0xbdcd99c4	-0.10039094
31	0xbe0269af	-0.12735628
32	0xbdc8927f	-0.09793567
33	0x3e8be773	0.2732502
34	0x3de4c7f6	0.11170952
35	0x3d81e3eb	0.063423
36	0xbd061319	-0.032733057
37	0x3e458697	0.19289623
38	0x3e27d3d2	0.16389397
39	0x3d44b4fc	0.048024163
40	0x3e033811	0.12814356
41	0xbd8e3e44	-0.0694547
42	0xbe6d0cc6	-0.23149404
43	0x3e83a833	0.25714263
44	0x3ca5dfbd	0.020248288
45	0xbd483012	-0.04887397
46	0x3e0e0876	0.13870415
47	0x3e979a05	0.29609695
48	0x3e0f573c	0.13998121
49	0x3e4c7d7d	0.19969745
50	0xbdadca59	-0.084858604
51	0x3e878705	0.264702
52	0xbe39495f	-0.18094395
53	0x3eb19689	0.34685162
54	0xbd6b6d3f	-0.057477232
55	0x3ded7be9	0.115958996
56	0xbd00a6d6	-0.031409107
57	0xbe26e7ec	-0.16299409
58	0x3dcfd75a	0.10148497
59	0x3e123f44	0.14281946
60	0xbe952fa9	-0.29137924
61	0x3df67bfa	0.120353654
62	0x3e74a321	0.23890354
63	0xbeae33f0	-0.34024
64	0x3e2e8db3	0.17046241
65	0xbb69f58a	-0.0035699331
66	0xbe2d73b1	-0.16938664
67	0xbe0d6358	-0.13807428
68	0x3e188866	0.14895782
69	0x3d0cc667	0.0343689
70	0xbdc6fd14	-0.097162396
71	0xbe30b503	-0.1725655
72	0xbe288427	-0.16456662
73	0xbdc42612	-0.09577574
74	0xbd3e269f	-0.04642355
75	0x3cfbd2dc	0.030740194
76	0x3d36d3dc	0.04463564
77	0xbe2ffbf7	-0.1718596
78	0x3d3ac2c7	0.04559591
79	0x3da33b79	0.07970328
80	0x3dc9e3c4	0.09857896
81	0xbe285350	-0.16438031
82	0x3d51741b	0.051136117
83	0x3cfca4cd	0.030840302
84	0xbcbe8e4c	-0.023261212
85	0x3e15e79c	0.14639133
86	0x3e19f2a7	0.15033971
87	0xbdce4f06	-0.10073666
88	0x3e78dab1	0.24302174
89	0x3dd49572	0.10380067
90	0xbdc3accf	-0.09554445
91	0x3db4daca	0.08830793
92	0x3993d996	0.0002820014
93	0xbda5b373	-0.08090868
94	0xbd241ae6	-0.040064715
95	0x3e47378c	0.19454783
96	0x3ea577a1	0.32317832
97	0x3e83345d	0.25625888
98	0xbcc6d622	-0.024272028
99	0xbe237846	-0.1596385
100	0x3bbd67df	0.0057802047
101	0x3e4230a4	0.18963867
102	0x3d57184e	0.052513413
103	0x3dc6f0f8	0.0971393
104	0x3c6f7d83	0.014617327
105	0x3e2f28f9	0.17105474
106	0x3df94106	0.12170605
107	0xbd5c1d7d	-0.05373906
108	0x3dce2a2c	0.100666374
109	0x3d5c49a5	0.05378117
110	0x3e944cb5	0.28964773
111	0x3e28242e	0.16420051
112	0xbdd910d5	-0.105989136
113	0x3e421046	0.1895152
114	0x3db799af	0.0896486
115	0x3e8a6aeb	0.27034697
116	0x3de0b4e5	0.10972003
117	0x3e51fff3	0.20507793
118	0x3f0ab0f7	0.54176277
119	0x3e6477a6	0.22311267
120	0x3ed11b4a	0.40841132
121	0xbd41d899	-0.047325704
122	0x3e40d7ed	0.18832369
123	0x3e892d5b	0.26792416
124	0x3efb5f19	0.4909599
125	0xbe17b8eb	-0.14816634
126	0x3dc9d147	0.098543696
127	0x3f02b2dc	0.5105417
128	0xbf1c0057	-0.6093802
129	0x3e96f40a	0.29483062
130	0xbbb3067c	-0.0054634195
131	0x3d061187	0.03273156
132	0xbcce69a6	-0.025196861
133	0xbc1b7c12	-0.00949003
134	0x3eb387a2	0.35064417
135	0xbd71ee17	-0.05906495
136	0x3eae02f0	0.33986616
137	0xbceb5bfe	-0.028730389
138	0xbede1c88	-0.43381143
139	0x3c44252b	0.011971752
140	0x3dc56c22	0.09639765
141	0x3df86ba8	0.12129909
142	0x3d93bbb2	0.072135344
143	0x3ea253e1	0.3170462
144	0xbc92032b	-0.017823776
145	0x3dc65433	0.096840285
146	0x3e2690be	0.16266152
147	0x3e7b1b0e	0.2452204
148	0xbd2293aa	-0.039691605
149	0x3e28bdca	0.16478649
150	0xbeac8cf5	-0.33701292
151	0x3e6fb024	0.23407036
152	0xbeb3edee	-0.35142463
153	0x3d869405	0.06571201
154	0x3e9fd27e	0.3121528
155	0x3c236e6e	0.009975059
156	0xbee59fed	-0.44848576
157	0x3d8ff6de	0.07029508
158	0x3e595263	0.21222834
159	0xbecd3383	-0.40078363
160	0xbdb4b150	-0.08822882
161	0xbd930313	-0.07178321
162	0x3db6523b	0.08902403
163	0xbd25ba68	-0.040460974
164	0x3dd2cdf8	0.10293192
165	0x3d05f0b6	0.032700263
166	0xbdb43835	-0.08799783
167	0xbc98efc0	-0.01866901
168	0xbd867477	-0.06565183
169	0xbde56173	-0.112002276
170	0x3e0e09a7	0.1387087
171	0x3d286aaa	0.041117348
172	0x3e2acf4d	0.16680641
173	0xbe2b5312	-0.16730908
174	0xbde0c9f6	-0.10976021
175	0x3e1651ae	0.14679596
176	0xbd829f2b	-0.06378015
177	0xbd0eb7da	-0.034843303
178	0xbd7fd709	-0.062460933
179	0x3bec30b3	0.007207954
180	0xbc383110	-0.011242166
181	0xbdafc10d	-0.085817434
182	0x3df84c3f	0.12123918
183	0xbdc5e0a2	-0.09661986
184	0xbdb3b269	-0.087742634
185	0xbe09cec0	-0.13457775
186	0xbe23cf14	-0.15996963
187	0xbb1bc32a	-0.002376745
188	0x3c6f2000	0.014595032
189	0x3db9440a	0.090461805
190	0x3e1c4731	0.15261532
191	0xbbbe2f21	-0.005803958
192	0xbe1cb2ea	-0.15302625
193	0x3cc04f23	0.023475235
194	0xbc6c3c41	-0.0144186625
195	0x3cd9ed71	0.026602479
196	0x3c063657	0.008191667
197	0xbc0a3967	-0.008436537
198	0x3dc83379	0.09775443
199	0x3e2ccd54	0.16875201
200	0x3cf0e724	0.029407091
201	0xbd391fe3	-0.045196425
202	0xbd326ef1	-0.043562833
203	0xbdfb724e	-0.12277661
204	0x3e07a4a2	0.13246396
205	0xbca78b49	-0.020452159
206	0xbe2dee9a	-0.1698555
207	0xbe4b7637	-0.19869314
208	0xbdcf7bf3	-0.10131063
209	0xbe31bce8	-0.17357218
210	0x3e041989	0.12900366
211	0x3d93668b	0.07197293
212	0x3e0b2c2a	0.13591066
213	0x3cfce9b6	0.03087316
214	0x3de63e1c	0.11242315
215	0xbd03cd31	-0.032178108
216	0x3d967432	0.07346381
217	0x3e181f8f	0.14855789
218	0xbe2389b8	-0.15970504
219	0xbdd060ba	-0.10174699
220	0xbe15354e	-0.14571115
221	0xbd3427bc	-0.043983206
222	0x3d353c27	0.04424682
223	0xbc906a50	-0.017628819
224	0x3ce2a705	0.027667532
225	0x3e9df39c	0.30849922
226	0x3e9f8af0	0.31160688
227	0x3d97d6dd	0.07414029
228	0xbc91fe13	-0.017821347
229	0x3b98992e	0.0046569323
230	0x3ea49ba0	0.32149982
231	0xbe00aad6	-0.12565169
232	0x3eaecd02	0.34140784
233	0xbd01aba8	-0.031657845
234	0xbe7aa7d5	-0.24478085
235	0x3e1e2d45	0.15446956
236	0xbda1d208	-0.079013884
237	0xbe0b4747	-0.13601409
238	0x3da96d9e	0.08272861
239	0x3dca8c8b	0.09890088
240	0xbdf87143	-0.12130978
241	0x3e95a28c	0.29225576
242	0xbde4fc7c	-0.1118097
243	0x3e368be7	0.17826806
244	0xbc54f151	-0.012996987
245	0x3e8df8db	0.27728924
246	0xbda4f476	-0.0805444
247	0x3e0f3927	0.13986646
248	0x3dca2e1e	0.098720774
249	0x3cfea51a	0.031084586
250	0x3e55b312	0.20869091
251	0x3e36ee48	0.17864335
252	0xbd8d9784	-0.06913665
253	0xbd8bae8a	-0.068204
254	0x3e9c9716	0.3058402
255	0x3c08b4c3	0.008343878

linear5.bias f4 [16]
0	0x3e19c64b	0.15017049
1	0x3e0a3882	0.13498119
2	0xbcf168e0	-0.029468954
3	0xbdd99493	-0.106240414
4	0xbd3a9daa	-0.045560516
5	0xbe15ae44	-0.14617258
6	0x3de7729e	0.11301158
7	0x3db3a5df	0.08771872
8	0x3a95caa0	0.0011428185
9	0xbe5111e8	-0.20416987
10	0xbc81116c	-0.015755378
11	0x3e88497f	0.26618573
12	0xbdf1c629	-0.11805374
13	0x3e079a12	0.13242367
14	0x3d1ae509	0.03781608
15	0xbdb2b0e0	-0.087251425

output_layer.weight f4 [2, 16]
0	0xbe279fa1	-0.16369487
1	0x3e99c450	0.30032587
2	0x3e9b02cc	0.3027557
3	0xbb9d9946	-0.0048095314
4	0x3ee34a57	0.44392654
5	0x3dbb4370	0.09143722
6	0xbdcc2857	-0.09968632
7	0x3e4f837a	0.20264998
8	0xbe00b33f	-0.12568377
9	0xbe6c3268	-0.23066103
10	0xbb31ed37	-0.0027149448
11	0x3ec91cc9	0.39279774
12	0xbe5a70aa	-0.2133204
13	0x3ea0c952	0.31403595
14	0x3e621b19	0.2208065
15	0x3e44819a	0.19190064
16	0x3db3948f	0.0876857
17	0x3e8104b7	0.2519891
18	0xbe858db1	-0.26084664
19	0x3edb8336	0.42873544
20	0x3e312815	0.17300446
21	0xbe3ba146	-0.1832324
22	0xbdea1c99	-0.11431236
23	0x3e7b4901	0.24539568
24	0xbe5094c5	-0.20369251
25	0xbe6ff9ae	-0.23435089
26	0xbe02ed65	-0.12785871
27	0x3c98652b	0.018602928
28	0xbe1ce394	-0.15321189
29	0x3e9058f8	0.28192878
30	0x3e2843a5	0.16432054
31	0x3ebe3b4f	0.37154624

output_layer.bias f4 [2]
0	0x3df5607b	0.11981293
1	0x3e66ab86	0.22526368
