results/models/batchsize=96,lr=1e-4,layer=6,eps=0.9,num_episodes_train=5000/4/model-10.0.pt (torch, 17506 bytes, 12 tensors)

linear1.weight f4 [16, 4]
0.061317742 0.19509506 0.41515225 -0.3298288 0.4492814 0.47022527 0.277529 0.4137572
-0.43187398 -0.15278053 -0.29823261 -0.27785873 0.27979267 -0.3306561 -0.3554721 0.103698015
0.028648794 0.086649895 -0.38265276 -0.07355046 0.27867407 0.37456083 -0.41982627 -0.18466663
-0.18753582 -0.49646038 -0.22329658 0.29420406 0.18304384 -0.14685792 0.45171005 0.022545993
-0.40186846 -0.15365905 0.41841698 0.35271853 0.0073970556 0.43903506 -0.28799957 0.48766822
-0.4635821 0.40645134 0.3408743 0.24276799 0.17069286 0.026641428 0.26406848 0.38148737
0.30525786 -0.40481502 0.29182798 -0.046345055 0.42085546 -0.3248241 -0.29371333 0.18631941
0.4222178 -0.12098652 -0.20081961 0.33489174 -0.4806792 0.16373932 0.07476753 -0.3949005
00000000: 5028 7b3d 00c7 473e d68e d43e 52df a8be
00000010: 3608 e63e 5ec1 f03e 4818 8e3e fcd7 d33e
00000020: 961e ddbe 8072 1cbe f2b1 98be 8043 8ebe
00000030: fc40 8f3e c24b a9be 7000 b6be a05f d43d
00000040: e0b0 ea3c 8075 b13d 10eb c3be a0a1 96bd
00000050: 5eae 8e3e 70c6 bf3e 78f3 d6be 4019 3dbe
00000060: 6409 40be 0e30 febe dca7 64be eaa1 963e
00000070: d86f 3b3e ec61 16be 8a46 e73e 60b2 b83c
00000080: b4c1 cdbe cc58 1dbe c03a d63e 8697 b43e
00000090: 0063 f23b 34c9 e03e ae74 93be a6af f93e
000000a0: a25a edbe 641a d03e 1487 ae3e 2c98 783e
000000b0: 1cca 2e3e 203f da3c fc33 873e 5052 c33e
000000c0: c24a 9c3e ea43 cfbe 7a6a 953e 50d4 3dbd
000000d0: 5e7a d73e 584f a6be 9861 96be 84ca 3e3e
000000e0: ee2c d83e c8c7 f7bd a8a3 4dbe ee76 ab3e
000000f0: 961b f6be 48ab 273e b81f 993d 6630 cabe

linear1.bias f4 [16]
0.12026036 0.47213727 0.47005022 0.27271986 -0.027477562 -0.19716233 0.44500363 0.029491305
0.11593932 0.19392365 -0.13834453 -0.31105524 0.36463547 0.4222504 -0.26103318 0.22119689
00000000: 104b f63d fabb f13e 6caa f03e f0a1 8b3e
00000010: a018 e1bc ece4 49be 84d7 e33e c097 f13c
00000020: 9871 ed3d ec93 463e 30aa 0dbe a242 9fbe
00000030: 80b1 ba3e 3431 d83e 24a6 85be 7081 623e

linear2.weight f4 [32, 16]
-0.20600218 -0.19681102 -0.05880761 -0.14396274 0.21163264 0.14472231 0.22685641 -0.1807375
0.22459012 0.0037353039 0.012059689 -0.059570998 -0.14520204 0.12735838 -0.15847704 0.17496294
0.053327084 -0.13646746 -0.06881729 -0.0065009594 0.11055046 0.11035758 -0.22775441 -0.07334995
-0.20704034 -0.11998141 -0.048992306 -0.16978046 0.1988073 -0.029856294 0.058386505 -0.12974125
0.09450969 0.08639869 -0.15475538 0.041547596 -0.021107972 -0.1946601 0.17133346 -0.2064575
-0.15134585 0.20705563 0.20844528 -0.1199227 0.05496207 0.072004944 0.114313155 -0.08717239
-0.07105878 -0.19949567 0.2145099 0.24325505 -0.015030682 -0.15668112 -0.22808549 0.19842371
-0.21415013 -0.15179747 0.014894515 -0.05323273 0.14710915 0.11892855 -0.20216733 0.073800266
0.014840871 0.103795916 0.01265797 0.0059756935 0.15363616 -0.009155124 0.028398454 -0.072675526
-0.19888586 -0.24824294 0.12459293 -0.20768914 -0.12017992 0.16783562 0.04794824 -0.061496347
-0.059066564 -0.12713224 0.04806134 0.07746562 -0.07044968 0.013269812 0.14580831 -0.16979054
0.18151325 -0.13787279 0.17122477 -0.05166331 -0.24434108 0.2177274 0.12814984 -0.17924312
-0.1206179 -0.13958058 -0.055729568 -0.1656979 0.10503265 -0.18249038 0.19253817 0.20787856
-0.111346185 -0.24773529 -0.22058976 0.17473361 -0.0915367 -0.037720144 -0.17927119 0.20161235
0.11150715 -0.08515239 0.026918918 -0.14094502 -0.1501419 -0.15271813 -0.16140693 -0.09883547
0.17366284 -0.19765243 -0.009759963 -0.026789993 0.12556964 -0.16956604 -0.07495189 -0.087949604
-0.21282241 -0.24196783 -0.13660055 0.14455968 0.20144087 -0.14604276 0.19796333 0.100578815
0.063964695 -0.07011008 0.13527396 0.09010732 0.04559031 0.10847494 0.06430134 0.2000711
0.13016641 -0.07497391 -0.16212824 -0.14553297 0.051788807 0.02850002 -0.18134427 -0.1529487
-0.112380475 0.05258417 0.14601436 -0.013056815 0.18039596 -0.092226714 0.088632494 -0.057180613
-0.041994363 -0.06554866 0.13593721 0.13120052 -0.22766352 -0.15844902 0.0066066086 -0.24596345
0.066075 0.14677948 0.01234895 0.23011225 0.18166786 0.0696885 -0.110194355 0.23438773
0.012564957 -0.23821384 0.08874649 -0.08140221 -0.17137793 0.12746942 -0.063673675 -0.12507153
-0.22173825 0.15720409 0.14095977 0.21443352 0.005258143 0.031852037 0.1942643 -0.12778765
0.089785546 0.20307967 0.18012789 0.08069864 -0.05776933 -0.109063745 0.058807194 0.0486843
-0.113580614 -0.10855898 -0.13729665 -0.22850153 -0.051435232 0.055524886 -0.06189719 -0.2005812
0.11832377 -0.06485173 -0.02266109 -4.938245e-05 0.24798131 -0.072164506 0.14568955 -0.06953257
-0.16932479 0.1700854 0.05034709 0.23269638 -0.11506751 -0.027804524 -0.23826644 -0.2255579
0.1044462 0.23231271 0.13351727 -0.09859812 -0.06755999 -0.072384626 -0.21736959 0.20766154
-0.010516703 0.03324923 0.04306698 -0.1398631 0.07273644 0.164821 -0.20769432 0.21639723
0.07693955 0.21559876 -0.03799647 -0.15322855 0.026003152 0.15990245 0.11926195 -0.069702506
-0.20398909 -0.16753268 -0.23862946 -0.16035202 0.16663226 -0.15877295 -0.11173689 0.23392102
00000000: 3cf2 52be d488 49be 40e0 70bd f86a 13be
00000010: 3ab6 583e 1632 143e 0c4d 683e 4013 39be
00000020: f4fa 653e 00cc 743b 0096 453c b800 74bd
00000030: d8af 14be 3c6a 023e ce47 22be 7c29 333e
00000040: 806d 5a3d 20be 0bbe 14f0 8cbd 0006 d5bb
00000050: 4868 e23d 2803 e23d 7438 69be 8038 96bd
00000060: 6202 54be d0b8 f5bd 28ac 48bd eeda 2dbe
00000070: 2494 4b3e 3095 f4bc b026 6f3d e4da 04be
00000080: 4c8e c13d ccf1 b03d 3278 1ebe d02d 2a3d
00000090: a0ea acbc fa54 47be 0a72 2f3e 9869 53be
000000a0: 68fa 1abe 6406 543e ae72 553e 089a f5bd
000000b0: e81f 613d 5477 933d 041d ea3d 7087 b2bd
000000c0: 4487 91bd 9848 4cbe 7ca8 5b3e da17 793e
000000d0: 4043 76bc 0471 20be 3e8f 69be 962f 4b3e
000000e0: 2c4a 5bbe cc70 1bbe 2008 743c 900a 5abd
000000f0: c8a3 163e d090 f33d f404 4fbe 9824 973d
00000100: 2027 733c f492 d43d 6063 4f3c c0cf c33b
00000110: cc52 1d3e 60ff 15bc e0a3 e83c e8d6 94bd
00000120: bca8 4bbe 6633 7ebe 942a ff3d 76ac 54be
00000130: e420 f6bd 1add 2b3e 6065 443d 98e3 7bbd
00000140: c8ef 71bd f42e 02be f8db 443d 4ca6 9e3d
00000150: ec47 90bd a069 593c c64e 153e 92dd 2dbe
00000160: 9cde 393e 862e 0dbe 8c55 2f3e e89c 53bd
00000170: 8c34 7abe eef3 5e3e b639 033e 828b 37be
00000180: 8406 f7bd 36ee 0ebe b044 64bd b6ac 29be
00000190: 5c1b d73d c2de 3abe ba28 453e 1ede 543e
000001a0: 7809 e4bd 52ae 7dbe 48e2 61be 5eed 323e
000001b0: 9877 bbbd 7080 1abd de92 37be 7873 4e3e
000001c0: dc5d e43d 6064 aebd 1085 dc3c e453 10be
000001d0: ccbe 19be 2462 1cbe dc47 25be 406a cabd
000001e0: acd4 313e 6665 4abe 40e8 1fbc b076 dbbc
000001f0: 5495 003e b8a2 2dbe 6080 99bd ec1e b4bd
00000200: 1eee 59be 6ac6 77be 04e1 0bbe 7407 143e
00000210: 8446 4e3e 3c8c 15be e6b6 4a3e 44fc cd3d
00000220: ecff 823d e095 8fbd 4285 0a3e 308a b83d
00000230: e8bc 3a3d 1c28 de3d 6cb0 833d 70df 4c3e
00000240: 584a 053e ec8b 99bd f204 26be 9806 15be
00000250: 8020 543d e078 e93c 50b2 39be 969e 1cbe
00000260: bc27 e6bd 8062 573d ca84 153e 40ec 55bc
00000270: b8b9 383e 5ce1 bcbd f484 b53d 3836 6abd
00000280: 4802 2cbd 603e 86bd 2033 0b3e 6e59 063e
00000290: a020 69be 7640 22be 407c d83b d8dd 7bbe
000002a0: 5452 873d 5c4d 163e 4053 4a3c 8ca2 6b3e
000002b0: 2407 3a3e d8b8 8e3d 94ad e1bd 5603 703e
000002c0: 40dd 4d3c 54ee 73be b8c0 b53d 34b6 a6bd
000002d0: b27d 2fbe 5887 023e 5867 82bd c012 00be
000002e0: 5a0f 63be 1cfa 203e c257 103e 7694 5b3e
000002f0: 804c ac3b 4877 023d 38ed 463e c4da 02be
00000300: 7ce1 b73d 1ef4 4f3e 7273 383e 5445 a53d
00000310: 889f 6cbd d05c dfbd d0df 703d 3069 473d
00000320: f49c e8bd 2c54 debd 7e97 0cbe 4efc 69be
00000330: c0ad 52bd 106e 633d e887 7dbd 2865 4dbe
00000340: bc53 f23d fcd0 84bd c0a3 b9bc 0020 4fb8
00000350: d0ee 7d3e fcca 93bd a42f 153e 1867 8ebd
00000360: 7a63 2dbe de2a 2e3e c038 4e3d f647 6e3e
00000370: 84a8 ebbd 50c6 e3bc 1efc 73be a6f8 66be
00000380: e4e7 d53d 62e3 6d3e c0b8 083e d0ed c9bd
00000390: e45c 8abd 643e 94bd 2296 5ebe 3aa5 543e
000003a0: 404e 2cbc 5830 083d 0067 303d 4638 0fbe
000003b0: d8f6 943d d6c6 283e d2ad 54be 3c97 5d3e
000003c0: 7c92 9d3d ecc5 5c3e 30a2 1bbd f2e7 1cbe
000003d0: 9004 d53c 78bd 233e 9c3f f43d 30c0 8ebd
000003e0: 84e2 50be b08d 2bbe 485b 74be 5233 24be
000003f0: a6a1 2a3e 6095 22be 50d6 e4bd fe88 6f3e

linear2.bias f4 [32]
-0.009225816 -0.24941775 -0.040290326 -0.010897994 0.10535839 0.1596058 0.16730842 -0.21592805
0.159718 -0.07955235 -0.16067874 0.032448113 0.12920812 -0.22202048 0.13238868 -0.0937908
-0.12498033 0.07352361 0.007975459 -0.15078881 -0.13823476 0.15779054 0.13712853 -0.07908854
0.18524516 0.12327418 0.09056866 0.17677346 0.0062179267 0.229772 -0.1778968 -0.076847136
00000000: e027 17bc 5e67 7fbe 7807 25bd 808d 32bc
00000010: 24c6 d73d b46f 233e e652 2b3e 3e1c 5dbe
00000020: 1e8d 233e 58ec a2bd f888 24be 50e8 043d
00000030: 224f 043e 5659 63be e690 073e 6415 c0bd
00000040: b0f5 ffbd 8c93 963d 80ab 023c 6268 1abe
00000050: 6a8d 0dbe d893 213e 6c6b 0c3e 2cf9 a1bd
00000060: e8b0 3d3e 2c77 fc3d 107c b93d 1a04 353e
00000070: c0bf cb3b 5a49 6b3e 942a 36be 0862 9dbd

linear3.weight f4 [32, 32]
0.04348457 0.055318706 -0.12929879 -0.03623868 0.08116783 0.060236253 0.13144177 -0.1399278
0.025398491 -0.11123497 0.1414469 0.15696761 -0.023685537 -0.040623195 0.10972586 0.13072309
-0.15488349 -0.15363398 -0.08873079 0.13453266 0.009993355 0.012230003 0.1710699 0.025688188
-0.10468181 -0.08429456 0.0829538 0.12271518 0.15206623 -0.0056635668 -0.08539858 0.14958313
-0.06820009 0.13045558 -0.12211126 0.10612325 0.14999753 -0.14394301 0.07354844 0.007935514
0.11920625 0.15551734 -0.05461243 0.09328952 0.11414964 -0.02636239 0.0950752 0.085847355
-0.08664888 -0.039354976 -0.12720002 -0.1045936 -0.04128208 0.052187197 0.11543695 0.1257468
-0.051109713 -0.10117532 -0.0384076 -0.071146995 0.05820823 0.059412494 -0.14770715 -0.09191678
-0.016161188 0.11917272 -0.09512992 0.11157603 -0.044464733 -0.013955475 -0.11826378 -0.022838933
0.16647695 0.12313246 0.033537112 0.06480122 0.04316754 -0.027601529 0.021761725 0.09167342
-0.14329937 0.1630144 -0.0015347985 0.09629895 0.16703331 -0.013201573 0.1647189 -0.0024443485
0.14145157 -0.083859876 0.14354691 0.14762321 0.044715595 0.12050024 0.07014557 -0.1081246
0.15473688 0.1516659 -0.10446297 0.16043012 0.047572434 -0.08639324 -0.12438401 0.110439934
0.11323149 0.09003203 -0.15834506 0.17361216 0.11007227 -0.0123188915 0.12509853 0.17623094
0.1737816 0.097321115 0.14384946 0.09393555 0.0031503504 0.093443 -0.06092095 0.1001129
-0.074960195 0.019418022 -0.074992016 0.012982114 0.17035517 -0.097546056 -0.12971902 -0.16982335
0.10708089 0.14842083 0.15420699 0.05638437 -0.1313741 0.06400309 -0.04127622 -0.015148083
0.057800926 -0.014097067 0.10974289 0.16064359 -0.15377136 0.17654806 0.12343082 -0.13313505
0.15876254 -0.066867426 -0.10570271 -0.13682607 -0.06467623 0.034581088 -0.061188076 -0.17332634
-0.03640693 0.024472104 -0.011669704 -0.15654977 0.06474588 -0.07714049 -0.059822813 0.07178942
0.019636512 0.15156649 -0.13821462 0.1658287 0.11975974 0.11623201 0.11139452 -0.0691205
-0.11513779 -0.120244026 -0.15354219 -0.0050889156 -0.016181523 0.048885517 -0.16877343 0.009942526
0.14840758 -0.022187766 -0.04453413 0.03472152 -0.16415249 -0.15987486 -0.0068189804 0.0154969115
-0.12087497 0.015223125 -0.07495469 0.14080234 0.06993823 0.118295304 0.13326001 0.17396398
-0.12768555 -0.11075814 0.14414622 -0.14670911 -0.0041049765 0.14131247 -0.17517945 0.10530942
0.08695342 -0.069637805 -0.12136381 -0.08815808 0.05121567 -0.016838403 -0.16508387 -0.017418828
0.105077825 0.10972344 0.056517784 -0.01871497 0.09365038 0.042667426 0.10483316 0.03198122
-0.16007379 -0.111689545 -0.015934058 -0.16395535 -0.15897685 -0.14314519 -0.09349526 0.16436352
0.051360823 -0.17128494 -0.08286329 -0.14225464 -0.016785257 0.076902196 0.15662679 0.06846515
0.05769339 -0.08445603 0.038635384 -0.16835259 -0.08877469 -0.025151005 -0.055941068 0.1141375
-0.14766896 0.00066823827 -0.01675984 0.13825022 0.14822274 -0.025099564 -0.07357312 -0.05604361
0.096408136 -0.02888115 -0.1525784 -0.07212563 0.17421801 0.09875362 -0.13467288 -0.034007028
00000000: e01c 323d de95 623d e766 04be 036f 14bd
00000010: 523b a63d 4aba 763d ac98 063e 3c49 0fbe
00000020: 7f10 d03c 29cf e3bd 75d7 103e 1ebc 203e
00000030: 2c08 c2bc 8264 26bd f4b7 e03d 46dc 053e
00000040: c799 1ebe 3a52 1dbe 7db8 b5bd eec2 093e
00000050: 2bbb 233c 5a60 483c f32c 2f3e 0970 d23c
00000060: 6b63 d6bd a0a2 acbd afe3 a93d 1952 fb3d
00000070: 40b7 1b3e 7195 b9bb 73e5 aebd 522c 193e
00000080: 7dac 8bbd 2696 053e 7815 fabd 2657 d93d
00000090: f498 193e cc65 13be 91a0 963d f503 023c
000000a0: 6822 f43d f03f 1f3e 49b1 5fbd 930e bf3d
000000b0: 49c7 e93d f0f5 d7bc c9b6 c23d bdd0 af3d
000000c0: f874 b1bd af32 21bd b940 02be 2b35 d6bd
000000d0: 6617 29bd 3ec2 553d 356a ec3d c5c3 003e
000000e0: 6b58 51bd 0235 cfbd 4a51 1dbd 84b5 91bd
000000f0: c16b 6e3d 845a 733d 8b40 17be dd3e bcbd
00000100: 7864 84bc d410 f43d 7ad3 c2bd f981 e43d
00000110: a720 36bd 81a5 64bc 4834 f2bd b718 bbbc
00000120: ef78 2a3e df2c fc3d 365e 093d 81b6 843d
00000130: 72d0 303d 9a1c e2bc a545 b23c 46bf bb3d
00000140: 12bd 12be 3fed 263e 4b2b c9ba 6238 c53d
00000150: c80a 2b3e 694b 58bc 12ac 283e 5d31 20bb
00000160: aed8 103e babe abbd f6fd 123e 8a2a 173e
00000170: b327 373d d4c8 f63d 7ba8 8f3d 6e70 ddbd
00000180: 5873 1e3e 4e4e 1b3e aef0 d5bd cb47 243e
00000190: 50db 423d f0ee b0bd 0bbd febd 552e e23d
000001a0: e9e5 e73d b762 b83d 3525 22be 63c7 313e
000001b0: 926d e13d 2dd5 49bc d419 003e e275 343e
000001c0: cef3 313e 4b50 c73d 464d 133e 4861 c03d
000001d0: 1c76 4e3b 0b5f bf3d 3f88 79bd fe07 cd3d
000001e0: bb84 99bd 8b12 9f3c 6a95 99bd efb2 543c
000001f0: 9671 2e3e 3ac6 c7bd 10d5 04be 2ce6 2dbe
00000200: 3a4d db3d a1fb 173e 70e8 1d3e 4cf3 663d
00000210: ef86 06be 0d14 833d 4111 29bd aa2f 78bc
00000220: aac0 6c3d 62f7 66bc e1c0 e03d c17f 243e
00000230: 3d76 1dbe 04c9 343e 4cc9 fc3d 8e54 08be
00000240: a692 223e caf1 88bd aa7a d8bd 221c 0cbe
00000250: f974 84bd e6a4 0d3d 59a0 7abd 767c 31be
00000260: 6f1f 15bd b979 c83c 4932 3fbc 954e 20be
00000270: 7d99 843d d5fb 9dbd c408 75bd 5506 933d
00000280: c0dc a03c 3f34 1b3e 2288 0dbe 00cf 293e
00000290: 9844 f53d 0c0b ee3d cf22 e43d 0c8f 8dbd
000002a0: 5dcd ebbd 8042 f6bd 2a3a 1dbe ebc0 a6bb
000002b0: 1d8f 84bc 2e3c 483d f1d2 2cbe fae5 223c
000002c0: 28f8 173e 1ec3 b5bc 6b69 36bd 2738 0e3d
000002d0: 9717 28be 3cb6 23be c171 dfbb c2e6 7d3c
000002e0: 4c8d f7bd 6a6a 793c d881 99bd 7d2e 103e
000002f0: c63b 8f3d cf44 f23d 5075 083e 9d23 323e
00000300: 00c0 02be 2ad5 e2bd 119b 133e ea3a 16be
00000310: 0a83 86bb 37b4 103e 3e62 33be 77ac d73d
00000320: a214 b23d 449e 8ebd 978d f8bd 398c b4bd
00000330: 86c7 513d b1f0 89bc bf0b 29be eeb1 8ebc
00000340: 0b33 d73d afb6 e03d 317f 673d 2350 99bc
00000350: c5cb bf3d 0ac4 2e3d c5b2 d63d bdfe 023d
00000360: 62ea 23be 7dbd e4bd 2488 82bc e9e3 27be
00000370: d4ca 22be a794 12be 717a bfbd e94e 283e
00000380: ba5f 523d 5265 2fbe 3bb4 a9bd 33ab 11be
00000390: 3c81 89bc e67e 9d3d c662 203e 7537 8c3d
000003a0: e74f 6c3d 48f7 acbd 2340 1e3d 9f64 2cbe
000003b0: 81cf b5bd 7b09 cebc 7622 65bd ecc0 e93d
000003c0: 8836 17be b62c 2f3a ef4b 89bc 7791 0d3e
000003d0: b4c7 173e 9a9d cdbc 81ad 96bd fc8d 65bd
000003e0: a171 c53d 2998 ecbc 833d 1cbe 9ab6 93bd
000003f0: 3566 323e 573f ca3d b0e7 09be f44a 0bbd

linear3.bias f4 [32]
-0.0152919935 -0.07208316 -0.07141111 -0.10843992 -0.11473885 -0.008951042 -0.16596518 -0.1684524
-0.07770558 0.17529131 -0.1526284 -0.15012138 0.08559021 0.059166208 -0.008711732 0.14820595
0.008196277 -0.1276504 -0.051373426 -0.0665854 -0.050578136 -0.15038882 -0.12550178 0.060364824
0.13546005 -0.12626393 -0.025160234 0.14661978 0.042421583 0.03515498 0.07221329 -0.055849735
00000000: 458b 7abc 56a0 93bd fd3f 92bd c015 debd
00000010: 34fc eabd 64a7 12bc c7f2 29be c97e 2cbe
00000020: 1a24 9fbd 917f 333e 9f4a 1cbe 6bb9 19be
00000030: ec49 af3d 4458 723d a7bb 0ebc 4dc3 173e
00000040: ad49 063c c9b6 02be f16c 52bd ed5d 88bd
00000050: 052b 4fbd 87ff 19be 8a83 00be 1b41 773d
00000060: 0ab6 0a3e 554b 01be d61c cebc 7f23 163e
00000070: 41c2 2d3d abfe 0f3d 90e4 933d b1c2 64bd

linear4.weight f4 [32, 32]
0.04613335 0.092693396 0.09785777 0.13947627 0.17508331 -0.0855898 -0.11209125 -0.10845324
0.16540077 -0.16808976 -0.14737238 0.11290793 0.16749994 -0.12779768 -0.0032152776 0.0050218604
-0.10859114 -0.16137911 0.16843688 0.13164088 0.14484628 -0.019015118 -0.03991359 -0.069960356
-0.11962552 -0.14535263 -0.10165036 0.13681725 0.113445766 0.17554137 0.14450926 -0.16734779
0.06710374 -0.05735796 -0.09980772 0.07264642 0.08167825 0.021607762 -0.029968284 -0.1246916
-0.07514528 -0.14507118 0.15043034 -0.1348438 0.13213591 0.015761636 0.105207175 -0.09640571
-0.10339589 -0.13598946 -0.036882136 0.15625454 -0.09108366 0.101337835 0.150571 0.09963949
-0.14962482 0.15080364 0.048799686 -0.09794363 -0.11199587 0.051605906 -0.10476016 -0.15674862
0.07459992 0.106428735 -0.002645073 -0.09540131 -0.09175579 0.1478762 0.105984926 0.11701522
0.03515831 0.00053410593 0.09769136 -0.085333645 -0.1501288 -0.1653818 0.010619741 -0.12695573
0.065849476 0.10931352 -0.07857264 0.0018263916 -0.012301927 0.15521409 -0.11628073 -0.070532076
0.15700515 0.066758245 0.15968052 0.042119157 -0.04968205 0.041001696 -0.12987255 -0.1432017
-0.09580863 0.12640168 -0.10333697 -0.0690727 0.13613176 -0.13088264 0.11523357 -0.07554561
0.07862562 -0.16227736 0.08900367 0.13793996 0.14901078 -0.071360365 -0.04086213 -0.082440965
0.09711129 -0.15249309 0.047216944 -0.01565355 -0.14267601 -0.0084935175 -0.14223453 0.0550127
0.09801163 -0.08412443 0.006943525 -0.07875484 -0.08676673 0.13157637 -0.15297009 -0.051092222
0.10828069 0.0701356 -0.005333136 -0.004301718 0.03528528 -0.08387518 0.015387034 0.064381056
-0.02764574 0.08076569 -0.14588948 0.15444434 -0.06470487 -0.13869803 0.01711969 0.0458112
-0.09178519 0.058991343 -0.11850442 -0.16393697 -0.010753241 -0.0678959 0.085998096 -0.11497911
-0.16875577 0.11981017 0.15050912 0.11632223 -0.099415205 -0.15809503 0.12686606 -0.047151428
0.14598589 0.041408688 -0.13336082 -0.13459119 -0.082221754 0.11323625 -0.05793002 -0.01918063
-0.16998601 0.048212074 0.024803398 0.08486441 0.0049390416 0.12110408 0.010391432 -0.17669137
-0.04124442 -0.002760197 0.1502219 -0.15387033 0.1447738 -0.045283206 -0.14852896 0.13636084
-0.14228526 0.058128007 -0.14228806 -0.17144607 -0.08507392 0.13606434 0.032774758 -0.059798326
0.068517074 0.06478856 -0.17222571 -0.034087505 0.05112246 -0.013782673 0.020617016 0.03784587
-0.07148803 0.06482659 -0.027156647 0.11188593 -0.1660609 -0.1664275 -0.12713362 0.1509998
-0.13265456 0.09305531 -0.06541659 0.10785079 -0.14894156 -0.0051367735 -0.08690191 0.038680185
-0.0075918273 0.0022721577 0.03174077 0.057838224 -0.09136379 -0.16869962 0.09431006 -0.032830223
-0.09427725 0.13810223 0.09983448 -0.15212046 0.14299901 0.16577059 0.057785224 0.087742195
0.15631528 -0.06650033 -0.011398552 0.017472966 0.06766523 0.022170527 -0.05927756 0.13833426
-0.17070243 0.098582804 -0.13712639 -0.042238347 0.10149814 -0.0523989 -0.1218831 -0.11454748
0.10975296 0.12908438 -0.034606125 0.05113504 0.12597492 0.1028291 0.10629956 0.02667809
00000000: 53f6 3c3d 09d6 bd3d a869 c83d ded2 0e3e
00000010: 0a49 333e b449 afbd 1990 e5bd bb1c debd
00000020: d25e 293e b91f 2cbe c9e8 16be 463c e73d
00000030: 1b85 2b3e 65dd 02be 68b7 52bb 6b8e a43b
00000040: 0865 debd 9140 25be b87a 2c3e decc 063e
00000050: 9552 143e 98c5 9bbc 6f7c 23bd 6047 8fbd
00000060: 3afe f4bd 52d7 14be 102e d0bd d219 0c3e
00000070: 4156 e83d 1ec1 333e 3cfa 133e 385d 2bbe
00000080: b06d 893d 2ef0 6abd fd67 ccbd a5c7 943d
00000090: ed46 a73d c302 b13c 0c80 f5bc 4f5e ffbd
000000a0: c5e5 99bd 8a8d 14be 690a 1a3e 7e14 0abe
000000b0: a34e 073e 8c1e 813c dc76 d73d 5b70 c5bd
000000c0: 39c1 d3bd d240 0bbe b911 17bd 3101 203e
000000d0: 128a babd 368a cf3d 492f 1a3e ca0f cc3d
000000e0: 4037 19be 456c 1a3e 2ee2 473d ab96 c8bd
000000f0: 175e e5bd b760 533d 7f8c d6bd b682 20be
00000100: d8c7 983d 4ff7 d93d f658 2dbb c361 c3bd
00000110: 76ea bbbd dc6c 173e a00e d93d ada5 ef3d
00000120: 2902 103d 3e03 0c3a 6812 c83d 68c3 aebd
00000130: 5dbb 19be d959 29be 6cfe 2d3c af00 02be
00000140: 17dc 863d c4df df3d b1ea a0bd 8863 ef3a
00000150: 068e 49bc 71f0 1e3e 9724 eebd 1f73 90bd
00000160: f5c5 203e 8cb8 883d 4a83 233e 2385 2c3d
00000170: 687f 4bbd 65f1 273d 4ffd 04be 77a3 12be
00000180: 5137 c4bd 716f 013e 55a2 d3bd fd75 8dbd
00000190: 2066 0b3e 1906 06be 94ff eb3d a8b7 9abd
000001a0: 7806 a13d 092c 26be 8e47 b63d 2240 0d3e
000001b0: 4896 183e 6225 92bd 0c5f 27bd cfd6 a8bd
000001c0: 49e2 c63d 2627 1cbe 8e66 413d e03b 80bc
000001d0: a919 12be 6528 0bbc eea5 11be ff54 613d
000001e0: 52ba c83d 6e49 acbd 8286 e33b 384a a1bd
000001f0: c1b2 b1bd f5bb 063e 31a4 1cbe 1446 51bd
00000200: 44c2 dd3d 41a3 8f3d 96c1 aebb 6df5 8cbb
00000210: 4c87 103d c0c6 abbd e619 7c3c 37da 833d
00000220: 5279 e2bc 7b68 a53d 0d64 15be a826 1e3e
00000230: fd83 84bd db06 0ebe 983e 8c3c 86a4 3b3d
00000240: e0f9 bbbd e8a0 713d 72b2 f2bd 18df 27be
00000250: 5d2e 30bc 010d 8bbd c51f b03d 2b7a ebbd
00000260: 50ce 2cbe 095f f53d 101f 1a3e 593a ee3d
00000270: 339a cbbd aae3 21be 2de9 013e db21 41bd
00000280: 537d 153e 289c 293d bd8f 08be 46d2 09be
00000290: e163 a8bd 68e8 e73d 0748 6dbd b220 9dbc
000002a0: d010 2ebe 067a 453d 7f30 cb3c 64cd ad3d
000002b0: afd7 a13b 6a05 f83d d340 2a3c 95ee 34be
000002c0: e9ef 28bd 6ce4 34bb c5d3 193e 2f90 1dbe
000002d0: 953f 143e e27a 39bd fa17 18be 2da2 0b3e
000002e0: 3ab3 11be a217 6e3d f6b3 11be 8f8f 2fbe
000002f0: 3c3b aebd 7354 0b3e d33e 063d 17ef 74bd
00000300: ae52 8c3d ddaf 843d f05b 30be 579f 0bbd
00000310: c965 513d b8d0 61bc 04e5 a83c 4504 1b3d
00000320: 5168 92bd cec3 843d 9e77 debc 7324 e53d
00000330: de0b 2abe f86b 2abe 512f 02be b19f 1a3e
00000340: 99d6 07be c893 be3d 22f9 85bd e0e0 dc3d
00000350: 2384 18be 6152 a8bb a1f9 b1bd 1d6f 1e3d
00000360: ddc4 f8bb 7be8 143b 9c02 023d c6e7 6c3d
00000370: f01c bbbd 98bf 2cbe a225 c13d fc78 06bd
00000380: 6e14 c1bd ac6a 0d3e 0576 cc3d 77c5 1bbe
00000390: 556e 123e c4bf 293e 33b0 6c3d 2eb2 b33d
000003a0: 1d11 203e 5331 88bd fec0 3abc 7723 8f3c
000003b0: 1194 8a3d f79e b53c 07cd 72bd 7fa7 0d3e
000003c0: 9ecc 2ebe c8e5 c93d dc6a 0cbe 1e02 2dbd
000003d0: 42de cf3d 3ba0 56bd d99d f9bd df97 eabd
000003e0: 29c6 e03d b22e 043e 27bf 0dbd fa72 513d
000003f0: 92ff 003e 1098 d23d 95b3 d93d 038c da3c

linear4.bias f4 [32]
-0.009206368 0.1372566 0.005378802 -0.15923789 0.08290599 -0.10593629 -0.16964057 -0.05821955
0.03946907 0.13201717 0.066843614 -0.10829613 0.02420719 -0.08763828 -0.075262636 -0.15140317
0.12854275 -0.10848824 0.14814901 0.01395145 -0.11722202 0.015086169 -0.098984465 -0.051219106
-0.009740958 0.09453266 0.022476302 -0.094706096 0.16587524 0.09206595 0.024348402 0.11835155
00000000: 4ed6 16bc ff8c 0c3e a940 b03b 420f 23be
00000010: 9eca a93d 20f5 d8bd 42b6 2dbe 9f77 6ebd
00000020: 52aa 213d 822f 073e 4ee5 883d 5dca ddbd
00000030: 284e c63c b37b b3bd 4c23 9abd 6f09 1bbe
00000040: b6a0 033e 152f debd 60b4 173e 9f94 643c
00000050: 1912 f0bd fb2b 773c 5eb8 cabd 20cb 51bd
00000060: 8a98 1fbc 579a c13d 3920 b83c 45f5 c1bd
00000070: 33db 293e 138d bc3d 4d76 c73c 4c62 f23d

linear5.weight f4 [16, 32]
-0.109499976 0.15065308 -0.12606119 0.12582378 -0.04529684 0.061760727 -0.09791788 0.121741384
0.1353408 0.15069334 -0.0019510619 -0.045569044 -0.15578432 0.028461829 -0.066928774 0.054892644
-0.12166396 0.13368736 0.09144241 -0.066331744 -0.022037828 0.08937604 0.010177705 -0.15778391
-0.06728043 -0.09413153 -0.094574235 -0.010787254 0.13698849 -0.02812141 -0.09847874 -0.08222686
-0.08652449 0.16158846 0.13236655 -0.027285911 0.077508345 -0.055614073 0.1592738 0.13233113
-0.030421743 0.11718491 0.08064106 -0.064073324 0.094438255 0.0010182889 -0.16745828 0.065556325
-0.008981662 0.1605262 -0.03887113 -0.14114122 0.16762476 -0.075549215 0.09426075 0.012688667
-0.122560486 0.020204987 -0.13054731 -0.104572296 0.114351414 0.14899221 0.16152683 -0.15787956
-0.15866111 -0.016216652 -0.027213925 0.037971128 -0.0947918 0.02288772 0.109803624 0.10549984
0.16987403 0.10926073 -0.12573391 0.13295898 0.044560913 0.13431263 -0.16519071 -0.14526857
-0.12349022 0.13389933 -0.045076158 -0.016803358 -0.059039347 0.17511784 -0.1446486 -0.10777634
0.05421326 -0.12702163 -0.08684318 0.14002086 -0.119280025 -0.13577658 -0.15276195 0.027094629
0.016447196 -0.13849325 0.16948064 -0.03373615 0.1703456 0.12799905 -0.0015600866 -0.006221907
-0.15874477 0.11473618 0.14547977 -0.17342667 -0.1703832 -0.0986931 0.063873544 0.1408554
0.09329923 0.14666751 -0.082579896 0.16464378 -0.045689777 -0.10844782 -0.12275156 0.113350324
-0.057604287 0.11269637 -0.1201544 -0.084262595 -0.06190057 0.15277138 -0.08296044 -0.12521765
-0.12338245 -0.12701677 0.069980375 -0.03464513 0.14449334 0.043900285 0.06949421 -0.12959687
0.1277087 0.14411986 0.1461596 -0.0043619038 -0.15223017 0.06317789 0.007450214 -0.14947647
-0.16928326 0.030575262 0.17024401 -0.11464802 -0.13344285 -0.11451398 0.1430624 -0.1675634
-0.1598871 -0.06278226 -0.13823403 -0.11298293 0.16153397 0.16670427 0.04103731 -0.021150595
-0.04073177 0.160913 -0.024709728 -0.0907935 -0.12317056 0.09225498 0.019367257 -0.15744296
-0.124648966 -0.052022446 -0.020137047 -0.10345022 -0.05466794 -0.12810595 -0.022138938 -0.14108734
0.023428105 -0.1079291 0.053482957 -0.039041575 0.104741514 -0.12991957 0.15374717 -0.06554267
0.10842635 -0.008879835 -0.035954297 -0.11688507 0.12816012 0.047428984 0.14160597 0.08777481
-0.12783611 0.09982491 -0.07286493 -0.07402892 0.10952537 0.11441725 -0.1135917 -0.11128384
0.06326728 0.0103578195 0.07842854 -0.08420133 0.17119324 0.17409097 0.017677147 -0.053074513
0.0045469073 0.16336504 -0.020474792 -0.078058384 -0.061639573 -0.013327275 -0.007434704 0.13693932
0.014690895 -0.12577575 -0.053916313 -0.15576693 -0.09619801 0.11674843 0.13697569 0.071935
-0.058232993 0.020182882 0.16170266 0.17155561 0.03352101 0.17668734 0.011082703 0.06423808
-0.11921506 0.14613564 0.16196144 0.12823115 0.17448053 -0.045996837 0.10992077 0.056158695
-0.0024209782 0.15655108 -0.008415145 -0.028492048 -0.03048709 -0.054173388 -0.1670261 -0.13989025
-0.05321775 -0.10912228 0.09746054 0.12077434 -0.124918245 0.08343445 -0.073685944 0.057718147
00000000: 8641 e0bd cd44 1a3e 2f16 01be f3d7 003e
00000010: 2e89 39bd d1f8 7c3d 2b89 c8bd 8c53 f93d
00000020: c796 0a3e 5b4f 1a3e c6ba ffba 9ba6 3abd
00000030: ed85 1fbe c828 e93c f411 89bd 1cd7 603d
00000040: f42a f9bd 57e5 083e 2946 bb3d f0d8 87bd
00000050: ad88 b4bc c90a b73d 64c0 263c 1b92 21be
00000060: 52ca 89bd 08c8 c0bd 23b0 c1bd 06bd 30bc
00000070: b646 0c3e df5e e6bc 39af c9bd 8e66 a8bd
00000080: c033 b1bd 7277 253e 198b 073e b486 dfbc
00000090: b2bc 9e3d 95cb 63bd ac18 233e d081 073e
000000a0: 0537 f9bc a4fe ef3d 2427 a53d e038 83bd
000000b0: d868 c13d 1b78 853a 2f7a 2bbe 6542 863d
000000c0: d227 13bc fb60 243e 5637 1fbd 5387 10be
000000d0: d3a5 2b3e 8cb9 9abd c80b c13d 20e4 4f3c
000000e0: fe00 fbbd ee84 a53c 32ae 05be 002a d6bd
000000f0: 1331 ea3d 6a91 183e 4a67 253e 2eab 21be
00000100: 0f78 22be c9d8 84bc bdef debc 9d87 1b3d
00000110: 3422 c2bd 077f bb3c b9e0 e03d 4d10 d83d
00000120: 75f3 2d3e 17c4 df3d 64c0 00be 6626 083e
00000130: 8185 363d 4089 093e c127 29be 49c1 14be
00000140: 71e8 fcbd e81c 093e c7a1 38bd 32a7 89bc
00000150: 3ed3 71bd 1752 333e c31e 14be d7b9 dcbd
00000160: b90e 5e3d f511 02be d6da b1bd a161 0f3e
00000170: 1649 f4bd 0409 0bbe a16d 1cbe 8ef5 dd3c
00000180: 45bc 863c 2dd1 0dbe 558c 2d3e eb2e 0abd
00000190: 146f 2e3e 2f12 033e d27b ccba 24e1 cbbb
000001a0: fd8d 22be cdfa ea3d a6f8 143e c396 31be
000001b0: ef78 2ebe 9c1f cabd 22d0 823d 663c 103e
000001c0: ab13 bf3d 0230 163e a61f a9bd 6198 283e
000001d0: 3425 3bbd e419 debd 2b65 fbbd 3724 e83d
000001e0: 79f2 6bbd 5bcd e63d 8313 f6bd de91 acbd
000001f0: 748b 7dbd 1a70 1c3e 2ae7 a9bd 0e39 00be
00000200: f0af fcbd af10 02be df51 8f3d 0de8 0dbd
00000210: 10f6 133e c9d0 333d fb52 8e3d 0bb5 04be
00000220: 12c6 023e 2894 133e ddaa 153e 4dee 8ebb
00000230: 3ae2 1bbe 6963 813d ed20 f43b 5c10 19be
00000240: 9758 2dbe f978 fa3c 7254 2e3e 95cc eabd
00000250: 3ea5 08be 4e86 eabd f37e 123e bd95 2bbe
00000260: 72b9 23be fc93 80bd 398d 0dbe 9863 e7bd
00000270: 2969 253e 86b4 2a3e bd16 283d 0344 adbc
00000280: 5bd6 26bd 61c6 243e 0e6c cabc f1f1 b9bd
00000290: d940 fcbd 2ef0 bc3d 15a8 9e3c ba38 21be
000002a0: f547 ffbd 7d15 55bd 73f6 a4bc b5dd d3bd
000002b0: 7deb 5fbd 352e 03be b85c b5bc 3379 10be
000002c0: 4cec bf3c ef09 ddbd f210 5b3d 0fea 1fbd
000002d0: b882 d63d a309 05be e66f 1d3e 3c3b 86bd
000002e0: a20e de3d ba7c 11bc d044 13bd 7161 efbd
000002f0: 683c 033e e544 423d 2801 113e 48c3 b33d
00000300: 78e7 02be 0171 cc3d 353a 95bd 799c 97bd
00000310: d64e e03d 9753 ea3d c4a2 e8bd c8e8 e3bd
00000320: 4792 813d d8b3 293c 249f a03d bf71 acbd
00000330: 484d 2f3e e744 323e aacf 903c a964 59bd
00000340: 39fe 943b 2a49 273e c0ba a7bc 13dd 9fbd
00000350: c779 7cbd a55a 5abc d19e f3bb d239 0c3e
00000360: 14b2 703c 5ccb 00be 5ad7 5cbd 5e81 1fbe
00000370: 7603 c5bd cd19 ef3d 5b43 0c3e a852 933d
00000380: b885 6ebd 9256 a53c 6295 253e 46ac 2f3e
00000390: 544d 093d 87ed 343e 3a94 353c 418f 833d
000003a0: 0627 f4bd 95a4 153e 38d9 253e 074f 033e
000003b0: 06ab 323e 2e67 3cbd 241e e13d a906 663d
000003c0: 46a9 1ebb ed4e 203e addf 09bc 2868 e9bc
000003d0: 10c0 f9bc eae4 5dbd e408 2bbe 643f 0fbe
000003e0: dbfa 59bd 807b dfbd 6499 c73d 8a58 f73d
000003f0: 23d5 ffbd aedf aa3d a8e8 96bd dd69 6c3d

linear5.bias f4 [16]
-0.049989976 -0.01670113 -0.1040089 -0.10932749 -0.1275305 -0.10103545 0.07826033 0.043264076
-0.019001273 0.161386 -0.03435501 0.111495525 -0.05013614 0.0015752595 0.009429261 0.0784359
00000000: 4ac2 4cbd cfd0 88bc 9e02 d5bd 17e7 dfbd
00000010: 5b97 02be adeb cebd f446 a03d ac35 313d
00000020: 8fa8 9bbc 5f42 253e d7b7 0cbd c457 e43d
00000030: 8e5b 4dbd f078 ce3a 307d 1a3c 00a3 a03d

output_layer.weight f4 [2, 16]
-0.06074825 -0.004989803 0.072843075 0.15758473 -0.2475186 -0.14148211 -0.13197431 0.10825312
0.18047327 -0.113175124 0.14735922 0.06811535 -0.11983818 0.08029693 0.15597767 0.14885625
0.04779473 -0.009607673 -0.009732306 -0.23903275 0.08576381 -0.23510244 0.0034275353 -0.11533144
0.115015596 0.16239136 -0.05900523 0.19968265 -0.11607465 0.22717935 -0.22389567 0.20170483
00000000: 28d3 78bd 8081 a3bb c02e 953d e45d 213e
00000010: 8475 7dbe b0e0 10be 4624 07be d0b3 dd3d
00000020: fccd 383e 5cc8 e7bd 56e5 163e 1080 8b3d
00000030: b86d f5bd b872 a43d 9cb8 1f3e c66d 183e
00000040: 68c4 433d 8069 1dbc 4074 1fbc 00c5 74be
00000050: f0a4 af3d b2be 70be 80a0 603b e432 ecbd
00000060: 4c8d eb3d ec49 263e 78af 71bd 9c79 4c3e
00000070: 8cb8 edbd b4a1 683e e844 65be b68b 4e3e

output_layer.bias f4 [2]
0.15046647 -0.05831024
00000000: e213 1a3e b8d6 6ebd
