results/models/batchsize=96,lr=1e-4,width=128,eps=0.9,num_episodes_train=5000/2/model-200.0.pt (torch, 72304 bytes, 6 tensors)

linear1.weight f4 [128, 4]
0.25341123 0.21161994 1.00197 0.112931564 -0.056679696 1.5853132 1.775243 -0.23752646
-1.5917088 0.8297432 2.5880122 1.3635923 1.4595804 -1.6908703 -2.3156168 0.3131361
-0.38827187 0.065470695 0.43550497 -0.014857449 1.0759948 -1.535243 -1.8135774 0.26520076
0.11094922 -0.25887853 0.33577752 -0.29599106 0.110502124 0.034109693 0.3664162 0.25342393
0.83884734 -0.6788843 -2.8897965 -1.5122765 -1.2970283 1.003555 1.8026081 -0.14242265
1.340336 -0.99657923 -3.165639 -1.5183364 1.2366312 -0.23748715 -2.8877952 -1.5392071
-1.3980945 0.92357355 3.3352349 1.5882163 -1.9793215 1.2555126 2.33843 -0.48810688
0.9641851 0.7056698 0.9198592 0.28985906 0.7431091 -0.26034433 -0.6437783 0.008570826
-1.2128588 0.7546964 3.1227996 1.2711301 0.71021783 0.07694673 0.12370193 0.042821925
-1.3651347 0.8546665 2.5051897 1.3024718 0.9103237 0.40884462 0.54999876 0.3235496
0.28349116 -0.16834591 0.32620436 -0.16989753 0.08168614 0.30787995 0.48339793 0.3053069
0.20394763 -0.1639746 0.37664577 -0.32448632 0.09636855 0.3691705 0.60319155 0.55873376
0.055799484 1.1141866 1.9348664 -0.055033565 0.93760407 -0.36653423 -3.2719152 -1.1371037
0.085379556 -0.15390654 0.28342208 -0.31084588 0.77907854 -0.4979046 -2.706882 -1.1197771
-0.36298653 -0.118771 -0.44400018 -0.087853566 -2.569878 0.9165851 3.7501552 1.7882619
0.0082460735 -0.7346456 -0.66149974 -0.37563413 1.0114045 0.06772336 -0.3987097 -0.30898535
-1.1771376 0.08008063 2.7498415 1.5876623 -0.018816942 -0.07365474 0.5044316 0.4471642
0.8478285 -0.11839615 -0.60804856 -0.049737144 2.0006335 -1.0451902 -4.9526963 -1.8086196
0.8150185 0.3890428 0.20823751 0.40591344 1.8637351 -1.0307971 -4.996511 -1.814434
-0.8179418 1.5918906 2.3586457 -0.1739776 -0.85749346 -0.6746216 -0.25491062 -0.42316723
0.18473823 0.36685735 0.82874984 0.25198334 0.041538134 0.277024 0.4396339 0.48443547
-1.2052541 0.30532303 3.1579611 1.4238763 0.15482736 -0.08893269 0.5099137 0.10094515
0.38005155 0.2521829 -0.35314053 0.41209728 -1.5071436 0.026912846 2.9037023 1.813399
1.3264315 -1.0245686 -2.9997034 -1.5254334 -0.86485183 0.23206526 2.4332433 1.2943062
0.9708669 -0.04334995 -2.9582212 -1.3787203 0.09614819 -0.36573327 -0.44266245 -0.20817114
-0.48002064 -1.4664282 -1.0267326 -0.1895688 0.05282688 -0.00018766991 0.9775973 0.33185217
0.48718372 -0.28521788 -0.04885616 -0.58064055 -1.2572812 0.7093645 3.1699917 1.5669699
-0.3582216 -0.42798707 0.2945415 -0.33832198 1.0075855 -0.7673671 -2.9686198 -1.2647735
1.0215446 -0.64452416 -2.7616713 -0.97867465 0.4823491 -0.30437794 -0.9177334 -0.13669057
1.0164719 -0.27627087 0.27191642 0.2664129 0.3425204 -0.2557922 0.5418789 0.7617772
0.8249883 -0.19705099 -0.63627887 -0.5453146 1.0729085 -0.21638267 -0.930731 0.16250978
-0.58038384 -0.68378127 -0.861269 -0.29003787 0.46269166 -0.13081329 -0.111759335 -0.12981021
00000000: 1ebf 813e e6b2 583e 8e40 803f aa48 e73d
00000010: f828 68bd 8beb ca3f 2a3b e33f 233a 73be
00000020: 1dbd cbbf 0d6a 543f fea1 2540 318a ae3f
00000030: 88d3 ba3f 706e d8bf 1133 14c0 6053 a03e
00000040: 92cb c6be 8015 863d 82fa de3e a86c 73bc
00000050: 33ba 893f d882 c4bf 4e23 e8bf 65c8 873e
00000060: 5839 e33d ba8b 84be 08eb ab3e 248c 97be
00000070: f04e e23d 9bb6 0b3d e79a bb3e c8c0 813e
00000080: b3be 563f 5dcb 2dbf 6df2 38c0 4792 c1bf
00000090: 0605 a6bf 7e74 803f ddbb e63f 3ed7 11be
000000a0: 2190 ab3f d11f 7fbf d499 4ac0 d958 c2bf
000000b0: ee49 9e3f d52f 73be a3d1 38c0 bd04 c5bf
000000c0: c3f4 b2bf 516f 6c3f 7d74 5540 ac4a cb3f
000000d0: 685a fdbf a3b4 a03f d6a8 1540 25e9 f9be
000000e0: d6d4 763f c7a6 343f e47b 6b3f 6868 943e
000000f0: 663c 3e3f da4b 85be a8ce 24bf a66c 0c3c
00000100: f53e 9bbf c933 413f f3db 4740 64b4 a23f
00000110: d6d0 353f 3f96 9d3d 7057 fd3d 0b66 2f3d
00000120: bcbc aebf 6ccb 5a3f 0755 2040 65b7 a63f
00000130: f90a 693f 1554 d13e b8cc 0c3f 4ba8 a53e
00000140: c125 913e df62 2cbe 4204 a73e 9ef9 2dbe
00000150: 104b a73d 71a2 9d3e ef7f f73e 3051 9c3e
00000160: a6d7 503e f5e8 27be b7d7 c03e 1223 a6be
00000170: e05c c53d ea03 bd3e c36a 1a3f 2d09 0f3f
00000180: 008e 643d ab9d 8e3f b4a9 f73f e06a 61bd
00000190: d206 703f 60aa bbbe 0f67 51c0 9d8c 91bf
000001a0: 7adb ae3d ad99 1dbe b31c 913e 3127 9fbe
000001b0: b171 473f 5aed febe 8e3d 2dc0 db54 8fbf
000001c0: 5fd9 b9be 363e f3bd fe53 e3be 92ec b3bd
000001d0: e278 24c0 52a5 6a3f 8b02 7040 c4e5 e43f
000001e0: 8a1a 073c bc11 3cbf 0c58 29bf 1e53 c0be
000001f0: b475 813f 8cb2 8a3d ae23 ccbe 5433 9ebe
00000200: 72ac 96bf 5001 a43d 67fd 2f40 8538 cb3f
00000210: fd25 9abc 4cd8 96bd 6e22 013f b5f2 e43e
00000220: 4a0b 593f ae79 f2bd 12a9 1bbf 2db9 4bbd
00000230: 610a 0040 cbc8 85bf 7d7c 9ec0 d980 e7bf
00000240: 0da5 503f 9e30 c73e 373c 553e e3d3 cf3e
00000250: df8e ee3f 29f1 83bf 6be3 9fc0 603f e8bf
00000260: a264 51bf 12c3 cb3f 0df4 1640 2f27 32be
00000270: b184 5bbf 00b4 2cbf a583 82be 60a9 d8be
00000280: 052c 3d3e bad4 bb3e f328 543f f603 813e
00000290: e423 2a3d 17d6 8d3e b217 e13e ed07 f83e
000002a0: c445 9abf 4d53 9c3e 091c 4a40 9441 b63f
000002b0: 108b 1e3e 5822 b6bd b489 023f 55bc ce3d
000002c0: 1e96 c23e 1e1e 813e d6ce b4be 6afe d23e
000002d0: 15ea c0bf 5478 dc3c 42d6 3940 751d e83f
000002e0: 82c8 a93f 1025 83bf 24fb 3fc0 6741 c3bf
000002f0: ee66 5dbf 84a2 6d3e 42ba 1b40 d3ab a53f
00000300: bc8a 783f b88f 31bd 7f53 3dc0 e879 b0bf
00000310: 58e9 c43d 6441 bbbe a7a4 e2be d12a 55be
00000320: 44c5 f5be ebb3 bbbf f96b 83bf 531e 42be
00000330: 0061 583d 42c9 44b9 d143 7a3f 87e8 a93e
00000340: 2570 f93e 1408 92be 661d 48bd dca4 14bf
00000350: 97ee a0bf e998 353f 25e1 4a40 7892 c83f
00000360: d268 b7be 1f21 dbbe 25ce 963e 8a38 adbe
00000370: 90f8 803f 2c72 44bf defd 3dc0 19e4 a1bf
00000380: f9c1 823f 89ff 24bf 39bf 30c0 6c8a 7abf
00000390: 76f6 f63e 6dd7 9bbe 93f0 6abf 9df8 0bbe
000003a0: c01b 823f 6073 8dbe a138 8b3e 4667 883e
000003b0: d55e af3e 32f7 82be 93b8 0a3f d503 433f
000003c0: 6f32 533f bcc7 49be 2ce3 22bf bd99 0bbf
000003d0: 1155 893f 6b93 5dbe 6344 6ebf f768 263e
000003e0: 0994 14bf 4a0c 2fbf 207c 5cbf d87f 94be
000003f0: ece5 ec3e ebf3 05be 14e2 e4bd f8ec 04be

linear1.bias f4 [128]
1.281992 0.6236266 -0.60004175 0.4612686 1.2720953 0.3637618 -0.46153432 1.3382162
-0.74863726 0.79208815 -0.9683058 -0.48198476 -0.7672293 0.366602 0.7685194 1.5377316
-0.80443305 1.0759435 -0.7633235 1.2099873 1.0351211 1.2232333 1.4498943 1.2481946
0.83953077 -0.6821344 1.4695761 -0.76430994 1.1083974 1.1791443 0.89529455 1.352787
-0.6037507 1.5068437 1.2768625 1.2499554 1.0788132 1.2556695 0.6920131 0.79860824
1.2303478 1.1989635 -0.5693733 1.1634247 1.3710974 -0.3755747 -0.93883026 -0.6979443
-0.0550974 -0.47685418 0.56424344 1.0183326 1.4065056 -0.734453 1.0721135 -0.80437934
-0.64827454 1.3409568 1.4580032 1.6221557 1.2806838 1.4103879 0.84276867 1.3884084
-0.6185163 1.0031103 1.3212537 -0.52810615 1.3940843 0.9981866 -0.49437746 0.40803906
-0.7168063 -0.49481812 1.2761934 1.1914059 1.2758497 -0.6232232 0.7754414 -0.38424376
1.1021181 1.1726563 -0.7179709 -0.8740674 2.4275346 -0.8356962 1.3585644 1.2892028
-0.85381484 1.2808855 1.5183208 0.6379307 1.4972476 1.1768088 1.1933955 1.487222
-0.4676259 1.4132991 1.1731696 1.1750404 1.3218298 0.3537753 1.2541534 -0.38137317
-0.8408631 0.71600825 1.1432381 -0.7899281 -0.6019831 1.4533707 1.3196466 -0.7777258
-0.5544401 0.4159265 1.4749033 1.2821591 1.2606262 1.1597527 1.141905 1.201537
0.43342447 -0.9455711 1.2867078 1.5862741 -0.777497 1.4761505 1.106209 1.0244343
00000000: 5018 a43f fea5 1f3f 569c 19bf 662b ec3e
00000010: 05d4 a23f fd3e ba3e 3a4e ecbe ab4a ab3f
00000020: b1a6 3fbf 4ac6 4a3f e4e2 77bf b5c6 f6be
00000030: 2469 44bf 42b3 bb3e b0bd 443f 64d4 c43f
00000040: 53ef 4dbf 84b8 893f 2b69 43bf dde0 9a3f
00000050: d97e 843f e992 9c3f 2396 b93f d7c4 9f3f
00000060: 7deb 563f 5ca0 2ebf 121b bc3f d1a9 43bf
00000070: f7df 8d3f 33ee 963f 0632 653f 2028 ad3f
00000080: 688f 1abf 41e0 c03f 3b70 a33f 8afe 9f3f
00000090: 8d16 8a3f c7b9 a03f c527 313f 9771 4c3f
000000a0: 097c 9d3f a377 993f 73c2 11bf 1aeb 943f
000000b0: 1f80 af3f 544b c0be 2e57 70bf 7aac 32bf
000000c0: d0ad 61bd 3b26 f4be 4272 103f b958 823f
000000d0: 6008 b43f 1d05 3cbf 043b 893f ceeb 4dbf
000000e0: 52f5 25bf 79a4 ab3f d99f ba3f cca2 cf3f
000000f0: 72ed a33f 9787 b43f b0bf 573f 5eb7 b13f
00000100: 1657 1ebf eb65 803f d71e a93f f731 07bf
00000110: 5b71 b23f 2889 7f3f 0b1f fdbe 7fea d03e
00000120: 9e80 37bf cd58 fdbe 4e5a a33f fd7f 983f
00000130: 0b4f a33f 8e8b 1fbf 5483 463f 99bb c4be
00000140: 3512 8d3f 9a19 963f f1cc 37bf e2c2 5fbf
00000150: ba5c 1b40 30f0 55bf 70e5 ad3f 9904 a53f
00000160: 9c93 5abf 0ef4 a33f 5658 c23f 6d4f 233f
00000170: cfa5 bf3f aca1 963f 2fc1 983f 4a5d be3f
00000180: a96c efbe fce6 b43f 6c2a 963f b967 963f
00000190: b831 a93f 0922 b53e 1988 a03f 5843 c3be
000001a0: ce42 57bf 514c 373f a055 923f ba38 4abf
000001b0: 901b 1abf 0d08 ba3f 2eea a83f 0a19 47bf
000001c0: c9ef 0dbf 51f4 d43e a2c9 bc3f ca1d a43f
000001d0: 335c a13f c772 943f f129 923f f7cb 993f
000001e0: d0e9 dd3e f310 72bf d7b2 a43f 080b cb3f
000001f0: 0b0a 47bf 80f2 bc3f 4298 8d3f aa20 833f

linear2.weight f4 [128, 128]
-0.09047898 0.06579503 0.01966481 -0.05692685 -0.057063896 0.088176414 0.04951339 -0.04566185
0.04426605 0.044942882 -0.053244475 -0.08428243 0.015179073 0.029826928 0.07767257 -0.031901382
-0.047835093 -0.01883868 0.084756754 0.043828838 -0.0796833 0.01083706 -0.074692845 0.019281639
0.019263607 -0.02868449 -0.038887575 -0.09538548 0.0067097726 -0.09161337 0.035658058 -0.029615827
0.028732292 0.04822409 0.050742134 -0.09138103 0.0053140214 -0.022075633 0.006724572 0.073631026
0.029761426 0.06010784 -0.0040361774 0.06293013 -0.08259502 -0.06805583 0.050782822 0.051690523
-3.0581083e-05 0.06147907 0.063581035 -0.018947188 -0.09038167 0.053296663 0.055385824 0.07524695
0.014040922 -0.06716564 0.032403957 -0.09066483 0.024574056 0.06255853 0.06797954 0.018055769
0.06297991 0.040766794 -0.03910806 0.031498045 -0.08768844 -0.027803062 0.021893717 -0.042330336
-0.023477519 -0.062135044 -0.044063102 0.06990569 0.058184944 -0.035746977 0.03153931 0.07063929
-0.0008056366 -0.05198045 -0.0048034014 -0.00016587629 -0.037354168 -0.005862033 0.006011551 -0.0033866644
-0.03721172 -0.058551405 0.061385393 -0.045964036 0.030983733 -0.070300914 -0.009770886 0.0731602
-0.064777344 -0.085430905 0.014917183 -0.088702515 -0.022651926 0.053223092 -0.053847276 0.046140496
0.078624785 -0.033323973 -0.08622144 0.0013146973 -0.031030737 0.039303478 -0.06907501 -0.07552858
-0.039746772 0.036800772 0.014485812 -0.08064033 -0.044710677 0.019815532 -0.028118158 0.041112512
-0.029880757 -0.082157955 0.045600034 0.07696004 0.02989839 -0.09440883 -0.04935223 -0.019343222
-0.08542723 -0.035738755 0.06606852 -0.04753885 0.0846608 0.013339667 -0.036256593 0.085885115
0.021350212 0.0057618427 0.06543216 -0.055274736 0.058263477 -0.0013538306 -0.08037638 0.028899925
-0.07058458 0.00024238652 -0.084274456 0.060624447 0.07231644 -0.0015264429 -0.07695768 0.066329606
-0.06944619 0.020939576 0.012551067 0.06538991 -0.06848354 -0.0118112955 -0.024789669 -0.06347757
0.029376132 -0.07026986 0.056179326 -0.019155847 -0.013988043 -0.055053044 -0.07840699 0.030432615
0.015496311 0.0067069754 -0.023349945 -0.025491815 -0.05720501 -0.026378669 -0.03497315 -0.008944256
0.042841733 0.036014967 0.006108996 -0.03228813 0.07547412 -0.009066872 -0.05613407 0.032848738
0.016276112 -0.07642903 0.07099718 0.025779055 -0.008721858 -0.06822061 -0.0059938086 -0.030482128
0.033178408 -0.009022133 -0.04745579 0.08666631 0.04118828 -0.0014226036 0.020534808 -0.039290134
-0.015289527 0.0038592499 -0.033780508 -0.027473107 -0.0403078 0.010065458 -0.057578158 -0.055119343
0.048114747 -0.0020355873 -0.041946143 -0.043104973 -0.082996234 0.066636875 0.03152703 -0.0021291638
-0.081220925 0.014695394 -0.05915819 0.06292533 0.011980084 0.08154254 0.038318027 -0.08471193
0.03605569 0.017373437 -0.016390856 0.015647028 0.0067703114 0.011460908 0.07526355 0.004495214
0.065352574 0.01801155 -0.013253034 -0.0766027 -0.046790767 0.04503378 -0.0831345 -0.017753137
-0.06446688 0.0402455 -0.08049539 -0.023014244 -0.06710697 0.06375107 -0.029743051 -0.03024501
0.01142227 -0.042279188 -0.07157004 -0.077677704 -0.03731135 0.047214333 0.023105407 -0.054484632
00000000: 0b4d b9bd 8bbf 863d 1818 a13c 212c 69bd
00000010: d5bb 69bd d695 b43d 8dce 4a3d ec07 3bbd
00000020: 5150 353d 0716 383d e116 5abd 449c acbd
00000030: a6b1 783c 9a57 f43c cc12 9f3d 06ab 02bd
00000040: bbee 43bd 9353 9abc f394 ad3d de85 333d
00000050: ff30 a3bd ed8d 313c 90f8 98bd 87f4 9d3c
00000060: b6ce 9d3c bcfb eabc 9448 1fbd 7659 c3bd
00000070: a7dd db3b ca9f bbbd 2f0e 123d e49c f2bc
00000080: fc5f eb3c a086 453d fcd6 4f3d fa25 bbbd
00000090: 3e21 ae3b f5d7 b4bc cc59 dc3b ddcb 963d
000000a0: 3cce f33c a333 763d e941 84bb 83e1 803d
000000b0: 9427 a9bd db60 8bbd a601 503d 71b9 533d
000000c0: 3044 00b8 7ad1 7b3d c636 823d 2237 9bbc
000000d0: 061a b9bd 9a4d 5a3d 3fdc 623d 131b 9a3d
000000e0: e50b 663c 248e 89bd 03ba 043d 7bae b9bd
000000f0: 884f c93c b01e 803d db38 8b3d b1e9 933c
00000100: 9cfb 803d 15fb 263d c62f 20bd 1804 013d
00000110: ff95 b3bd 3fc3 e3bc 745a b33c 9362 2dbd
00000120: ed53 c0bc 5181 7ebd 837b 34bd b72a 8f3d
00000130: 5653 6e3d 6c6b 12bd 5d2f 013d 55ab 903d
00000140: 5b31 53ba 74e9 54bd da65 9dbb 14ef 2db9
00000150: af00 19bd 4c16 c0bb 8bfc c43b cdf2 5dbb
00000160: 516b 18bd 99d3 6fbd 406f 7b3d c944 3cbd
00000170: 99d1 fd3c edf9 8fbd 1116 20bc 04d5 953d
00000180: fca9 84bd 66f6 aebd 3367 743c aaa9 b5bd
00000190: 8890 b9bc 7500 5a3d f68e 5cbd d1fd 3c3d
000001a0: 0806 a13d b87e 08bd de94 b0bd ec51 ac3a
000001b0: 2c34 febc affc 203d 3377 8dbd baae 9abd
000001c0: 83cd 22bd 68bc 163d e655 6d3c c226 a5bd
000001d0: 8b22 37bd 2f54 a23c 0d58 e6bc 9865 283d
000001e0: 7dc8 f4bc 6e42 a8bd 1ac7 3a3d 3a9d 9d3d
000001f0: 78ed f43c 6b59 c1bd 9025 4abd ad75 9ebc
00000200: 79f4 aebd cd62 12bd ef4e 873d 19b8 42bd
00000210: a462 ad3d 9e8e 5a3c cb81 14bd 89e4 af3d
00000220: a4e6 ae3c d7cd bc3b 4c01 863d c367 62bd
00000230: afa5 6e3d 0473 b1ba 5f9c a4bd 89bf ec3c
00000240: a68e 90bd 2329 7e39 1698 acbd 5751 783d
00000250: a41a 943d ed12 c8ba fd9b 9dbd d1d7 873d
00000260: ce39 8ebd 7989 ab3c fea2 4d3c 25eb 853d
00000270: 1941 8cbd 2a84 41bc b413 cbbc 8700 82bd
00000280: 37a6 f03c a5e9 8fbd 4b1c 663d b9ec 9cbc
00000290: 1b2e 65bc 4d7f 61bd d893 a0bd d24d f93c
000002a0: 3de4 7d3c 30c6 db3b 6248 bfbc 36d4 d0bc
000002b0: cd4f 6abd 1418 d8bc 0140 0fbd ee8a 12bc
000002c0: d07a 2f3d 6e84 133d f92d c83b 8f40 04bd
000002d0: 2d92 9a3d 388d 14bc d7ec 65bd 668c 063d
000002e0: 7b55 853c d386 9cbd f866 913d 992e d33c
000002f0: 20e6 0ebc 3fb7 8bbd b667 c4bb a8b5 f9bc
00000300: 15e6 073d 92d1 13bc 0161 42bd 1b7e b13d
00000310: 0bb5 283d a876 baba 9d38 a83c b1ee 20bd
00000320: ed80 7abc 78eb 7c3b 6e5d 0abd 480f e1bc
00000330: cb19 25bd 97e9 243c 13d7 6bbd d2c4 61bd
00000340: f813 453d 7d67 05bb b8cf 2bbd d78e 30bd
00000350: eef9 a9bd ea78 883d 7d22 013d 7189 0bbb
00000360: 2857 a6bd f3c4 703c dc4f 72bd ffde 803d
00000370: 1d48 443c c6ff a63d 5df3 1c3d 737d adbd
00000380: 22af 133d bd52 8e3c 1e46 86bc 322e 803c
00000390: 7dd9 dd3b 88c6 3b3c c723 9a3d 974c 933b
000003a0: 92d7 853d f58c 933c 4123 59bc e0e1 9cbd
000003b0: ada7 3fbd 5775 383d 6c42 aabd 076f 91bc
000003c0: 3607 84bd 77d8 243d c4da a4bd 5e88 bcbc
000003d0: 616f 89bd ec8f 823d b3a7 f3bc 62c4 f7bc
000003e0: 7924 3b3c f12c 2dbd 5093 92bd 7d15 9fbd
000003f0: c9d3 18bd d163 413d 8d47 bd3c 472b 5fbd

linear2.bias f4 [128]
0.05076846 -0.06820841 0.16389117 2.5986464 -0.077955745 0.04865151 0.8003515 0.7020005
0.13682087 0.7652364 0.7664731 0.7927726 -0.03284146 0.8182604 0.72731847 0.8154562
0.68804413 0.7698172 0.8813982 0.82853836 1.8463364 0.73167604 0.75846183 0.73251855
0.81808144 0.74002725 0.82327914 0.8361658 -0.012936648 0.73870695 0.8791472 0.7736519
0.8608685 0.103868544 0.71971977 2.1443818 0.86590487 2.3802478 0.037455566 0.7104744
0.8256983 2.3689709 0.8200026 0.013021142 0.8301905 0.7452702 -0.09158538 0.8076794
0.7197111 0.71049327 0.81787497 0.74148196 -0.08972079 0.75663334 0.8882893 0.7549077
0.88806635 -0.060971886 0.85462326 -0.004783595 0.021846037 2.373651 -0.010319123 0.8384863
0.8568883 0.8615871 0.7294821 0.78483135 2.139923 0.99094963 0.78970253 0.5601044
0.027820323 -0.05469506 0.8402251 -0.0008686269 0.7475317 0.75460637 0.7455831 -0.04880775
2.622963 1.7431788 -0.018351117 0.84680253 0.03426523 -0.065140195 0.7616272 2.5588326
1.9237294 2.465584 0.7240641 0.147676 0.77681583 0.8248878 0.83726406 0.7468884
0.81180423 0.7722066 0.014835665 -0.013562018 -0.06592274 0.022986526 0.7739287 0.8616591
-0.039807774 -0.03910767 0.7253915 0.8214046 0.8278598 0.7313531 0.8721053 0.7290234
0.5702993 -0.073391676 0.8583794 0.14280705 2.1275759 0.8023562 0.82885164 1.9435605
0.83899045 -0.039034043 1.943889 0.8205088 0.83075243 0.7352847 0.8485797 0.048087202
00000000: 97f2 4f3d dab0 8bbd 16d3 273e 3950 2640
00000010: 43a7 9fbd ce46 473d d6e3 4c3f 4eb6 333f
00000020: c51a 0c3e 88e6 433f 9537 443f 25f3 4a3f
00000030: c484 06bd 8379 513f 8b31 3a3f bdc1 503f
00000040: a923 303f bd12 453f 50a3 613f 171b 543f
00000050: c054 ec3f 1f4f 3b3f 8e2a 423f 5686 3b3f
00000060: c96d 513f 6d72 3d3f 6cc2 523f f60e 563f
00000070: 3cf4 53bc e61b 3d3f ca0f 613f 0d0e 463f
00000080: e161 5c3f 08b9 d43d 8e3f 383f 8d3d 0940
00000090: f1ab 5d3f fb55 1840 026b 193d a6e1 353f
000000a0: f760 533f 389d 1740 b1eb 513f a156 553c
000000b0: 5d87 543f 07ca 3e3f 1e91 bbbd 14c4 4e3f
000000c0: fd3e 383f e3e2 353f 4160 513f c3d1 3d3f
000000d0: 89bf b7bd b9b2 413f ed66 633f a241 413f
000000e0: 5158 633f a8bd 79bd 97c8 5a3f b4bf 9cbb
000000f0: 76f6 b23c e6e9 1740 8a11 29bc 0aa7 563f
00000100: 085d 5b3f f990 5c3f 57bf 3a3f b5ea 483f
00000110: 80f4 0840 e0ae 7d3f f229 4a3f 0163 0f3f
00000120: 72e7 e33c ed07 60bd fe18 573f 91b4 63ba
00000130: 3d5e 3f3f e22d 413f 89de 3e3f a3ea 47bd
00000140: a0de 2740 7c20 df3f 1555 96bc 0dc8 583f
00000150: b359 0c3d 3968 85bd 00fa 423f eac3 2340
00000160: c43c f63f 21cc 1d40 445c 393f 6138 173e
00000170: 67dd 463f d92b 533f f056 563f 1434 3f3f
00000180: 67d2 4f3f 55af 453f 4a11 733c 3a33 5ebc
00000190: 8002 87bd 3d4e bc3c 3120 463f b195 5c3f
000001a0: 7a0d 23bd 5d2f 20bd 42b3 393f 9247 523f
000001b0: 9fee 533f f539 3b3f 4b42 5f3f 47a1 3a3f
000001c0: 23ff 113f 604e 96bd c1be 5b3f 033c 123e
000001d0: 342a 0840 3767 4d3f 9f2f 543f 97c6 f83f
000001e0: 14c8 563f 29e2 1fbd 5bd1 f83f dd0c 523f
000001f0: 31ac 543f 9e3b 3c3f 853c 593f 16f7 443d

output_layer.weight f4 [2, 128]
-0.028260328 -0.053504232 -1.3667312 -1.7524425 -0.052817184 -0.079224184 5.3074336 5.4237046
-1.3683738 5.6180487 5.6581883 5.27789 -0.0029182395 5.5934334 5.561076 4.989077
5.053526 5.016571 5.6637197 5.01872 0.037819233 5.492763 5.3024764 5.3333616
5.6211224 5.581374 4.9327602 5.658274 0.07747018 5.5710583 5.4817758 5.4075017
5.358537 -1.1869725 5.6083994 3.4511204 5.6228757 0.38272077 -0.07024286 5.4969974
5.56218 -2.2775106 5.6102996 -0.059439532 5.4663787 5.7016387 -1.8855797 5.4690533
5.686065 5.510943 5.531963 5.39134 0.021695811 5.7268925 5.580575 5.120522
5.5962224 0.06831603 4.8717327 -0.030479286 -0.024619557 -1.225853 -0.037127078 5.577467
5.34814 5.61064 5.63014 5.437844 3.407228 1.7814107 5.250895 0.17931226
0.03853599 -0.6670896 5.6305137 -0.011809002 5.4902797 5.6015053 5.594054 0.053577546
-1.4935169 2.255502 0.044420935 5.5723805 0.026055515 -0.00010711983 5.5206857 -1.4937164
3.0747747 -1.7921861 5.668876 -1.5246426 5.8158784 4.68128 5.5557837 5.3524117
5.605696 4.835256 -0.030751776 -0.014344411 -0.07683326 -0.048078865 5.6093616 5.458205
-2.2367935 0.0100829275 5.284242 5.4826026 5.6020937 5.6250896 5.6572227 5.5539446
4.9812937 -0.493526 5.584727 -1.0305448 0.20398666 5.618538 4.9670672 3.126968
4.800246 0.0049686506 2.8356462 5.3453836 5.629042 5.397892 5.229514 -0.0064141136
-0.07781272 -0.0025933904 -0.38391554 3.4102855 -0.025721597 -0.015583465 5.2491765 5.2771387
-1.31876 5.322213 5.185199 4.604128 -0.020418365 5.2785964 5.12786 4.2906117
4.9962287 5.190266 5.337563 4.411809 2.8285532 5.0044193 4.677232 5.2574034
5.466621 5.1011715 4.9458075 5.205108 -0.045723997 5.044153 4.9150734 5.4371862
5.3046317 -2.1745613 5.244294 -1.9446739 5.336146 3.5143168 -0.051849972 4.90641
5.3037267 2.7774072 5.084797 -0.00455776 5.464072 4.993333 -1.8337649 5.34119
5.3606324 5.3407288 5.3348083 4.837509 -0.022657527 5.4951077 5.3270383 5.1490016
5.184597 0.00014476862 4.985426 -0.06319031 -0.061984003 3.2934277 -0.06271703 5.2733545
5.3241715 5.309031 5.1846337 4.740933 -2.0777342 2.7058887 4.59122 -2.8570027
-0.045252502 -1.5081937 5.353049 -0.06930495 5.363211 5.084115 5.292684 0.07978446
3.53827 3.8326418 0.016861973 5.4158955 0.08357998 -0.00023461369 5.375602 3.5459821
-2.3945336 3.4510632 5.335009 -2.3326943 5.3211923 4.74349 5.220456 5.334535
5.1609306 4.9317036 -0.013160323 -0.047184017 -0.033593815 -0.0039151735 5.3711753 4.909186
-2.6890013 -0.016447565 5.270808 5.3617134 5.291068 5.0245996 5.2538495 5.438165
4.6765065 -1.2481847 5.228914 -2.0303116 3.171258 5.265256 4.2610135 -3.1296976
4.896959 -0.08642922 -3.5381322 5.2972174 5.2539268 4.78348 5.312283 -0.020909673
00000000: 3482 e7bc 4127 5bbd 0cf1 aebf 0950 e0bf
00000010: d556 58bd 4a40 a2bd 7fd6 a940 fd8e ad40
00000020: df26 afbf 0ec7 b340 e10f b540 7ae4 a840
00000030: ef3f 3fbb 68fd b240 56f4 b140 85a6 9f40
00000040: 7cb6 a140 c087 a040 313d b540 5b99 a040
00000050: 57e8 1a3d b7c4 af40 e3ad a940 e6aa aa40
00000060: 3ce0 b340 9e9a b240 2cd9 9d40 9510 b540
00000070: b0a8 9e3d 1c46 b240 b56a af40 410a ad40
00000080: 2379 ab40 b7ee 97bf 0278 b340 28df 5c40
00000090: 99ee b340 faf3 c33e 7ddb 8fbd 67e7 af40
000000a0: 61fd b140 bcc2 11c0 9387 b340 de76 73bd
000000b0: 93ec ae40 d373 b640 ad5a f1bf 7c02 af40
000000c0: 3ff4 b540 a559 b040 d705 b140 db85 ac40
000000d0: 6abb b13c b442 b740 1294 b240 51db a340
000000e0: 4114 b340 46e9 8b3d 3ce5 9b40 b2af f9bc
000000f0: f4ae c9bc c0e8 9cbf 9012 18bd 9c7a b240
00000100: f623 ab40 5d8a b340 1b2a b440 d102 ae40
00000110: 0610 5a40 4405 e43f 5507 a840 a29d 373e
00000120: ead7 1d3d 62c6 2abf 2b2d b440 8b7a 41bc
00000130: 5fb0 af40 883f b340 7e02 b340 2174 5b3d
00000140: 902b bfbf 255a 1040 baf2 353d f150 b240
00000150: 6072 d53c 85a5 e0b8 75a9 b040 1932 bfbf
00000160: 1cc9 4440 5b66 e5bf 6f67 b540 7d27 c3bf
00000170: ad1b ba40 0ccd 9540 fbc8 b140 f546 ab40
00000180: dd61 b340 6bba 9a40 26eb fbbc d204 6bbc
00000190: c25a 9dbd 58ee 44bd e47f b340 9ea9 ae40
000001a0: a027 0fc0 dd32 253c 8318 a940 7b71 af40
000001b0: 5a44 b340 bc00 b440 f807 b540 eab9 b140
000001c0: c266 9f40 71af fcbe 15b6 b240 e4e8 83bf
000001d0: e1e1 503e 10cb b340 37f2 9e40 3e20 4840
000001e0: 9d9b 9940 10d0 a23b 3a7b 3540 620d ab40
000001f0: 1d21 b440 88bb ac40 2e58 a740 7c2d d2bb
00000200: 465c 9fbd dff5 29bb 9490 c4be 1e42 5a40
00000210: 19b6 d2bc ca51 7fbc 41f9 a740 52de a840
00000220: 21cd a8bf 924f aa40 26ed a540 0455 9340
00000230: 6a44 a7bc 43ea a840 6e17 a440 b14c 8940
00000240: 1be1 9f40 a916 a640 51cd aa40 8a2d 8d40
00000250: 0407 3540 3424 a040 e2ab 9540 a63c a840
00000260: 8fee ae40 cc3c a340 0e44 9e40 3f90 a640
00000270: 1649 3bbd b469 a140 4848 9d40 6efd ad40
00000280: 8bbf a940 032c 0bc0 42d1 a740 13eb f8bf
00000290: b5c1 aa40 91ea 6040 a360 54bd 5001 9d40
000002a0: 21b8 a940 0ac1 3140 a8b6 a240 4359 95bb
000002b0: aed9 ae40 62c9 9f40 cfb8 eabf 07eb aa40
000002c0: 4d8a ab40 40e7 aa40 c0b6 aa40 e0cc 9a40
000002d0: 479c b9bc ecd7 af40 1977 aa40 9fc4 a440
000002e0: 38e8 a540 08cd 1739 9c88 9f40 ec69 81bd
000002f0: f0e2 7dbd 85c7 5240 c971 80bd 52bf a840
00000300: 9d5f aa40 95e3 a940 85e8 a540 b9b5 9740
00000310: 99f9 04c0 482d 2d40 46eb 9240 22d9 36c0
00000320: b05a 39bd 7e0c c1bf 2d4c ab40 c1ef 8dbd
00000330: 6d9f ab40 12b1 a240 ab5d a940 0966 a33d
00000340: 0473 6240 014a 7540 1f22 8a3c 044f ad40
00000350: fb2b ab3d a202 76b9 ee04 ac40 5ff1 6240
00000360: 0a40 19c0 38de 5c40 65b8 aa40 dd4a 15c0
00000370: 3547 aa40 acca 9740 fa0d a740 83b4 aa40
00000380: 5826 a540 84d0 9d40 659e 57bc 0744 41bd
00000390: ab99 09bd db4a 80bb abe0 ab40 0d18 9d40
000003a0: 9918 2cc0 0bbd 86bc 76aa a840 2893 ab40
000003b0: 6e50 a940 85c9 a040 891f a840 7305 ae40
000003c0: f1a5 9540 84c4 9fbf 4353 a740 a0f0 01c0
000003d0: e4f5 4a40 fa7c a840 395a 8840 f74c 48c0
000003e0: e3b3 9c40 ce01 b1bd c270 62c0 ce82 a940
000003f0: 2b20 a840 4512 9940 39fe a940 c34a abbc

output_layer.bias f4 [2]
1.3586776 1.1274989
00000000: 26e9 ad3f e251 903f
