results/models/batchsize=96,lr=1e-4,width=128,eps=0.9,num_episodes_train=5000/2/model-10.0.pt (torch, 72294 bytes, 6 tensors)

linear1.weight f4 [128, 4]
0	0x3e97b518	0.2963035
1	0x3e829f3e	0.25512117
2	0x3ed16848	0.40899873
3	0xbe5a49f4	-0.21317273
4	0xbe023b3c	-0.12717909
5	0x3ee5e87e	0.4490394
6	0x3e2a8ecc	0.16656035
7	0xbdf01358	-0.117224395
8	0xbdc80290	-0.09766114
9	0x3e14b474	0.14521962
10	0xbec3391e	-0.38129514
11	0x3e41b884	0.18918043
12	0x3eb3943e	0.35074037
13	0xbeac3be2	-0.33639437
14	0xbefec476	-0.49759263
15	0xbe020208	-0.12696087
16	0xbeef159a	-0.46696168
17	0x3d8783f8	0.06616968
18	0x3e51be8c	0.20482844
19	0xbe322288	-0.17395985
20	0x3e56d194	0.20978385
21	0xbea101e2	-0.3144675
22	0x3df7ef68	0.1210621
23	0xbd592690	-0.05301529
24	0x3de33958	0.11094922
25	0xbe848bba	-0.25887853
26	0x3eabeb08	0.33577752
27	0xbe978c24	-0.29599106
28	0xbdab3698	-0.08360022
29	0xbd944180	-0.07239056
30	0x3e4804d8	0.19533098
31	0x3e34f6ec	0.17672318
32	0xbee0e63a	-0.4392565
33	0x3d3fc380	0.046817303
34	0x3d9baa00	0.07600784
35	0xbedabc58	-0.4272182
36	0xbedfd93a	-0.43720418
37	0x3ead41d4	0.33839285
38	0x3ef20512	0.47269493
39	0xbe0d6fc8	-0.13812172
40	0x3deb1798	0.114791095
41	0xbe9cd580	-0.30631638
42	0xbe9816f2	-0.29705006
43	0xbef1dac8	-0.4723723
44	0x3ecb94fc	0.39762104
45	0x3e2de4f4	0.1698187
46	0xbdbe7158	-0.09298962
47	0xbea4f1ec	-0.32215822
48	0x3ec1e68a	0.378712
49	0x3e853d8c	0.2602352
50	0x3ebfd53a	0.37467366
51	0x3ef018e6	0.46893996
52	0xbe599620	-0.21248674
53	0x3e03fcec	0.12889451
54	0x3db82a58	0.089924514
55	0xbe7d90a4	-0.24762207
56	0x3e8eb6b6	0.27873772
57	0x3e0d2d1c	0.13786739
58	0xbe44cb70	-0.1921823
59	0x3e55ac00	0.20866394
60	0x3e856d94	0.26060164
61	0xbefbb4cc	-0.49161375
62	0xbea7c560	-0.32767773
63	0x3e63d03c	0.22247404
64	0x3e1c8130	0.15283656
65	0xbc550dc0	-0.013003767
66	0x3e884056	0.26611584
67	0x3e294b00	0.16532516
68	0x3e59d238	0.21271598
69	0xbc7b9380	-0.015354991
70	0x3dcb9328	0.09940177
71	0x3c400a00	0.011721134
72	0xbe485228	-0.1956259
73	0x3c8b93a0	0.017038167
74	0xbe98b860	-0.29828167
75	0x3e7c4880	0.24637032
76	0x3eb4501a	0.35217363
77	0x3ead083e	0.3379535
78	0x3ea15610	0.31510973
79	0x3e47f1d0	0.19525838
80	0x3d613ce0	0.054989696
81	0xbe87ce34	-0.26524508
82	0x3ed01ffa	0.40649396
83	0xbe1723c8	-0.14759743
84	0xbca0acc0	-0.019613624
85	0x3e8a3b8c	0.26998556
86	0x3e44f158	0.1923269
87	0x3e02b938	0.12765968
88	0xbdc00348	-0.09375626
89	0xbe827d54	-0.25486243
90	0x3ed71c76	0.420139
91	0xbe9e4dee	-0.3091883
92	0x3d482bf0	0.048870027
93	0x3ea4e744	0.32207692
94	0x3e8b0324	0.27150834
95	0x3ec65e50	0.3874383
96	0x3e9be6e0	0.3044958
97	0x3eab3758	0.3344066
98	0x3effd932	0.49970394
99	0x3c90b9e0	0.017666757
100	0x3e989b0a	0.29805785
101	0x3eeef71c	0.46672904
102	0xbed6e134	-0.4196869
103	0xbddead00	-0.10872841
104	0xbe4246f4	-0.18972379
105	0xbe5fa678	-0.21840847
106	0x3e91c746	0.28472346
107	0xbeaf960c	-0.34294164
108	0x3dc83890	0.097764134
109	0x3ed12d62	0.40854937
110	0x3e16a518	0.14711416
111	0xbe3f4a20	-0.1868062
112	0xbea86472	-0.32889134
113	0xbe06a064	-0.13147122
114	0xbe9da632	-0.3079086
115	0xbd5f72c0	-0.054552794
116	0xbedbb5f8	-0.4291227
117	0x3e37c27c	0.17945284
118	0xbe092ea8	-0.13396704
119	0x3eec50b8	0.46155334
120	0xbe55c74c	-0.20876807
121	0xbedb7372	-0.42861515
122	0x3efeb114	0.49744475
123	0xbe9bf952	-0.30463654
124	0x3eed7a64	0.4638244
125	0x3caa8080	0.020813227
126	0xbe822a66	-0.25422972
127	0xbe99f39a	-0.30068666
128	0x3e05fc50	0.13084531
129	0xbef6936a	-0.48159343
130	0xbe6fef44	-0.23431116
131	0x3eb7ceec	0.35900056
132	0xbe8a815a	-0.27051812
133	0xbeac826e	-0.3369326
134	0x3e91e63a	0.2849596
135	0x3ed60d06	0.4180681
136	0x3eaaf404	0.33389294
137	0xbe852b78	-0.26009727
138	0xbeacd3de	-0.33755392
139	0x3da4fe98	0.080563724
140	0x3eff055a	0.4980877
141	0x3ed52c2a	0.41635257
142	0xbeaac4a8	-0.33353162
143	0xbecbbba8	-0.39791608
144	0x3e38a02c	0.1802985
145	0x3e994502	0.2993546
146	0x3caec0e0	0.021332204
147	0x3ea2859c	0.3174256
148	0xbe917d8e	-0.28416103
149	0x3e90fa68	0.28316045
150	0xbe01f0fc	-0.12689584
151	0xbeac68de	-0.33673757
152	0xbe788d88	-0.2427274
153	0x3eb6bf14	0.35692656
154	0x3ebdbbd6	0.3705737
155	0x3e3027b8	0.17202652
156	0xbe550634	-0.20803148
157	0xbe976662	-0.295703
158	0x3ebf22d2	0.37331253
159	0xbedb2d10	-0.42807817
160	0x3de6ad30	0.11263502
161	0x3eae5dfa	0.34056073
162	0x3ecd9fae	0.40160888
163	0x3d1b2800	0.037879944
164	0xbdbe6350	-0.09296286
165	0x3e2a516c	0.16632622
166	0x3e3a52ec	0.18195695
167	0x3eb7fcfc	0.359352
168	0x3e59a368	0.21253741
169	0xbe97bdea	-0.2963708
170	0x3e216aa8	0.15763342
171	0x3e4753a8	0.19465506
172	0xbd6eb370	-0.058276594
173	0xbe5a8ea0	-0.2134347
174	0x3ebbeac8	0.3670256
175	0x3d69a740	0.057044268
176	0x3dd89eb8	0.10577148
177	0x3de10958	0.1098811
178	0xbec0f0e2	-0.3768378
179	0x3ede4eb0	0.4341941
180	0xbce63ec0	-0.028106093
181	0xbe48e600	-0.19618988
182	0xbcb00860	-0.021488369
183	0x3edd20b6	0.4318902
184	0x3cd72aa0	0.026265442
185	0xbeb2b004	-0.34899914
186	0xbe0b11f8	-0.13581073
187	0xbefac282	-0.48976523
188	0x3eb80c82	0.35947043
189	0xbef1287c	-0.471012
190	0xbed53434	-0.4164139
191	0x3e750cf4	0.23930722
192	0x3c80bf40	0.015716195
193	0x3e095f1c	0.13415188
194	0xbe866508	-0.26248956
195	0xbdea18f0	-0.11430538
196	0x3dd72398	0.10504836
197	0xbeb698ca	-0.35663444
198	0xbeddfc08	-0.43356347
199	0xbe66ad8c	-0.2252714
200	0xbe42f950	-0.19040418
201	0xbee24c02	-0.44198614
202	0x3eba3eae	0.36375946
203	0xbeee354a	-0.4652503
204	0x3e632660	0.22182608
205	0xbccb16c0	-0.024791121
206	0x3de95ed0	0.11395037
207	0xbd8ed578	-0.0697431
208	0x3d941420	0.07230401
209	0xbecc716a	-0.39930278
210	0x3e405ae4	0.18784672
211	0xbef99d62	-0.48752886
212	0x3e91fb22	0.28511912
213	0xbd487720	-0.04894173
214	0x3e110e1c	0.14165539
215	0x3ed54000	0.4165039
216	0xbe9df75e	-0.3085279
217	0xbef635ea	-0.48088008
218	0x3efd728c	0.49501455
219	0xbe944a2c	-0.2896284
220	0xbe1b03dc	-0.15138191
221	0xbcbcd6a0	-0.02305156
222	0xbdebb800	-0.115097046
223	0xbe789b3c	-0.24277967
224	0x3ef5d7a0	0.4801607
225	0x3e353884	0.1769734
226	0xbdcb07a0	-0.09913564
227	0x3b3c7000	0.002875328
228	0x3b2f6200	0.0026761293
229	0xbef5e3e2	-0.48025423
230	0xbefbae7c	-0.4915656
231	0x3db02728	0.086012185
232	0x3ef6513e	0.48108858
233	0xbef7ad38	-0.48374343
234	0x3ed73e48	0.42039704
235	0x3eb4fe30	0.3535018
236	0x3e9933b4	0.2992226
237	0xbe9ec376	-0.310085
238	0xbe51191c	-0.20419735
239	0x3e8d3df8	0.2758634
240	0x3e9e22c8	0.3088591
241	0xbe86f008	-0.26355004
242	0xbe945e9a	-0.28978425
243	0xbedc10ea	-0.42981654
244	0x3ea93bfc	0.33053577
245	0xbed25c84	-0.4108621
246	0xbef62668	-0.48076177
247	0x3ebb1534	0.36539614
248	0xbeedcec2	-0.46446806
249	0xbe900460	-0.28128338
250	0x3e81b4f2	0.25333363
251	0xbe82bd54	-0.2553507
252	0x3dfdfc18	0.12401599
253	0xbe6ca974	-0.23111516
254	0x3b268400	0.0025408268
255	0xbd9ebd30	-0.077509284

linear1.bias f4 [128]
0	0x3e2231f4	0.15839368
1	0xbe8369e4	-0.25666726
2	0xbdb3b910	-0.08775532
3	0xbda85ca8	-0.08220798
4	0x3e4b77d8	0.19869936
5	0xbec84f8c	-0.3912319
6	0xbeec4e3a	-0.46153432
7	0x3eab84fc	0.33499897
8	0xbec8a86a	-0.3919099
9	0x3dd4ee60	0.10397029
10	0xbeff3182	-0.4984246
11	0xbe23f4e8	-0.16011393
12	0xbe228698	-0.15871656
13	0xbeee200a	-0.4650882
14	0xbeb38d16	-0.35068578
15	0x3ef667f8	0.48126197
16	0xbec2d330	-0.38051748
17	0x3ddc5288	0.10757929
18	0xbe967b16	-0.29390782
19	0x3e5c9254	0.21540195
20	0xbc6fd540	-0.014638245
21	0x3e69507c	0.22784609
22	0x3eddb828	0.43304563
23	0x3e896bde	0.2684011
24	0xbd8ad908	-0.06779677
25	0xbea99684	-0.33122647
26	0x3ef63ada	0.48091775
27	0xbeb65dec	-0.35618532
28	0x3de505a0	0.111827135
29	0x3c8463a0	0.016160786
30	0xbe211e0c	-0.15734118
31	0x3ec2073e	0.3789615
32	0xbe949d20	-0.29026127
33	0x3ea0def0	0.31420088
34	0x3e9c652e	0.30545944
35	0x3c751c40	0.014960349
36	0x3abd9a00	0.0014465451
37	0xbccdd5a0	-0.025126278
38	0xbe697764	-0.2279945
39	0xbec8569e	-0.39128584
40	0x3e4bbbd8	0.19895875
41	0x3e47a8c0	0.19497967
42	0xbda47030	-0.080292106
43	0x3dbdbcd8	0.09264535
44	0x3eb02a6a	0.3440736
45	0xbd7ff390	-0.06248814
46	0xbeef226e	-0.46705955
47	0xbead4710	-0.3384328
48	0xbdfb14e8	-0.12259847
49	0xbef8b49e	-0.485753
50	0xbef2b0a6	-0.47400397
51	0xbd2bb890	-0.04192406
52	0x3ee84652	0.4536615
53	0xbe7e8330	-0.24854732
54	0xbd2682e0	-0.040652156
55	0xbe98cf28	-0.29845548
56	0xbe0cad94	-0.1373809
57	0x3ea0f16a	0.31434184
58	0x3e973ae6	0.29537123
59	0xbcc3cbc0	-0.023900867
60	0x3ec4befa	0.38426954
61	0x3ebf5ca0	0.37375355
62	0xbe94412e	-0.28955978
63	0x3ec63b1c	0.38716972
64	0xbe2ba680	-0.16762733
65	0x3d98b140	0.07455683
66	0x3eb111a6	0.34583777
67	0xbe457630	-0.19283366
68	0x3eaf70b6	0.3426568
69	0xbd815dd8	-0.063167274
70	0xbeff1104	-0.4981767
71	0xbe8445f4	-0.2583462
72	0xbe08b560	-0.13350439
73	0xbdd8fb58	-0.10594815
74	0x3e7a77c8	0.24459755
75	0xbdbed560	-0.09318042
76	0x3e918928	0.28424954
77	0xbeb775e8	-0.35832143
78	0xbe393824	-0.18087822
79	0xbe0029c8	-0.12515938
80	0x3da7d4a0	0.08194852
81	0x3cdf6da0	0.027273953
82	0xbe4eea98	-0.20206678
83	0xbe9d5a76	-0.3073308
84	0xbb757c00	-0.0037457943
85	0xbe9fc702	-0.31206518
86	0x3e8f3b86	0.279751
87	0x3e9964f6	0.2995984
88	0xbedc5a06	-0.43037432
89	0x3e8ee43e	0.2790851
90	0x3ec6136a	0.38686687
91	0x3d267340	0.040637255
92	0x3daa6b38	0.083212316
93	0x3e37bc18	0.17942846
94	0x3e010920	0.12601137
95	0x3ef89b56	0.48556012
96	0xbe267458	-0.16255319
97	0x3ecc51b8	0.39906096
98	0xbd103b10	-0.035212576
99	0x3e042824	0.12905937
100	0x3eaacfa6	0.33361548
101	0xbed8c74a	-0.42339545
102	0x3e8d15ee	0.27555794
103	0xbedd5f22	-0.43236643
104	0xbebc3932	-0.36762387
105	0xbdd047a8	-0.10169917
106	0x3e0f03b0	0.1396625
107	0xbeb79a3c	-0.3585986
108	0xbe83882e	-0.25689834
109	0x3ef2567a	0.473316
110	0x3ea97d26	0.33103293
111	0xbeb15b4e	-0.34639972
112	0xbdb218c8	-0.08696133
113	0xbde2d450	-0.11075652
114	0x3d9e41e0	0.077274084
115	0xbc922660	-0.017840564
116	0x3e7ab580	0.244833
117	0x3e25a84c	0.16177481
118	0x3e0190d8	0.1265291
119	0x3da282a8	0.07935077
120	0xbeba712a	-0.36414462
121	0xbec60c52	-0.38681275
122	0x3e78bd70	0.24291015
123	0x3ee1ff66	0.44140166
124	0xbef4d090	-0.4781537
125	0x3ecc0874	0.398502
126	0x3e89d9b0	0.26923895
127	0x3d3e5ea0	0.04647696

linear2.weight f4 [128, 128]
0	0xbda2fa40	-0.07957888
1	0x3d99cb1d	0.07509444
2	0x3ccd4345	0.02505649
3	0xbd657d86	-0.05602791
4	0xbd440d4a	-0.047864236
5	0x3db495d6	0.088176414
6	0x3d4ace8d	0.04951339
7	0xbd0e62bc	-0.03476213
8	0x3d4548c8	0.048165113
9	0x3d62460b	0.05524258
10	0xbd524ebc	-0.05134462
11	0xbd995c31	-0.07488287
12	0x3cd25c0f	0.025678663
13	0x3d06754e	0.032826714
14	0x3da56b96	0.08077161
15	0xbcb0f636	-0.021601778
16	0xbd42b46e	-0.047535352
17	0xbc02125d	-0.007938948
18	0x3dad94f3	0.084756754
19	0x3d602b32	0.054728694
20	0xbd9fba0d	-0.07799158
21	0x3cb211b7	0.021736963
22	0xbd8377ad	-0.06419311
23	0x3cf73f5c	0.03018158
24	0x3cf71960	0.030163467
25	0xbc9dfb0a	-0.019284744
26	0xbceca64d	-0.028887892
27	0xbdb1bd41	-0.086786754
28	0x3c3fd4eb	0.011708478
29	0xbda82ba9	-0.082114525
30	0x3d120e2f	0.035658058
31	0xbc99521b	-0.018715909
32	0x3cf2bef4	0.02963207
33	0x3d6c06cb	0.057623666
34	0x3d7c1340	0.061541796
35	0xbda53c14	-0.080680996
36	0x3c84d2e3	0.01621384
37	0xbc563d03	-0.01307607
38	0x3c76126b	0.01501904
39	0x3d98d7d9	0.07463045
40	0x3d268c76	0.040661298
41	0x3d913821	0.07090784
42	0xba4164ca	-0.00073773845
43	0x3d909577	0.07059758
44	0xbd930937	-0.07179492
45	0xbd805204	-0.06265643
46	0x3d57c9a5	0.052682538
47	0x3d56ffe3	0.052490126
48	0x3bf15254	0.0073645506
49	0x3d7bd17a	0.06147907
50	0x3d8236c6	0.063581035
51	0xbc1fba70	-0.00974904
52	0xbda4d3b9	-0.080481954
53	0x3d6d2417	0.057895746
54	0x3d682cab	0.056683224
55	0x3d9fd6ef	0.07804667
56	0x3cc9093e	0.02454054
57	0xbd72c8eb	-0.05927364
58	0x3d2e8132	0.04260368
59	0xbdae6b2b	-0.085165344
60	0x3d107b2a	0.03527371
61	0x3d9536b3	0.07285824
62	0x3d8b38db	0.06797954
63	0x3ced3446	0.02895559
64	0x3d90f3df	0.07077765
65	0x3d382abb	0.044962626
66	0xbce71515	-0.028208295
67	0x3d271af1	0.040797178
68	0xbda4a2fd	-0.080389
69	0xbc8a7875	-0.016903142
70	0x3cb35a74	0.021893717
71	0xbd0afc19	-0.033931825
72	0xbc9d1ae3	-0.01917786
73	0xbd6f5a1e	-0.05843555
74	0xbd07d657	-0.033163395
75	0x3d9eef30	0.07760465
76	0x3d8d7c64	0.06908491
77	0xbd0137d6	-0.03154739
78	0x3d012f5d	0.03153931
79	0x3da488df	0.080339186
80	0x3c25625f	0.010094254
81	0xbd2e6a91	-0.0425821
82	0xba043002	-0.0005042554
83	0x3b260589	0.002533289
84	0xbcd8b706	-0.02645446
85	0xbb958a24	-0.004563587
86	0x3c6f5f55	0.014610131
87	0x3bb15ef3	0.00541293
88	0xbd0cf444	-0.034412637
89	0xbd432e57	-0.047651615
90	0x3d940a6c	0.0722855
91	0xbd2a3fd4	-0.041564777
92	0x3d164036	0.03668233
93	0xbd77d0b1	-0.060501758
94	0x3a93fbf4	0.0011290298
95	0x3dac27cf	0.084060304
96	0xbd6b6e17	-0.057478037
97	0xbd997582	-0.07493116
98	0x3c8a932c	0.01691588
99	0xbda0c63a	-0.07850309
100	0xbc893d43	-0.016752845
101	0x3d5a68f4	0.053322747
102	0xbd4187a0	-0.047248483
103	0x3d445ce5	0.047940154
104	0x3da8652b	0.08222421
105	0xbcf45738	-0.029826745
106	0xbd9a76a3	-0.075421594
107	0x3b3f0233	0.0029145598
108	0xbccf8335	-0.02533112
109	0x3d4da208	0.050203353
110	0xbd6e48f9	-0.05817506
111	0xbd9a45eb	-0.07532867
112	0xbd06226e	-0.03274768
113	0x3d3e0dc0	0.04639983
114	0x3ccff59b	0.025385669
115	0xbd8ed40f	-0.06974041
116	0xbd0a7d38	-0.033810824
117	0x3cf9f809	0.03051378
118	0xbc9afbd4	-0.01891891
119	0x3d464b73	0.048411798
120	0xbcf4c87d	-0.029880757
121	0xbda38cd9	-0.07985849
122	0x3d676c6c	0.056499884
123	0x3db3f00a	0.08786018
124	0x3d0ef132	0.03489799
125	0xbdab06a2	-0.083508745
126	0xbd22d3ca	-0.03975276
127	0xbc5de99f	-0.013544469
128	0xbdaef479	-0.08542723
129	0xbd1262cd	-0.035738755
130	0x3d874eef	0.06606852
131	0xbd42b819	-0.04753885
132	0x3dad62a4	0.0846608
133	0x3c5a8e9e	0.013339667
134	0xbd1481cb	-0.036256593
135	0x3dafe489	0.085885115
136	0x3caee6a4	0.021350212
137	0x3bbccdd7	0.0057618427
138	0x3d86014c	0.06543216
139	0xbd6267c3	-0.055274736
140	0x3d6ea5af	0.058263477
141	0xbab17304	-0.0013538306
142	0xbda49c5f	-0.08037638
143	0x3cecbf89	0.028899925
144	0xbd908ea6	-0.07058458
145	0x397e2923	0.00024238652
146	0xbdac9816	-0.084274456
147	0x3d785157	0.060624447
148	0x3d941aa4	0.07231644
149	0xbac812ed	-0.0015264429
150	0xbd9d9bfd	-0.07695768
151	0x3d87d7d1	0.066329606
152	0xbd8e39ce	-0.06944619
153	0x3cab8979	0.020939576
154	0x3c4da2fe	0.012551067
155	0x3d85eb25	0.06538991
156	0xbd8c4119	-0.06848354
157	0xbc41842a	-0.0118112955
158	0xbccb13b4	-0.024789669
159	0xbd820087	-0.06347757
160	0x3cf0a637	0.029376132
161	0xbd8fe9a5	-0.07026986
162	0x3d661c4b	0.056179326
163	0xbc9cecb9	-0.019155847
164	0xbc652e1b	-0.013988043
165	0xbd617f4d	-0.055053044
166	0xbda093d8	-0.07840699
167	0x3cf94dd2	0.030432615
168	0x3c7de43d	0.015496311
169	0x3bdbc630	0.0067069754
170	0xbcbf4862	-0.023349945
171	0xbcd0d436	-0.025491815
172	0xbd6a4fcd	-0.05720501
173	0xbcd81814	-0.026378669
174	0xbd0f4001	-0.03497315
175	0xbc128aee	-0.008944256
176	0x3d2f7ad0	0.042841733
177	0x3d13846e	0.036014967
178	0x3bc82df9	0.006108996
179	0xbd04408f	-0.03228813
180	0x3d9a922d	0.07547412
181	0xbc148d38	-0.009066872
182	0xbd65ecd7	-0.05613407
183	0x3d068c66	0.032848738
184	0x3c85557b	0.016276112
185	0xbd9c86d3	-0.07642903
186	0x3d9166f8	0.07099718
187	0x3cd32e99	0.025779055
188	0xbc0ee620	-0.008721858
189	0xbd8bb73f	-0.06822061
190	0xbbc467b6	-0.0059938086
191	0xbcf9b5a8	-0.030482128
192	0x3d07e615	0.033178408
193	0xbc13d192	-0.009022133
194	0xbd426101	-0.04745579
195	0x3db17e1b	0.08666631
196	0x3d28b50b	0.04118828
197	0xbaba76a8	-0.0014226036
198	0x3ca8389d	0.020534808
199	0xbd20eeb1	-0.039290134
200	0xbc7a80ed	-0.015289527
201	0x3b7ceb78	0.0038592499
202	0xbd0a5d6e	-0.033780508
203	0xbce10f48	-0.027473107
204	0xbd2519cb	-0.0403078
205	0x3c24e997	0.010065458
206	0xbd6bd713	-0.057578158
207	0xbd61c4d2	-0.055119343
208	0x3d4513f8	0.048114747
209	0xbb05677d	-0.0020355873
210	0xbd2bcfb8	-0.041946143
211	0xbd308ed7	-0.043104973
212	0xbda9f9ee	-0.082996234
213	0x3d8878ea	0.066636875
214	0x3d01227d	0.03152703
215	0xbb0b8971	-0.0021291638
216	0xbda65728	-0.081220925
217	0x3c70c4f3	0.014695394
218	0xbd724fdc	-0.05915819
219	0x3d80deff	0.06292533
220	0x3c44481d	0.011980084
221	0x3da6ffc6	0.08154254
222	0x3d1cf35d	0.038318027
223	0xbdad7d73	-0.08471193
224	0x3d13af22	0.03605569
225	0x3c8e52bd	0.017373437
226	0xbc86461e	-0.016390856
227	0x3c802e32	0.015647028
228	0x3bddd97d	0.0067703114
229	0x3c3bc688	0.011460908
230	0x3d9a23c7	0.07526355
231	0x3b934c97	0.004495214
232	0x3d85d792	0.065352574
233	0x3c938cf5	0.01801155
234	0xbc592341	-0.013253034
235	0xbd9ce1e0	-0.0766027
236	0xbd3fa7ad	-0.046790767
237	0x3d387557	0.04503378
238	0xbdaa426c	-0.0831345
239	0xbc916f07	-0.017753137
240	0xbd840736	-0.06446688
241	0x3d24d877	0.0402455
242	0xbda4dac4	-0.08049539
243	0xbcbc885e	-0.023014244
244	0xbd896f61	-0.06710697
245	0x3d828fec	0.06375107
246	0xbcf3a7b3	-0.029743051
247	0xbcf7c462	-0.03024501
248	0x3c3b2479	0.01142227
249	0xbd2d2cf1	-0.042279188
250	0xbd929350	-0.07157004
251	0xbd9f157d	-0.077677704
252	0xbd18d3c9	-0.03731135
253	0x3d4163d1	0.047214333
254	0x3cbd478d	0.023105407
255	0xbd5f2b47	-0.054484632

linear2.bias f4 [128]
0	0x3d7c97fa	0.061668374
1	0xbd8bb0da	-0.06820841
2	0x3b0f65cd	0.0021880746
3	0x3c89271f	0.016742287
4	0xbd6531b3	-0.0559556
5	0x3d65967e	0.056051724
6	0x3ce25adf	0.027631221
7	0xbd868feb	-0.06570419
8	0x3d4724d7	0.048619118
9	0xbd2b87f0	-0.041877687
10	0xbd253d51	-0.04034168
11	0x3c2e8bc2	0.010653438
12	0xbcd06b24	-0.025441714
13	0x3c8abf1f	0.016936837
14	0xbd8447d0	-0.0645901
15	0x3b4d5b44	0.0031334916
16	0xbdabbeab	-0.083859764
17	0xbc500c90	-0.012698308
18	0x3da1840f	0.07886516
19	0x3d423483	0.04741336
20	0x3c836b53	0.016042387
21	0xbd887731	-0.06663359
22	0xbcbe7988	-0.02325131
23	0xbd208681	-0.039190773
24	0x3c8e3274	0.017358042
25	0xbd868537	-0.065683775
26	0x3d525ab3	0.05135603
27	0x3d2dd54a	0.042439736
28	0xbc53f43c	-0.012936648
29	0xbd9098c9	-0.070603915
30	0x3db162f4	0.08661452
31	0xbc9f734f	-0.019464163
32	0x3db13b62	0.086539045
33	0x3c981969	0.018566804
34	0xbd99fc20	-0.07518792
35	0xbd1da747	-0.038489606
36	0x3d519bba	0.051173903
37	0xbc02be48	-0.007979937
38	0x3d3195b8	0.043355674
39	0xbdabb01e	-0.08383201
40	0x3cb74916	0.022373717
41	0x3d211910	0.039330542
42	0x3cae5122	0.021278922
43	0x3c5556a1	0.013021142
44	0x3d991f0f	0.07476627
45	0x3d812516	0.06305902
46	0xbb8c644b	-0.004284417
47	0x3cfbf762	0.03075761
48	0xbd9c0d05	-0.07619671
49	0xbda374ce	-0.07981263
50	0x3cd63b55	0.026151339
51	0xbd218031	-0.039428893
52	0xbdb2d5b7	-0.08732169
53	0xb9c74583	-0.00038008028
54	0x3dac5986	0.08415513
55	0xbcfc5b32	-0.030805204
56	0x3dac4da5	0.08413247
57	0xbd475d47	-0.04867294
58	0x3d8aa34c	0.06769428
59	0xbb644dbc	-0.0034836372
60	0x3d00cd8c	0.031446025
61	0xbccff414	-0.02538494
62	0x3b2fb00e	0.0026807818
63	0x3d06ff61	0.032958392
64	0x3d956b8e	0.07295905
65	0x3d72b770	0.05925697
66	0xbd82b7d0	-0.06382716
67	0x3c3ca36a	0.01151357
68	0xbc81dd00	-0.015852451
69	0xbda2d28c	-0.07950315
70	0x3b50a815	0.0031838466
71	0x3d876c26	0.066124246
72	0x3ce3e772	0.027820323
73	0xbd94ad07	-0.07259565
74	0x3d172244	0.036897913
75	0x3aa16440	0.0012313202
76	0xbd177860	-0.036980033
77	0xbd20ff19	-0.03930578
78	0xbd678a2a	-0.056528248
79	0xbd450c9f	-0.04810774
80	0x3cebd0aa	0.028786022
81	0xbcb1beb2	-0.021697376
82	0xbc965515	-0.018351117
83	0x3d99c0ce	0.07507478
84	0x3d0f37c0	0.034965277
85	0xbd7f58bd	-0.062340487
86	0xbc9facd9	-0.0194916
87	0xbcdd6b8f	-0.027028827
88	0x3d8b8413	0.068123005
89	0xbcf3bb5e	-0.02975243
90	0xbdb31633	-0.087444685
91	0x3d1cc4d4	0.038273647
92	0x3d5d9514	0.05409725
93	0x3d3de7b6	0.046363555
94	0x3d26dcd4	0.04073794
95	0xbd0ea2c6	-0.0348232
96	0x3b0efb07	0.0021817104
97	0xbcae907c	-0.02130913
98	0x3d232ab0	0.03983563
99	0xbc17c05c	-0.009262171
100	0xbd3bb045	-0.0458224
101	0x3d314d48	0.04328659
102	0xbc83c964	-0.016087241
103	0x3d927dde	0.071529135
104	0x3d3018a1	0.042992238
105	0xbd202f5d	-0.03910767
106	0xbd650907	-0.055916812
107	0x3d33bb73	0.043879937
108	0x3d012a97	0.031534757
109	0xbd190310	-0.037356436
110	0x3d67b9a4	0.056573525
111	0xbd69d223	-0.057085168
112	0xbd913118	-0.07089442
113	0xbd83ab6f	-0.06429183
114	0x3d6e971f	0.05824959
115	0x3d0c8351	0.03430492
116	0xbc4d00a0	-0.012512356
117	0x3abc1e37	0.0014352266
118	0x3d34be24	0.044126645
119	0x3d1bdac9	0.038050447
120	0x3d8a2a74	0.067463785
121	0xbd118c2c	-0.03553407
122	0x3c7c06fc	0.015382525
123	0x3d3fa1c1	0.04678512
124	0x3cfe2983	0.031025654
125	0xbd17aa62	-0.037027724
126	0x3d8745d0	0.066051126
127	0x3d73a901	0.059487347

output_layer.weight f4 [2, 128]
0	0xbd13b3b2	-0.036060043
1	0xbd5b2741	-0.053504232
2	0xbc1d784a	-0.009611199
3	0xbd9745cc	-0.073863596
4	0xbd920e88	-0.07131678
5	0xbdaa3ce1	-0.08312393
6	0xbc937de3	-0.018004363
7	0x3c7ad2bb	0.015309031
8	0xbd4e4253	-0.05035622
9	0x3c518a39	0.0127893025
10	0x3da25b18	0.07927531
11	0x3da88957	0.082293205
12	0xbc1563bd	-0.009118018
13	0x3cf918ec	0.030407391
14	0x3da1fc7b	0.07909485
15	0x3daaf2f3	0.0834712
16	0xbd368cb0	-0.044567764
17	0xbdaf0cdc	-0.085473746
18	0x3a514ae5	0.00079838774
19	0x3daf760f	0.0856744
20	0xbd6b0836	-0.057380877
21	0x3d20dd45	0.03927352
22	0x3d93f568	0.07224542
23	0xbc019ffe	-0.00791168
24	0x3d7aead7	0.061259117
25	0x3da2f2f1	0.07956494
26	0xbce1d9c7	-0.027569665
27	0x3d247f23	0.04016031
28	0x3d9ea8b0	0.07747018
29	0x3da6a1e5	0.08136348
30	0x3d86f777	0.06590169
31	0xbc1e776c	-0.009672027
32	0xbb9c4f15	-0.0047701695
33	0xbc4fdc15	-0.012686749
34	0x3d3d0b15	0.046153147
35	0x3d7cc4e9	0.061711226
36	0x3d2b421f	0.041811105
37	0xbdb4f726	-0.08836202
38	0xbd99506a	-0.07486041
39	0x3d8482c9	0.06470258
40	0x3ab71309	0.0013967465
41	0xbda95230	-0.08267629
42	0x3d2196f6	0.03945061
43	0xbd7376de	-0.059439532
44	0xbd65ae67	-0.056074526
45	0xbbbec16a	-0.0058213966
46	0xbd33a36b	-0.04385702
47	0xbc5ee351	-0.013604001
48	0x3c5541c5	0.013016169
49	0xbc89639a	-0.016771127
50	0x3a229c15	0.00062030676
51	0x3d8e1b92	0.06938852
52	0x3cf75613	0.03019241
53	0xbd052ac1	-0.032511476
54	0x3c99bc48	0.018766537
55	0xbcc37c39	-0.023862945
56	0x3da85504	0.082193404
57	0x3c0009a0	0.007814795
58	0xbd814244	-0.06311467
59	0xbd015907	-0.031579044
60	0xbd02be01	-0.031919483
61	0xbd898e0d	-0.06716547
62	0xbd3fcd08	-0.046826392
63	0x3cefb75e	0.029262241
64	0xbcbdaccd	-0.023153687
65	0x3da022f2	0.07819165
66	0x3dae3668	0.08506471
67	0x3d9a11e1	0.075229414
68	0x3da18302	0.07886316
69	0xbdb32a08	-0.08748251
70	0x3db032d1	0.086034425
71	0xbd8a0378	-0.06738943
72	0x3d1dd7ea	0.03853599
73	0xbd57cccb	-0.05268554
74	0x3dabb330	0.08383787
75	0xbc5bb09f	-0.013408809
76	0xbba40c66	-0.005006361
77	0x3cceff3f	0.025268195
78	0x3d3c8771	0.046027604
79	0x3d5b7421	0.053577546
80	0xbca7ca87	-0.020482315
81	0xbd779b3d	-0.06045078
82	0x3d35f2ba	0.044420935
83	0xbd6e757a	-0.058217503
84	0x3cd159fd	0.025555605
85	0xbad2a560	-0.0016071014
86	0xbd27b249	-0.04094151
87	0xbd922fd2	-0.07138027
88	0x3d2cb109	0.04216102
89	0xbd83b0fc	-0.064302415
90	0x3d6f677c	0.0584483
91	0xbd8a0a24	-0.067402154
92	0xbbd9df2b	-0.006648918
93	0xbda3a78a	-0.0799094
94	0x3d1fc7c3	0.039008867
95	0x3a066667	0.00051269535
96	0x3cf076f8	0.029353604
97	0xbd55fba6	-0.052241944
98	0xbd5182a8	-0.051149994
99	0xbc420a2a	-0.011843244
100	0xbd9178bd	-0.07103107
101	0xbd885a86	-0.06657891
102	0xbd0ee327	-0.034884598
103	0x3d97e2d3	0.0741631
104	0xbda58213	-0.0808145
105	0x3c2532dd	0.0100829275
106	0xbd3b73fd	-0.045764912
107	0xbd035ed6	-0.032072864
108	0x3dafd5bd	0.08585689
109	0x3c9f2899	0.019428538
110	0x38e6ded0	0.00011008757
111	0xbc557262	-0.013027759
112	0xbc0b4749	-0.008500882
113	0xbc544193	-0.012955087
114	0x3cf85289	0.030312793
115	0xbc32558e	-0.010884656
116	0xbd8006f1	-0.06251324
117	0x3c707b80	0.014677882
118	0x3d6cb660	0.057791114
119	0x3c986daa	0.01860698
120	0xbda5b1ac	-0.08090529
121	0x3b5007ec	0.0031743003
122	0xba1cb7d3	-0.00059783197
123	0xbca4b581	-0.020106079
124	0x3da9826f	0.08276831
125	0x3d927f54	0.07153192
126	0xbd86cc04	-0.06581882
127	0xbc904b2b	-0.017613968
128	0xbdb2d0f7	-0.08731263
129	0xbb29f5df	-0.0025933904
130	0xbd310f58	-0.043227524
131	0x3c1a42ad	0.009415311
132	0xbd3c7d8a	-0.04601816
133	0xbcb1a1a9	-0.02168353
134	0x3da7278d	0.081618406
135	0x3dad8d67	0.08474236
136	0xbd22d3d8	-0.03975281
137	0x3b13cbde	0.0022551934
138	0x3c1a72ce	0.009426786
139	0xbd907f94	-0.070555836
140	0xbcd5f5b5	-0.026118139
141	0x3d0e87d9	0.034797523
142	0xbc86a21c	-0.016434722
143	0xbd874425	-0.066047944
144	0x3dac0f67	0.08401375
145	0x3d63af76	0.055587254
146	0xbcb87398	-0.022516057
147	0xbd47f214	-0.048814848
148	0xbd3996d0	-0.04530984
149	0xbc4e9024	-0.012607608
150	0xbd532848	-0.051552087
151	0x3d466227	0.04843345
152	0x3da8b059	0.08236761
153	0x3d0cf493	0.03441293
154	0x3dac27c3	0.084060214
155	0xbd0e8151	-0.034791294
156	0xbd3b4916	-0.045723997
157	0x3c8b091a	0.016972113
158	0xbce747ee	-0.028232541
159	0x3d847328	0.06467277
160	0x3d6cbd2f	0.057797607
161	0xbd9ceb48	-0.07662064
162	0xbc4734b8	-0.012158565
163	0xbda97e2c	-0.082760185
164	0x3cc459c4	0.023968585
165	0x3cf3c298	0.029755875
166	0xbd6665ff	-0.056249615
167	0xbcae5b7f	-0.021283863
168	0xbb172296	-0.0023061386
169	0xbd9903a9	-0.07471401
170	0xbd3c2b6b	-0.045939844
171	0xbb955943	-0.00455776
172	0x3bdf8bd5	0.006822089
173	0xbd8fb84a	-0.07017572
174	0x3c1730f3	0.009227979
175	0x3d7d9171	0.06190628
176	0xbcce3b4f	-0.025174765
177	0x3bd3344d	0.0064454437
178	0x3ca34a7f	0.019932983
179	0xbd29f30e	-0.04149156
180	0xbc79fbdc	-0.015257802
181	0x3c0ed5ba	0.008717949
182	0x3d22810c	0.03967385
183	0x3d9fb35c	0.07797882
184	0x3d2c8bbc	0.04212545
185	0xbd87e38c	-0.06635198
186	0x3d386c15	0.04502495
187	0xbd81d2a3	-0.06339004
188	0xbd912b14	-0.070882946
189	0x3c5c2622	0.013436826
190	0xbd910873	-0.0708169
191	0xb9795d99	-0.00023781358
192	0x3d15f572	0.036611028
193	0x3d64841d	0.055790056
194	0xbbfa4681	-0.0076377993
195	0xbd9703b7	-0.073737554
196	0xbd6c4852	-0.057686158
197	0xbc9fe1fe	-0.019516941
198	0xbd212a63	-0.039347064
199	0xbd68e996	-0.05686339
200	0xbd395ab0	-0.045252502
201	0xbd5c9636	-0.05385419
202	0x3db00634	0.08594933
203	0xbd8fc780	-0.070204735
204	0x3d243d14	0.04009731
205	0xbd28050a	-0.04102043
206	0x3d0285e9	0.031865988
207	0x3da4d50a	0.080484465
208	0xbc00ed67	-0.007869101
209	0x3b835666	0.004008102
210	0x3c8a221f	0.016861973
211	0x3c95ff96	0.01831035
212	0x3dada123	0.08478
213	0xbac91ddc	-0.0015343982
214	0x3cf8cddc	0.030371599
215	0xbb8e7152	-0.004347005
216	0xbdb09327	-0.08621817
217	0xbd106aab	-0.035257977
218	0x3d6449ae	0.05573433
219	0xbda3aaa6	-0.07991533
220	0xbd14f0e6	-0.03636255
221	0x3d8c1e73	0.06841745
222	0x3d2d687f	0.042335983
223	0x3d6814de	0.056660526
224	0xbc9bb7f6	-0.019008618
225	0x3d98efa1	0.074675806
226	0xbd1a4173	-0.037660073
227	0xbd647d24	-0.055783406
228	0xbd8d4f33	-0.06899872
229	0xbcbbb84d	-0.02291503
230	0x3b4ef0cb	0.003157663
231	0xbbe90d6d	-0.007112196
232	0xbb0f714b	-0.0021887596
233	0xbc86bd0b	-0.016447565
234	0x3d43debe	0.047819845
235	0x3cbfb525	0.023401806
236	0x3d90b256	0.07065265
237	0xbd3d0d29	-0.04615513
238	0x399520b2	0.00028443855
239	0x3d611361	0.05495012
240	0xbc789d71	-0.015174256
241	0xbd9474ae	-0.072488174
242	0x3c5b411e	0.013382224
243	0xbd8737fe	-0.066024765
244	0xbd39afdf	-0.04533374
245	0xbce6663a	-0.028124917
246	0xbdae4c1e	-0.08510612
247	0xbd8c5a90	-0.06853211
248	0x3d43493c	0.047677264
249	0xbdb447f3	-0.08802786
250	0xbd528008	-0.05139163
251	0x3d4e6929	0.050393257
252	0x3d3f88b5	0.046761233
253	0xbd80b663	-0.062847875
254	0x3d3879fb	0.045038205
255	0xbd03edf3	-0.032209348

output_layer.bias f4 [2]
0	0x3d7af1b6	0.06126567
1	0xbda0b854	-0.07847658
