results/models/exp-3:batchsize=96,lr=1e-4,width=128,adam-corrected/2/model-76.0.pt (torch, 72294 bytes, 6 tensors)

linear1.weight f4 [128, 4]
000000 a4 71 a1 be 2c ef f2 bc f7 de c8 3e 9c 04 75 bd
       -0.31532013 -0.029655062 0.3923261 -0.05981885
000010 02 78 85 3e 19 bd 12 3e d1 01 8f 3d d6 8d 20 3e
       0.2606812 0.14329948 0.06982768 0.15679106
000020 44 f1 20 3e 43 56 d9 3d 71 42 01 3f 79 04 b9 be
       0.15717036 0.10612156 0.50492007 -0.36136225
000030 83 c5 80 be de 4a 82 bc 94 74 c5 be 1a 92 ad 3e
       -0.2515069 -0.01590484 -0.38565505 0.3390053
000040 e8 25 f9 bc 59 0d 3a 3d 27 50 2c be 26 97 30 3d
       -0.030413583 0.045422886 -0.1682745 0.043112896
000050 f4 9b 22 3e 00 7c ab bd 68 4c 21 be c0 94 27 3c
       0.15879804 -0.083732605 -0.15751803 0.010228336
000060 15 f9 d4 be 54 da b4 be a2 ac 02 be 46 21 e2 3d
       -0.41596285 -0.3532282 -0.12761167 0.11041503
000070 08 d9 b2 3b fa eb a2 3e b4 09 af bd 2b 0a fd be
       0.005458001 0.3182066 -0.085467726 -0.4942182
000080 18 c3 b3 be 0a 28 a3 be e4 33 eb be 9f c5 54 be
       -0.35109782 -0.31866485 -0.45938027 -0.20778511
000090 46 f4 07 bd 2f cd 83 be 19 52 ca 3e 7c 5b e7 3d
       -0.03319194 -0.2574248 0.3951576 0.11296746
0000a0 88 4c bf 3d 58 b3 67 3e a6 d5 e6 be 40 43 58 3e
       0.09340769 0.22627008 -0.45084876 0.21119404
0000b0 85 dd 0c 3f d9 02 bc bc 94 e1 bc 3e 32 03 c2 3e
       0.5502551 -0.022950577 0.36890852 0.37893063
0000c0 94 4c 87 be 4e e7 3c 3e 4f ce fc be f7 67 43 be
       -0.26425612 0.1844761 -0.4937615 -0.19082628
0000d0 27 98 cc bd 8c 53 1c 3e 53 43 84 3e e8 bc e3 3e
       -0.09989958 0.15266246 0.25832614 0.44480062
0000e0 8c c8 32 be 3f 8e f1 3e c1 03 4b 3e eb df a3 3e
       -0.17459315 0.47178838 0.19825651 0.32006773
0000f0 09 f3 10 bf 39 05 95 3e c9 75 b6 bd b2 68 18 3f
       -0.5662084 0.29105547 -0.089091845 0.5953475
000100 ab f3 e3 be 4a 9a 7e bd 26 49 16 be 8a 85 0a bd
       -0.4452184 -0.06215886 -0.14676341 -0.03381876
000110 45 07 9b be 54 d8 ca be d2 7f ac 3e 1b 2b 2f 3d
       -0.30278984 -0.3961817 0.3369127 0.042765718
000120 f7 14 fd bb 5b 2a 8a be 28 0a f4 be e5 0f 0f bf
       -0.0077234465 -0.2698544 -0.47664 -0.5588363
000130 6e 3d 15 be fc a0 e7 3e a2 69 67 3d 2b 94 74 3e
       -0.14574215 0.4524001 0.056497224 0.23884647
000140 ae 1b 8c 3c 24 72 ec 3e 44 cc b5 bc 3d d0 33 be
       0.017103042 0.46180832 -0.022192128 -0.17559905
000150 72 b7 07 3f e4 97 dc 3e cf 94 71 3e ba 12 a9 be
       0.5301429 0.43084633 0.23591922 -0.330221
000160 6b 27 cd be a4 14 80 bd ff 95 c0 bd 34 80 e1 3e
       -0.40069136 -0.06253937 -0.094036095 0.44043124
000170 17 47 81 3d 5b 86 f5 bd 14 2b c3 bd b0 30 3c bd
       0.063123874 -0.11988517 -0.09529701 -0.04594487
000180 6f d1 90 bb 46 9f eb be cf 15 75 be 7d eb 3d 3e
       -0.0044194977 -0.46019953 -0.239341 0.18546863
000190 7e 87 78 be 57 8b 4a 3e 03 c9 97 bd 2d a8 36 be
       -0.24270436 0.19779716 -0.07411387 -0.17837591
0001a0 f1 81 f3 3d c7 78 b6 be 46 49 71 3e 94 40 95 3e
       0.11890019 -0.3563902 0.23563108 0.29150832
0001b0 2c da a3 3c 02 68 d0 bd 3d ad c2 3e 36 0e 11 3f
       0.020001493 -0.10176088 0.38022795 0.5666231
0001c0 7b dc 75 bd 75 90 0b 3c 2b 3d 88 3e b2 0d 05 be
       -0.06002472 0.008518328 0.26609167 -0.12993506
0001d0 b4 0a 55 3e 85 ee ff be dc d4 13 bf 17 48 30 3e
       0.20804864 -0.49986663 -0.5774667 0.17215
0001e0 f9 e4 0d be 2d 29 8c 3e 8c fc d3 3e 5d 82 6e be
       -0.13856877 0.27375165 0.41403615 -0.23291917
0001f0 ec 1c cd 3e b0 a3 79 be 30 87 d9 bd 64 89 5f be
       0.40061128 -0.24378848 -0.10621488 -0.21829754
000200 bd 28 a0 3b bb 6b 7f be 17 13 a9 be 5a d3 eb be
       0.004887669 -0.2494344 -0.33022377 -0.46059686
000210 33 d1 af be 1c 30 bb 3d 28 82 a5 3e 1a 8d 03 bf
       -0.34339294 0.091400355 0.32325864 -0.5138718
000220 e2 3e 8c be 39 cd fb 3e d0 9f a3 be c0 45 96 be
       -0.27391726 0.4918001 -0.31957865 -0.2935009
000230 b2 89 98 be 5b e8 69 be df 89 51 3c 16 25 6a be
       -0.29792553 -0.22842543 0.012789219 -0.2286571
000240 60 31 00 bf 1e 16 ee be 8b 39 70 be 0d fb cb be
       -0.5007534 -0.4650125 -0.23459451 -0.39839974
000250 fc 4c 6e 3e 55 95 a6 3e 3d b4 ab 3e 37 34 df 3d
       0.23271555 0.32535806 0.33535948 0.10898631
000260 52 0f f0 be db 8c 34 3e 80 71 a3 bc 62 ed f5 3e
       -0.46886688 0.17631857 -0.019951582 0.4803267
000270 3d 28 0a 3f ec 99 a0 3c 3f af e2 be 55 a1 06 bf
       0.5396765 0.019604646 -0.44274327 -0.52589923
000280 58 bd 61 3e 8c 38 66 be a0 2c 19 3e bc 01 37 be
       0.22044885 -0.22482508 0.1495843 -0.17871755
000290 75 ea d3 3c 79 08 dd 3e e0 81 ad 3e ee 10 a5 3e
       0.025868634 0.43170527 0.3388815 0.3223948
0002a0 6e 45 a5 bd d9 9e 73 be d5 82 6d be 43 d6 1a bf
       -0.08069883 -0.23791064 -0.2319444 -0.6048319
0002b0 1c 0b 69 be 63 df d7 3e b0 29 24 bd 06 09 90 be
       -0.22758144 0.42162618 -0.04007882 -0.28131884
0002c0 8e 24 82 3e d9 27 e6 3d 18 f7 0a 3e 63 7d 8f be
       0.25418514 0.11238069 0.13570821 -0.2802535
0002d0 a1 b3 bc bd d7 a7 ef 3e 20 34 b3 3e 72 b9 ca be
       -0.09213949 0.4680774 0.35000706 -0.3959461
0002e0 0d 79 b1 be d7 59 a8 3e b6 8d dd 3e 67 38 92 3e
       -0.34662667 0.32881042 0.4327218 0.28558657
0002f0 53 43 de be 02 13 c7 3c 8e 91 d0 3e b4 44 98 3e
       -0.4341074 0.024301056 0.4073605 0.29739916
000300 f9 ef 2c 3e df 18 d1 3e 5c af 0d 3e 43 db 48 be
       0.16888417 0.40839288 0.13836426 -0.19614892
000310 3c e7 c0 3e ce c6 8e be 7e 8e 5f 3e 95 55 25 be
       0.37676418 -0.2788605 0.218317 -0.16145928
000320 40 e8 f0 3e 22 91 3c 3e 11 48 43 3b c6 bc af 3e
       0.47052193 0.18414739 0.0029797594 0.3432371
000330 06 6c 2f be 95 b1 d9 3e 12 bf 82 be 2f b5 6d 3d
       -0.17131051 0.42518297 -0.255364 0.05803412
000340 ad 6a c6 3e f7 c2 c3 be 98 3a 0a be 11 eb 46 3e
       0.38753262 -0.38234684 -0.13498914 0.19425608
000350 70 d5 0b 3d ae 31 98 3d 43 56 70 3e 34 2d ab 3e
       0.034139097 0.07431351 0.23470406 0.33432925
000360 c4 e1 35 be 44 e2 27 3e 95 e2 ab 3e 52 cd 83 be
       -0.17761904 0.16394907 0.33571306 -0.25742584
000370 f3 07 1b 3e 0b df d9 bc 40 66 94 3e cc 9e 1b 3e
       0.15139751 -0.026595613 0.2898426 0.15197295
000380 da 41 f2 3e 4e d0 9a be 7a b1 18 3e 60 78 79 3e
       0.47315866 -0.3023705 0.14911452 0.24362326
000390 ed 7f bc 3e f5 c4 84 3d c3 ed d8 be fd 42 08 be
       0.3681635 0.06482879 -0.42368898 -0.13306804
0003a0 c8 ed b7 3e 2e 5a f7 bd 3c f3 eb 3e 87 23 fc 3d
       0.359236 -0.12077747 0.4608401 0.12311464
0003b0 94 16 37 3e 26 4d 41 bd 68 80 d3 3e 52 d0 5c 3e
       0.17879707 -0.047192715 0.41308904 0.21563843
0003c0 4a 63 b7 be 82 3e cd b9 39 6f 19 3f 8c 21 d9 3e
       -0.3581794 -0.0003914722 0.5993534 0.42408407
0003d0 f0 a9 21 3d 70 b3 b0 be b0 e6 ed be ca a0 d6 3e
       0.039468706 -0.345119 -0.46465063 0.41919547
0003e0 10 dd e8 3e e5 71 b0 3e e8 cd 3f 3d c8 af 08 bf
       0.45481157 0.34461895 0.046827227 -0.5339322
0003f0 65 be 10 3e d8 18 3e 3e 29 66 f0 3d 1c a9 50 3e
       0.1413513 0.18564165 0.117382355 0.2037701

linear1.bias f4 [128]
000000 ce 72 02 3e df 2c 9e 3e 44 35 61 3e de e4 b3 bd
       0.12739107 0.3089361 0.21992975 -0.08783887
000010 e7 47 de 3e 1a 45 98 be 94 d5 97 3e 26 6d 8a bc
       0.43414232 -0.2974022 0.29655135 -0.01689775
000020 98 4f 1d 3f 83 4a 1e 3f 98 a1 f5 be 7d 41 e8 3e
       0.61449575 0.61832446 -0.4797485 0.45362464
000030 d1 ef d4 bd 5f 00 7b be 0f a6 f4 be a6 9d 93 be
       -0.10397304 -0.2451186 -0.47782943 -0.28831214
000040 0b e8 ed bd 34 20 29 bd 74 fc 9e be 48 c6 91 3e
       -0.11616524 -0.041290477 -0.3105198 0.2847159
000050 e1 4a 05 3e 17 4c 8d be 2b 92 a1 3e f6 6d 08 3f
       0.13016845 -0.27597114 0.3155683 0.5329279
000060 8a 55 20 3f 2d 6a 02 3d 41 b3 82 be ac 77 ba be
       0.6263052 0.03183954 -0.25527385 -0.36419427
000070 bf 4f 8e 3e 4d 43 1e 3d 6c 92 9a 3e d8 75 8d be
       0.27795216 0.0386384 0.30189836 -0.2762897
000080 7e 8d 3b be fd 1d 80 be d1 98 3a be 6c d5 01 3f
       -0.18315694 -0.2502288 -0.18222357 0.5071628
000090 f5 3e 70 3e df 12 16 3f ae 72 2e be b4 3f f6 bd
       0.23461516 0.58622545 -0.17035934 -0.12023869
0000a0 8c 26 54 be 8b 63 c1 3e de ca a4 be d0 33 1d 3f
       -0.2071783 0.37771258 -0.32186025 0.61407185
0000b0 b3 8c 05 3e bb a4 e0 be b7 cd 01 3f 76 a9 08 3f
       0.13041954 -0.4387568 0.5070452 0.53383577
0000c0 4f 76 aa 3e 9e ba 0c 3e 8d e8 ef 3e 44 8d f6 3e
       0.33293387 0.13743064 0.4685711 0.48154652
0000d0 a3 2b 69 be 24 c0 85 3e a4 56 66 be f1 47 b3 bc
       -0.22770552 0.26123154 -0.22493988 -0.02188489
0000e0 fb 16 2d bc 2d f6 1b 3f 03 84 98 bc 9e 11 99 3d
       -0.010564561 0.6092251 -0.018617636 0.07474063
0000f0 55 0c 40 be 84 e6 99 3e 89 71 73 be 09 f7 a8 3e
       -0.18754704 0.30058682 -0.23773779 0.33000973
000100 d7 80 04 3f ef eb aa be c4 25 ea 3e 63 f5 1b 3f
       0.51759094 -0.33383128 0.45731938 0.60921305
000110 8f b1 90 3e ba ee 5b 3e 73 58 91 be 62 ab 87 be
       0.28260466 0.21477786 -0.28387794 -0.26497942
000120 bb cd 1c 3f fb a8 39 bd fe ad fa 3e bc 9a a8 bc
       0.6125142 -0.045327168 0.4896087 -0.020581596
000130 20 6b dd bd 20 61 61 be 3d e8 07 3f 6c d1 13 3f
       -0.10811448 -0.22009706 0.5308874 0.5774143
000140 14 fb 29 3e 3c d2 42 bd b8 e8 21 3f 02 52 fe 3e
       0.16599685 -0.047563776 0.63245726 0.49671942
000150 21 46 63 be 5d 57 0f 3e 20 03 f5 3c f1 9f 7d be
       -0.22194721 0.1399817 0.029908717 -0.24768044
000160 e3 a0 06 3f 21 c5 5e 3e db 0b 83 be d5 bf cc be
       0.52589244 0.21754886 -0.25594983 -0.39990106
000170 37 dc 9f 3e 46 4f a9 bd c0 6f 1c 3e 8c 8e cb 3e
       0.31222698 -0.08267073 0.15277004 0.39757192
000180 6e 1e 82 be ea 14 80 be f4 53 93 be 3e 1e 7f 3d
       -0.2541384 -0.25015956 -0.2877499 0.0622847
000190 d3 3f 7d 3e f8 f2 e6 be a4 13 f4 bd a2 9a 91 3e
       0.24731378 -0.45107245 -0.11917809 0.28438288
0001a0 34 9b 15 3f 8a c5 37 3e 78 de 55 3e a5 b6 94 3e
       0.58439946 0.17946449 0.20885646 0.29045597
0001b0 d6 ad d1 3d 74 a7 72 be 6d 16 39 be 88 76 23 bd
       0.10238235 -0.23696691 -0.18074961 -0.039907962
0001c0 ee 1d 8f be 0a 6c f3 3e 5c a4 02 be f0 eb 0c 3f
       -0.27952522 0.47543365 -0.1275801 0.5504751
0001d0 8f e4 b1 bd b2 b5 ac be 03 9b dd 3d 85 07 c7 be
       -0.08686172 -0.33732373 0.10820582 -0.38872924
0001e0 eb 02 fa 3d e5 38 62 3e ef 7e b0 3e ea 9f cf be
       0.12207588 0.22092016 0.34471843 -0.40551692
0001f0 53 a2 80 be 09 70 f1 3e 7b f1 b5 be f4 f8 30 be
       -0.25123844 0.4715579 -0.35535797 -0.17282468

linear2.weight f4 [128, 128]
000000 62 0f e6 bd 5a bd f8 bd 36 6d db 3d d3 b0 40 bd
       -0.11233403 -0.12145491 0.1071419 -0.047043633
000010 f4 7c 87 3d 8d 6a 8a bd df 3c 42 bd 4b a7 44 3d
       0.0661563 -0.06758604 -0.047421332 0.048011106
000020 cc d8 a0 3d 87 37 83 bd 9c 1a ef bc c9 d4 3a be
       0.07853851 -0.064070754 -0.029187493 -0.18245234
000030 f2 13 08 3e c5 d9 04 bd 8a 2b 9a 3d a5 11 0b 3d
       0.13288859 -0.032434244 0.07527836 0.033952374
000040 db 6a b1 3d 9a 7c 8e 3d 80 9a 10 3e 3b 17 34 bd
       0.08662959 0.069573596 0.14121437 -0.043967467
000050 a2 53 7c 3d fe 93 04 3e b5 5a 9c bd 8f 93 73 bd
       0.061603196 0.1294708 -0.076344885 -0.059466895
000060 d3 37 64 bd 61 34 c6 3d b8 ed a8 39 ef 6f 44 3d
       -0.0557173 0.09677959 0.0003222057 0.04795831
000070 99 5e b5 3d 1e b8 a3 bc bd 35 54 3d 0a a4 00 3d
       0.08855934 -0.019985255 0.05180906 0.03140644
000080 da 6e 13 3e e6 86 60 3b 65 4c f3 3c 13 75 a0 3c
       0.14397755 0.0034260093 0.029699514 0.019587075
000090 28 88 ed 3c 6f a9 02 3d 43 58 76 bd 62 27 16 3d
       0.028995588 0.031899866 -0.060142767 0.036658652
0000a0 ff 20 9f bd 10 40 14 be 04 f8 2e 3e 22 c8 aa bc
       -0.077699654 -0.14477563 0.17086798 -0.020847384
0000b0 4c ca 86 3d 1a 4b 1b 3e dc 79 a1 bd 27 00 92 bd
       0.06581554 0.15165368 -0.07884571 -0.07128935
0000c0 09 4e 78 3d ee 0a 63 3d 86 12 88 bd a7 98 2c 3c
       0.060621295 0.055430345 -0.06644158 0.010534442
0000d0 ee eb 70 3d 15 31 c4 bd 9e 1d 0a 3e d1 1b 96 3c
       0.05881875 -0.09579674 0.1348786 0.01832381
0000e0 57 20 ac bd 21 8e d5 bc c0 f1 04 3d 3b 57 1d bd
       -0.08404606 -0.026068749 0.032457113 -0.038413268
0000f0 24 98 8f 3c 8d 03 e9 3b 24 41 ef 3d 5c 98 4a 3b
       0.017528601 0.007111019 0.116823465 0.0030913567
000100 5a cb e5 bd 6a 0f 35 3e bc d4 63 bd 3a 77 9d bc
       -0.11220427 0.17681661 -0.0556228 -0.01922189
000110 71 f5 09 3d 0e d1 03 3e a4 81 d5 3c 36 af 60 3d
       0.033681337 0.12872717 0.026062794 0.054854594
000120 d1 b3 23 3d f0 9e 09 be cb cb 0d be 58 09 7a 3c
       0.03996641 -0.13439536 -0.13847272 0.015261017
000130 ef 7f b3 bc 13 b1 99 3d bb d2 ed bd 0a d4 58 bd
       -0.02191159 0.07504477 -0.11612459 -0.05293659
000140 24 86 a4 3d 10 b1 a3 3d 29 7f 88 3d ec a8 82 bd
       0.08033398 0.07992756 0.06664879 -0.063798755
000150 58 a0 97 bc 65 9f c0 3d d0 35 05 bc 9e dc aa 3d
       -0.018509075 0.09405402 -0.008130506 0.08342861
000160 f8 83 28 3d 45 58 6a bc 07 01 a4 3d 60 c7 7f bd
       0.04114148 -0.014303272 0.080080085 -0.062446
000170 71 27 43 3d 2d 79 8d 3c 6d dd dc bd 36 ee 42 bd
       0.047645036 0.017269695 -0.10784421 -0.047590457
000180 fe d9 81 bd d3 f1 01 3d f6 eb 83 3d 08 6f e1 3d
       -0.06340407 0.031724762 0.0644149 0.11007506
000190 02 e1 8c 3d 01 b8 6f 3c 0b 6e 9d 3d df c2 9a 3d
       0.06878854 0.014631272 0.07687005 0.075567
0001a0 b9 7b 9c 3d e4 6d 9d bc 9f b2 0a bc cc 71 5b 3c
       0.07640786 -0.019217439 -0.008465438 0.0133938305
0001b0 21 ba e8 bc 83 3e eb bc 6e ae 14 bd 6e 30 a4 bd
       -0.028409066 -0.028716331 -0.03629916 -0.0801705
0001c0 6b e7 78 3d 0c 16 82 3d 78 2c 23 bd 35 4a a4 3c
       0.060767572 0.06351861 -0.03983733 0.020054916
0001d0 2a 08 ad 3d f5 2e 95 bd dd 2a 49 3d 5e 69 92 3d
       0.08448823 -0.07284347 0.049113143 0.071490034
0001e0 88 91 6d 3d f1 cf 8e bd 0c 8f aa 3c fe 6a 6c bd
       0.058000118 -0.069732554 0.020820163 -0.057719223
0001f0 12 ae 02 bc 0b ff 13 3c 38 94 05 3d 7d 3c 9c bc
       -0.007976072 0.009032975 0.032612056 -0.019071812
000200 b8 c8 fc 3d 66 3f 98 3d d7 ca 0b 3d a3 4a dc bd
       0.123429716 0.07433967 0.03412899 -0.10756423
000210 ea 32 58 3d 29 89 a0 bd 76 4b 6d 3d e7 37 b4 bd
       0.05278293 -0.07838661 0.057933293 -0.08799725
000220 34 d1 a0 3c 08 48 25 3c 9d 78 f7 bc a2 14 bd 3d
       0.019631006 0.010087974 -0.03020888 0.09232451
000230 0d 1e c5 3c 05 c0 a0 bd 79 63 10 3d bd 6b 07 be
       0.02406218 -0.07849125 0.035251115 -0.13224693
000240 fb 84 f1 bb 3a cf 10 bb 1f cf 3f bd 34 a4 f5 3d
       -0.007370589 -0.0022096173 -0.046828385 0.1199421
000250 d8 27 36 3d 7f 90 a6 bd 84 98 66 3d b6 a9 85 3d
       0.04447159 -0.08133029 0.056297794 0.065265104
000260 75 48 df 3d de 05 bb 3d c6 e9 e2 bd 15 1b 15 be
       0.10902492 0.091319785 -0.11079745 -0.14561112
000270 aa 29 0c 3e d1 5f 84 bd b7 f7 b4 3d d5 d2 eb 3c
       0.13687769 -0.06463588 0.0883631 0.028787056
000280 5c 74 39 be e8 ed 52 ba 06 15 e0 bd 90 7d 13 3e
       -0.18110794 -0.0008046315 -0.1094151 0.14403367
000290 cb 83 d9 3c b8 df b3 3d 07 82 97 bd 50 9f 8f bd
       0.026552102 0.08782905 -0.073978476 -0.07012808
0002a0 3b 55 7c bd 03 3e 37 3e 9a fe 02 be e6 4e 98 3d
       -0.06160472 0.1789475 -0.12792435 0.07436924
0002b0 65 82 d5 3d 2e db 5b bc af 94 0b 3e c7 06 ba 3c
       0.104252614 -0.013418956 0.13630937 0.02270831
0002c0 63 76 a5 3d 54 9c f2 3d e4 da 1a 3e e0 48 07 3e
       0.08079221 0.118462235 0.15122563 0.13211393
0002d0 72 5a 18 bd ad 4d 59 3d ae ab ea bc 16 46 c2 3c
       -0.03719563 0.053052593 -0.028646316 0.02371506
0002e0 dd e2 c1 3c 6d cd 2b 3e 13 b8 db bd e4 19 1c bd
       0.023667747 0.16777582 -0.10728469 -0.03811063
0002f0 c8 8f 39 bc 09 0b bd 3c 49 24 2c bb f0 07 34 3e
       -0.011325784 0.023076551 -0.0026266745 0.17581153
000300 df 45 35 3d 88 ef e6 bd 2b b8 0a 3d 4b cb 80 3d
       0.044256087 -0.11276156 0.033867043 0.06288775
000310 bd c3 3d 3e 3b 3d 01 bc 79 74 ab bd a3 67 0f bd
       0.185317 -0.007888134 -0.08371825 -0.035010945
000320 1a 77 44 3d eb 0d a5 bd ad 90 ca 3d 46 21 c3 bd
       0.047965147 -0.08059295 0.09890876 -0.09527831
000330 2b 16 bf bd 87 b7 74 bd c6 10 11 3d 17 cf 72 3d
       -0.093304 -0.059745338 0.035416387 0.059279528
000340 6e 44 d6 3d 20 73 e1 bc 87 15 f6 3c 6e cc 38 3d
       0.10462271 -0.027520716 0.030039562 0.045116834
000350 4c d2 ee 3c df 26 fd 3d 0a be 9b 3c 96 62 35 bd
       0.029153012 0.1236093 0.019011516 -0.044283472
000360 bc 1b 06 3d 55 49 d7 3c 5d 21 bb 3c da c9 cb bd
       0.032741293 0.026280085 0.022843057 -0.099506095
000370 17 8a 56 3d e8 6e 72 3d e4 0d c8 3c 36 89 be 3d
       0.052377786 0.0591878 0.024420686 0.09303515
000380 98 a4 ea b8 5e db 93 bd 17 47 0b bc 39 fa 00 3d
       -0.000111886475 -0.07219575 -0.008500836 0.03148863
000390 de 4b c2 3d d8 b9 5a bd c2 81 8a 3d 3b d1 19 3e
       0.09487127 -0.05339989 0.067630306 0.15021221
0003a0 fe b4 f2 3d 4b 11 c4 3d 1e d9 0c 3e 00 fe 5f 3d
       0.11850928 0.09573611 0.13754699 0.054685593
0003b0 99 28 8b 3d af 08 13 bc a9 4c 03 be 2b 0b 84 bd
       0.06794853 -0.008974238 -0.12822212 -0.064474426
0003c0 7e ed 7f bc 5c 95 66 3d 89 dc bd bd 93 14 45 3c
       -0.015620587 0.056294784 -0.09270579 0.012028831
0003d0 d0 d8 9c bd 87 13 62 3c e2 4f e0 3d 18 bf 69 bd
       -0.07658541 0.013798601 0.109527364 -0.057067007
0003e0 68 6e f2 3d ef 7a ce 3d 8b 67 49 bd fa 6f 64 bd
       0.118374646 0.100820415 -0.049171012 -0.05577085
0003f0 42 1b 96 bd 65 a3 af 3c 70 46 27 be 7a de bc 3c
       -0.07329418 0.021440217 -0.16335464 0.023055304

linear2.bias f4 [128]
000000 ef 97 65 bc 7b 31 1b 3e 7c df ef 3c 56 ad 37 3d
       -0.014013275 0.15155594 0.02928137 0.04484304
000010 3d 66 b5 3d 8f 5d 26 3e 13 33 b8 3d 1b c3 1d 3e
       0.08857391 0.16246627 0.08994117 0.15406458
000020 4f 74 0f 3e c2 3d 12 3e 9a 1e 0b 3e 53 28 83 3c
       0.14009212 0.14281371 0.13585892 0.016010439
000030 e0 4c da 3c 90 4d 14 3e 4c f5 a1 bd c1 72 07 3c
       0.026647985 0.14482713 -0.07908115 0.008267106
000040 fe bd eb 3d 6a fb 41 bd c8 e3 94 39 58 a3 c8 bc
       0.115108475 -0.047358908 0.0002839847 -0.02449195
000050 4a 7f d9 3c f6 63 0b ba 45 d3 1c 3c 03 20 37 bc
       0.026549954 -0.00053173245 0.009571855 -0.011177066
000060 a9 ec da 3d c0 0c f8 3d dc c4 9d 3d 93 1d 30 3e
       0.106896706 0.12111807 0.077035636 0.17198782
000070 05 3d f6 bb 02 a5 4b 3d 77 d3 22 3e 14 de 06 3b
       -0.0075145983 0.04971791 0.1590098 0.0020579146
000080 74 38 9f 3d d4 18 89 3d d2 d1 3e 3d 03 09 62 3d
       0.077744395 0.06694189 0.04658682 0.055184375
000090 bf 13 af 3d d7 f7 40 3d 22 0a 0c 3e 40 b9 06 3d
       0.08548688 0.04711136 0.1367574 0.032891512
0000a0 a8 f8 d8 3c 31 b2 b5 ba aa d8 63 3d 0f 4b 04 3e
       0.026485756 -0.0013862309 0.05562655 0.12919258
0000b0 ae 9d 41 3d d5 dd fe 3d 0e 75 24 3d e8 c9 16 3e
       0.047269516 0.12444655 0.040150695 0.14725459
0000c0 df 76 02 3e 6a b5 f3 3d 14 d8 58 bd 08 38 97 3d
       0.12740658 0.11899836 -0.052940443 0.07383734
0000d0 69 15 34 3c 90 13 57 3d 12 b7 cb 3b 46 9c f5 3c
       0.010991433 0.05250889 0.006216892 0.029981744
0000e0 b0 7e 0a 3e d7 1e 27 3e 79 89 01 3e c6 64 47 bd
       0.1352489 0.16320358 0.12650098 -0.04868009
0000f0 dc 42 92 bd 49 f6 02 bd 38 fa 18 bd 9b 1f 73 bd
       -0.07141659 -0.031973157 -0.037348002 -0.059356313
000100 28 56 a2 3c 74 e3 b1 3d 47 5b 8a 3d d0 31 98 3a
       0.019816473 0.08685961 0.06755691 0.0011611525
000110 c7 3b 8c 3d 30 e9 a9 3d 10 ac e0 3d ea c2 99 bd
       0.06847339 0.0829643 0.10970318 -0.0750788
000120 96 57 3b 3e ee 85 d2 bc 44 15 87 bd d2 c7 be 3c
       0.1829513 -0.025698628 -0.06595853 0.023288641
000130 b1 5e fc 3d 0e 00 92 bd fd 8d 85 3d c0 8c 91 bd
       0.123227485 -0.07128917 0.06521223 -0.07106924
000140 3f 6e 6b 3d 2c e6 a7 bb 36 ef 84 3d d6 83 0a 3e
       0.057478186 -0.005123874 0.06490938 0.13526854
000150 f8 3d c1 3c eb 29 bc 3b 73 62 f3 3d 23 f7 e8 3d
       0.02358912 0.0057423017 0.11884012 0.113752626
000160 de 01 71 3d b0 d2 8b 3d 13 d4 23 3d 9d db 99 ba
       0.05883967 0.06827295 0.03999717 -0.0011738423
000170 78 24 0f 3e 75 90 f1 3c 90 b5 1a 3d 6c 1e 27 3e
       0.13978755 0.029487828 0.037770808 0.16320199
000180 59 8c 9d 3d ee 5e 1d 3c 8f 44 23 3a 1d c6 4b 3d
       0.07692785 0.0096051525 0.00062281726 0.049749482
000190 15 5f 0e 3e 11 db 05 3d 44 a3 28 3e c9 1b e8 bc
       0.13903458 0.03267962 0.16468531 -0.028333561
0001a0 c6 ea 7d 3d 3f 98 cb 3b f1 3d aa bb 44 df 26 3e
       0.061991476 0.0062132175 -0.0051953723 0.16296107
0001b0 c5 49 b3 3d 81 03 20 3d 1d e0 c8 3c 1b 58 27 3e
       0.08754305 0.03906584 0.024520928 0.16342203
0001c0 62 cd 01 3d c8 d3 c9 3b d9 f9 9e 3d 7e be 09 3e
       0.03169001 0.0061592795 0.077624984 0.13451573
0001d0 0a 84 bf bc 5d 8f c7 3d 63 e1 cf 3c c0 0f 67 3c
       -0.02337839 0.09744141 0.025376027 0.014102876
0001e0 f3 56 b1 bd a0 f6 18 3e 15 11 bc 3c 26 d1 02 3e
       -0.08659162 0.1493783 0.022957364 0.12775096
0001f0 de 1e 7f bd ca ea f7 3c 91 20 cb 3c 16 7c f5 3d
       -0.062285297 0.030263323 0.024795802 0.11986558

output_layer.weight f4 [2, 128]
000000 e8 cd d3 bd fc 86 2a 3e f4 d1 07 be 48 bd 91 b8
       -0.10342008 0.16653055 -0.13263685 -6.949395e-05
000010 a3 c9 0e 3e da 34 24 3e e4 d2 03 be 7d a4 04 3e
       0.13944106 0.16035786 -0.12873417 0.12953372
000020 21 d7 ee 3d b3 ed 38 3e 72 c0 da 3d 80 ad 69 bd
       0.11662126 0.18059425 0.10681237 -0.057050228
000030 f5 d5 80 bd 8e 60 35 3e d9 58 bc bd 5c 7f e0 bd
       -0.06290809 0.17712614 -0.09196634 -0.10961792
000040 ff c2 c9 3d fc 01 77 bd 38 0e 4f bd 1b d6 46 bd
       0.09851646 -0.060304627 -0.05055067 -0.04854403
000050 cd ce cc 3c ae bf b6 bc e4 18 85 bd 34 a7 49 bb
       0.025000954 -0.022308197 -0.06498888 -0.0030769827
000060 55 1b f1 3d 79 3a ca 3d 33 78 29 3e 12 3f bd 3d
       0.11772791 0.09874434 0.16549759 0.09240545
000070 80 ed 93 bd ed 27 82 bd 63 10 8c 3d cc b9 4b bd
       -0.07223034 -0.063552715 0.06839063 -0.049737737
000080 b6 18 d1 bc 7d 47 d6 3d 0c 35 28 3e 1c b0 cb 3c
       -0.025524478 0.10462854 0.16426486 0.024864249
000090 47 86 b1 bd dc 01 a8 3d 51 ca e6 3d 6a 58 cc 3d
       -0.086681895 0.0820348 0.112690575 0.09977801
0000a0 f4 3b 98 bc 4d a4 b2 3d c0 0e d9 bc 6c 3a 03 3e
       -0.018583275 0.08722744 -0.026496291 0.12815255
0000b0 7d f7 24 bd 4b d4 20 3e a3 b4 f5 bc 1c 7c 26 3e
       -0.040275086 0.15705983 -0.02999336 0.16258281
0000c0 8a 20 13 3e 34 9a f6 3d ab 8d b1 3d 64 c3 f7 3d
       0.14367881 0.12041131 0.08669599 0.12097815
0000d0 d9 58 0a be d1 74 e9 3d 2f cf 7c bb f9 dd 01 be
       -0.13510455 0.11399234 -0.003857564 -0.12682332
0000e0 df 40 22 3e 3b f5 d5 3d 0e a6 cc 3d a4 f9 84 bd
       0.15845059 0.104471646 0.0999261 -0.06492928
0000f0 08 53 65 3d 0c ea 10 bd cc 28 f8 bd 65 76 24 bd
       0.055987388 -0.035379454 -0.121171564 -0.040151972
000100 f2 0f 16 3e e9 aa 14 3e e6 85 2e 3d 15 61 d4 bc
       0.1465452 0.14518322 0.042608164 -0.025925199
000110 be f1 c0 bc 12 61 d7 3c 26 b5 1d 3e f8 87 10 be
       -0.023552772 0.026291404 0.15401134 -0.14114368
000120 c7 79 01 3e b4 27 4b bd 73 f5 39 bd d1 a2 c4 3c
       0.1264411 -0.04959841 -0.045400094 0.024003418
000130 85 1c 2f 3e 81 1d b0 3c 27 5b 30 3e b0 5f 64 bd
       0.17100723 0.021498444 0.17222272 -0.055755317
000140 46 b8 88 3d 19 d7 19 3e fa 7d 0b 3d 9a 4d 52 3d
       0.06675772 0.1502346 0.034055687 0.051343538
000150 97 37 cd bc 3e 53 e6 3c 54 8e e4 3d 6c e3 09 3e
       -0.025050921 0.028115865 0.111599594 0.13465661
000160 1e 2e 23 3e fa 8e dd 3b c2 41 4f bd 84 49 e8 bc
       0.15935561 0.006761429 -0.05059982 -0.028355367
000170 94 0c 06 3e 72 1e 10 3e 1e 9d 8a 3d bd c6 11 3e
       0.13090736 0.14074114 0.06768249 0.14235969
000180 d0 a7 a6 3d 4b 56 19 3d ef 5e a0 bd 1f c0 44 bd
       0.081374764 0.03743581 -0.07830607 -0.048034783
000190 ba 8a f6 3d 54 80 72 bd 7a c2 68 3d 81 e0 16 3b
       0.12038179 -0.059204414 0.056826092 0.0023021998
0001a0 ed e4 98 3d c7 a0 3e 3d 7d fb fb bd 06 d3 e3 3d
       0.07465539 0.046540048 -0.12303827 0.11124234
0001b0 fd 7e 2d 3d eb 03 3b 3d e4 d5 f4 3d 5b ed 9b 3d
       0.042357434 0.045658033 0.11954859 0.07613631
0001c0 78 c9 26 3e 9d c4 03 bd a7 4f e1 bd 78 4c 3a 3e
       0.16287792 -0.032169927 -0.110015206 0.18193233
0001d0 ba 69 9d bb 1b d0 2a 3e 96 db 08 3e 22 34 b0 3d
       -0.0048038634 0.16680948 0.13365015 0.086036935
0001e0 21 a5 29 3c 2b a8 0a 3e ac 8a 3c 3e da 0d 34 3e
       0.010354311 0.13540713 0.18412274 0.17583409
0001f0 62 89 97 3c 70 c5 98 3d cb 09 c1 bc 29 4f 2e 3e
       0.018498126 0.07459533 -0.02356424 0.17022385
000200 9a fa 93 bd 1a 78 dd 3d 22 4f 97 3d 8a 60 a1 bc
       -0.07225533 0.10813923 0.0738814 -0.019699354
000210 dd d4 a1 3d 92 2f 24 3e f0 ed cd bb a6 71 09 3d
       0.079019286 0.16033772 -0.006284468 0.03355565
000220 94 71 e8 3d 42 b6 1c 3e 9c 6a 10 3e 22 ba ae bc
       0.11349788 0.15303901 0.14103168 -0.02132899
000230 91 b4 0b 3c d2 27 cd 3c 8a 30 21 be 1f 1d 05 be
       0.008526937 0.025043402 -0.15741172 -0.1299939
000240 30 d8 b5 3d 0c 30 6a 3a 0c ed 87 bd a2 98 61 3d
       0.08879125 0.0008933551 -0.0663701 0.055077203
000250 66 fb 01 bd 83 31 6c 3d 68 59 5a bd c3 7b 9e bc
       -0.031733893 0.057664406 -0.05330792 -0.019346124
000260 8b 28 07 3e 74 75 e9 3d 13 66 34 3e 33 d7 11 3e
       0.1319906 0.113993555 0.17617063 0.14242248
000270 6b 2a 05 be 10 d4 b4 bb e2 01 39 3e 55 8d 87 bd
       -0.13004462 -0.005518444 0.18067124 -0.06618754
000280 0e d7 18 bd dc d5 0f 3e bd c2 49 3d d8 c6 3f 3d
       -0.037314467 0.14046425 0.049257983 0.04682049
000290 54 4c e2 bc 26 9b c2 3d 15 a3 21 3e 8d 9f b7 3b
       -0.027624287 0.095022485 0.15784867 0.0056037367
0002a0 a2 08 83 3d 12 ad 23 3d dd 2d d7 39 6b 78 00 3e
       0.06398131 0.039959975 0.00041042166 0.12545936
0002b0 06 4d a8 bd c3 a8 10 3e 4d 22 a1 3b 4c a9 f9 3d
       -0.08217816 0.14126877 0.004917419 0.12190494
0002c0 7f 21 07 3e d1 17 fb 3d 78 e7 7c bd 3e a8 ae 3a
       0.13196371 0.12260402 -0.061744183 0.0013325287
0002d0 7d 77 96 bd 15 d2 27 3e 82 90 ac bd 01 d4 ce bc
       -0.07347009 0.16388734 -0.08426 -0.025247576
0002e0 7c 9c b9 3d 6e 5f b7 3d 28 fc 28 3e 5a 93 a1 bd
       0.0906305 0.08953749 0.1650244 -0.07889433
0002f0 d8 fd 82 bd b2 3f b2 3d d9 f0 72 bd 8d 36 0f be
       -0.06396073 0.08703555 -0.05931172 -0.13985653
000300 be ea 8e 3d 6c 6e 15 3e d5 f7 17 bd 7a ab 68 bd
       0.06978367 0.14592904 -0.037101585 -0.056804158
000310 b1 56 19 be cf 94 12 bd a3 64 ea 3c aa 20 7f bd
       -0.14974476 -0.035786446 0.02861244 -0.06228701
000320 fa dc 8c 3d 06 41 b5 bd ac 09 c5 bc bf 24 d1 bd
       0.068780854 -0.08850293 -0.024052463 -0.10212087
000330 11 d4 47 3d 38 18 b5 3b 30 a4 f2 3c 02 04 9c 3d
       0.048786227 0.0055265687 0.029619306 0.07617952
000340 06 8c 48 3e c7 f1 18 3e cf 72 3c 3e f8 c3 07 3e
       0.19584665 0.1493598 0.18403171 0.1325835
000350 62 b5 2d bd 28 af 29 3e 3f 7f c7 3d 31 2c 30 3e
       -0.04240931 0.16570723 0.09741067 0.17204358
000360 59 fe b2 3d 91 d0 a8 3d 6c 1e 2d 3b 5d 81 84 bd
       0.08739919 0.08242906 0.0026415838 -0.064699866
000370 e1 2e c7 3d 5e 8c fb 3d 12 71 1f 3e 06 80 4f 3d
       0.09725738 0.12282632 0.15570477 0.050659202
000380 d8 94 f9 3d 0e b8 35 3e 81 c2 db bd 0e 83 06 be
       0.12186593 0.17745993 -0.10730458 -0.13135931
000390 6a 96 20 3e ba d4 12 bd 27 34 2d 3e b1 d2 f0 bd
       0.15682378 -0.035847403 0.16914426 -0.11758936
0003a0 71 7e 19 3e d0 af 3e 3e a8 bf 90 bd 35 a9 2d 3e
       0.1498964 0.18621755 -0.070678055 0.16959079
0003b0 d2 85 23 3e bf 9c 98 bd b6 bc ff 3d 7d 1a 31 3e
       0.15969017 -0.07451772 0.12487166 0.1729526
0003c0 b2 dd 9a 3d 07 45 09 be 78 38 53 bd ef 22 27 3e
       0.07561816 -0.13405238 -0.051567525 0.1632192
0003d0 af 56 04 bc 5f e9 09 3e 7b 65 18 3e 22 65 31 3e
       -0.008077308 0.1346793 0.14882462 0.17323735
0003e0 07 82 40 3c ca 41 fc 3d 4e 2b 89 3d 37 c9 9f 3c
       0.011749751 0.12317236 0.06697713 0.019505126
0003f0 cb 0e 33 bd 03 34 13 3e 07 9f 12 bd 13 97 80 3d
       -0.04371528 0.1437531 -0.03579619 0.06278815

output_layer.bias f4 [2]
000000 53 71 8a 3c 2c cd d1 3d
       0.01689974 0.102442116
