results/models/exp-4:batchsize=128,lr=1e-4,width=128,adam-corrected/1/model-11.0.pt (torch, 72294 bytes, 6 tensors)

linear1.weight f4 [128, 4]
0.23149367 0.21604925 0.3639606 -0.45027962 0.4442622 0.32019675 -0.27549744 -0.29890516
0.37698764 0.45035943 -0.098504364 0.2274448 -0.25648442 0.4412265 -0.25510213 -0.06447353
0.42741272 -0.23369302 -0.055573724 -0.016884131 0.1697667 -0.28585118 -0.1997594 0.28359222
0.18444753 -0.42887568 0.41614735 0.04007914 -0.0216292 0.2981667 0.39970455 0.39364052
-0.4490195 -0.18335058 0.043247465 0.20566566 0.03582166 -0.45694077 -0.12836137 -0.1801727
0.32482943 0.27637208 0.19562912 -0.34089565 0.14746416 -0.3029562 -0.037402507 0.16642733
-0.28995064 -0.011480705 -0.09495336 0.3392035 0.4514878 0.28167897 0.2450513 -0.43997604
-0.40467927 -0.32773167 -0.28595573 0.3730162 -0.53323805 0.25387633 0.22333549 -0.08888492
0.20565178 -0.37961626 -0.40457138 0.44744104 0.068020165 -0.07174077 0.109557696 -0.4540915
0.08675183 0.19999774 0.10392213 -0.4204193 0.49653533 0.24255133 -0.08255141 -0.4536377
-0.43044478 0.19058728 0.013371814 0.3407984 0.46839383 -0.36264324 -0.19318235 -0.49597415
-0.57957697 -0.29099223 -0.010677802 0.36829442 0.34472743 0.35872427 -0.08570926 0.3534216
0.2148439 0.56774366 -0.2042978 -0.18927948 0.067888625 -0.15863493 -0.14090434 0.12034423
-0.17874067 0.3791188 -0.029137243 -0.4239196 0.19195512 -0.4762091 -0.14061503 -0.36887446
0.42201844 0.40842897 -0.12286453 0.24063002 -0.17232154 0.110253 -0.011395365 -0.28879106
-0.25153977 -0.20438465 0.038332175 0.251358 -0.4459443 -0.039116528 -0.10223068 0.05281882
-0.32148933 -0.06295572 -0.28480676 0.24341932 -0.45792928 0.21976784 -0.38666973 -0.4264624
0.29210812 -0.41412017 0.54239506 0.5480934 0.43164614 0.3347691 0.2431015 -0.0727054
-0.20603 -0.36189923 -0.21523994 -0.038048413 0.41201285 -0.46050414 0.40490198 0.23110746
-0.07360364 0.36239868 -0.2788802 0.07044464 0.14995493 0.3811301 0.53414583 -0.06985592
-0.3531601 0.09269503 -0.11663952 0.5798065 0.2588081 -0.1999215 -0.09139613 0.29760727
0.06542147 0.30613917 -0.010138417 -0.34918416 -0.40918908 0.038147397 0.4657624 0.2586399
0.27473786 0.2738066 -0.3381332 0.1614251 -0.19990326 -0.10494916 -0.13789277 0.0070425877
-0.17682837 -0.33552894 -0.0515512 -0.15704617 0.35540012 0.18095748 -0.42321637 0.2740397
0.5260401 0.16948971 0.09240591 -0.44175765 0.36286458 -0.24472952 0.23769972 0.4309405
0.4639368 0.30030635 -0.5390424 -0.5098728 -0.37306654 0.21032931 0.34001082 0.20940138
0.35713333 -0.075162865 0.5959808 0.37837657 0.22106652 0.2960634 0.42793548 -0.074601725
-0.26357466 0.22504926 -0.21264093 0.19096479 -0.17679584 0.24806261 0.01956129 0.15653843
0.31750166 -0.27003795 -0.14570609 0.30382863 0.5034554 0.34777966 -0.2854743 -0.028329672
-0.074924715 0.32635128 0.12416939 -0.35374442 -0.019648677 0.33571184 0.26042107 0.32511714
-0.31575963 0.08718807 0.082953505 -0.1737187 0.18948632 -0.26837298 -0.27411833 0.00017849129
-0.39698923 0.1389388 -0.27055162 -0.3022984 0.53092355 0.03212294 -0.5647849 -0.31709787
00000000: ad0c 6d3e 043c 5d3e 0b59 ba3e 0d8b e6be
00000010: 5676 e33e d4f0 a33e 000e 8dbe 190a 99be
00000020: 8604 c13e 8395 e63e a8bc c9bd 4ae7 683e
00000030: ed51 83be 71e8 e13e bf9c 82be b30a 84bd
00000040: d7d5 da3e 394d 6fbe 46a1 63bd 9750 8abc
00000050: 52d7 2d3e 165b 92be ba8d 4cbe 0033 913e
00000060: d0df 3c3e 9895 dbbe 4411 d53e 062a 243d
00000070: b82f b1bc 4ea9 983e 13a6 cc3e 408b c93e
00000080: e2e5 e5be 41c0 3bbe 4124 313d 059a 523e
00000090: bcb9 123d 24f4 e9be 2a71 03be 317f 38be
000000a0: 0b50 a63e a480 8d3e 0053 483e e089 aebe
000000b0: d800 173e 131d 9bbe 5f33 19bd ed6b 2a3e
000000c0: 6974 94be 9119 3cbc e876 c2bd 15ac ad3e
000000d0: 6929 e73e 3a38 903e baee 7a3e 8a44 e1be
000000e0: 1f32 cfbe 72cc a7be ca68 92be fbfb be3e
000000f0: 4a82 08bf 14fc 813e 0fb2 643e 4c09 b6bd
00000100: 6196 523e 105d c2be fb23 cfbe fe16 e53e
00000110: 284e 8b3d d3ec 92bd c95f e03d ae7e e8be
00000120: f2aa b13d 35cc 4c3e 20d5 d43d 3341 d7be
00000130: e139 fe3e 605f 783e b710 a9bd 3343 e8be
00000140: 4263 dcbe 5029 433e 7415 5b3c 217d ae3e
00000150: 51d1 ef3e 60ac b9be 98d1 45be 53f0 fdbe
00000160: 285f 14bf effc 94be f3f1 2ebc 1691 bc3e
00000170: 1d80 b03e b5aa b73e 5688 afbd adf3 b43e
00000180: 0a00 5c3e a657 113f 7133 51be 7bd2 41be
00000190: 3109 8b3d 3271 22be 3a49 10be 0977 f63d
000001a0: cb07 37be dc1b c23e 3ab1 eebc fd0b d9be
000001b0: e28f 443e aed1 f3be 63fd 0fbe 1ddd bcbe
000001c0: cd12 d83e 9a1d d13e 66a0 fbbd b767 763e
000001d0: 0f75 30be 53cc e13d a0b3 3abc 6cdc 93be
000001e0: d2c9 80be 364a 51be 3302 1d3d ffb1 803e
000001f0: d052 e4be a738 20bd 525e d1bd 8c58 583d
00000200: 409a a4be eeee 80bd 31d2 91be ea42 793e
00000210: b575 eabe d20a 613e 93f9 c5be 4859 dabe
00000220: 328f 953e 8f07 d4be 67da 0a3f d94f 0c3f
00000230: b900 dd3e db66 ab3e 9aef 783e 92e6 94bd
00000240: 87f9 52be db4a b9be dc67 5cbe a7d8 1bbd
00000250: 59f3 d23e 33c7 ebbe 504f cf3e 6fa7 6c3e
00000260: 81bd 96bd 528c b93e 63c9 8ebe 4845 903d
00000270: c98d 193e 7c23 c33e c8bd 083f 9f10 8fbd
00000280: 67d1 b4be e4d6 bd3d b3e0 eebd 336e 143f
00000290: 7f82 843e 39b8 4cbe e52d bbbd fb5f 983e
000002a0: b1fb 853d 46be 9c3e 9a1b 26bc 44c8 b2be
000002b0: 3b81 d1be 7240 1c3d 6978 ee3e 736c 843e
000002c0: 71aa 8c3e 6130 8c3e cb1f adbe 9f4c 253e
000002d0: 71b3 4cbe 96ef d6bd c333 0dbe 82c5 e63b
000002e0: 7f12 35be 73ca abbe 5a27 53bd b6d0 20be
000002f0: 01f7 b53e eb4c 393e d1af d8be ee4e 8c3e
00000300: 90aa 063f b68e 2d3e 4f3f bd3d 0f2e e2be
00000310: 63c9 b93e 609a 7abe 8e67 733e 3ca4 dc3e
00000320: 2089 ed3e c1c1 993e affe 09bf 0687 02bf
00000330: 9402 bfbe 9160 573e e615 ae3e 516d 563e
00000340: 2eda b63e fdee 99bd 3392 183f 93ba c13e
00000350: 435f 623e 9f95 973e 5c1a db3e cac8 98bd
00000360: 42f3 86be 5073 663e 8bbe 59be 468c 433e
00000370: f809 35be 2004 7e3e 003f a03c 9c4b 203e
00000380: 948f a23e 6a42 8abe fa33 15be 6d8f 9b3e
00000390: 74e2 003f 2d10 b23e b029 92be a113 e8bc
000003a0: 2172 99bd 8417 a73e 854c fe3d fd1d b5be
000003b0: 43f6 a0bc 6ce2 ab3e e955 853e c175 a63e
000003c0: 3fab a1be a98f b23d 87e3 a93d 51e3 31be
000003d0: b408 423e 2f68 89be 3d59 8cbe 6429 3b39
000003e0: 2c42 cbbe f945 0e3e be85 8abe dbc6 9abe
000003f0: 9bea 073f 5893 033d be95 10bf a75a a2be

linear1.bias f4 [128]
0.152786 0.41023678 0.26329723 0.47090277 0.32709748 0.61758184 0.5185349 0.53989667
-0.09601276 0.055913422 0.08923217 0.1121583 -0.2903366 0.17482044 0.40799552 0.47981745
-0.39812317 0.3600311 -0.30215436 -0.20391302 -0.059657793 -0.06592563 -0.27859533 -0.38639027
-0.33351776 0.5306099 -0.04180089 0.22264065 0.12750782 -0.13757598 -0.22055328 0.32787368
0.38928482 0.2770801 -0.3072992 0.5908655 -0.0149599705 -0.37289658 0.43631437 0.33758986
-0.34604108 0.2836365 0.24986449 -0.12631994 0.4255923 0.28251484 0.27907723 0.3572458
-0.118317425 0.0625618 -0.122758344 0.058484912 -0.32655582 -0.011297681 0.4462456 -0.27365947
0.5632976 -0.14957538 0.18051268 0.3995181 -0.05168309 -0.3944775 0.10274149 -0.1985264
0.23901615 -0.17378122 -0.20403059 0.57224745 -0.27197134 0.25067097 0.4860852 0.27368578
0.099875614 0.25421405 0.1984323 -0.3293031 0.287404 -0.32975295 0.26156947 0.4494914
-0.114945136 -0.44490212 0.011903952 -0.24444765 -0.1453224 -0.07079903 -0.19631939 0.08747948
0.36545658 -0.12977295 0.31411564 0.049168438 0.41528746 0.17330334 0.59395427 0.43536898
0.15621167 0.1938763 -0.024165215 -0.33491465 -0.21711062 -0.13112612 -0.37039852 -0.1651888
-0.23741594 -0.46143675 0.22433579 0.0080674095 -0.24526611 0.3769193 0.39391592 0.5797464
0.023976332 -0.2666237 -0.13051362 0.4287694 -0.17532884 0.31241092 -0.07216621 -0.18449757
0.27323344 -0.42979866 0.20484091 0.4730658 0.20541269 0.13741964 0.21747527 0.49694195
00000000: ef73 1c3e 8e0a d23e e5ce 863e 2b1a f13e
00000010: 5279 a73e d819 1e3f b4be 043f ab36 0a3f
00000020: 57a2 c4bd 7905 653d 5bbf b63d 40b3 e53d
00000030: 00a7 94be 2104 333e cae4 d03e a2aa f53e
00000040: cdd6 cbbe ff55 b83e fab3 9abe 93ce 50be
00000050: bb5b 74bd 0404 87bd 0ca4 8ebe f2d4 c5be
00000060: d7c2 aabe 0dd6 073f 6937 2bbd e9fb 633e
00000070: 6991 023e b8e0 0cbe b8d8 61be 0fdf a73e
00000080: 5750 c73e 71dd 8d3e 5256 9dbe f642 173f
00000090: aa1a 75bc 4dec bebe 9964 df3e 94d8 ac3e
000000a0: 4c2c b1be ce38 913e 7adc 7f3e 045a 01be
000000b0: 3ce7 d93e c9a5 903e 36e3 8e3e ece8 b63e
000000c0: 6850 f2bd 6720 803d ba68 fbbd e08d 6f3d
000000d0: 5332 a7be e919 39bc 4e7a e43e 181d 8cbe
000000e0: 4634 103f 4a2a 19be 51d8 383e a38d cc3e
000000f0: a6b1 53bd f4f8 c9be 216a d23d 814a 4bbe
00000100: a6c0 743e b4f3 31be 65ed 50be cf7e 123f
00000110: d43f 8bbe f257 803e 29e0 f83e 8b20 8c3e
00000120: 968b cc3d 5828 823e d631 4b3e 6a9a a8be
00000130: 9e26 933e 61d5 a8be 6fec 853e bd23 e63e
00000140: 5b68 ebbd 36ca e3be cb08 433c 7c50 7abe
00000150: 65cf 14be 15ff 90bd f307 49be 7128 b33d
00000160: 201d bb3e 33e3 04be c4d3 a03e d864 493d
00000170: 8fa0 d43e 6e76 313e 630d 183f afe8 de3e
00000180: f4f5 1f3e 8287 463e 21f6 c5bc ef79 abbe
00000190: 3f52 5ebe ed45 06be e0a4 bdbe 4127 29be
000001a0: 2a1d 73be 7041 ecbe 48b8 653e 2b2d 043c
000001b0: 0a27 7bbe 91fb c03e 59af c93e 436a 143f
000001c0: 036a c43c e782 88be 5da5 05be aa87 db3e
000001d0: 6789 33be 53f4 9f3e e1cb 93bd eeec 3cbe
000001e0: 41e5 8b3e 920e dcbe d1c1 513e ae35 f23e
000001f0: b457 523e bcb7 0c3e d6b1 5e3e 2d6f fe3e

linear2.weight f4 [128, 128]
-0.058637276 -0.028051566 0.050256114 0.07491192 0.06430622 -0.046855234 0.019751014 0.05253267
-0.037532926 -0.10158201 0.00046683842 -0.08031341 0.025989734 0.017815376 0.052639414 -0.099322386
-0.060880225 0.0313298 -0.08059369 -0.047551434 0.05694505 -0.04794818 -0.028247273 -0.08764917
0.053683653 0.03886692 -0.08887107 -0.0074412744 0.039204683 -0.04620029 0.0026072077 -0.044025432
0.0006534298 -0.07059103 -0.009976059 -0.07322027 -0.024275245 -0.037739083 0.046488173 -0.037452728
-0.00071410596 0.04030272 -0.059147034 -0.042664006 0.066381976 0.041782454 -0.010726143 0.043523613
-0.034429125 -0.07757068 0.020708144 -0.083888896 0.07071503 -0.08216089 -0.07316447 0.079505414
0.016701914 -0.07388996 -0.044978417 -0.094714895 0.06531739 0.034142286 0.024060592 0.04838337
0.027710814 -0.016655074 -0.004526013 -0.0740873 -0.042453434 0.014279566 -0.0930352 -0.003074795
0.016140461 -0.059102233 0.06604336 0.06799022 0.045009993 0.07760354 -0.0112423925 -0.04345567
-0.006467425 -0.0629199 0.055219136 0.0061249905 -0.0057388307 0.0037148243 -0.0746884 -0.021959927
-0.008746906 0.08418255 -0.0898139 -0.020385956 -0.0823263 -0.046567403 0.0453818 0.059940226
0.060681496 0.06400394 -0.02630749 0.032384504 0.01645994 0.03174292 -0.055099748 -0.013252419
-0.00065884815 -0.068366595 -0.021006543 -0.08163771 -0.042526633 -0.0695856 0.05702811 -0.06835343
0.030769615 -0.0650131 0.04529742 0.038966056 -0.01805715 -0.053559918 -0.009416763 -0.07654048
0.020418592 -0.075983584 -0.08486149 -0.065447405 0.04677903 -0.09540668 0.012936978 -0.016496379
-0.001569598 -0.04930679 -0.002432813 0.06694445 0.076613836 0.07720874 -0.09189361 -0.033456422
0.053119645 0.086964615 -0.025566282 -0.0329948 -0.01897224 0.019311316 -0.007961055 -0.04235096
0.07566528 -0.091302544 0.059899528 0.025343588 0.08606481 -0.071681164 0.063362606 -2.0968696e-06
-0.057037488 0.012089875 -0.017437061 -0.010861656 0.009540339 -0.078385666 0.012168404 -0.09116498
0.03935961 -0.0696933 0.018727772 -0.025951449 0.059298698 -0.06058376 0.0037685554 -0.08963317
0.05722299 -0.04117772 0.03801768 0.011661426 0.020270068 -0.048744272 -0.003216078 -0.014497077
-0.07309253 0.08179889 -0.049046427 -0.016608115 0.0075008227 -0.023292232 0.02830238 0.06577006
-0.06611036 0.0032960516 -0.0061710477 -0.04953916 0.0797438 0.057052642 0.06224782 -0.01944195
0.07118267 0.003651893 -0.056344375 0.022770543 -0.029460046 0.0015105541 0.041927658 -0.02531448
-0.06029166 0.046101525 -0.081621386 0.008966152 -0.053704944 0.046045322 -0.07722205 0.007541454
0.071906395 -0.026081061 -0.006644021 0.04865304 0.006239603 -0.041702658 -0.062239815 0.022307526
-0.069783114 -0.08064065 -0.05020975 -0.03748999 0.022523364 0.06595206 -0.03607064 0.07441583
-0.058187433 -0.022232838 0.014436448 0.05818348 0.057584487 0.014920359 -0.03964898 0.04888549
0.061523814 -0.044914927 -0.039118223 -0.085429996 0.027190832 0.040801223 0.07115551 0.04391641
0.02905169 0.040123913 -0.056033853 -0.0309073 -0.019184683 -0.006594928 -0.073143914 -0.03580206
-0.08936096 0.07499411 0.07083002 -0.021733308 -0.080571786 0.050169043 0.065011516 0.051217698
00000000: a42d 70bd 66cc e5bc 5bd9 4d3d 6c6b 993d
00000010: fbb2 833d 46eb 3fbd e1cc a13c 7f2c 573d
00000020: 20bc 19bd 3b0a d0bd fec1 f439 5b7b a4bd
00000030: 6ce8 d43c 8df1 913c 6d9c 573d 8969 cbbd
00000040: 8b5d 79bd ad53 003d 4e0e a5bd 4bc5 42bd
00000050: 363f 693d 5065 44bd d366 e7bc 6881 b3bd
00000060: 64e3 5b3d eb32 1f3d 0902 b6bd efd5 f3bb
00000070: 1795 203d 843c 3dbd b0dd 2a3b 0354 34bd
00000080: ee4a 2b3a 0892 90bd a072 23bc 82f4 95bd
00000090: e1dc c6bc 4c94 1abd 626a 3e3d 0868 19bd
000000a0: d732 3bba 7714 253d 2944 72bd 74c0 2ebd
000000b0: 46f3 873d 1424 2b3d b4bc 2fbc d145 323d
000000c0: 8e05 0dbd 60dd 9ebd 20a4 a93c f1cd abbd
000000d0: 0bd3 903d f843 a8bd 41d7 95bd bcd3 a23d
000000e0: 74d2 883c 9f53 97bd 4a3b 38bd e2f9 c1bd
000000f0: 20c5 853d c8d8 0b3d b81a c53c a42d 463d
00000100: ca01 e33c 3970 88bc f34e 94bb 15bb 97bd
00000110: a7e3 2dbd d7f4 693c 3d89 bebd 8082 49bb
00000120: 0039 843c 2f15 72bd be41 873d 753e 8b3d
00000130: 665c 383d 9bee 9e3d 0332 38bc 93fe 31bd
00000140: b1ec d3bb 26dc 80bd 762d 623d 25b4 c83b
00000150: cd0c bcbb 6974 733b 3bf6 98bd 4ee5 b3bc
00000160: 2f4f 0fbc e767 ac3d 5af0 b7bd 7300 a7bc
00000170: b19a a8bd 76bd 3ebd 44e2 393d e283 753d
00000180: 298d 783d 7f14 833d ce82 d7bc 9da5 043d
00000190: ffd6 863c dd04 023d 46b0 61bd ad20 59bc
000001a0: 8db6 2cba c903 8cbd ea15 acbc ac31 a7bd
000001b0: 6830 2ebd e582 8ebd 4f96 693d e2fc 8bbd
000001c0: 8f10 fc3c 9725 85bd ca89 393d df9a 1f3d
000001d0: 97ec 93bc a561 5bbd c448 1abc 41c1 9cbd
000001e0: e444 a73c 489d 9bbd dccb adbd 4a09 86bd
000001f0: 5e9b 3f3d 9464 c3bd 9ef5 533c 6a23 87bc
00000200: f8ba cdba ebf5 49bd d46f 1fbb 2c1a 893d
00000210: b7e7 9c3d 9e1f 9e3d b832 bcbd 9a09 09bd
00000220: fc93 593d 811a b23d 6170 d1bc 8e25 07bd
00000230: ac6b 9bbc c432 9e3c 166f 02bc 3378 2dbd
00000240: 66f6 9a3d d4fc babd 3559 753d 5b9d cf3c
00000250: bf42 b03d 93cd 92bd 41c4 813d f2b7 0cb6
00000260: 24a0 69bd 9c14 463c 2bd8 8ebc 16f5 31bc
00000270: 154f 1c3c aa88 a0bd fc5d 473c b4b4 babd
00000280: 8b37 213d 5cbb 8ebd fc6a 993c 2298 d4bc
00000290: 31e3 723d ad26 78bd def9 763b 9891 b7bd
000002a0: a762 6a3d f8a9 28bd 6db8 1b3d 910f 3f3c
000002b0: 6a0d a63c 13a8 47bd d6c4 52bb 2685 6dbc
000002c0: 89b1 95bd 2d86 a73d e8e4 48bd be0d 88bc
000002d0: 76c9 f53b 5acf bebc 65da e73c 74b2 863d
000002e0: de64 87bd 9202 583b 8036 cabb 93e9 4abd
000002f0: b850 a33d 08b0 693d 92f7 7e3d b944 9fbc
00000300: 38c8 913d 9954 6f3b 5cc9 66bd 4a89 ba3c
00000310: 3256 f1bc c9fd c53a 56bc 2b3d 5060 cfbc
00000320: 63f4 76bd f4d4 3c3d 1d29 a7bd c4e6 123c
00000330: b7f9 5bbd 059a 3c3d 9826 9ebd 4d1e f73b
00000340: a943 933d f3a7 d5bc 16b6 d9bb 6948 473d
00000350: 9575 cc3b 68d0 2abd 2def 7ebd 46be b63c
00000360: 73ea 8ebd ed26 a5bd bda8 4dbd 1b8f 19bd
00000370: eb82 b83c e011 873d cfbe 13bd 5467 983d
00000380: f255 6ebd a421 b6bc da86 6c3c cd51 6e3d
00000390: b6dd 6b3d 8574 743c f866 22bd 273c 483d
000003a0: 6500 7c3d b7f8 37bd 6e3a 20bd ecf5 aebd
000003b0: 4fbf de3c 2f1f 273d fbb9 913d b2e1 333d
000003c0: cffd ed3c f958 243d c183 65bd 4e31 fdbc
000003d0: 3229 9dbc 441a d8bb 7acc 95bd 2ea5 12bd
000003e0: e102 b7bd 8396 993d 540f 913d 0d0a b2bc
000003f0: d202 a5bd 0e7e 4d3d c224 853d a6c9 513d

linear2.bias f4 [128]
0.060448006 0.067943186 0.080657266 -0.03801394 0.16122496 0.08709007 0.18434845 -0.029267093
0.05800066 0.031550325 0.14186522 0.015318293 0.16881853 -0.087211825 -0.019197682 0.11275863
0.180891 0.06717321 0.13157874 0.04544439 0.16638008 0.029383602 0.06867641 -0.032938916
0.156448 0.06723852 0.03404119 0.15746653 -0.105541736 -0.0748265 -0.0059031695 0.052077614
-0.017978318 0.13558756 -0.032642554 0.13207006 0.011526794 0.042318154 0.059016705 -0.052888136
0.11772628 0.04645431 0.09644459 0.05685806 -0.08469863 0.17909478 0.12505913 0.1192423
0.1583633 0.029403001 -0.008002363 0.060838994 -0.06614796 0.07863551 0.046192493 0.055908162
0.14898314 -0.04117067 -0.05583401 0.15429871 0.1331882 0.17721769 0.016562866 0.07059238
0.011149073 -0.06957888 0.07485752 0.10626548 0.0541026 0.16039065 0.10010134 -0.046074238
0.16227295 -0.029687462 -0.07038797 0.13433205 0.15572193 0.1584807 0.0143970605 0.012694913
-0.04158834 0.10468212 0.0013526066 -0.0116862245 -0.06518928 0.053306956 -0.004990443 -0.031525813
0.1346135 0.13738441 0.1060406 0.14972949 0.029630288 0.015604224 0.11202929 0.124391995
0.061430566 0.11929876 -0.07556856 0.17014027 0.12229001 -0.095993884 -0.034613352 0.022962967
0.18395351 -0.07839261 -0.037729826 -0.04243758 -0.08888533 -0.0104536265 0.1094199 0.043305337
-0.0660899 0.023033207 0.04771703 0.16319227 -0.027100455 0.066707574 -0.018416012 0.004092378
0.06885581 0.0198852 0.048528187 -0.023453042 0.056676373 -0.078304194 0.05673242 0.040124442
00000000: 5498 773d cc25 8b3d a32f a53d 81b4 1bbd
00000010: 2818 253e 475c b23d d7c5 3c3e 8bc1 efbc
00000020: 1a92 6d3d ea3a 013d 1e45 113e 94f9 7a3c
00000030: c4de 2c3e 1d9c b2bd 7544 9dbc ffed e63d
00000040: 7e3b 393e 1c92 893d 94bc 063e e623 3a3d
00000050: 8a5f 2a3e e1b5 f03c 38a6 8c3d f5ea 06bd
00000060: e833 203e 59b4 893d c66e 0b3d e83e 213e
00000070: 4426 d8bd a33e 99bd 606f c1bb 564f 553d
00000080: 4447 93bc 77d7 0a3e 33b4 05bd 603d 073e
00000090: e1da 3c3c cd55 2d3d 80bb 713d 3ba1 58bd
000000a0: 7a1a f13d e046 3e3d be84 c53d ffe3 683d
000000b0: 7a76 adbd 9f64 373e 800f 003e 4f35 f43d
000000c0: fd29 223e 90de f03c 581c 03bc 4f32 793d
000000d0: 9578 87bd a70b a13d 5734 3d3d f5ff 643d
000000e0: 098f 183e 94a2 28bd 34b2 64bd 7b00 1e3e
000000f0: 7d62 083e 8e78 353e d9ae 873c bd92 903d
00000100: 9aaa 363c 5f7f 8ebd e64e 993d b7a1 d93d
00000110: b09a 5d3d 723d 243e ee01 cd3d 57b8 3cbd
00000120: e12a 263e 1f33 f3bc 9127 90bd 578e 093e
00000130: 9275 1f3e c448 223e a6e1 6b3c 53fe 4f3c
00000140: 8958 2abd 9463 d63d f249 b13a 9477 3fbc
00000150: f581 85bd 6558 5a3d df86 a3bb 3621 01bd
00000160: 1fd8 093e 80ae 0c3e d02b d93d b052 193e
00000170: 38bb f23c dca8 7f3c 9d6f e53d 3bc1 fe3d
00000180: 9e9e 7b3d e952 f43d b0c3 9abd 4039 2e3e
00000190: 2f73 fa3d 7198 c4bd bbc6 0dbd d51c bc3c
000001a0: 4f5e 3c3e 4e8c a0bd 978a 1abd 07d3 2dbd
000001b0: 8309 b6bd b045 2bbc 8a17 e03d f060 313d
000001c0: 245a 87bd 23b0 bc3c ef72 433d e01b 273e
000001d0: c601 debc fb9d 883d 2ddd 96bc 5b19 863b
000001e0: 4604 8d3d 49e6 a23c 7ec5 463d 9820 c0bc
000001f0: 7c25 683d f35d a0bd 4160 683d 8759 243d

output_layer.weight f4 [2, 128]
-0.019747542 0.050068855 0.15524842 -0.08274826 0.14150718 0.040433478 0.11218896 -0.064298294
-0.016757077 0.18353151 0.087911345 0.03647689 0.1533152 -0.07777274 -0.06302999 0.054643054
0.12801039 0.18372014 0.17050609 0.17170434 0.06860381 0.17475864 0.09789079 -0.078943245
0.12426767 0.102429755 0.14033154 0.081358865 -0.14763379 -0.06854054 -0.07908248 -0.008940515
-0.11060291 0.04459063 -0.14591345 0.17417042 0.07544134 0.13740242 -0.030467931 0.07106043
0.18116735 0.10535112 0.10104809 0.119370714 -0.039345168 0.1377039 0.10165897 0.13324665
0.026026089 0.046851467 -0.074394666 0.17654596 -0.028695524 -0.037836056 0.054854874 0.17522952
0.04435252 -0.14145601 0.0117824655 0.15919076 0.049814627 0.104392156 -0.146937 0.076820895
-0.11852946 -0.037221387 0.05956252 0.105955414 0.17131783 0.052639935 0.11014777 -0.072757795
0.17508405 -0.062521785 0.037932407 0.090218365 0.0967827 0.11823623 -0.061235376 -0.040424902
0.0032745255 0.08878074 -0.042377245 0.006463583 0.083914444 -0.013993895 -0.07413518 0.015247198
0.075747475 0.14699014 0.18454753 0.05948731 0.066905275 0.15867017 0.044781365 0.17443629
-0.03882473 0.13834983 -0.00465063 0.08140258 0.14359161 0.039407462 -0.028407391 0.10615355
0.18130368 -0.114689164 -0.08952928 -0.12780233 -0.07370953 0.11642475 0.13578263 0.10042529
-0.07652846 -0.050379407 0.121396825 0.14254498 -0.05775589 0.15602846 0.0005274678 -0.11414202
0.11982392 -0.07393692 0.043578923 -0.067220785 0.038347717 -0.12231699 -0.0049949894 -0.092577554
0.018933894 -0.040793307 0.04069848 0.04227919 0.10149128 0.17497495 0.063117765 -0.044657998
-0.048699643 0.14352433 0.092761524 0.1543975 0.028255932 0.07845529 -0.15054488 0.15367521
0.078702256 0.085703924 0.06555609 0.09848479 0.14964078 0.06309858 0.128567 -0.17172585
0.09639542 0.16501874 0.17747557 0.1390589 -0.12277086 -0.054253783 0.033164356 -0.07926501
-0.080547534 0.16554934 -0.04429101 0.041566037 -0.0112542305 0.11396371 -0.028750839 -0.06853768
0.16162214 0.12594877 0.089401536 0.06683656 -0.07644766 0.075302675 0.07245472 0.15392339
0.17524028 -0.036586177 -0.016655304 0.16671076 0.0006428975 -0.0040367995 0.15643145 0.13992369
0.1394841 -0.12907825 -0.012906095 0.10040259 0.15958992 0.18112811 -0.006936916 0.13365757
-0.13249443 -0.019339308 0.13222113 0.07266141 0.027736505 0.18397889 0.10681713 -0.08318073
0.16978955 -0.035840333 -0.058151387 0.09888863 0.14567222 0.09293754 0.026298285 -0.09018783
-0.08116139 0.030529538 -0.044872273 -0.05418571 -0.04442902 -0.02701761 -0.11033899 -0.04624674
0.14065799 0.08606507 0.037621286 0.137385 0.053179827 0.16212162 0.15795454 0.038926933
-0.019964911 0.092893556 -0.012907459 0.13580053 0.13546717 -0.119307466 -0.16175589 0.10133781
0.06577862 -0.15167068 0.059529487 -0.01804422 -0.10907163 -0.0050865086 0.07530387 0.1016842
0.024392137 -0.03214128 0.046799958 0.08644061 -0.06041582 0.084906824 -0.07770647 -0.051751126
0.1702105 0.016719682 0.15596355 -0.047851417 0.15014364 -0.12007722 -0.07251576 -0.10727059
00000000: 99c5 a1bc 0015 4d3d 71f9 1e3e eb77 a9bd
00000010: 42e7 103e 939d 253d 53c3 e53d d3ae 83bd
00000020: 2346 89bc afef 3b3e dd0a b43d cb68 153d
00000030: a9fe 1c3e 5047 9fbd de15 81bd 65d1 5f3d
00000040: 2815 033e 2221 3c3e 2699 2e3e 43d3 2f3e
00000050: 2880 8c3d eef3 323e f77a c83d ffac a1bd
00000060: 0c80 fe3d b1c6 d13d 12b3 0f3e 7a9f a63d
00000070: 502d 17be fc5e 8cbd fff5 a1bd 3d7b 12bc
00000080: c783 e2bd aaa4 363d 566a 15be bb59 323e
00000090: fd80 9a3d 38b3 0c3e e297 f9bc 2188 913d
000000a0: ef83 393e 54c2 d73d 4df2 ce3d a278 f43d
000000b0: 6628 21bd 4002 0d3e 9432 d03d cf71 083e
000000c0: aa34 d53c 53e7 3f3d 3b5c 98bd 77c8 343e
000000d0: e012 ebbc fbf9 1abd 81af 603d 5e6f 333e
000000e0: fdaa 353d d8d9 10be 3e0b 413c e702 233e
000000f0: 6c0a 4c3d 8ecb d53d a776 16be 4654 9d3d
00000100: 93bf f2bd 7475 18bd d4f7 733d 27ff d83d
00000110: f16d 2f3e f99c 573d 2795 e13d 0a02 95bd
00000120: 3c49 333e 6c0b 80bd 035f 1b3d 68c4 b83d
00000130: 0236 c63d d625 f23d f2d1 7abd 9594 25bd
00000140: 6c99 563b add2 b53d c393 2dbd 77cc d33b
00000150: 56db ab3d a646 65bc 2fd4 97bd 62cf 793c
00000160: 7e21 9b3d 9584 163e 07fa 3c3e f7a8 733d
00000170: a205 893d 6f7a 223e aa6c 373d 6d9f 323e
00000180: ae06 1fbd 94ab 0d3e 5064 98bb 65b6 a63d
00000190: ae09 133e b869 213d 9eb6 e8bc 0867 d93d
000001a0: aca7 393e 27e2 eabd 215b b7bd 9dde 02be
000001b0: 06f5 96bd 1970 ee3d 9a0a 0b3e c6ab cd3d
000001c0: f4ba 9cbd a35a 4ebd e69e f83d 50f7 113e
000001d0: 7191 6cbd edc5 1f3e c445 0a3a 4bc3 e9bd
000001e0: 3e66 f53d 3d6c 97bd d07f 323d 0dab 89bd
000001f0: 7f12 1d3d 5481 fabd 02ad a3bb 4d99 bdbd
00000200: 411b 9b3c e216 27bd 73b3 263d f22c 2d3d
00000210: a9da cf3d a22c 333e e343 813d 4eeb 36bd
00000220: 4779 47bd 0bf8 123e c1f9 bd3d 611a 1e3e
00000230: fc78 e73c 2bad a03d 7028 1abe 095d 1d3e
00000240: a62e a13d 8a85 af3d 4542 863d 65b2 c93d
00000250: 6f3b 193e d439 813d 11a7 033e e7d8 2fbe
00000260: f66a c53d acfa 283e 28bc 353e 7565 0e3e
00000270: 4a6f fbbd 3739 5ebd 59d7 073d b255 a2bd
00000280: 1bf6 a4bd c485 293e 7d6a 35bd 2641 2a3d
00000290: aa63 38bc ce65 e93d e186 ebbc 7c5d 8cbd
000002a0: 4680 253e b7f8 003e 2718 b73d 9be1 883d
000002b0: 9790 9cbd 4a38 9a3d 2463 943d 189e 1d3e
000002c0: 3072 333e 63db 15bd b470 88bc 3ab6 2a3e
000002d0: 1f88 283a 2147 84bb 912f 203e 2848 0f3e
000002e0: ebd4 0e3e 172d 04be 1674 53bc e09f cd3d
000002f0: 8a6b 233e a679 393e 124f e3bb 88dd 083e
00000300: 9fac 07be 786d 9ebc fa64 073e 81cf 943d
00000310: ab37 e33c f664 3c3e f1c2 da3d a95a aabd
00000320: 50dd 2d3e 50cd 12bd 2630 6ebd 1f86 ca3d
00000330: 192b 153e 0956 be3d 806f d73c 66b4 b8bd
00000340: f137 a6bd 1519 fa3c fdcb 37bd d6f1 5dbd
00000350: 34fb 35bd 0954 ddbc 69f9 e1bd 396d 3dbd
00000360: a608 103e e242 b03d c718 1a3d a7ae 0c3e
00000370: 17d3 593d 3603 263e d6be 213e d971 1f3d
00000380: 748d a3bc fa3e be3d cf79 53bc 4b0f 0b3e
00000390: e8b7 0a3e 7957 f4bd 56a3 25be 338a cf3d
000003a0: f1b6 863d 8f4f 1bbe 31d5 733d 79d1 93bc
000003b0: f260 dfbd baac a6bb ea38 9a3d ce3f d03d
000003c0: 05d2 c73c 93a6 03bd 50b1 3f3d c607 b13d
000003d0: 9476 77bd a1e3 ad3d 9224 9fbd fdf8 53bd
000003e0: a94b 2e3e b7f7 883c e9b4 1f3e d9ff 43bd
000003f0: 41bf 193e 0ceb f5bd 2583 94bd afb0 dbbd

output_layer.bias f4 [2]
0.1153241 0.05923723
00000000: 0b2f ec3d bda2 723d
