results/models/exp-5:batchsize=256,lr=1e-4,width=128,adam-corrected/4/model-200.0.pt (torch, 72304 bytes, 6 tensors)

linear1.weight f4 [128, 4]
0	0xbf17f314	-0.5935528
1	0xbf0b7bd4	-0.5448582
2	0xbfa64344	-1.2989278
3	0xbf0375b4	-0.51351476
4	0x3efb4579	0.4907644
5	0x3e2e18b5	0.17001612
6	0x3e8d2582	0.2756768
7	0x3e7e7ccc	0.24852294
8	0xbf5384cb	-0.826245
9	0xbe96380c	-0.29339635
10	0xbf737d21	-0.95112807
11	0xbd46cee6	-0.048537157
12	0xbf325280	-0.69657135
13	0xbeff8ebb	-0.49913582
14	0xbe0324cd	-0.12807007
15	0xbeb121cd	-0.345961
16	0xbdfe7ef8	-0.12426561
17	0x3ee39079	0.4444616
18	0x3e9ac7d0	0.3023057
19	0xbd8ef8c7	-0.06981044
20	0x3fe30b92	1.7737906
21	0x3f337946	0.70106924
22	0x3f93d75c	1.1550097
23	0x3ede0fb2	0.4337135
24	0xbefde5bd	-0.4958934
25	0xbe853a9a	-0.26021272
26	0x3f607448	0.8767743
27	0xbf0396fb	-0.5140225
28	0x3ea7b8af	0.3275809
29	0x3ea82ff0	0.32849073
30	0x3edce29a	0.43141633
31	0xbd8135d6	-0.063090965
32	0x3ecd0eae	0.40050262
33	0x3deece3e	0.11660431
34	0xbfc5c5f7	-1.5451039
35	0xbdf9341d	-0.12168143
36	0x3f06d778	0.5267253
37	0xbe268734	-0.16262513
38	0xbf8b4f0d	-1.0883499
39	0xbedb0304	-0.42775738
40	0x3f2bff4f	0.67186445
41	0xbe192de8	-0.14958918
42	0x3eb132e8	0.3460915
43	0xbe03de1e	-0.128777
44	0x3ebd83b5	0.37014547
45	0x3f1363be	0.5757407
46	0x3fa0ff11	1.257784
47	0x3e9fa70c	0.31182134
48	0x3e6fe7d2	0.23428276
49	0xbe0bf656	-0.13668188
50	0xbef221ba	-0.47291356
51	0x3ea27005	0.3172609
52	0xbd76c354	-0.060244873
53	0x3dcf64e0	0.10126662
54	0x3f8755ba	1.0573037
55	0x3f519343	0.8186533
56	0x3d14f3f1	0.036365453
57	0xbe53c41f	-0.20680283
58	0x3eade114	0.33960783
59	0x3e09f470	0.13472152
60	0x3e98811c	0.29786003
61	0x3f2937a4	0.66100526
62	0x3f97c12f	1.185583
63	0x3eb07af1	0.34468797
64	0xbedffdfa	-0.43748456
65	0xbef98004	-0.4873048
66	0xbf98c17c	-1.1934047
67	0xbf1aad86	-0.60421026
68	0x3df22bb7	0.11824744
69	0x3e092520	0.13393068
70	0xbe44c4b4	-0.19215661
71	0xbeb74ad9	-0.35799292
72	0xbfa8f6f3	-1.3200363
73	0xbf03d205	-0.5149234
74	0xbe062606	-0.13100442
75	0xbead7257	-0.33876297
76	0x3f5074e9	0.8142839
77	0xbeb4a8c2	-0.35285002
78	0xbf2d411d	-0.6767748
79	0xbe1c2fed	-0.15252657
80	0xbf4b6f1e	-0.79466426
81	0x3f0f1777	0.5589518
82	0x3f9171a6	1.1362808
83	0x3e6dd8f8	0.23227298
84	0x3f53d60e	0.82748497
85	0xbf0997a9	-0.5374704
86	0xbf6cd531	-0.92512804
87	0xbe1d2ede	-0.1534991
88	0x3f1b4afb	0.60661286
89	0xbeaa92fc	-0.33315265
90	0xbfdc2be6	-1.7200897
91	0xbf05cd13	-0.52266043
92	0xbf64096d	-0.8907688
93	0xbe410c46	-0.18852338
94	0xbf74861b	-0.9551713
95	0xbe9b7933	-0.30365905
96	0x3f7e9db5	0.9945939
97	0x3ed04fe1	0.40685943
98	0x3f4b5cf7	0.7943873
99	0x3e88a870	0.26691008
100	0xbf07d36b	-0.53056973
101	0xbed37e00	-0.41307068
102	0xbf800f11	-1.0004598
103	0xbedcd428	-0.43130612
104	0xbe8d7ecd	-0.27635804
105	0xbed7d5d6	-0.4215533
106	0xbf17e0af	-0.59327215
107	0xbe7f8c86	-0.24955949
108	0xbf104e2e	-0.5636929
109	0xbf10fd57	-0.56636566
110	0xbf87d4e2	-1.0611842
111	0xbeaac43e	-0.33352846
112	0x3db146e0	0.086560965
113	0x3de57128	0.112032235
114	0xbe220870	-0.15823531
115	0x3db586a8	0.08863574
116	0x3f72087e	0.9454421
117	0xbe900df2	-0.2813564
118	0xbe5efdef	-0.21776555
119	0xbe9874fd	-0.29776755
120	0xbe4eaed2	-0.20183876
121	0x3f372b50	0.71550465
122	0x3e6c6e50	0.23088956
123	0x3c6e720b	0.014553557
124	0xbf197cff	-0.59956354
125	0xbe877d16	-0.2646262
126	0x3f59fbff	0.8515014
127	0xbe8ef314	-0.2791983
128	0xbe607d11	-0.21922709
129	0xbf02e8ca	-0.5113646
130	0x3d92d68d	0.071698286
131	0xbe815480	-0.2525978
132	0xbde6bc14	-0.11266342
133	0xbf57a051	-0.84229
134	0xbf515bc4	-0.8178065
135	0xbec88e8e	-0.3917126
136	0x3f8a4db9	1.0804969
137	0x3eb6c58c	0.3569759
138	0xbf852fa3	-1.0405163
139	0x3c8d7ed2	0.017272387
140	0x3f4279a4	0.7596686
141	0x3f366d35	0.71260387
142	0x3f8a561f	1.0807532
143	0x3f0118ca	0.5042845
144	0x3f4178ac	0.75574756
145	0x3e6acf83	0.22930722
146	0x3f132331	0.5747557
147	0x3e3730f1	0.17889763
148	0xbf7e49d3	-0.99331397
149	0x3e89b38a	0.2689479
150	0x3fdae17a	1.710006
151	0x3e8e843b	0.2783526
152	0xbf75209d	-0.9575289
153	0x3eb4434e	0.352076
154	0x3f66cb51	0.90153986
155	0x3e5f7f0f	0.21825813
156	0xbf09d663	-0.53842753
157	0xbf0b9ae2	-0.5453321
158	0xbf4af8bd	-0.79285794
159	0xbed70f90	-0.4200406
160	0x3f84ccba	1.0374978
161	0xbe06f955	-0.1318105
162	0xbf98eda0	-1.1947517
163	0xbe802aef	-0.25032756
164	0x3eb7a468	0.3586762
165	0x3e8a581a	0.2702034
166	0xbeb1f8b1	-0.3476005
167	0xbcf63934	-0.030056573
168	0x3bc6d103	0.0060673966
169	0xbebe2460	-0.37137127
170	0xbf7c4899	-0.98548275
171	0xbe2ad922	-0.16684392
172	0xbf1b0266	-0.60550535
173	0x3f257b64	0.64641404
174	0x3f1647e5	0.5870345
175	0x3ef1a059	0.47192648
176	0x3f50fe75	0.8163827
177	0x3ef2b2e2	0.47402102
178	0x3e3768fd	0.17911144
179	0x3e7f259a	0.24916688
180	0xbe97bc17	-0.2963569
181	0xbe376b44	-0.17912012
182	0x3f5d7612	0.86508286
183	0xbbb0d277	-0.005396183
184	0x3ea1a6c0	0.31572533
185	0x3ebef894	0.37299025
186	0xbce7242d	-0.028215492
187	0x3eca6497	0.3952987
188	0x3e6ceb28	0.2313658
189	0x3d1db508	0.038502723
190	0xbea6f1bc	-0.32606304
191	0xbe9402a9	-0.2890828
192	0x3f8c1b53	1.0945839
193	0x3e59dce8	0.21275675
194	0xbf90f8ce	-1.1325929
195	0xbe038586	-0.12843904
196	0x3fd3e17c	1.6553187
197	0x3ef85202	0.48500067
198	0xbe7a7f3d	-0.244626
199	0x3e9bc0fe	0.3042068
200	0xbc4abb8c	-0.012373816
201	0x3efa5b71	0.4889789
202	0x3f6f3e81	0.9345475
203	0xbc828d33	-0.01593647
204	0x3f2ace12	0.6672069
205	0x3ef87331	0.48525384
206	0x3faf2a22	1.3684733
207	0x3ec76b6b	0.3894914
208	0x3f26558b	0.6497428
209	0x3f10529d	0.5637606
210	0x3e5a0cd8	0.21293962
211	0x3eeae0ed	0.4587473
212	0xbef787fd	-0.48345938
213	0x3d70aa0e	0.058755927
214	0x3f6e8594	0.93172574
215	0x3e3b3ca7	0.18284856
216	0x3f96f5a7	1.1793717
217	0x3f20fc79	0.6288524
218	0x3f641dc9	0.8910795
219	0x3ed3e033	0.41381988
220	0x3f67ff93	0.9062435
221	0xbf30f364	-0.69121385
222	0xbf700e8f	-0.93772215
223	0x3d87dba4	0.0663369
224	0x3ed67041	0.41882518
225	0x3d807666	0.06272583
226	0xbe8db508	-0.27677178
227	0xbe17b984	-0.14816862
228	0xbef6aaf6	-0.48177308
229	0x3e9502ed	0.29103795
230	0x3fd6c262	1.6778071
231	0x3eae1ebf	0.34007832
232	0xbea295fa	-0.31755048
233	0x3d29b754	0.0414346
234	0x3eb1d1b3	0.347303
235	0x3ea9eca2	0.3318835
236	0x3f11e0b9	0.56983525
237	0x3d90dc3c	0.070732564
238	0xbf918925	-1.1369978
239	0x3e556a08	0.20841229
240	0xbf9ac784	-1.2092137
241	0x3e553c13	0.20823698
242	0x3ee188db	0.44049725
243	0x3ea20095	0.3164107
244	0x3e728766	0.23684463
245	0x3f3c6fd8	0.7360816
246	0x3ece06a8	0.40239453
247	0x3ef1fd6b	0.47263655
248	0x3ecca30b	0.39968142
249	0x3da406f6	0.0800914
250	0xbdd8ce98	-0.1058628
251	0x3d8bd92c	0.068285316
252	0xbf1454db	-0.5794198
253	0xbe839ff0	-0.2570796
254	0x3e8c3240	0.27382088
255	0xbeb0b0db	-0.3450993

linear1.bias f4 [128]
0	0x3ee3e8f6	0.44513673
1	0x3f261945	0.6488231
2	0x3e82d048	0.2554953
3	0x3ee73544	0.45157826
4	0x3e91b82e	0.2846083
5	0x3dab8be0	0.083762884
6	0x3e997e10	0.2997899
7	0x3f2cc313	0.6748516
8	0xbe8dcae7	-0.27693865
9	0x3f366e7b	0.7126233
10	0x3ecc7b4f	0.39937827
11	0x3ea33257	0.31874344
12	0x3f2ab086	0.66675603
13	0xbf2504a0	-0.6446018
14	0x3f38181a	0.71911776
15	0x3ebb7b2b	0.36617407
16	0xbe680495	-0.22657998
17	0x3f29b1b1	0.6628676
18	0x3f471e4f	0.7778062
19	0x3e528d08	0.20561612
20	0xbbc0b786	-0.0058812527
21	0xbec91237	-0.3927171
22	0xbf0a9109	-0.54127556
23	0x3ed596ab	0.41716513
24	0x3d59005b	0.052978855
25	0x3eb58198	0.35450435
26	0x3eb80c3f	0.35946843
27	0x3ea0bf5c	0.31395996
28	0xbefb803a	-0.49121267
29	0xbea3bbfc	-0.31979358
30	0x3de28975	0.11061374
31	0x3eaec33f	0.34133336
32	0x3ea1a4c4	0.3157102
33	0x3e9f760e	0.31144756
34	0xbda0864a	-0.078381136
35	0x3d8ef0eb	0.06979545
36	0x3eb02ab3	0.34407577
37	0xbec951c9	-0.3932021
38	0xbf05c521	-0.5225392
39	0x3e80cfa8	0.2515843
40	0xbefcb970	-0.49360228
41	0x3ef1f77e	0.47259134
42	0x3d9a2791	0.07527078
43	0x3e3319d2	0.17490318
44	0xbf0562fd	-0.5210417
45	0x3eb84284	0.35988247
46	0x3f2323f2	0.63726723
47	0x3ec5cad4	0.38631308
48	0xbf21553a	-0.6302067
49	0x3dd26360	0.102728605
50	0x3eba4d0d	0.3638691
51	0x3d35b4eb	0.04436199
52	0x3ee0089c	0.43756568
53	0x3f0a8a28	0.5411706
54	0x3d8c5260	0.06851649
55	0x3ca5d15e	0.020241436
56	0x3ea7bce9	0.32761315
57	0xbe788b0b	-0.2427179
58	0x3f20e2f4	0.62846303
59	0x3db52d60	0.08846545
60	0xbebec11e	-0.37256712
61	0x3eb41ceb	0.35178313
62	0x3ec3896b	0.3819078
63	0x3df8d485	0.1214991
64	0x3df1b2fd	0.118017174
65	0x3f22f194	0.6364987
66	0x3f10e0dd	0.56593114
67	0x3f01c2cc	0.5068786
68	0x3f06d372	0.5266639
69	0x3cbc10bd	0.0229572
70	0x3d8f1cfd	0.06987951
71	0x3eac8a4e	0.33699268
72	0xbd5636e8	-0.052298456
73	0xbeb8fbe1	-0.36129668
74	0x3ebabbc1	0.3647137
75	0x3ebb4867	0.36578676
76	0xbf38fee4	-0.7226393
77	0xbcdbaa37	-0.026814563
78	0x3e05ec5d	0.13078447
79	0x3ec3c0ed	0.38233128
80	0x3e9123d1	0.28347638
81	0x3e536517	0.20644031
82	0x3f25ad5e	0.6471766
83	0x3d7d0ab0	0.06177777
84	0x3e8f7425	0.280183
85	0x3da038c1	0.07823325
86	0xbec029df	-0.37531945
87	0x3ed737a0	0.42034626
88	0xbeb03178	-0.34412742
89	0x3f18f9b7	0.59756035
90	0xbebcd5e5	-0.3688194
91	0x3f19f162	0.60133946
92	0x3e110f0a	0.14165893
93	0x3f0e2438	0.55524015
94	0x3d5facb8	0.054608077
95	0xbe641f02	-0.22277454
96	0x3f35ff8a	0.71093047
97	0x3e9abf8c	0.30224264
98	0xbdeed05a	-0.11660834
99	0x3f06b03e	0.52612674
100	0x3f126189	0.57180077
101	0x3d54fb95	0.05199774
102	0x3ea3bab3	0.31978378
103	0xbee585ed	-0.4482874
104	0x3f2ad9be	0.667385
105	0x3ebf4fa5	0.3736545
106	0xbe9425c6	-0.2893507
107	0x3f43eb61	0.76531035
108	0xbec7d890	-0.39032412
109	0x3ebc2932	0.3675018
110	0x3dc8c583	0.09803297
111	0xbed815cb	-0.42204127
112	0x3e781547	0.24226867
113	0x3ed233ed	0.4105524
114	0xbecfc6f1	-0.40581468
115	0xbed1dc40	-0.4098835
116	0x3eb64453	0.35599002
117	0xbe09813e	-0.13428208
118	0x3ef63e2d	0.4809431
119	0x3f037eb3	0.513652
120	0xbe583913	-0.21115522
121	0xbeb9a031	-0.3625503
122	0x3f203f09	0.62596184
123	0x3e8774a4	0.26456177
124	0x3f1250fe	0.57154834
125	0x3f0ee80e	0.5582284
126	0x3d92f7bd	0.071761586
127	0xbeb0f1fb	-0.34559616

linear2.weight f4 [128, 128]
0	0xbb9a38f9	-0.0047064987
1	0x3d94a866	0.07258682
2	0xbc923160	-0.01784581
3	0x3c97daa6	0.018536877
4	0x3c0e89c9	0.008699843
5	0xbd92910c	-0.07156572
6	0x3d86c701	0.06580926
7	0xbda07a3b	-0.078358136
8	0xbd378054	-0.044800118
9	0x3d1b06b5	0.037848193
10	0x3c6f4aaf	0.014605208
11	0xbd78f9d7	-0.06078514
12	0x3d1bd6ab	0.03804652
13	0x3c47e699	0.012200975
14	0xbd9eefe9	-0.07760603
15	0xbda1252c	-0.07868418
16	0xbb93ebea	-0.004514207
17	0x3da9ed6e	0.08297239
18	0xbcfc0e53	-0.03076855
19	0xbd590a9d	-0.052988637
20	0x3b109581	0.0022061768
21	0x3d9aeb15	0.075643696
22	0xbcdeeb35	-0.027211765
23	0xbb0c3fda	-0.0021400363
24	0xbd0ffdc9	-0.035154138
25	0xbd863bbe	-0.06554364
26	0xbd0c8d27	-0.0343143
27	0xbda001f9	-0.07812876
28	0x3d38fab5	0.045160968
29	0xbd333d71	-0.043759767
30	0x3d70cfcf	0.05879193
31	0xbd2e5486	-0.042561077
32	0x3ba83885	0.005133691
33	0xbd927be1	-0.07152534
34	0xbd9a1e88	-0.075253546
35	0xbc420f37	-0.011844448
36	0xbdb9f131	-0.09079207
37	0xbd12a612	-0.03580291
38	0xbd89904e	-0.06716977
39	0xbd7b3d08	-0.0613375
40	0xbcf7dea8	-0.030257538
41	0xbce4e801	-0.02794266
42	0xbd974da0	-0.07387853
43	0x3b5f3023	0.0034055791
44	0xbc5fc0f7	-0.013656846
45	0x3d9fd385	0.07804016
46	0x3d6e3f17	0.058165636
47	0xbd9befd1	-0.07614101
48	0x3c98cb72	0.018651698
49	0xbd4b101d	-0.049575914
50	0x3d09417f	0.033509728
51	0x3c450e3c	0.0120273195
52	0xbc8cf605	-0.017207155
53	0x3cf8e47f	0.030382393
54	0xbdb05380	-0.08609676
55	0x3c1b05a9	0.009461799
56	0xbd849440	-0.06473589
57	0xbc4418a6	-0.011968767
58	0x3c5ecae1	0.013598175
59	0xbd2eb65d	-0.042654384
60	0xbd03e879	-0.032204125
61	0xbd869ca0	-0.065728426
62	0x3d871b0c	0.06596956
63	0xbdb163a2	-0.086615816
64	0x3d845059	0.064606376
65	0x3ca6d167	0.020363523
66	0xbd4893a1	-0.048968915
67	0xbb7e80f1	-0.003883418
68	0xbda8d677	-0.08244031
69	0xbd8b0c05	-0.06789402
70	0xbd6f5cd6	-0.058438145
71	0xbd417fef	-0.047241148
72	0xbd2f2292	-0.04275758
73	0xbd8e67a5	-0.069533624
74	0x3d811d34	0.06304398
75	0x3d346065	0.04403724
76	0xbd8b131e	-0.06790756
77	0x3d520042	0.051269777
78	0x3cd9001c	0.02648931
79	0x3c6d1996	0.014471432
80	0xbc9b1fc4	-0.018936045
81	0xbda36d55	-0.07979838
82	0x3cf954a6	0.030435871
83	0xbc139e0f	-0.009009852
84	0x3cc89fc8	0.024490252
85	0x3d3463e2	0.04404057
86	0xbd68aa79	-0.0568032
87	0x3d646fb8	0.055770606
88	0xbd102b05	-0.035197277
89	0xbc5b0a47	-0.0133691495
90	0x3d6e37a8	0.058158547
91	0xbd178d6b	-0.0370001
92	0xbd822868	-0.06355363
93	0x3d93990a	0.07206924
94	0xbcc5cabf	-0.024144528
95	0xbd8b35c2	-0.06797363
96	0xbcbced85	-0.023062477
97	0xbd094534	-0.033513263
98	0x3d806774	0.06269732
99	0xbd75c1b0	-0.059999168
100	0x3d30f776	0.043204747
101	0xbd9762ff	-0.07391929
102	0xbd3111a0	-0.0432297
103	0x3d75ac27	0.05997863
104	0x3d85a3f5	0.06525413
105	0x3d664fb6	0.056228362
106	0xbd862dc8	-0.06551701
107	0xbd9dcb1d	-0.077047564
108	0xbd43eb3c	-0.04783176
109	0xbdac6b2f	-0.08418881
110	0xbcfa1ffe	-0.030532833
111	0xbd9882a0	-0.0744679
112	0xbc9c98ac	-0.019115768
113	0x3ca0f577	0.019648297
114	0x3d29ed80	0.041486263
115	0xbc61baaa	-0.013777414
116	0x3cf68fdf	0.0300979
117	0xbce58634	-0.028018095
118	0xbda065a1	-0.07831884
119	0xbd453d3c	-0.0481541
120	0xbbd7f4e1	-0.006590471
121	0xbd5b10d1	-0.053482834
122	0x3d568716	0.05237492
123	0xbc5b6d48	-0.013392754
124	0xbd651906	-0.055932067
125	0x3d70cdfe	0.0587902
126	0xbcbc1c61	-0.02296275
127	0xbc870f66	-0.016486835
128	0x3d6ea6dd	0.058264602
129	0x3ce43a7f	0.027859924
130	0xbd7bc64d	-0.06146841
131	0xbce7f812	-0.028316531
132	0x3d4bcd86	0.04975655
133	0x3cc090a8	0.023506477
134	0xbd0f8cc6	-0.03504636
135	0xbda1abba	-0.07894082
136	0x3c76fbb1	0.015074656
137	0x3d8ad22d	0.06778369
138	0x3d22384c	0.03960447
139	0xbca33ebb	-0.019927373
140	0x3d1db7ea	0.038505472
141	0xbcfc466b	-0.030795297
142	0x3d032ac9	0.032023225
143	0x3ce6996f	0.028149335
144	0xbd5104d4	-0.051029995
145	0xbd8e3d64	-0.06945303
146	0x3d1bb03e	0.038009875
147	0xbcde84ad	-0.027162874
148	0xbd8dfc53	-0.06932893
149	0xbdbb5abe	-0.09148167
150	0xbdb1efc7	-0.08688312
151	0x3c831b00	0.016004086
152	0xbd8d4f3c	-0.068998784
153	0x3d727748	0.059195787
154	0x3cd33a97	0.025784774
155	0x3d100466	0.035160445
156	0x3cd98cd6	0.026556414
157	0xbdae3540	-0.085062504
158	0xbcf74172	-0.030182574
159	0x3caa9747	0.020824088
160	0x3c336107	0.010948426
161	0xbd922a95	-0.07137028
162	0x3d5bf50a	0.053700484
163	0xbd5068f8	-0.050881356
164	0xbcdcb1a2	-0.02694017
165	0xbd702bf3	-0.058635663
166	0x3d3c14e7	0.04591837
167	0x3d8ce7b8	0.06880134
168	0xbdbec1fc	-0.09314343
169	0x3c6fc1b0	0.014633581
170	0x3ca74db3	0.020422792
171	0xbcfc98a9	-0.030834513
172	0x3d624dbc	0.055249915
173	0x3c4c20e1	0.012459011
174	0x3d33d837	0.04390737
175	0xbcad8b07	-0.021184457
176	0xbd1f50b5	-0.038895328
177	0xbd29287c	-0.041298375
178	0xbd5156a9	-0.051108036
179	0xbd08904e	-0.033340745
180	0x3d64359d	0.055715192
181	0x3d159467	0.03651848
182	0xbd9eeac5	-0.077596225
183	0x3d96a28f	0.07355224
184	0xbd85f8d4	-0.06541601
185	0xbda861c6	-0.08221774
186	0x3d2bfc70	0.04198879
187	0xbdcca644	-0.0999265
188	0x3c92673b	0.01787149
189	0xbba5b06f	-0.005056433
190	0xbd880e7e	-0.06643389
191	0x3c18c2cc	0.009323787
192	0xbdbd86ff	-0.09254264
193	0x3cca273a	0.024676908
194	0x3ced7f8b	0.028991481
195	0x3d82e5df	0.06391501
196	0xbd2217cf	-0.039573487
197	0x3d17cc5b	0.037060123
198	0x3cd95767	0.026530934
199	0xbd7d1b3b	-0.061793547
200	0xbd00bb7a	-0.03142879
201	0xbd28f349	-0.04124764
202	0xbda5f117	-0.08102625
203	0xbc817941	-0.015804889
204	0xbd3e1ce0	-0.046414256
205	0x3d882f5a	0.066496566
206	0xbd2c4060	-0.04205358
207	0xbd6cb81c	-0.057792768
208	0xbd882cf8	-0.06649202
209	0xbbe27395	-0.006910751
210	0xbc0d1fe4	-0.00861356
211	0xbda3ab99	-0.07991714
212	0xbd78b11d	-0.060715783
213	0xbcf1b5bf	-0.029505609
214	0xbda152a0	-0.078770876
215	0x3d74f5e7	0.059804823
216	0xbda78e89	-0.08181483
217	0x3d59d992	0.053186007
218	0xbd6b040c	-0.057376906
219	0xbcc7cd01	-0.024389746
220	0x3d252cf5	0.040326077
221	0xbd7817e6	-0.060569666
222	0x3bdcb6d0	0.00673566
223	0xbdbcd23e	-0.09219788
224	0x3d19ac3a	0.037517764
225	0xbd65b2a4	-0.056078568
226	0x3ba90426	0.0051579652
227	0x3d2de015	0.04245003
228	0xbd852d5b	-0.065027915
229	0x3d2afff1	0.04174799
230	0xbd847229	-0.06467087
231	0x3d850c54	0.06496492
232	0xbd0ec094	-0.034851626
233	0x3d80293d	0.062578656
234	0x3d8f76cf	0.07005083
235	0x3cd32e62	0.025778953
236	0xbda49cb7	-0.080377035
237	0xbd5569fb	-0.052103024
238	0xbc6fb5ec	-0.014630776
239	0xbd60d70c	-0.054892585
240	0x3cb866e9	0.022510009
241	0xbca15054	-0.019691624
242	0xbdac1c5b	-0.08403846
243	0xbd019ec9	-0.03164557
244	0x3cdc4710	0.026889354
245	0xbcc41446	-0.023935448
246	0x3d0d9de8	0.03457442
247	0xbdae7a8c	-0.08519468
248	0xbce01e68	-0.027358249
249	0xbc99761a	-0.018733073
250	0x3b60de23	0.0034312091
251	0x3d10144a	0.0351756
252	0xbd0b9d1e	-0.034085386
253	0xbdcbb14a	-0.099459246
254	0xbd6c0b82	-0.057628162
255	0x3d11b4f3	0.035572957

linear2.bias f4 [128]
0	0xbcd26381	-0.025682213
1	0xbd943807	-0.07237249
2	0x3dc2e71d	0.095167376
3	0xbe06723f	-0.13129519
4	0x3ca602ad	0.020264948
5	0x3edc5d0b	0.43039736
6	0x3e0b3f4c	0.13598365
7	0xbbc9f411	-0.006163128
8	0xbdd831c5	-0.10556368
9	0x3db82847	0.08992057
10	0x3d6e47ae	0.058173828
11	0x3c5220d7	0.012825212
12	0x3d3eb414	0.046558455
13	0x3e2f254e	0.17104074
14	0x3d3d9bb8	0.046291083
15	0x3d396cf0	0.045269907
16	0xbdedd3b2	-0.11612643
17	0x3e284e77	0.16436182
18	0x3ec4d2a0	0.38441944
19	0x3b2e6bfc	0.0026614657
20	0x3bcf6ed2	0.0063303495
21	0x3d4899ab	0.048974674
22	0x3e1c89f0	0.15286994
23	0x3e1f149d	0.15535207
24	0xbd988c74	-0.07448664
25	0x3c7fa3cc	0.015603017
26	0xbd0efd95	-0.034909803
27	0xbdc00278	-0.09375471
28	0x3dd29b69	0.102835484
29	0x3d9a87db	0.075454436
30	0x3c2d9d28	0.010596551
31	0xbb7702b8	-0.003769083
32	0xbd03f68f	-0.03221756
33	0x3caf1b26	0.02137525
34	0x3edac55f	0.42728707
35	0x3e639866	0.22226104
36	0x3d45a80f	0.048255976
37	0x3e69addd	0.2282023
38	0x3d454da8	0.048169762
39	0xbd25e60c	-0.040502593
40	0x3eae92e8	0.34096456
41	0xbd8779ef	-0.06615054
42	0xbc8f75fb	-0.017512312
43	0x3e202ea7	0.15642796
44	0x3e4831b8	0.19550216
45	0x3d81d8ba	0.063401654
46	0x3e83b428	0.25723386
47	0x3e2285b7	0.1587132
48	0x3e793d1e	0.2433972
49	0x3d2b3d6e	0.04180663
50	0x3e2edf93	0.17077474
51	0x3e47d9cd	0.19516678
52	0x3d5ed0d6	0.05439838
53	0x3d93086d	0.071793415
54	0x3e780fe4	0.24224812
55	0x3e15ea8e	0.14640257
56	0x3c50aa95	0.012735982
57	0xbdadc16c	-0.08484158
58	0xbe7973fb	-0.2436065
59	0x3d8e883e	0.0695958
60	0x3e1c33b5	0.152541
61	0xbd3abf9f	-0.0455929
62	0xbdeed8eb	-0.116624676
63	0x3ed4504f	0.4146752
64	0x3d0901d4	0.03344901
65	0x3df9aa62	0.12190701
66	0xbd8ba915	-0.06819359
67	0x3db18df1	0.08669651
68	0x3c1553a6	0.009114182
69	0x3d40aa83	0.047037613
70	0x3e87c303	0.2651597
71	0xbd9fc020	-0.07800317
72	0xbd272b90	-0.04081303
73	0x3d0669f2	0.03281588
74	0x3e024ffc	0.12725824
75	0xbc9243c6	-0.017854583
76	0x3eb19e88	0.34691262
77	0x3da0f682	0.07859518
78	0xbca7bc03	-0.020475393
79	0x3d973d2c	0.073847145
80	0xbdb21b52	-0.08696617
81	0x3e09a469	0.13441624
82	0x3d9a4314	0.075323254
83	0x3e2bf95f	0.16794346
84	0x3eb9045f	0.36136147
85	0x3d4842dc	0.048891887
86	0x39119860	0.00013885042
87	0x3e56b99a	0.20969239
88	0xbd862e24	-0.065517694
89	0xbe8b8421	-0.27249244
90	0x3e69ec61	0.22844078
91	0x3e215ab8	0.15757263
92	0x3ebc4cc8	0.3677733
93	0x3dfc4648	0.123180926
94	0xbe250e4f	-0.1611874
95	0x3daf5407	0.08560949
96	0xb80d0792	-3.362407e-05
97	0x3dee4342	0.11633922
98	0x3df04a8c	0.11732969
99	0xbe6766eb	-0.22597854
100	0xbc780557	-0.015137992
101	0x3e17b3d5	0.14814694
102	0x3cff0b35	0.031133274
103	0x3e1261b8	0.14295089
104	0xbdb02b1b	-0.08601972
105	0x3e221e6d	0.15831919
106	0xbd001d98	-0.031278223
107	0x3e3e94f5	0.1861151
108	0x3dd6d499	0.104897685
109	0x3e166e19	0.14690436
110	0x3dbaae82	0.09115316
111	0x3d85ec7d	0.06539247
112	0xbd8e6798	-0.06953353
113	0x3e7d5e24	0.24742943
114	0x3e03efa2	0.12884381
115	0x3d1f917a	0.038957097
116	0xbc69cc59	-0.014269912
117	0x3ed9f0fe	0.42566675
118	0x3d2611fe	0.040544502
119	0x3ec83b76	0.39107865
120	0xbe52f209	-0.20600142
121	0x3e3e29a0	0.18570566
122	0x3e3e5dfd	0.18590541
123	0x3e60b4b0	0.21943927
124	0x3db3e6d3	0.087842606
125	0x3db3fa3b	0.08787962
126	0x3ef792d6	0.48354214
127	0x3da5e9e9	0.081012554

output_layer.weight f4 [2, 128]
0	0xbd16d42b	-0.036823433
1	0x3c771bee	0.015082343
2	0x3f0e4ac1	0.55582815
3	0xbfc6313f	-1.5483779
4	0xbeb50cc1	-0.35361293
5	0xbf80b6f2	-1.005583
6	0x3f0b1b8c	0.5433891
7	0xbd7fcb08	-0.062449485
8	0xbfc0f116	-1.5073574
9	0x3f337764	0.7010405
10	0xbf9e5f24	-1.2372785
11	0x3d0d4f6d	0.034499574
12	0x3f23744b	0.63849324
13	0x3f0bff68	0.54686594
14	0x3f79f8f6	0.9764551
15	0x3d9fdac8	0.07805401
16	0xbfefd39c	-1.8736453
17	0x3f0c124f	0.54715437
18	0xbe1012f8	-0.14069736
19	0xbd702ed1	-0.058638398
20	0xbc4ab1b9	-0.012371474
21	0xbf42ea1d	-0.7613848
22	0xbed48533	-0.41507873
23	0x3f08122d	0.53152734
24	0xbf44ba14	-0.7684643
25	0xbf466baf	-0.7750806
26	0xbaf7616d	-0.001887364
27	0xbbd28f3f	-0.0064257677
28	0x3f0a4615	0.54013187
29	0x3fa1f790	1.2653675
30	0x3f3720d3	0.7153446
31	0x3f14efcb	0.58178395
32	0xbd2cce77	-0.042189088
33	0x3f6a365d	0.914892
34	0x3f0fd6c4	0.5618708
35	0x3f090a91	0.5353175
36	0xbf81974f	-1.0124301
37	0xbf7f0b20	-0.9962635
38	0x3f30cded	0.6906422
39	0x3f55b6b6	0.8348192
40	0xbf7815d5	-0.96908313
41	0x3d32f523	0.04369081
42	0x3f8bb702	1.0915225
43	0xbf1a2363	-0.60210246
44	0xbf74e2ea	-0.95658743
45	0xbf871124	-1.0552106
46	0x3e610e19	0.21978034
47	0x3f0df54e	0.5545243
48	0x3ef7b38c	0.4837917
49	0x3f884542	1.0646136
50	0x3ef895ec	0.4855188
51	0x3ee449d0	0.44587564
52	0xbf817a62	-1.0115473
53	0x3f900514	1.125155
54	0x3f70bdba	0.940395
55	0x3f1f39c3	0.6219751
56	0xbfb20a8f	-1.3909472
57	0xbfdadee6	-1.7099273
58	0xbf9e39ff	-1.2361449
59	0x3c992de1	0.018698635
60	0x3f0afd09	0.5429235
61	0x3fc5b444	1.5445638
62	0xbfa3e30a	-1.2803662
63	0xbf8ce945	-1.1008688
64	0xbd39beb0	-0.04534787
65	0x3f9504ec	1.1642127
66	0x3d25e77c	0.040503964
67	0x3f5220e8	0.8208146
68	0x3c93b626	0.018031191
69	0x3f605828	0.87634516
70	0x3ef22794	0.4729582
71	0x3f564d11	0.83711344
72	0xbc938714	-0.018008746
73	0x3d26f859	0.040764187
74	0x3f06e15a	0.5268761
75	0x3f927455	1.1441752
76	0x3f2bb92e	0.67079437
77	0xbdb24e09	-0.0870629
78	0xbf4a048f	-0.78913206
79	0x3ea7b66c	0.32756364
80	0xbcaecaa5	-0.021336863
81	0x3fb497f0	1.4108868
82	0xbd15121f	-0.036394235
83	0x3f0a11d6	0.53933465
84	0xbf7bf55a	-0.9842125
85	0x3fb0fd1a	1.382724
86	0x3f1db598	0.61605215
87	0x3eef12ea	0.46694118
88	0x3f95696c	1.1672797
89	0xbfdf9006	-1.7465827
90	0x3ef09a44	0.46992695
91	0x3fa0f609	1.2575084
92	0xbf8ec555	-1.1153971
93	0x3f0d4ebc	0.55198264
94	0xbfd21e14	-1.6415429
95	0x3ef885bc	0.4853953
96	0xbf72e806	-0.9488529
97	0x3f137c85	0.57611877
98	0x3f0a0620	0.53915596
99	0xbf5b80f8	-0.85743666
100	0x3f864df6	1.0492542
101	0x3f982c61	1.1888543
102	0x3f71e769	0.9449373
103	0x3f1a1bc4	0.60198617
104	0x3d9c18ef	0.07621943
105	0x3f179f8f	0.5922784
106	0xbf8b9cdd	-1.0907246
107	0x3f0833c1	0.5320397
108	0x3f11acfa	0.56904566
109	0xbf8ad1ba	-1.0845253
110	0x3f033320	0.51249886
111	0x3fb85566	1.4401062
112	0x3bf1f234	0.007383609
113	0x3f092fcc	0.5358856
114	0x3f819371	1.012312
115	0xbf1fcf3e	-0.624256
116	0x3ce0289e	0.027363118
117	0xbf23ddfd	-0.640106
118	0x3da20db8	0.07912773
119	0xbee35925	-0.4440395
120	0xbfbca6a7	-1.4738358
121	0x3ea36622	0.3191386
122	0x3f059457	0.52179474
123	0x3ef53433	0.47891387
124	0x3f24733c	0.64238334
125	0x3f13e9ae	0.5777844
126	0x3eee0342	0.4648686
127	0x3f082b5a	0.5319115
128	0xbcfc008c	-0.03076198
129	0xbd66c6ed	-0.056342054
130	0x3eb4e881	0.35333636
131	0xbf5fab68	-0.8737092
132	0xbf90016c	-1.1250434
133	0x3e22573c	0.1585359
134	0x3f5a0753	0.85167426
135	0xbd28c69e	-0.04120504
136	0xbe2dbd58	-0.1696676
137	0x3f36e249	0.71439034
138	0x3f83bf4b	1.0292753
139	0x3d975d8d	0.0739089
140	0x3f2f1523	0.6839163
141	0x3f164e82	0.58713543
142	0x3f2e97fb	0.68200654
143	0xbb930620	-0.004486814
144	0x3ebe5074	0.37170756
145	0x3f0251da	0.50906146
146	0xbf774451	-0.9658862
147	0xbd83c0e1	-0.06433273
148	0x3ec1c57b	0.37845978
149	0xbf6a526c	-0.91532016
150	0xbf14d54d	-0.5813797
151	0x3f02a727	0.51036304
152	0xbeba3486	-0.36368197
153	0xbf1f944e	-0.6233567
154	0xbc6c13da	-0.01440903
155	0xbd810ec2	-0.06301643
156	0x3f1ca98c	0.6119621
157	0x3facd27f	1.3501738
158	0x3f2b24c7	0.6685299
159	0x3f3f6bc4	0.7477381
160	0xbcbf63a2	-0.023362938
161	0x3f96b1a6	1.1772964
162	0xbf683498	-0.9070525
163	0x3e9b417f	0.30323407
164	0xbe5b542b	-0.21418826
165	0x3f25cd30	0.64766216
166	0xbf1cb6f0	-0.6121664
167	0x3f593952	0.8485309
168	0xbed71e91	-0.42015508
169	0x3d8efd3c	0.069818944
170	0x3f2e512f	0.68092626
171	0xbf1f7b0e	-0.6229714
172	0xbee8f2e9	-0.45497826
173	0xbea0a1ab	-0.31373343
174	0xbf9bcac7	-1.2171258
175	0x3e887509	0.2665179
176	0x3ec7eed5	0.39049402
177	0x3f1c6cfd	0.611038
178	0x3f028b26	0.50993574
179	0x3ee2b051	0.44275144
180	0xbf53a7c6	-0.82677877
181	0x3f69239a	0.9106995
182	0x3fa071f6	1.2534778
183	0x3f6101c1	0.878933
184	0xbee7c5ab	-0.45267996
185	0xbf10aa2f	-0.5650968
186	0xbfafd207	-1.373597
187	0xbd16d205	-0.036821384
188	0x3eace852	0.33770996
189	0x3f0be308	0.546433
190	0xbf9aeabc	-1.2102885
191	0xbd2cb5ba	-0.042165495
192	0xbd826d87	-0.06368547
193	0x3fb6dd2d	1.4286247
194	0x3d9121ac	0.070865005
195	0x3f3cf3c7	0.73809475
196	0xbd8c0e17	-0.06838625
197	0x3f5074bd	0.8142813
198	0x3ef0b4e2	0.47013003
199	0x3f28524b	0.6575057
200	0x3bd10af1	0.006379478
201	0x3a81cbc7	0.0009902649
202	0x3ee48f7a	0.44640714
203	0x3f28b71b	0.65904397
204	0xbf4a62da	-0.79057086
205	0x3d7b241a	0.061313726
206	0xbec10a32	-0.3770309
207	0x3f5de573	0.86678237
208	0x3a80c223	0.0009823482
209	0x3face424	1.3507123
210	0x3d3ae711	0.04563052
211	0x3eaecbfa	0.34139997
212	0xbec8c616	-0.39213628
213	0x3efbbc90	0.491673
214	0x3f804006	1.0019538
215	0x3ed58a6a	0.41707164
216	0x3f2cb5af	0.6746473
217	0x3ec9f6ae	0.39446014
218	0x3f2956b0	0.661479
219	0x3fc2be2e	1.5214288
220	0x3e8cdb65	0.27511135
221	0x3e9e6065	0.30932918
222	0x3e8893ff	0.26675412
223	0x3f4d91f2	0.8030082
224	0xbf38e9b6	-0.72231615
225	0x3f613cdb	0.87983483
226	0x3ec7f673	0.39055213
227	0xbfde1b7b	-1.7352136
228	0x3f0ec9c6	0.5577663
229	0x3f882ee3	1.0639309
230	0x3f6c0c0c	0.9220588
231	0x3eb3044e	0.34964222
232	0xbd9b154e	-0.07572423
233	0x3ead4b63	0.33846578
234	0xbdaed79c	-0.08537218
235	0x3e98260f	0.29716536
236	0x3eb3ecec	0.35141695
237	0xbe94d7ea	-0.2907098
238	0xbe2d7ae6	-0.16941413
239	0x3f69d5ad	0.9134167
240	0xbd091f86	-0.03347733
241	0x3ec433fd	0.38320914
242	0x3fbc54f9	1.4713432
243	0xbf61d488	-0.8821492
244	0xbd981b69	-0.07427103
245	0x3f364b33	0.71208495
246	0x3d4b4c49	0.049633298
247	0xbf80ff4b	-1.0077909
248	0xbf859aa9	-1.0437824
249	0x3f6098d0	0.87733173
250	0x3ecb44c3	0.397009
251	0x3f04bb83	0.5184862
252	0x3f686776	0.9078287
253	0x3f404fd5	0.75121814
254	0xbf5da13d	-0.86574155
255	0x3f095aa0	0.5365391

output_layer.bias f4 [2]
0	0x3e46c73f	0.19411944
1	0x3d52ba36	0.051447116
