results/models/batchsize=96,lr=1e-4,layer=6,eps=0.9,num_episodes_train=5000/2/model-13.0.pt (torch, 17506 bytes, 12 tensors)

linear1.weight f4 [16, 4]
0	0xbd2cc7ac	-0.04218261
1	0xbe8d9957	-0.27656052
2	0xbd8f4973	-0.06996431
3	0x3e2c4921	0.16824771
4	0x3dce8d29	0.10085518
5	0xbe813dee	-0.2524256
6	0xbd60a1bc	-0.054841742
7	0x3e3d82be	0.18506905
8	0xbe8604c3	-0.26175508
9	0xbda5fabe	-0.08104466
10	0x3edee586	0.43534487
11	0xbe791ab1	-0.24326588
12	0xbe35af3c	-0.17742628
13	0x3ee0fd96	0.4394347
14	0xbe3f9257	-0.18708168
15	0xbe636126	-0.22205028
16	0x3c89f87f	0.016842125
17	0xbee8b8cd	-0.45453492
18	0x3dd9d6e0	0.10636687
19	0xbecf5364	-0.4049331
20	0xbea3371c	-0.31877983
21	0x3e047f80	0.12939262
22	0x3ec8fbf1	0.39254716
23	0x3e91042e	0.283235
24	0xbe3535d7	-0.1769632
25	0x3db7ef6c	0.08981213
26	0x3ee4f9bc	0.44721782
27	0xbed87efb	-0.42284378
28	0xbe4665c5	-0.1937476
29	0x3e2e9db8	0.17052352
30	0xbe743ae1	-0.23850586
31	0xbf0bf605	-0.5467227
32	0x3d96ab6d	0.073569156
33	0x3f07ae04	0.529999
34	0x3beda6c4	0.007252546
35	0xbefbbb92	-0.49166542
36	0x3e16d41b	0.1472935
37	0x3e20dbd8	0.15708864
38	0x3ef63fd2	0.48095566
39	0xbba68f19	-0.0050829765
40	0x3daf7422	0.085670725
41	0xbe9fb8d3	-0.31195697
42	0x3e68858f	0.22707199
43	0xbe6e55ac	-0.23274869
44	0xbe9fbe3d	-0.31199828
45	0x3f0453ba	0.51690257
46	0x3eecc3ce	0.46243137
47	0x3d1afdd1	0.037839714
48	0x3e0dbf19	0.13842429
49	0x3d871494	0.06595722
50	0xbe01e632	-0.12685469
51	0x3ef4e6a9	0.4783223
52	0x3e767d85	0.2407132
53	0xbf01cf10	-0.5070658
54	0xbe19c7b2	-0.15017584
55	0xbe88f88e	-0.26752132
56	0x3ee095a6	0.43864173
57	0xbe1d965b	-0.15389387
58	0xbea19779	-0.31560877
59	0x3ed619a4	0.41816437
60	0xbd93acbe	-0.07210682
61	0xbf01296f	-0.5045385
62	0xbd99ab42	-0.07503368
63	0xbdce58b3	-0.10075512

linear1.bias f4 [16]
0	0x3e39ee26	0.18157253
1	0xbd548919	-0.05188856
2	0xbedb5859	-0.4284084
3	0x3d9e8b57	0.07741421
4	0x3dd8c015	0.10583512
5	0x3e3e13ff	0.18562315
6	0x3edfaa09	0.43684414
7	0xbea9d5b1	-0.33170846
8	0x3f182548	0.59431887
9	0x3ebb0557	0.3652751
10	0x3f0befcf	0.54662794
11	0xbec2dc58	-0.38058734
12	0x3b672262	0.0035268296
13	0x3e9c9fc5	0.30590644
14	0x3e8dbe9e	0.27684492
15	0x3ec2ccea	0.38046962

linear2.weight f4 [32, 16]
0	0xbe3596be	-0.17733285
1	0xbd869d08	-0.0657292
2	0xbd9378d8	-0.072007835
3	0xbe59b300	-0.2125969
4	0xbe6d5d54	-0.23180133
5	0xbe5e9214	-0.21735412
6	0x3e31d820	0.17367601
7	0xbdd00d00	-0.101587296
8	0x3d315c40	0.043300867
9	0xbe3defe2	-0.1854854
10	0x3c4a8c60	0.01236257
11	0x3d7332b8	0.05937454
12	0x3df80380	0.121100426
13	0x3e446b32	0.19181517
14	0x3d872d54	0.066004425
15	0xbd4ea188	-0.050447017
16	0xbd3212e0	-0.04347503
17	0x3dd5a72c	0.10432276
18	0x3bd05bc0	0.0063585937
19	0xbe1df8a0	-0.15426874
20	0xbde7156c	-0.11283383
21	0xbd6018b8	-0.054711074
22	0x3e0cfcd0	0.13768315
23	0x3e4becbc	0.19914526
24	0xbd8fabac	-0.07015166
25	0xbe791a28	-0.24326384
26	0xbe1b30fa	-0.15155402
27	0xbe59761a	-0.21236458
28	0xbd364bc8	-0.044505864
29	0xbdd940ac	-0.10608038
30	0x3d4ee088	0.0505071
31	0xbdff6824	-0.12471035
32	0x3d40598d	0.046960402
33	0xbd36e484	-0.044651523
34	0x3e2932be	0.16523263
35	0x3ca03c69	0.019560056
36	0xbdbe21b8	-0.09283775
37	0x3e147742	0.14498618
38	0x3dd4998b	0.103808485
39	0xbd5d42fe	-0.054018967
40	0xbd4f4196	-0.050599657
41	0xbd3451b5	-0.044023234
42	0xbd7ecca4	-0.06220688
43	0xbc17726f	-0.009243592
44	0xbe19a7e5	-0.15005453
45	0x3dccabba	0.09993692
46	0x3dda57d0	0.1066128
47	0x3e870201	0.26368716
48	0x3e34ed45	0.17668636
49	0x3e9a6440	0.3015461
50	0x3e53cff0	0.2068479
51	0xbd9c1e71	-0.07622994
52	0x3e502232	0.20325544
53	0x3e5a717d	0.21332355
54	0x3ddd2fbe	0.10800122
55	0x3e6d3cda	0.23167744
56	0x3e8ee922	0.2791224
57	0x3ea7efdb	0.32800183
58	0x3e9bc08e	0.30420345
59	0x3e8f967d	0.280445
60	0xbc142a9a	-0.00904336
61	0x3e98c0b3	0.29834518
62	0xbda5724e	-0.080784425
63	0x3c38fb6a	0.0112904105
64	0xbd914892	-0.0709392
65	0xbc99a328	-0.018754557
66	0x3dad3d35	0.0845894
67	0x3d2d52d4	0.04231532
68	0x3e82b735	0.255304
69	0x3b0babdc	0.0021312153
70	0x3df605f3	0.120128535
71	0x3e716f92	0.23577717
72	0xbe1630f5	-0.14667113
73	0x3df2773c	0.118391484
74	0xbbd0641d	-0.0063595907
75	0xbe30ab51	-0.17252852
76	0x3a8b57da	0.001063104
77	0x3e42df61	0.19030525
78	0xbe485a00	-0.19565582
79	0x3e594651	0.2121823
80	0x3e9aeb0b	0.3025745
81	0x3e30b78b	0.17257516
82	0x3dafabdc	0.085777014
83	0xbe1ea688	-0.15493214
84	0x3ea20846	0.31646937
85	0x3e05ceda	0.13067189
86	0x3e145e51	0.14489104
87	0xbe2265e2	-0.15859178
88	0xbd4e8562	-0.050420173
89	0xbd838a12	-0.06422819
90	0xbdd88e18	-0.10573977
91	0xbe715ac8	-0.23569787
92	0x3e64475a	0.22292843
93	0x3e8ea81c	0.27862632
94	0x3dbce3f8	0.09223169
95	0x3e286137	0.16443335
96	0xbd9efa44	-0.07762578
97	0xbe3c6c2c	-0.1840064
98	0x3e0f7128	0.1400801
99	0xbe74b016	-0.23895296
100	0x3de147f0	0.11000049
101	0x3cc20810	0.023685485
102	0xbdfb393c	-0.12266776
103	0xbd883ddc	-0.06652424
104	0x3d691cd8	0.056912273
105	0x3e289d02	0.16466144
106	0xbe1780d2	-0.14795235
107	0xbda62bd8	-0.08113831
108	0xbdd18d00	-0.10231972
109	0x3df05118	0.117342174
110	0xbe3edb90	-0.18638444
111	0xbd12b3d0	-0.035816014
112	0xbdf236ef	-0.11826884
113	0x3d0ed3f5	0.034870107
114	0x3d3bb774	0.04582925
115	0xbdec80c2	-0.11547996
116	0xbe086d6e	-0.13322994
117	0xbcfc3e13	-0.030791318
118	0xbd57484e	-0.05255919
119	0x3e336952	0.17520645
120	0x3da781f4	0.081790835
121	0x3e266d63	0.16252665
122	0xbd631e1f	-0.055448648
123	0x3e33e9d1	0.17569663
124	0xbe65b00a	-0.22430435
125	0xbe141163	-0.14459758
126	0x3e82de57	0.25560257
127	0xbe12ce96	-0.14336619
128	0xbe4650d4	-0.19366771
129	0xbe12bd96	-0.14330134
130	0x3d0c0708	0.034186393
131	0x3e21ec4e	0.158128
132	0x3e3f6208	0.1868974
133	0x3c5949e0	0.013262242
134	0xbe4ca1f6	-0.19983658
135	0x3e45ec36	0.19328389
136	0xbda29128	-0.079378426
137	0x3c9de0b0	0.019272178
138	0xbdd23968	-0.102648556
139	0xbe54e160	-0.20789099
140	0x3dca1984	0.09868148
141	0x3d865fa8	0.06561214
142	0xbce58e70	-0.028022021
143	0xbe6d0ef0	-0.2315023
144	0xbd8bc1ce	-0.06824075
145	0xbdae40e9	-0.085084744
146	0x3dc7abd6	0.09749572
147	0xbe2c107d	-0.16803165
148	0x3e8aaf84	0.27087033
149	0xbda4b5ba	-0.08042474
150	0x3d8f14df	0.06986403
151	0x3e8f9fbe	0.2805156
152	0xbc8dd3b8	-0.01731287
153	0x3dd52865	0.10408095
154	0x3ce8f905	0.028439054
155	0x3e2f48a7	0.17117558
156	0xbc0ace16	-0.008471986
157	0x3cf9ffec	0.03051754
158	0xbdb3be76	-0.08776562
159	0x3ca374c6	0.019953143
160	0x3dfc47bc	0.1231837
161	0x3e835f0a	0.25658447
162	0xbd4aeb48	-0.049540788
163	0x3defa651	0.11701644
164	0xbe11427e	-0.14185521
165	0xbda765da	-0.081737235
166	0xbdd08bac	-0.1018289
167	0x3ddbc7a5	0.107314385
168	0xbdc55a33	-0.09636345
169	0xbd10b60b	-0.03532986
170	0x3eab923a	0.3351
171	0xbe791872	-0.24325731
172	0xbdca10d6	-0.098664925
173	0x3e8ecb44	0.27889454
174	0x3ea0c94a	0.3140357
175	0x3dcb519e	0.099276766
176	0x3e407b7a	0.18797103
177	0xbdf40da0	-0.11916661
178	0xbd99cfd0	-0.0751034
179	0x3e54d13c	0.20782942
180	0x3dc40493	0.09571185
181	0x3ca1441d	0.0196858
182	0x3d11c90f	0.035592135
183	0xbe42c316	-0.19019732
184	0xbe1b797b	-0.1518306
185	0xbdd33531	-0.1031288
186	0x3d2fb4b3	0.042896938
187	0xbe4bcae6	-0.19901618
188	0x3d3be64c	0.045873925
189	0x3e253f0e	0.16137335
190	0xbde54b68	-0.11196023
191	0xbd87096f	-0.06593596
192	0xbdf93e8d	-0.12170134
193	0x3deb7ff9	0.11499018
194	0xbdbd7f5c	-0.092528075
195	0xbd133d01	-0.03594685
196	0x3e5e707d	0.21722598
197	0xbe0a8794	-0.13528281
198	0x3df7e1c0	0.12103605
199	0xbd7bd444	-0.06148173
200	0x3bdb68a4	0.0066958237
201	0xbdcebf17	-0.10095041
202	0xbe0ad04d	-0.13556023
203	0x3e53b232	0.20673445
204	0x3cda3550	0.02663675
205	0x3df127cc	0.11775169
206	0x3d30bdff	0.043149944
207	0x3d0a23f2	0.033725686
208	0x3e7734ea	0.24141279
209	0xbda7f488	-0.082009375
210	0xbe142eaa	-0.14470926
211	0x3e660ec3	0.22466569
212	0x3da963aa	0.082709625
213	0x3d8e6696	0.069531605
214	0x3e8be2a1	0.27321342
215	0x3e63bf10	0.22240853
216	0x3e9799af	0.2960944
217	0x3df0981d	0.11747763
218	0x3e962e3f	0.29332158
219	0xbd966d66	-0.07345085
220	0x3e6b3824	0.22970635
221	0xbe1c281f	-0.1524968
222	0x3e8e0085	0.2773477
223	0x3e613871	0.21994187
224	0xbe62bf5c	-0.2214331
225	0xbe0a8ec8	-0.13531029
226	0xbe5d455f	-0.21608494
227	0x3e6821a0	0.22669077
228	0xbe6f768f	-0.2338507
229	0x3dac99b8	0.08427757
230	0x3d8985fb	0.06715008
231	0x3dbb185d	0.09135506
232	0xbe090144	-0.13379389
233	0xbda533b7	-0.080665044
234	0x3db54cca	0.08852537
235	0x3e2935e4	0.16524464
236	0x3de2ab04	0.11067775
237	0x3e1b9187	0.15192233
238	0x3d563648	0.05229786
239	0xbc37de00	-0.0112223625
240	0xbcbf2954	-0.023335136
241	0x3e77e480	0.2420826
242	0xbe35ac0e	-0.17741415
243	0x3e6ed13b	0.23322003
244	0x3e7c8fca	0.24664226
245	0xbd0e7ef3	-0.034789037
246	0x3e40bfe5	0.18823202
247	0xbe3e1942	-0.18564323
248	0x3e0ccea4	0.13750702
249	0x3e77de9b	0.24206011
250	0x3e3f02b1	0.1865337
251	0x3e089505	0.13338096
252	0x3e15f213	0.14643125
253	0x3e303dbd	0.17211051
254	0xbe145e2e	-0.14489052
255	0xbdba9610	-0.091106534

linear2.bias f4 [32]
0	0xbe06cb6a	-0.13163534
1	0xbe2ecc0c	-0.17070025
2	0x3eacf7ae	0.33782715
3	0x3e8e38c1	0.27777675
4	0x3dcf9fef	0.10137927
5	0xbcb646f1	-0.022250624
6	0xbe40252c	-0.1876418
7	0xbd54e693	-0.051977705
8	0xbaf8ad00	-0.0018972456
9	0x3ea244a5	0.31692997
10	0x3d8ec60d	0.06971369
11	0xbe12463b	-0.14284603
12	0xbe1c7715	-0.15279801
13	0x3e8535a1	0.26017478
14	0xbe6826e8	-0.22671092
15	0x3e1a170b	0.15047853
16	0x3e8ab1f1	0.27088884
17	0x3e933961	0.28754714
18	0x3e221b99	0.1583084
19	0xbd868260	-0.06567836
20	0xbd8fd822	-0.07023646
21	0x3e5f5700	0.21810532
22	0x3eaaf22e	0.33387893
23	0xbd0b6b79	-0.03403804
24	0x3e61e8ab	0.22061412
25	0xbd225487	-0.039631393
26	0x3eac79a4	0.33686554
27	0x3b8e241d	0.004337801
28	0x3e09803f	0.13427828
29	0x3e833678	0.25627494
30	0xbe59bc7c	-0.21263307
31	0x3e9a7582	0.30167776

linear3.weight f4 [32, 32]
0	0xbe060b5e	-0.13090274
1	0xbe2211a6	-0.15827045
2	0x3cea885b	0.028629472
3	0x3e1f9f30	0.15588069
4	0x3e0f00b9	0.1396512
5	0x3e5d6461	0.21620323
6	0xbe066672	-0.13125017
7	0x3dd45c7d	0.10369203
8	0xbd44b38c	-0.04802279
9	0x3e71d473	0.23616199
10	0x3e66df1c	0.22546047
11	0xbdede104	-0.11615184
12	0x3d9a32ea	0.07529242
13	0x3de73eb6	0.11291258
14	0x3dd3f277	0.10348981
15	0x3e6ae193	0.22937612
16	0x3e13409c	0.14380115
17	0x3e29e044	0.16589457
18	0xbd37810e	-0.04480081
19	0xbc7cd357	-0.015431247
20	0xbaa914d5	-0.0012899885
21	0x3d6b62d7	0.057467308
22	0x3e4c149d	0.19929738
23	0xbd5b1ad3	-0.05349238
24	0x3e3b2e05	0.18279274
25	0x3e6d3ce1	0.23167755
26	0x3e2b7765	0.16744764
27	0x3d26e8a1	0.040749196
28	0x3dd98db4	0.10622731
29	0x3e730962	0.23734048
30	0x3de364b0	0.11103189
31	0x3d80e54a	0.062937334
32	0xbe0ac8c7	-0.13553153
33	0xbe057ac2	-0.1303511
34	0x3e55582f	0.2083442
35	0xbd823baa	-0.06359036
36	0xbd9507ac	-0.07276854
37	0xbdb3a8ad	-0.08772407
38	0xbe2c7765	-0.1684242
39	0x3ccb753a	0.024836171
40	0xbe056daf	-0.13030122
41	0xbd2bea77	-0.04197165
42	0x3e32380b	0.17404191
43	0xbd9997e1	-0.07499672
44	0x3ce364f9	0.027758108
45	0x3e1a9ded	0.15099306
46	0xbe1ab39e	-0.15107581
47	0x3e892672	0.26787144
48	0xbc60f754	-0.013730843
49	0x3dfc2c21	0.123131044
50	0xbd956294	-0.07294193
51	0x3d9d27e9	0.07673628
52	0x3e42fcc3	0.19041733
53	0x3e065edc	0.13122123
54	0x3e1c7975	0.15280707
55	0x3e33e144	0.17566401
56	0x3dadcd88	0.084864676
57	0xbdb63a26	-0.0889781
58	0xbc6dac0e	-0.014506353
59	0x3df8c375	0.121466555
60	0x3e76471a	0.2405056
61	0x3e0f3db5	0.13988383
62	0xbdbd3de8	-0.09240323
63	0xbd13299e	-0.03592836
64	0x3e17b877	0.14816462
65	0xbc3ca217	-0.011513255
66	0x3e5e51ad	0.21710844
67	0x3e5a6795	0.21328576
68	0xbd82cfe4	-0.06387308
69	0x3da84868	0.082169354
70	0x3e1396ac	0.14412946
71	0xbda23988	-0.079211295
72	0xbdb1ffb8	-0.086913526
73	0x3e6abcf3	0.22923641
74	0x3dfae4b4	0.12250653
75	0x3d4c7123	0.049912583
76	0xbe0f8904	-0.14017111
77	0x3e3796a9	0.17928566
78	0x3e3773e6	0.17915305
79	0xbbcbf14c	-0.006223833
80	0x3db1d3ef	0.08683001
81	0x3d086af7	0.033305135
82	0xbc9ab314	-0.01888422
83	0xbd9a8725	-0.07545308
84	0x3da6ef4b	0.0815111
85	0x3d41bfb0	0.047301948
86	0x3e26afeb	0.16278045
87	0x3e64b396	0.22334132
88	0x3e664c98	0.22490156
89	0xb9fa78fa	-0.0004777385
90	0x3e1f9f39	0.15588082
91	0x3d0d9d13	0.034573626
92	0x3e551029	0.20806946
93	0xbba9d8b8	-0.0051833056
94	0xbdfc789c	-0.12327692
95	0x3e810604	0.25199902
96	0xbd475e31	-0.048673812
97	0xbe2bcc9e	-0.16777274
98	0xbd808dc6	-0.06277041
99	0xbd90b31f	-0.07065415
100	0xbdfdb73a	-0.12388463
101	0xbd8e0f78	-0.06936544
102	0x3d898f74	0.06716815
103	0x3dcfddce	0.10149728
104	0xbc3fcee9	-0.011707046
105	0x3e32fcf7	0.17479311
106	0x3e24ebc5	0.16105564
107	0xbe1544bc	-0.14577001
108	0xbd9555ea	-0.072917774
109	0x3df1d297	0.11807745
110	0xbc73e34d	-0.014885736
111	0x3dfd990c	0.12382707
112	0x3d76ad07	0.060223605
113	0xbde48a27	-0.11159163
114	0x3d591337	0.05299684
115	0x3d9df72c	0.0771316
116	0x3c6af4e5	0.014340614
117	0x3d7a767d	0.061148155
118	0x3e1321e7	0.14368401
119	0xbad2949b	-0.0016066016
120	0x3d978098	0.07397574
121	0x3dbde2ef	0.092718
122	0xbdcfe628	-0.10151321
123	0xbe2770ee	-0.16351673
124	0xbd8a61ea	-0.06756957
125	0xbd958ef2	-0.07302655
126	0x3e0ba0a2	0.13635495
127	0xbd52f3cb	-0.05150203
128	0xbe338e06	-0.17534646
129	0x3a4a9a48	0.0007728678
130	0xbd159b2c	-0.036524937
131	0x3e1aeaa7	0.15128575
132	0x3d974367	0.07385903
133	0xbe08a5c0	-0.13344479
134	0xbc5c30df	-0.013439386
135	0xbd28e34c	-0.041232392
136	0xbd7d6073	-0.06185956
137	0xbcccae9d	-0.024985606
138	0xbe1acc60	-0.15117025
139	0xbdf190cf	-0.11795198
140	0x3d8b2e0f	0.06795894
141	0xbd9c74a2	-0.076394334
142	0xbdbdbe4d	-0.092648126
143	0x3d9c1870	0.076218486
144	0x3dbde33f	0.092718594
145	0x3daf0c35	0.0854725
146	0x3e21596e	0.15756771
147	0x3e0b6ab6	0.13614926
148	0x3e0d88e2	0.13821748
149	0xbc697b97	-0.0142506575
150	0xbcfd5a06	-0.030926716
151	0x3ce17557	0.027521772
152	0x3dd9f92f	0.10643231
153	0xba1db9e2	-0.00060167734
154	0x3d0b3d7c	0.033994183
155	0x3e0eb9a5	0.13938005
156	0xbe1db961	-0.15402748
157	0xbd0f1771	-0.034934465
158	0xbdfe3153	-0.124117516
159	0x3d786f32	0.06065292
160	0xbce67141	-0.028130176
161	0x3c663b78	0.014052264
162	0x3e0ea50d	0.1393015
163	0x3e0cdc7b	0.13755982
164	0xbd5695cd	-0.052388955
165	0x3e209f60	0.15685797
166	0xbc7d9b02	-0.015478851
167	0xbe2e76d2	-0.17037514
168	0xbe279d3d	-0.16368575
169	0xbe2cff25	-0.16894205
170	0xbe01168a	-0.12606254
171	0xbd4715a0	-0.048604608
172	0xbdc386e5	-0.095472135
173	0xb98807fe	-0.00025945896
174	0xbd66a107	-0.05630591
175	0xbe2fd343	-0.17170434
176	0xbe19662a	-0.14980379
177	0xbe01a562	-0.12660745
178	0xbdd958bf	-0.1061263
179	0xbce23176	-0.027611475
180	0xbd276f39	-0.040877555
181	0x3e130a8f	0.14359497
182	0xbc5d42a2	-0.013504656
183	0xbcaeb017	-0.0213242
184	0xbdefd791	-0.11711038
185	0xbdc824cd	-0.09772644
186	0x3d97a741	0.07404948
187	0xbe06e417	-0.13172947
188	0xbc7e0c84	-0.015505914
189	0x3defa7fc	0.11701962
190	0xbd7594ff	-0.059956547
191	0x3ddf7e10	0.109127164
192	0x3d9084b9	0.07056565
193	0x3d217cff	0.039425846
194	0xbd0c4bfb	-0.034252148
195	0xbcac0833	-0.021000003
196	0x3e60bf29	0.21947922
197	0x3e425ba4	0.1898027
198	0x3d0ae6f1	0.03391165
199	0x3dfc2cf2	0.1231326
200	0xbd2a216d	-0.041535784
201	0x3e00e891	0.12588717
202	0x3ddc679c	0.107619494
203	0xbd7c2310	-0.061556876
204	0xbcab9984	-0.020947225
205	0x3e43ab1a	0.19108239
206	0xbe1bb66c	-0.15206307
207	0x3e1372c9	0.14399256
208	0x3da9f47b	0.08298584
209	0x3d91939f	0.071082346
210	0x3b8d354c	0.004309332
211	0xbd9c85fc	-0.07642743
212	0x3c89054f	0.016726164
213	0x3e609eb1	0.21935536
214	0x3dabe5f5	0.0839347
215	0x3e67e840	0.2264719
216	0x3e37491d	0.17898984
217	0x3e5bf88b	0.2148153
218	0x3e13d835	0.14437945
219	0x3e254e43	0.16143136
220	0x3dcd711d	0.1003134
221	0x3c119d9f	0.008887677
222	0x3d95c3ac	0.07312712
223	0x3e594a51	0.21219756
224	0xbe0883f3	-0.13331585
225	0x3df87712	0.12132086
226	0xbd942174	-0.07232943
227	0x3e6fa2e5	0.23401983
228	0x3d7ee09e	0.06222593
229	0x3d99df5b	0.07513305
230	0xbcb9b981	-0.022671463
231	0x3c70950e	0.014683975
232	0xbe02224d	-0.12708397
233	0xbd063302	-0.03276349
234	0x3d55f7fb	0.052238446
235	0xbe1ec30b	-0.1550409
236	0x3c41690e	0.011804832
237	0x3d7983ee	0.060916834
238	0xbcdcbc8c	-0.026945375
239	0x3d786ca2	0.060650475
240	0x3bb557e7	0.0055341604
241	0xbca31edf	-0.019912181
242	0x3e48e91b	0.19620173
243	0x3e1dac03	0.15397649
244	0x3e3facc3	0.18718247
245	0x3d8150a4	0.06314209
246	0x3d99b369	0.07504923
247	0x3e6dc411	0.23219325
248	0xbd31bdbc	-0.043393835
249	0x3e5269ab	0.20548122
250	0xbd019787	-0.03163865
251	0xbc2e94dc	-0.010655608
252	0x3e0a51ac	0.13507718
253	0xbcfda125	-0.030960629
254	0xbd05f5cb	-0.03270511
255	0x3c81d41d	0.015848214

linear3.bias f4 [32]
0	0x3e6f32ac	0.23359174
1	0x3e0cf4d4	0.1376527
2	0x3d522e4c	0.051313683
3	0xbe0631ee	-0.13104984
4	0xbdca56f5	-0.09879867
5	0xbd4f1a06	-0.050561927
6	0x3dbb4d17	0.09145563
7	0x3e8b889b	0.2725266
8	0x3d9f892b	0.077898346
9	0xbe1098f1	-0.14120843
10	0x3e7b060a	0.24514022
11	0xbd9dcf7c	-0.0770559
12	0xbd9ee0f8	-0.07757753
13	0xbdfbb394	-0.12290111
14	0x3d6101a9	0.054933224
15	0x3e7df37a	0.2479991
16	0x3e22edd9	0.15911044
17	0x3dc740c7	0.09729152
18	0x3e75fa64	0.24021298
19	0xbd0067d0	-0.031349003
20	0x3cddb8d5	0.027065674
21	0x3cf24e2f	0.029578296
22	0x3e8b031e	0.27150816
23	0xbd7dd9b4	-0.061975196
24	0xbdec3751	-0.11533988
25	0xbe070dc8	-0.13188851
26	0x3c6fb362	0.014630171
27	0xbdafd5b6	-0.08585684
28	0x3d4a2351	0.049350087
29	0x3e6ded38	0.23235023
30	0x3e80065e	0.25004858
31	0x3e831bf9	0.2560728

linear4.weight f4 [32, 32]
0	0xbe105af4	-0.14097196
1	0x3de5da3e	0.11223267
2	0x3d6cee19	0.057844255
3	0xbe1cc497	-0.15309368
4	0xbe07381a	-0.13204995
5	0x3c4d9e00	0.012549877
6	0xbdbf98de	-0.09355329
7	0x3dee3db9	0.116328664
8	0x3d8816e2	0.066449896
9	0xbddd2c15	-0.107994236
10	0xbd061c23	-0.032741677
11	0xbe166698	-0.14687574
12	0xbcfb1861	-0.030651273
13	0x3dfde670	0.12397468
14	0xbe219a2e	-0.15781471
15	0x3dc2161c	0.09476873
16	0xbddc10e2	-0.10745408
17	0x3e0c3a3b	0.13694088
18	0xbe055669	-0.13021244
19	0xbcd63b8e	-0.026151445
20	0x3e1db8d3	0.15402536
21	0xbddddbe8	-0.108329594
22	0xbdfd9267	-0.1238144
23	0x3c06dd76	0.008231511
24	0x3dd7b926	0.10533361
25	0x3db64638	0.08900112
26	0x3b6f7bfb	0.0036542404
27	0xbd81c4a3	-0.063363336
28	0x3d14aa83	0.036295425
29	0xbd83b300	-0.06430626
30	0xbe2dd7b2	-0.16976812
31	0x3dadf06f	0.08493125
32	0xbd6f6b3e	-0.058451883
33	0xbdb9453e	-0.0904641
34	0xbe08e698	-0.13369215
35	0x3e00bce0	0.1257205
36	0xbcfb5c4f	-0.030683665
37	0xbd044c73	-0.03229947
38	0x3df96da4	0.121791154
39	0xbe05415c	-0.13013214
40	0xbe0e2555	-0.13881429
41	0x3de8799c	0.1135132
42	0xbe238481	-0.15968515
43	0x3dbf6d40	0.0934701
44	0x3d8817ef	0.0664519
45	0xbdd6fb3f	-0.1049714
46	0xbe158d01	-0.1460457
47	0x3df56881	0.11982823
48	0x3d23545f	0.039875384
49	0xbd272d4e	-0.04081469
50	0xbddbc953	-0.10731759
51	0x3e1155b6	0.14192852
52	0xbdafb2fc	-0.085790604
53	0x3d897413	0.067115925
54	0xbd2ad660	-0.04170835
55	0x39e922a4	0.00044467032
56	0x3e1f745a	0.15571728
57	0xbdf26597	-0.11835783
58	0xbe158753	-0.14602403
59	0xbe09d7a1	-0.13461162
60	0x3d478e69	0.048719797
61	0x3c7bb98f	0.015364065
62	0xbd986320	-0.074407816
63	0x3d859ae3	0.06523683
64	0x3dbec024	0.09313992
65	0x3ad284ac	0.0016061268
66	0x3db16f8e	0.086638555
67	0xbb08bfd0	-0.0020866282
68	0xbc8e20d9	-0.017349647
69	0xbe009bfb	-0.12559502
70	0xbe3452f6	-0.17609772
71	0xbca55f7a	-0.020187128
72	0xbe17d5a6	-0.14827594
73	0x3e1e2c3a	0.15446559
74	0xbd6b08af	-0.05738133
75	0x3dc31fe9	0.09527571
76	0x3c370a1c	0.011171844
77	0xbcea53ab	-0.02860435
78	0x3b1a3ea3	0.002353587
79	0x3c5fdc49	0.01366336
80	0x3d167a4f	0.036737736
81	0x3dbe6b69	0.092978306
82	0xbc5d67fb	-0.01351356
83	0x3caa581d	0.020793969
84	0xbcfd406a	-0.030914504
85	0x3ddfd752	0.10929741
86	0xbcc42418	-0.023942992
87	0xbc2c94ea	-0.010533551
88	0x3c97d6e6	0.018535089
89	0x3e17a19d	0.14807744
90	0xbdc0c721	-0.09412981
91	0xbd7b624c	-0.06137304
92	0xbcdc54dd	-0.026895935
93	0xbe116230	-0.14197612
94	0xbd7a0e5f	-0.06104886
95	0xbda701a3	-0.08154609
96	0xbc4d430c	-0.012528192
97	0x3d7d2da1	0.061811093
98	0xbdd0f492	-0.10202898
99	0x3b9eff03	0.004852177
100	0xbd577846	-0.052604936
101	0x3d9d90cc	0.076936334
102	0x3d21f95c	0.03954445
103	0x3c38e916	0.011286041
104	0x3de7c24a	0.113163546
105	0xbdbe49f5	-0.0929145
106	0xbe30a312	-0.17249706
107	0xbc3e8aca	-0.01162977
108	0x3db54f27	0.08852988
109	0xbe18e523	-0.14931159
110	0xbe124f5e	-0.14288089
111	0xbd90400b	-0.07043465
112	0xbdc5641d	-0.09638236
113	0xbe2a7cb2	-0.1664913
114	0x3d4c8317	0.049929705
115	0xbd6ee917	-0.05832776
116	0x3cfe5b90	0.03104952
117	0x3de6db8e	0.112723455
118	0xbc630ddb	-0.013858284
119	0x3d86e0c9	0.06585843
120	0xbdc56bc5	-0.09639696
121	0xbdd51a3a	-0.10405393
122	0xbd4cd118	-0.050004095
123	0xbe04a1a9	-0.12952293
124	0xbe319e53	-0.17345552
125	0xbe303c6e	-0.17210552
126	0xbdbf01b7	-0.09326499
127	0x3e0828e1	0.13296844
128	0x3d1fd023	0.039016854
129	0x3d77f448	0.0605357
130	0x3e32961c	0.17440075
131	0x3d371565	0.044698138
132	0xbdf2dd91	-0.11858667
133	0x3cf3cf1e	0.029761847
134	0x3e55f60e	0.20894644
135	0x3e1a3abf	0.15061472
136	0x3e39f3c6	0.18159398
137	0xbca2e51a	-0.019884635
138	0x3e304a77	0.17215906
139	0x3e0679b4	0.13132364
140	0x3d329838	0.0436022
141	0x3c7af09c	0.015316155
142	0xbc949d14	-0.018141307
143	0x3d7ba770	0.061438978
144	0x3d86254d	0.06550083
145	0x3e300f47	0.17193328
146	0x3e02a4e1	0.12758209
147	0xbcfbd960	-0.0307433
148	0xbc923ad1	-0.017850311
149	0x3e797775	0.24361975
150	0x3e35ade0	0.1774211
151	0x3e7facc9	0.24968256
152	0xbdbaacb8	-0.09114975
153	0xbe1c0958	-0.1523794
154	0x3daeb2bd	0.08530185
155	0x3e1b95df	0.1519389
156	0xbdd69aef	-0.1047877
157	0x3e2419fd	0.16025539
158	0x3d07c91f	0.03315079
159	0x3e427913	0.18991499
160	0xbd0d8aba	-0.034556128
161	0x3d41804f	0.047241505
162	0x3e645a77	0.22300135
163	0xbdcac9e4	-0.09901789
164	0x3d072af0	0.032999933
165	0x3de73561	0.11289478
166	0xbd849aa6	-0.06474809
167	0x3e366b5c	0.17814392
168	0x3d8ce4db	0.06879588
169	0x3e1c1f18	0.15246236
170	0x3c9bffe2	0.019042913
171	0x3d489dbd	0.048978556
172	0x3dd2cdd6	0.10293166
173	0x3d353317	0.044238176
174	0xbe106bab	-0.14103572
175	0xbd29fd47	-0.04150131
176	0x3e1d13c4	0.15339571
177	0x3e08c375	0.13355811
178	0x3de91b29	0.113821335
179	0xbd02a10c	-0.031891868
180	0x3e3fc32a	0.18726793
181	0x3e29a03a	0.16565028
182	0x3e18e364	0.14930493
183	0x3dde0efc	0.10842702
184	0x3df5f181	0.12008954
185	0x3dc4e6c5	0.09614328
186	0xbc3a991b	-0.011389042
187	0x3dbfc05b	0.09362861
188	0x3e6eab98	0.23307645
189	0x3e314c58	0.17314279
190	0x3da6e22b	0.08148607
191	0x3e2dd512	0.16975811
192	0x3ce5d5ce	0.028056052
193	0x3cb0faac	0.021603905
194	0x3dca5842	0.09880115
195	0xbdae8543	-0.085215114
196	0xbdd34a69	-0.10316927
197	0xbd5873a3	-0.052844655
198	0xbdfea7e4	-0.12434366
199	0x3e46e903	0.19424824
200	0x3d8f16ad	0.06986747
201	0xbc96e0a0	-0.018417656
202	0xbc620f20	-0.013797551
203	0x3d9eb077	0.07748502
204	0x3e2595be	0.16170403
205	0xbd9c8377	-0.076422624
206	0xbd014624	-0.031561032
207	0x3c5884bb	0.013215239
208	0x3e422661	0.18959953
209	0xbd53f0c9	-0.051743302
210	0x3e3de64c	0.18544883
211	0x3d6af3b9	0.05736134
212	0xbd311b8f	-0.043239173
213	0xbc538576	-0.012910238
214	0xbdc60c11	-0.0967027
215	0x3d8b39b6	0.06798117
216	0x3c99ad7b	0.01875948
217	0xbda75731	-0.08170927
218	0xbd5a5857	-0.053306904
219	0x3e2acb31	0.16679074
220	0xbd754a58	-0.059885353
221	0x3e4fbd8b	0.20287149
222	0xbdb38ef3	-0.087675
223	0x3dbee66b	0.093212925
224	0xbe00b7e8	-0.12570155
225	0xbd3fa71d	-0.04679023
226	0x3cd9492c	0.026524149
227	0x3e106855	0.141023
228	0xbdbe5887	-0.09294229
229	0x3ddd4612	0.108043805
230	0xbdb6fec6	-0.08935313
231	0x3bc7caa0	0.006097153
232	0x3d755d0c	0.05990319
233	0xbd88b4ab	-0.06675085
234	0xbd9a46b5	-0.075330175
235	0x3e1770c8	0.14789116
236	0xbbc3c26d	-0.005974105
237	0xbe2c3c8f	-0.16819976
238	0xbd2b422b	-0.04181115
239	0x3dec4d37	0.11538165
240	0xbde7ae37	-0.11312526
241	0x3e248cff	0.1606941
242	0x3d11a7f9	0.03556058
243	0xbe10a7f0	-0.14126563
244	0xbe07b281	-0.13251688
245	0x3d92382d	0.07139621
246	0x3c718bf5	0.014742841
247	0xbe292e4e	-0.1652157
248	0x3df93151	0.121676095
249	0xbc4572e9	-0.0120513225
250	0x3c313305	0.010815387
251	0xbe0a9de8	-0.13536799
252	0xbd9a4135	-0.075319685
253	0xbd534dcd	-0.05158787
254	0xbbb3b0d5	-0.0054837265
255	0xbcbf18f6	-0.023327332

linear4.bias f4 [32]
0	0x3d929ddf	0.07159018
1	0xbe322386	-0.17396364
2	0x3d3e45ea	0.046453394
3	0xbdd20c96	-0.10256307
4	0x3e8c3d98	0.27390742
5	0x3e2d555f	0.16927098
6	0x3e070c8d	0.13188381
7	0x3c0d6992	0.008631127
8	0x3e3f7d14	0.18700057
9	0x3b468fc1	0.0030298086
10	0xbe2c335e	-0.1681647
11	0x3e666ce2	0.22502473
12	0x3dc00cf0	0.09377468
13	0xbcb74dba	-0.02237593
14	0xbdba5b91	-0.09099496
15	0x3d9a52de	0.07535337
16	0xbd343b7d	-0.044002045
17	0xbe31ff64	-0.1738258
18	0xbdf3900e	-0.118927106
19	0x3dc88a84	0.09792045
20	0x3e5c490a	0.21512237
21	0xbd147ec1	-0.036253694
22	0x3dc2cebf	0.0951209
23	0xbcb183fd	-0.021669382
24	0x3de8add0	0.11361277
25	0xbdc4a8bf	-0.09602498
26	0xbe193ef2	-0.14965418
27	0x3e243fb8	0.16039932
28	0x3e5b3993	0.21408682
29	0x3e28014a	0.16406742
30	0xbd7bb39d	-0.06145059
31	0x3e3a70c7	0.18207084

linear5.weight f4 [16, 32]
0	0x3d81bf7e	0.06335352
1	0xbde77e03	-0.11303332
2	0xbdf5ad94	-0.11995998
3	0x3dac0c74	0.08400813
4	0xbd8c6156	-0.06854503
5	0x3c4e02fb	0.012573953
6	0x3dd2bf90	0.10290444
7	0xbdfcd7b4	-0.123458296
8	0x3de77a13	0.11302581
9	0xbd1cdc14	-0.03829582
10	0x3e1683d0	0.1469872
11	0x3e6d3fc2	0.23168853
12	0x3e61ef16	0.2206386
13	0x3c822827	0.015888287
14	0xbdec3792	-0.11534037
15	0x3d0be851	0.0341571
16	0xbe127911	-0.14303996
17	0x3e34e2f0	0.17664695
18	0xbd194d35	-0.037427146
19	0x3c247d07	0.0100395745
20	0x3e131611	0.14363886
21	0xbdb391c6	-0.087680385
22	0xbd5cd438	-0.053913325
23	0x3e05034c	0.12989539
24	0x3df317c7	0.118697695
25	0x3ae23261	0.0017257446
26	0x3d5981f1	0.053102437
27	0x3e5c0987	0.2148801
28	0x3cea6416	0.028612178
29	0x3e62058e	0.22072431
30	0xbe0c5cfa	-0.13707343
31	0x3cddd3e8	0.027078584
32	0xbd08f742	-0.03343893
33	0xbe0d79ec	-0.13816041
34	0x3deb5377	0.11490529
35	0x3e0d0381	0.13770868
36	0xbc55d495	-0.013051172
37	0xbde7925d	-0.113072135
38	0xbe2bc46f	-0.16774152
39	0x3cbeb8c0	0.023281455
40	0x3e0ec5c5	0.1394263
41	0xbdafbd67	-0.085810475
42	0xbe3441d9	-0.17603244
43	0xbd8ca518	-0.06867427
44	0xbe060e21	-0.13091327
45	0x3d8683bf	0.06568097
46	0x3e0fb53b	0.14033978
47	0xbd924893	-0.07142749
48	0xbd8ef64d	-0.06980572
49	0xbe265c2a	-0.16246095
50	0x3e0a2b5d	0.13493104
51	0xbd4c7290	-0.049913943
52	0xbe09d4d5	-0.13460095
53	0x3e17d096	0.14825663
54	0x3e24ca07	0.16092692
55	0xbe06500a	-0.1311647
56	0xbe28efaf	-0.16497682
57	0xbe32d80c	-0.17465228
58	0xbe1ece03	-0.15508275
59	0x3db9fd22	0.090814844
60	0xbe096a5e	-0.13419482
61	0xbdbebc41	-0.0931325
62	0x3e1179fb	0.14206688
63	0xbdb8c52b	-0.09021982
64	0xbde7c034	-0.11315957
65	0xbdb98504	-0.09058574
66	0xbcc5da2a	-0.02415188
67	0xbdf36d5d	-0.11886094
68	0xbd8f353e	-0.06992577
69	0x3dd3322d	0.10312305
70	0x3e08214c	0.13293952
71	0xbda7d117	-0.081941776
72	0x3e11d48e	0.1424124
73	0xbdea33e6	-0.1143568
74	0x3d93d1a9	0.07217724
75	0x3e6d611c	0.23181576
76	0x3d4d914c	0.050187394
77	0x3d582b86	0.052775882
78	0x3d80dac9	0.0629173
79	0x3e309623	0.17244773
80	0xbe2d35f5	-0.16915114
81	0x3d3da98d	0.046304274
82	0xbd296ff4	-0.041366532
83	0x3d743fb7	0.059631076
84	0x3cd5640e	0.026048686
85	0xbd2557f2	-0.040367074
86	0xbda89660	-0.08231807
87	0x3d97fa7f	0.07420825
88	0x3e556690	0.20839906
89	0x3b903585	0.0044009113
90	0xbd8ceefc	-0.0688152
91	0xbd8c83fe	-0.06861113
92	0x3d2a8d18	0.041638464
93	0x3e416444	0.18885905
94	0x3de57a44	0.11204961
95	0xbda06996	-0.07832639
96	0xbd3853c6	-0.045001768
97	0xbe207849	-0.15670885
98	0x3dd0c656	0.101940796
99	0xbe19f63b	-0.15035336
100	0x3ce4d536	0.027933698
101	0xbcdcb8be	-0.02694356
102	0x3e1780da	0.14795247
103	0xbdca5da0	-0.09881139
104	0xbbb811e4	-0.005617367
105	0xbdeb975b	-0.11503478
106	0xbde124af	-0.10993325
107	0x3e81bd71	0.25339845
108	0x3e3c3e06	0.18383035
109	0xbc85adab	-0.016318163
110	0x3c570b9f	0.013125329
111	0xbbd6c23c	-0.0065539163
112	0xbc38ebea	-0.011286715
113	0x3dde5d22	0.108576074
114	0xbd984420	-0.07434869
115	0x3d681394	0.056659296
116	0x3e80ed0d	0.25180855
117	0xbdf62799	-0.120192714
118	0x3e04b575	0.12959845
119	0x3e750b9b	0.23930208
120	0x3d9559de	0.072925314
121	0x3e180db2	0.14848974
122	0x3dfd16cd	0.123578645
123	0x3e7a99a0	0.24472666
124	0x3e737ee3	0.23778872
125	0xbd181923	-0.037133347
126	0xbe1d6864	-0.15371853
127	0xbd5b43cc	-0.053531453
128	0xbc7c7947	-0.015409774
129	0xbd9cabb7	-0.076499395
130	0xbd908f09	-0.07058532
131	0x3d91836c	0.07105145
132	0x3e70a56d	0.23500605
133	0x3e719de1	0.23595382
134	0xbda81633	-0.08207359
135	0xbe0dfb18	-0.13865316
136	0xbd5ba524	-0.053624287
137	0xbcee642c	-0.0291005
138	0x3e15e0e0	0.14636564
139	0x3e170a73	0.1475008
140	0x3e3e7f5f	0.18603276
141	0xbe08520e	-0.13312551
142	0xbe153c82	-0.14573863
143	0x3e61f7f5	0.22067244
144	0x3e1b60fe	0.15173718
145	0x3d932a2f	0.0718578
146	0xbdf6dc29	-0.12053711
147	0x3e80cdc9	0.25157002
148	0x3e6586fd	0.22414775
149	0xbd97f88a	-0.07420452
150	0x3df8a858	0.12141484
151	0x3e029b10	0.12754464
152	0x3e403f99	0.1877426
153	0x3c79b492	0.015240805
154	0xbd828c35	-0.063743986
155	0x3cffd5cb	0.031229874
156	0x3e3db3b0	0.18525577
157	0x3e83c81c	0.2573861
158	0xbdc76826	-0.097366616
159	0x3e261fdd	0.16223092
160	0x3bbb191d	0.005709781
161	0xbe17230a	-0.1475946
162	0x3c272401	0.010201455
163	0xbd819c11	-0.063285954
164	0x3d299be6	0.041408442
165	0xbc097e8c	-0.0083919875
166	0x3e26e932	0.16299894
167	0xbe25430a	-0.16138855
168	0xbc584f6c	-0.013202529
169	0x3b00723c	0.001959934
170	0xbdd9e8b1	-0.106400855
171	0x3e291df6	0.16515335
172	0xbddc1c49	-0.107475825
173	0xbdfbdaae	-0.12297569
174	0x3cfb2510	0.030657321
175	0x3df427fa	0.119216874
176	0xbdb95058	-0.090485275
177	0xbd241cc5	-0.0400665
178	0x3cc6405a	0.024200607
179	0x3dfeadfa	0.12435527
180	0xbc828f36	-0.015937429
181	0xbc97facb	-0.018552205
182	0x3ca6b1d1	0.020348461
183	0xbd895126	-0.06704931
184	0xbd96db74	-0.07366076
185	0xbde8bb47	-0.11363845
186	0xbcc9ae8d	-0.024619365
187	0xbda4608f	-0.080262296
188	0x3dee413d	0.11633537
189	0x3dddcd2d	0.1083015
190	0x3caf7355	0.0214173
191	0x3d1be135	0.03805657
192	0xbe012b72	-0.1261423
193	0xbda5af78	-0.08090109
194	0x3d920360	0.0712955
195	0xbcd4062e	-0.025881853
196	0x3e83f406	0.25772113
197	0xbc8d6780	-0.017261267
198	0xbd53e576	-0.051732503
199	0x3d22f8b1	0.03978795
200	0x3d4b0d2e	0.049573116
201	0xbd6f6e74	-0.058454946
202	0xbdd07b34	-0.10179749
203	0x3e8b61ad	0.27222958
204	0xbce47364	-0.027887054
205	0xbe2c8055	-0.1684583
206	0x3e02b3c9	0.12763895
207	0x3e8bc49f	0.27298447
208	0xbdf68599	-0.120372005
209	0x3e1e86be	0.15481088
210	0x3dfb0c4c	0.12258205
211	0xbd489f0a	-0.048979796
212	0x3e0dac3f	0.13835238
213	0x3d9a77a3	0.0754235
214	0x3e4fbcc1	0.20286848
215	0x3dd01896	0.101609394
216	0x3cab91c9	0.02094354
217	0x3d6d3e70	0.057920873
218	0x3e0309cc	0.12796706
219	0x3e54610c	0.20740145
220	0x3e135a05	0.14389808
221	0xbc3ddefa	-0.011588806
222	0x3de727e9	0.11286909
223	0x3e6e17fa	0.23251334
224	0x3dc44833	0.095840834
225	0x3b17045b	0.0023043368
226	0x3c5b401a	0.013381982
227	0xbdf9aeaa	-0.12191518
228	0xbdc203d5	-0.09473387
229	0xbd8c4bff	-0.068504326
230	0xbdfde0ae	-0.1239637
231	0xbb15bcf7	-0.0022848228
232	0xbe249932	-0.16074064
233	0xbc2b6e3a	-0.010463292
234	0x3d1f19c5	0.038842935
235	0x3e22575e	0.1585364
236	0x3cb3cca1	0.02194816
237	0xbaff5c05	-0.001948238
238	0x3e2f48d3	0.17117624
239	0x3cae203b	0.021255603
240	0x3ba463fd	0.0050168023
241	0x3da13978	0.078722894
242	0xbe246db9	-0.16057481
243	0x3d956d6d	0.07296262
244	0xbe000d69	-0.12505116
245	0xbe27fc9f	-0.16404961
246	0xbdf9fd43	-0.12206509
247	0xbdeaa411	-0.114570744
248	0x3d0be076	0.03414961
249	0x3c77014a	0.015075991
250	0x3d8e84e3	0.0695894
251	0xbdbe91a1	-0.0930512
252	0x3d5d9a3a	0.05410216
253	0xbe0961ca	-0.1341621
254	0xbd57a554	-0.052647904
255	0xbd989601	-0.07450486

linear5.bias f4 [16]
0	0x3df2204a	0.11822565
1	0xbdf71c45	-0.12065939
2	0x3e2d10ca	0.16900936
3	0x3e2d5664	0.16927487
4	0x3e8a339b	0.26992497
5	0xbdf8a23b	-0.12140318
6	0x3e5bd6f5	0.21468718
7	0x3cd38bf0	0.025823563
8	0x3e6d4e03	0.2317429
9	0xbe2e1adc	-0.17002434
10	0xbdbeeae6	-0.09322147
11	0x3be2ced4	0.0069216285
12	0x3d1e94e4	0.038716212
13	0x3dafd73d	0.08585975
14	0x3e68dfa8	0.22741568
15	0xbd78e580	-0.060765743

output_layer.weight f4 [2, 16]
0	0x3e9fa3a3	0.31179532
1	0x3e41ed90	0.18938279
2	0xbda53fda	-0.08068819
3	0x3e2bc8ef	0.16775869
4	0x3e9b68d2	0.3035341
5	0x3e92e72a	0.2869199
6	0x3d8c9a92	0.068654194
7	0x3dfad21c	0.122471064
8	0x3e4c3713	0.19942884
9	0x3dc08386	0.09400086
10	0x3e0f62aa	0.14002481
11	0xbd73bbc8	-0.059505254
12	0x3e03f218	0.1288532
13	0x3e576847	0.21035872
14	0xbd03bc13	-0.032161783
15	0xbd95c720	-0.07313371
16	0x3e3bbd9d	0.1833405
17	0xbe4c5520	-0.19954348
18	0x3e98e7ec	0.29864442
19	0x3e15ce23	0.14629416
20	0x3e47c507	0.19508754
21	0xbdc90e7e	-0.09817217
22	0x3e480167	0.19531785
23	0x3da23298	0.07919806
24	0x3e88445a	0.26614648
25	0xbd9982ba	-0.07495637
26	0x3d7d91c8	0.061906606
27	0xbd507161	-0.050889377
28	0x3d84a0f9	0.064760156
29	0x3d94f34a	0.07272966
30	0x3e2216eb	0.15829055
31	0xbdc28e68	-0.09499818

output_layer.bias f4 [2]
0	0x3e81f855	0.25384775
1	0x3b97dea4	0.004634695
