results/models/batchsize=96,lr=1e-4,layer=6,eps=0.9,num_episodes_train=5000/2/model-132.0.pt (torch, 17522 bytes, 12 tensors)

linear1.weight f4 [16, 4]
0	0x3dfd949f	0.12381863
1	0xbdb90f5c	-0.09036133
2	0xbe50dcad	-0.20396681
3	0x3c3eccba	0.01164549
4	0xbd096744	-0.033545747
5	0xbe52268e	-0.2052252
6	0x3e1d7347	0.15376006
7	0x3e65a6f7	0.22426973
8	0xbe865365	-0.262355
9	0xbda73552	-0.08164467
10	0x3edf3428	0.4359448
11	0xbe787d67	-0.24266587
12	0x3c131090	0.008976117
13	0x3ee26c88	0.44223428
14	0xbef8c18d	-0.48585168
15	0xbeb8a54c	-0.36063612
16	0x3d49b2a7	0.04924264
17	0xbef0669e	-0.4695329
18	0x3e096325	0.13416727
19	0xbeb3e2dc	-0.35134017
20	0xbe4257c3	-0.18978791
21	0x3e84b500	0.25919342
22	0x3e952d52	0.2913614
23	0x3e31311f	0.17303894
24	0xbe3d6706	-0.18496332
25	0x3ba43729	0.0050114584
26	0x3efc51d4	0.4928118
27	0xbea4fee1	-0.32225707
28	0xbd3ea7f7	-0.046546903
29	0x3e331f2b	0.17492358
30	0xbef563a3	-0.4792758
31	0xbf27d186	-0.6555408
32	0xbd0c36aa	-0.03423182
33	0x3ea321e3	0.3186179
34	0x3dc5f240	0.09665346
35	0xbea15350	-0.31508875
36	0x3e6303e5	0.22169454
37	0x3e44e777	0.19228922
38	0x3ee420b2	0.44556195
39	0xbcb343d4	-0.021882929
40	0x3e29a5f1	0.16567208
41	0xbe8aa15d	-0.27076235
42	0x3e3ad9c5	0.18247135
43	0xbe83a8e8	-0.25714803
44	0xbe8dc5c8	-0.27689958
45	0x3f1c9305	0.61161834
46	0x3f1d6d0b	0.6149451
47	0xbcfb2af4	-0.03066013
48	0xbe3f0e55	-0.18657811
49	0xbb8b0bec	-0.0042433646
50	0x3ea01fc4	0.31274235
51	0x3f2da849	0.6783491
52	0x3ea7c8b3	0.3277031
53	0xbeee0358	-0.46486926
54	0xbe50aacc	-0.20377654
55	0xbe980590	-0.29691744
56	0x3f214b4c	0.6300552
57	0x3d26bdc2	0.04070831
58	0xbef81bba	-0.48458654
59	0x3e744ffd	0.23858638
60	0x3c221a28	0.009893931
61	0xbee1408f	-0.43994567
62	0xbe0aaf67	-0.13543473
63	0xbe1a2b57	-0.15055595

linear1.bias f4 [16]
0	0x3e85d293	0.26137218
1	0xbdcf0805	-0.101089515
2	0xbedba6fb	-0.42900833
3	0x3de07db3	0.10961475
4	0x3e3789bd	0.17923637
5	0x3e80032d	0.25002423
6	0x3f049115	0.5178388
7	0xbe98880e	-0.297913
8	0x3f3469a8	0.7047372
9	0x3ebbf13d	0.36707488
10	0x3f09fda8	0.53902674
11	0xbe81cb4b	-0.25350413
12	0xbb7dd3eb	-0.003873105
13	0x3ea13b43	0.31490526
14	0x3eba485e	0.36383337
15	0x3ed12272	0.40846592

linear2.weight f4 [32, 16]
0	0xbe3596be	-0.17733285
1	0xbd869d08	-0.0657292
2	0xbd9378d8	-0.072007835
3	0xbe59b300	-0.2125969
4	0xbe6d5d54	-0.23180133
5	0xbe5e9214	-0.21735412
6	0x3e31d820	0.17367601
7	0xbdd00d00	-0.101587296
8	0x3d315c40	0.043300867
9	0xbe3defe2	-0.1854854
10	0x3c4a8c60	0.01236257
11	0x3d7332b8	0.05937454
12	0x3df80380	0.121100426
13	0x3e446b32	0.19181517
14	0x3d872d54	0.066004425
15	0xbd4ea188	-0.050447017
16	0xbd3212e0	-0.04347503
17	0x3dd5a72c	0.10432276
18	0x3bd05bc0	0.0063585937
19	0xbe1df8a0	-0.15426874
20	0xbde7156c	-0.11283383
21	0xbd6018b8	-0.054711074
22	0x3e0cfcd0	0.13768315
23	0x3e4becbc	0.19914526
24	0xbd8fabac	-0.07015166
25	0xbe791a28	-0.24326384
26	0xbe1b30fa	-0.15155402
27	0xbe59761a	-0.21236458
28	0xbd364bc8	-0.044505864
29	0xbdd940ac	-0.10608038
30	0x3d4ee088	0.0505071
31	0xbdff6824	-0.12471035
32	0x3cc78edf	0.024360118
33	0xbe6a8d47	-0.22905456
34	0x3e289574	0.16463262
35	0xbdd0292d	-0.10164104
36	0xbda73196	-0.08163755
37	0x3e105eaa	0.14098611
38	0x3df4f56e	0.119608745
39	0xbe9448b0	-0.28961706
40	0xbd893733	-0.066999815
41	0xbc41b663	-0.01182327
42	0xbd42fee0	-0.04760635
43	0x3e7cc8d9	0.24685992
44	0xbeca0dd8	-0.39463687
45	0x3df8e888	0.12153727
46	0x3dad4949	0.08461244
47	0x3e85e1af	0.26148745
48	0x3ded553f	0.11588525
49	0x3d6bb8bc	0.057549223
50	0x3e5332a6	0.2062479
51	0xbe867798	-0.26263118
52	0x3e3a6ca6	0.18205509
53	0x3e30a9a2	0.1725221
54	0x3daee69f	0.08540081
55	0xbd9be844	-0.076126605
56	0x3e630c14	0.22172576
57	0x3ea05c3f	0.31320378
58	0x3e8ffa4c	0.2812065
59	0x3ec8df72	0.39232975
60	0xbe9d3448	-0.3070395
61	0x3e94c282	0.29054648
62	0xbe0db4cc	-0.138385
63	0xbcd5e3a9	-0.026109533
64	0xbd5248cf	-0.051338967
65	0xbe0a9ad5	-0.13535626
66	0x3dac02a3	0.083989404
67	0xbe01ba13	-0.12668638
68	0x3e86cfa5	0.26330295
69	0x3d132ca7	0.035931256
70	0x3de8ea72	0.11372842
71	0xbd1c9323	-0.038226258
72	0xbe3ff89d	-0.18747182
73	0x3e0fc2e6	0.14039192
74	0x3c885161	0.016640367
75	0xbcdc948c	-0.026926301
76	0xbe3635bc	-0.17793936
77	0x3e6b37ff	0.2297058
78	0xbe27953e	-0.16365525
79	0x3e7f29cf	0.24918292
80	0x3e85d397	0.26137993
81	0xbd630810	-0.05542761
82	0x3dafabdc	0.085777014
83	0xbe56c440	-0.20973301
84	0x3eb29e74	0.34886515
85	0x3e0fa390	0.14027238
86	0x3e701ed2	0.23449257
87	0xbea990c3	-0.33118257
88	0x3c3dba69	0.011580088
89	0x3cc94bde	0.02457231
90	0xbd5c1d5b	-0.053738933
91	0x3de631ec	0.112399906
92	0xbd739c1e	-0.059475057
93	0x3ea1b358	0.3158214
94	0x3d59370b	0.05303101
95	0x3e1c1769	0.15243305
96	0xbd9efa44	-0.07762578
97	0xbe3c6c2c	-0.1840064
98	0x3e0f7128	0.1400801
99	0xbe74b016	-0.23895296
100	0x3de147f0	0.11000049
101	0x3cc20810	0.023685485
102	0xbdfb393c	-0.12266776
103	0xbd883ddc	-0.06652424
104	0x3d691cd8	0.056912273
105	0x3e289d02	0.16466144
106	0xbe1780d2	-0.14795235
107	0xbda62bd8	-0.08113831
108	0xbdd18d00	-0.10231972
109	0x3df05118	0.117342174
110	0xbe3edb90	-0.18638444
111	0xbd12b3d0	-0.035816014
112	0xbbd4255d	-0.0064741806
113	0x3d4af342	0.049548395
114	0x3d394268	0.045229346
115	0xbd94d8d9	-0.07267923
116	0xbdda6571	-0.1066388
117	0x3e02faa4	0.12790924
118	0xbd8e0c3d	-0.06935928
119	0x3e506425	0.20350702
120	0x3db05058	0.08609074
121	0x3dd6aede	0.10482572
122	0xbdfe42cf	-0.124150865
123	0x3e8c3b6d	0.27389088
124	0xbde87a33	-0.11351433
125	0xbe56521f	-0.20929764
126	0x3ecc962d	0.39958325
127	0xbe080dbd	-0.1328649
128	0xbe0c8f6e	-0.13726589
129	0xbe6e1556	-0.23250327
130	0x3d0c0708	0.034186393
131	0x3e8748d8	0.26422763
132	0x3ea02609	0.3127902
133	0xbdc6bc3a	-0.0970387
134	0xbdf4cf1b	-0.11953565
135	0x3eb13d7b	0.34617218
136	0x3be2d4be	0.0069223335
137	0x3d8daa8f	0.06917297
138	0xbc43bec5	-0.0119473385
139	0xbe8bdf80	-0.27318954
140	0xbaee8add	-0.0018199343
141	0x3e401df2	0.18761423
142	0x3b88eaba	0.004178372
143	0xbe1e6a11	-0.15470149
144	0xbd8f71d8	-0.07004136
145	0xbe688987	-0.22708713
146	0x3dc67144	0.096895725
147	0xbeb0c0c8	-0.3452208
148	0x3e91c00e	0.2846684
149	0xbd95f6ca	-0.07322462
150	0x3d846e85	0.064663924
151	0xbc6a07b2	-0.014284061
152	0xbd7567ac	-0.059913322
153	0x3deadddb	0.11468097
154	0x3d2818b3	0.04103918
155	0x3e9dd48f	0.30826232
156	0xbe5e7d60	-0.21727514
157	0x3d84f38a	0.06491764
158	0xbda70bd4	-0.08156553
159	0x3d3b67cd	0.04575329
160	0x3dafaf04	0.085783035
161	0x3d62d840	0.055382013
162	0xbd4aeb48	-0.049540788
163	0xbd129346	-0.035784982
164	0xbe0bef51	-0.1366551
165	0xbdd88cf6	-0.10573761
166	0xbdd3d28b	-0.10342892
167	0xbe1dfde7	-0.15428887
168	0xbe05154a	-0.12996402
169	0xbc9e59c7	-0.019329919
170	0x3eaa57b2	0.3327003
171	0xbd666a89	-0.056253944
172	0xbeb7872b	-0.35845312
173	0x3e961037	0.29309246
174	0x3e8f4738	0.27984023
175	0x3dadd3be	0.08487652
176	0x3e36a6d7	0.17837082
177	0xbe03db60	-0.12876654
178	0xbd99cfd0	-0.0751034
179	0x3e54d13c	0.20782942
180	0x3db05b59	0.08611173
181	0x3c254306	0.01008678
182	0x3cd4edc2	0.025992278
183	0xbe42c316	-0.19019732
184	0xbe211b37	-0.15733038
185	0xbde6de1c	-0.11272833
186	0x3d08629e	0.033297174
187	0xbe4bcae6	-0.19901618
188	0x3d2d5e2c	0.042326137
189	0x3e1b6a6c	0.15177315
190	0xbdf8f49e	-0.12156032
191	0xbd9ab2ad	-0.07553611
192	0xbe03e484	-0.1288014
193	0x3dd9e34f	0.10639059
194	0xbdbd7f5c	-0.092528075
195	0xbd0f2477	-0.034946885
196	0x3e572b3f	0.21012591
197	0xbe12843c	-0.14308256
198	0x3de74afa	0.112935975
199	0xbd7a99ba	-0.06118176
200	0xba0419df	-0.00050392555
201	0xbddad572	-0.10685243
202	0xbe12158a	-0.14266029
203	0x3e53b232	0.20673445
204	0x3cb5580b	0.022136709
205	0x3de29d50	0.11065161
206	0x3d113479	0.035450432
207	0x3cda1e5d	0.026625806
208	0x3e3b3309	0.18281187
209	0xbec4b526	-0.38419455
210	0xbe14cbf4	-0.14530927
211	0x3dedb2dd	0.11606381
212	0x3e568a48	0.20951188
213	0xbdaaf240	-0.08346987
214	0x3e9d304b	0.30700907
215	0x3ca72978	0.020405516
216	0x3ea6db1e	0.32589048
217	0x3dc52cf8	0.09627718
218	0x3e9c52e8	0.30532002
219	0xbd38fa0c	-0.04516034
220	0xbe028efb	-0.12749855
221	0xbd4917ef	-0.04909509
222	0x3e4c56d1	0.19954993
223	0x3e4ec9c8	0.20194161
224	0xbe6a75b2	-0.2289646
225	0xbe0a8ec8	-0.13531029
226	0xbe5de2a1	-0.21668483
227	0x3e5a33f3	0.2130888
228	0xbe802f93	-0.25036296
229	0x3db3bc03	0.08776095
230	0x3d58dea4	0.0529467
231	0x3d9e6ad6	0.07735221
232	0xbe172335	-0.14759524
233	0xbdbf6c86	-0.09346871
234	0x3d96fb75	0.0737218
235	0x3e2688ca	0.16263118
236	0x3de2ab04	0.11067775
237	0x3e09d852	0.13461426
238	0x3da4af5f	0.08041262
239	0xbcd2d00c	-0.02573397
240	0xbd8bf39a	-0.06833573
241	0x3d00f046	0.031479143
242	0xbe364958	-0.17801416
243	0x3d4e81f4	0.0504169
244	0x3e6e39b6	0.23264202
245	0xbd858210	-0.06518948
246	0x3e30facd	0.17283173
247	0xbef9dcd3	-0.48801288
248	0x3db264b7	0.08710616
249	0x3e711c6b	0.23545997
250	0x3e338aa1	0.17533351
251	0x3e80c278	0.25148368
252	0xbdfd7c42	-0.12377216
253	0x3e348acf	0.17631076
254	0xbe3d888f	-0.18509124
255	0xbdde38d5	-0.108506836

linear2.bias f4 [32]
0	0xbe06cb6a	-0.13163534
1	0xbe2ecc0c	-0.17070025
2	0x3eb4a580	0.35282516
3	0x3e7dee95	0.24798043
4	0x3e06886b	0.13137977
5	0x3ccfa964	0.025349326
6	0xbe40252c	-0.1876418
7	0xbdf3dfc2	-0.11907913
8	0x3d94483c	0.0724034
9	0x3eaa4119	0.3325279
10	0x3d89dbbd	0.06731365
11	0xbe1c1add	-0.15244623
12	0xbe23bc54	-0.1598981
13	0x3e6e9152	0.23297623
14	0xbe76b1eb	-0.24091308
15	0x3e091762	0.13387826
16	0x3e8c6f87	0.2742884
17	0x3e896521	0.26834968
18	0x3e36ff6e	0.17870876
19	0xbd868260	-0.06567836
20	0xbd0a9777	-0.033835854
21	0x3e593221	0.21210529
22	0x3ea4b350	0.32168055
23	0xbd2a8ccf	-0.04163819
24	0x3e5d32c8	0.21601403
25	0x3d3d1ba5	0.046168942
26	0x3ea96750	0.33086634
27	0x3c8ac10b	0.016937753
28	0x3de107a2	0.10987784
29	0x3e80c168	0.25147557
30	0xbe59bc7c	-0.21263307
31	0x3e8fcf92	0.2808805

linear3.weight f4 [32, 32]
0	0xbe060b5e	-0.13090274
1	0xbe2211a6	-0.15827045
2	0x3e3c72e3	0.18403201
3	0x3e0917ed	0.13388033
4	0x3e6f7725	0.23385294
5	0x3e714205	0.2356034
6	0xbe066672	-0.13125017
7	0x3e08c5cb	0.13356702
8	0xbe3d5d55	-0.18492635
9	0x3ea81dab	0.32835135
10	0x3e98662d	0.29765454
11	0xbdda38d0	-0.106553674
12	0x3da913a9	0.08255703
13	0x3d3cdf5b	0.046111446
14	0x3dd03095	0.10165516
15	0x3e7d503f	0.24737643
16	0x3e236e90	0.15960145
17	0x3e582956	0.21109518
18	0x3dd9e873	0.10640039
19	0xbc7cd357	-0.015431247
20	0x3ded62f8	0.115911424
21	0x3ddbaf47	0.10726791
22	0x3e8c7060	0.27429485
23	0xbdb40130	-0.08789289
24	0x3e697734	0.22799379
25	0x3e69c197	0.22827755
26	0x3e8802f8	0.26564765
27	0xbbbfb7f7	-0.0058507877
28	0x3da2aa65	0.079426564
29	0x3e844517	0.2583396
30	0x3de364b0	0.11103189
31	0x3d991003	0.07473757
32	0xbe0ac8c7	-0.13553153
33	0xbe057ac2	-0.1303511
34	0x3ebc2cd2	0.36752945
35	0xbdb0eda2	-0.08639075
36	0x3cbcadfb	0.02303218
37	0xbd7715eb	-0.060323637
38	0xbe2c7765	-0.1684242
39	0x3d60325b	0.054735523
40	0xbe8faad0	-0.28060007
41	0x3d5934e5	0.05302896
42	0x3e81c33c	0.25344265
43	0xbd85ef79	-0.065398164
44	0x3d0f7a77	0.0350289
45	0x3da8bd18	0.08239192
46	0xbe1c298f	-0.15250228
47	0x3e9108b0	0.2832694
48	0x3c1b2456	0.009469112
49	0x3e2f71a2	0.17133191
50	0x3daa1afb	0.08305927
51	0x3d9d27e9	0.07673628
52	0x3ea0fa57	0.31440994
53	0x3e3accd4	0.18242198
54	0x3e70da7e	0.23520848
55	0x3e0d2c14	0.13786346
56	0x3e03c0c2	0.128665
57	0xbdc3be82	-0.09557821
58	0x3db1f5c2	0.08689453
59	0x3db17de8	0.08666593
60	0x3e554dd5	0.20830472
61	0x3e259090	0.16168427
62	0xbdbd3de8	-0.09240323
63	0xbcd467d4	-0.025928415
64	0x3e17b877	0.14816462
65	0xbc3ca217	-0.011513255
66	0x3ec0a962	0.3762923
67	0x3e437774	0.19088537
68	0x3d02c664	0.03192748
69	0x3ddaaa1d	0.10676978
70	0x3e1396ac	0.14412946
71	0xbd4c6b4a	-0.049907006
72	0xbe6cc42a	-0.23121706
73	0x3ea4ac55	0.3216273
74	0x3e4c4bc9	0.19950785
75	0x3d73c23d	0.059511412
76	0xbe08162f	-0.13289712
77	0x3de798e0	0.113084555
78	0x3e34f8b4	0.17672998
79	0x3c4e0c3a	0.012576157
80	0x3dd8bd8d	0.10583029
81	0x3da47774	0.080305964
82	0x3e0b96cc	0.13631743
83	0xbd9a8725	-0.07545308
84	0x3e5065c3	0.20351319
85	0x3dc7afac	0.097503036
86	0x3e7904a7	0.24318181
87	0x3e407387	0.1879407
88	0x3e8a9917	0.27069923
89	0xbbba0bcd	-0.0056776763
90	0x3e83518d	0.25648156
91	0xbb9e1ce5	-0.004825222
92	0x3e3657d5	0.17806943
93	0x3c96de4e	0.01841655
94	0xbdfc789c	-0.12327692
95	0x3e86c1d2	0.26319748
96	0xbd475e31	-0.048673812
97	0xbe2bcc9e	-0.16777274
98	0xbe301981	-0.17197229
99	0x3c878c9e	0.016546544
100	0xbcd5ac6b	-0.026083192
101	0xbe50a870	-0.20376754
102	0x3d898f74	0.06716815
103	0xbb165772	-0.0022940305
104	0x3e106123	0.14099555
105	0x3e7b7d13	0.24559431
106	0x3e1c1d3b	0.15245526
107	0xbe15c7c3	-0.14626984
108	0xbd954f6f	-0.072905414
109	0x3e5fb8fe	0.21847913
110	0xbc4f87a4	-0.012666617
111	0x3e43340c	0.19062823
112	0xbdc76e0e	-0.09737788
113	0xbdba5975	-0.09099094
114	0xbd9ba81b	-0.07600423
115	0x3d9df72c	0.0771316
116	0xbdd6c143	-0.104860805
117	0x3d7b4829	0.061348114
118	0x3dda7ce4	0.10668352
119	0x3df6fa75	0.1205949
120	0x3e18c1ca	0.14917675
121	0x3e7b00fe	0.24512097
122	0xbe55508a	-0.20831504
123	0xbe892c4e	-0.26791614
124	0xbc3a44f0	-0.011368975
125	0xbb464d68	-0.003025854
126	0x3e0ba0a2	0.13635495
127	0xbcdc60cd	-0.026901627
128	0xbe338e06	-0.17534646
129	0x3a4a9a48	0.0007728678
130	0x3e00b177	0.12567697
131	0x3e2009b7	0.15628706
132	0x3e3861e8	0.18006098
133	0xbdb8d1bf	-0.09024381
134	0xbc5c30df	-0.013439386
135	0x3d19d45e	0.037556045
136	0xbe31efa6	-0.17376575
137	0x3daba7b4	0.08381596
138	0xbd8648e2	-0.0655687
139	0xbdddeb3b	-0.10835882
140	0x3d9963b2	0.074897185
141	0xbde9df07	-0.11419492
142	0xbd8a66e0	-0.06757903
143	0x3ddda1db	0.10821887
144	0x3e053e02	0.13011935
145	0x3e1353a8	0.14387381
146	0x3ea368f4	0.3191601
147	0x3e0b6ab6	0.13614926
148	0x3e86c475	0.2632176
149	0x3d2a2fe4	0.04154958
150	0x3d7c9d91	0.061673705
151	0x3ccc286d	0.02492162
152	0x3e299bc5	0.16563328
153	0x3ce55c8d	0.027998233
154	0x3e0d1a53	0.13779573
155	0x3e041357	0.12898003
156	0xbe2a6bee	-0.16642734
157	0x398acba6	0.0002647314
158	0xbdfe3153	-0.124117516
159	0x3dbf6479	0.093453355
160	0xbce67141	-0.028130176
161	0x3c663b78	0.014052264
162	0x3e0ea50d	0.1393015
163	0x3e0cdc7b	0.13755982
164	0xbd5695cd	-0.052388955
165	0x3e209f60	0.15685797
166	0xbc7d9b02	-0.015478851
167	0xbe2e76d2	-0.17037514
168	0xbe279d3d	-0.16368575
169	0xbe2cff25	-0.16894205
170	0xbe01168a	-0.12606254
171	0xbd4715a0	-0.048604608
172	0xbdc386e5	-0.095472135
173	0xb98807fe	-0.00025945896
174	0xbd66a107	-0.05630591
175	0xbe2fd343	-0.17170434
176	0xbe19662a	-0.14980379
177	0xbe01a562	-0.12660745
178	0xbdd958bf	-0.1061263
179	0xbce23176	-0.027611475
180	0xbd276f39	-0.040877555
181	0x3e130a8f	0.14359497
182	0xbc5d42a2	-0.013504656
183	0xbcaeb017	-0.0213242
184	0xbdefd791	-0.11711038
185	0xbdc824cd	-0.09772644
186	0x3d97a741	0.07404948
187	0xbe06e417	-0.13172947
188	0xbc7e0c84	-0.015505914
189	0x3defa7fc	0.11701962
190	0xbd7594ff	-0.059956547
191	0x3ddf7e10	0.109127164
192	0x3d9084b9	0.07056565
193	0x3d217cff	0.039425846
194	0x3df9c09a	0.12194939
195	0xbd37806c	-0.044800207
196	0x3ea1b9db	0.3158711
197	0x3e5c925a	0.21540204
198	0x3d0ae6f1	0.03391165
199	0x3e1addae	0.15123627
200	0xbe464981	-0.19363977
201	0x3e60c1af	0.21948884
202	0x3e3ca47b	0.1842212
203	0xbd54d287	-0.051958587
204	0xbc603410	-0.013684288
205	0x3df5ed26	0.12008123
206	0xbe1e327d	-0.15448947
207	0x3e22661a	0.15859261
208	0x3dd83d99	0.10558624
209	0x3df5854b	0.11988314
210	0x3e22ee1d	0.15911146
211	0xbd9c85fc	-0.07642743
212	0x3e0d088e	0.13772795
213	0x3e8a3751	0.26995328
214	0x3e266fde	0.16253611
215	0x3e402ce1	0.1876712
216	0x3e624b5a	0.22099057
217	0x3e549855	0.20761235
218	0x3e7a737b	0.24458115
219	0x3dffa6ee	0.12483011
220	0x3d8559e6	0.065112874
221	0x3cfeab66	0.031087589
222	0x3d95c3ac	0.07312712
223	0x3e624d39	0.2209977
224	0xbe0883f3	-0.13331585
225	0x3df87712	0.12132086
226	0x3daf0c01	0.085472114
227	0x3e587e5a	0.2114195
228	0x3e219d8d	0.15782757
229	0x3dca34d8	0.098733604
230	0xbcb9b981	-0.022671463
231	0x3d2ccc23	0.042186867
232	0xbe8c132f	-0.27358386
233	0x3d74475c	0.059638366
234	0x3e048bd0	0.12943959
235	0xbe14eec0	-0.14544201
236	0x3c9c43e8	0.019075349
237	0xbbc0cbd7	-0.0058836746
238	0xbcf09d0b	-0.029371759
239	0x3da0aac5	0.07845072
240	0x3cc26e27	0.023734165
241	0x3ce12e13	0.02748779
242	0x3eb331d4	0.34998953
243	0x3e1dac03	0.15397649
244	0x3e9d462a	0.30717593
245	0x3de8f20a	0.1137429
246	0x3e1dbf6e	0.15405056
247	0x3e48b24b	0.19599263
248	0x3a83e713	0.0010063372
249	0x3e4cada6	0.19988117
250	0x3d898c26	0.06716184
251	0xbd48ef32	-0.04905624
252	0x3dd45474	0.10367671
253	0xbbf7bf2b	-0.007560631
254	0xbd05f5cb	-0.03270511
255	0x3cd3bf93	0.025848186

linear3.bias f4 [32]
0	0x3e53c11b	0.20679133
1	0x3de512c9	0.111852236
2	0x3ccf5e0d	0.025313402
3	0xbdbdbedd	-0.0926492
4	0xbdb0f1b2	-0.0863985
5	0xbd4f1a06	-0.050561927
6	0x3d85a482	0.06525518
7	0x3e7c0965	0.24612959
8	0x3e170a26	0.14749965
9	0xbdadaf92	-0.08480753
10	0x3e61a0c1	0.22033979
11	0xbd9dcf7c	-0.0770559
12	0xbd9ee0f8	-0.07757753
13	0xbdde35bc	-0.10850093
14	0x3dc61c90	0.096734166
15	0x3e6459c3	0.22299866
16	0x3e084dfe	0.13311002
17	0x3dc740c7	0.09729152
18	0x3e5b5a86	0.2142125
19	0xbd5e9d91	-0.054349486
20	0x3889af75	6.5653505e-05
21	0x3b825ca0	0.003978327
22	0x3e7a9583	0.24471097
23	0xbdad35fe	-0.08457564
24	0xbdeda653	-0.116039895
25	0xbe070dc8	-0.13188851
26	0xbc57c625	-0.0131698
27	0xbdb528da	-0.088456824
28	0x3d0899d8	0.03334984
29	0x3e51de5b	0.20494978
30	0x3e632c2a	0.22184816
31	0x3e6c9e78	0.23107326

linear4.weight f4 [32, 32]
0	0xbe105af4	-0.14097196
1	0x3de5da3e	0.11223267
2	0x3d6cee19	0.057844255
3	0xbe1cc497	-0.15309368
4	0xbe07381a	-0.13204995
5	0x3c4d9e00	0.012549877
6	0xbdbf98de	-0.09355329
7	0x3dee3db9	0.116328664
8	0x3d8816e2	0.066449896
9	0xbddd2c15	-0.107994236
10	0xbd061c23	-0.032741677
11	0xbe166698	-0.14687574
12	0xbcfb1861	-0.030651273
13	0x3dfde670	0.12397468
14	0xbe219a2e	-0.15781471
15	0x3dc2161c	0.09476873
16	0xbddc10e2	-0.10745408
17	0x3e0c3a3b	0.13694088
18	0xbe055669	-0.13021244
19	0xbcd63b8e	-0.026151445
20	0x3e1db8d3	0.15402536
21	0xbddddbe8	-0.108329594
22	0xbdfd9267	-0.1238144
23	0x3c06dd76	0.008231511
24	0x3dd7b926	0.10533361
25	0x3db64638	0.08900112
26	0x3b6f7bfb	0.0036542404
27	0xbd81c4a3	-0.063363336
28	0x3d14aa83	0.036295425
29	0xbd83b300	-0.06430626
30	0xbe2dd7b2	-0.16976812
31	0x3dadf06f	0.08493125
32	0xbd6f6b3e	-0.058451883
33	0xbdb9453e	-0.0904641
34	0xbe08e698	-0.13369215
35	0x3e00bce0	0.1257205
36	0xbcfb5c4f	-0.030683665
37	0xbd044c73	-0.03229947
38	0x3df96da4	0.121791154
39	0xbe05415c	-0.13013214
40	0xbe0e2555	-0.13881429
41	0x3de8799c	0.1135132
42	0xbe238481	-0.15968515
43	0x3dbf6d40	0.0934701
44	0x3d8817ef	0.0664519
45	0xbdd6fb3f	-0.1049714
46	0xbe158d01	-0.1460457
47	0x3df56881	0.11982823
48	0x3d23545f	0.039875384
49	0xbd272d4e	-0.04081469
50	0xbddbc953	-0.10731759
51	0x3e1155b6	0.14192852
52	0xbdafb2fc	-0.085790604
53	0x3d897413	0.067115925
54	0xbd2ad660	-0.04170835
55	0x39e922a4	0.00044467032
56	0x3e1f745a	0.15571728
57	0xbdf26597	-0.11835783
58	0xbe158753	-0.14602403
59	0xbe09d7a1	-0.13461162
60	0x3d478e69	0.048719797
61	0x3c7bb98f	0.015364065
62	0xbd986320	-0.074407816
63	0x3d859ae3	0.06523683
64	0x3ddc09ad	0.10744033
65	0x3b8691b3	0.004106724
66	0x3dcd7e7a	0.10033889
67	0x3d179bf6	0.03701397
68	0xbd2e5c9c	-0.042568788
69	0xbe009bfb	-0.12559502
70	0xbe261700	-0.16219711
71	0xbaf76940	-0.0018875971
72	0xbe17d5a6	-0.14827594
73	0x3e44fbc0	0.1923666
74	0xbd400667	-0.046881106
75	0x3dc31fe9	0.09527571
76	0x3c370a1c	0.011171844
77	0xbd40f6fd	-0.047110546
78	0x3d66698b	0.056252997
79	0x3cbc1e79	0.02296375
80	0x3d4cf4c4	0.050038114
81	0x3dbe6b69	0.092978306
82	0x3a814ffc	0.0009865756
83	0x3d078dd6	0.03309425
84	0xbcc17455	-0.023615042
85	0x3dff95f6	0.12479775
86	0xbc4f243b	-0.012642915
87	0x3bddbafd	0.0067666755
88	0x3c97d6e6	0.018535089
89	0x3e17a19d	0.14807744
90	0xbda65b92	-0.081229344
91	0xbd7b624c	-0.06137304
92	0xbd4d0954	-0.050057724
93	0xbe066d2d	-0.13127585
94	0xbd3331b1	-0.04374856
95	0xbd9fd676	-0.07804577
96	0xbc4d430c	-0.012528192
97	0x3d7d2da1	0.061811093
98	0xbdd0f492	-0.10202898
99	0x3b9eff03	0.004852177
100	0xbd577846	-0.052604936
101	0x3d9d90cc	0.076936334
102	0x3d21f95c	0.03954445
103	0x3c38e916	0.011286041
104	0x3de7c24a	0.113163546
105	0xbdbe49f5	-0.0929145
106	0xbe30a312	-0.17249706
107	0xbc3e8aca	-0.01162977
108	0x3db54f27	0.08852988
109	0xbe18e523	-0.14931159
110	0xbe124f5e	-0.14288089
111	0xbd90400b	-0.07043465
112	0xbdc5641d	-0.09638236
113	0xbe2a7cb2	-0.1664913
114	0x3d4c8317	0.049929705
115	0xbd6ee917	-0.05832776
116	0x3cfe5b90	0.03104952
117	0x3de6db8e	0.112723455
118	0xbc630ddb	-0.013858284
119	0x3d86e0c9	0.06585843
120	0xbdc56bc5	-0.09639696
121	0xbdd51a3a	-0.10405393
122	0xbd4cd118	-0.050004095
123	0xbe04a1a9	-0.12952293
124	0xbe319e53	-0.17345552
125	0xbe303c6e	-0.17210552
126	0xbdbf01b7	-0.09326499
127	0x3e0828e1	0.13296844
128	0x3d9baf11	0.07601751
129	0x3dcb07fe	0.09913634
130	0x3e5cc6a1	0.21560146
131	0xbdd327a0	-0.10310292
132	0xbce05693	-0.027385032
133	0x3cf3cf1e	0.029761847
134	0x3e778c87	0.241747
135	0x3e3a2db2	0.18181494
136	0x3c1d1ba3	0.009589109
137	0xbe1fa0dd	-0.15588708
138	0x3e5d2493	0.21595983
139	0x3e0679b4	0.13132364
140	0x3d329838	0.0436022
141	0x3dd1f4ac	0.102517456
142	0xbd8ccb37	-0.06874698
143	0x3dbfc606	0.09363942
144	0x3dda1d86	0.106501624
145	0x3e300f47	0.17193328
146	0x3e2fe7d7	0.17178284
147	0x3c55eb85	0.0130566405
148	0x3cfa4337	0.030549629
149	0x3e8a741e	0.27041715
150	0x3e642b52	0.2228215
151	0x3e91a715	0.28447786
152	0xbdb93f66	-0.090452954
153	0xbe1c0958	-0.1523794
154	0x3def01b2	0.11670245
155	0x3e1e9158	0.15485132
156	0xbd936dfe	-0.07198714
157	0x3e48f754	0.19625598
158	0x3d8ed9d2	0.0697514
159	0x3e5e537f	0.21711539
160	0xbbe3f1a7	-0.0069562974
161	0x3da249a3	0.07924201
162	0x3e804ed7	0.2506015
163	0xbebe42e1	-0.371604
164	0x3e0aa697	0.13540111
165	0x3de73561	0.11289478
166	0xbd404c60	-0.046947837
167	0x3e435273	0.1907442
168	0xbd3b9ded	-0.045804907
169	0xbdd6ea92	-0.104939595
170	0x3d6dbecf	0.058043297
171	0x3d489dbd	0.048978556
172	0x3dd2cdd6	0.10293166
173	0x3e196fa2	0.14983991
174	0xbe6d33b0	-0.23164248
175	0xbc3c6f65	-0.011501168
176	0x3e35a758	0.17739618
177	0x3e08c375	0.13355811
178	0x3e120b73	0.1426218
179	0x3b8d2b2a	0.004308124
180	0x3e6cd1b1	0.23126866
181	0x3e3c4353	0.18385057
182	0x3e465ac5	0.19370563
183	0x3e027c54	0.1274274
184	0x3df75e2b	0.12078508
185	0x3dc4e6c5	0.09614328
186	0x3c3af4be	0.01141089
187	0x3dc5b3b9	0.0965342
188	0x3e94843c	0.29007137
189	0x3e513f5f	0.2043433
190	0x3dd0aafb	0.10188862
191	0x3e4c24ab	0.19935863
192	0x3d632061	0.0554508
193	0x3d614c30	0.0550043
194	0x3e037b8e	0.12840101
195	0xbea2ec49	-0.31820896
196	0xbbe45504	-0.0069681425
197	0xbd5873a3	-0.052844655
198	0xbdd47765	-0.10374335
199	0x3e57b436	0.21064839
200	0xbd70940d	-0.058734942
201	0xbe72b586	-0.23702058
202	0x3cbfb662	0.023402397
203	0x3d9eb077	0.07748502
204	0x3e2595be	0.16170403
205	0x3cba9907	0.022778047
206	0xbdea390b	-0.11436661
207	0x3d2dbbc9	0.042415414
208	0x3e5e3541	0.21700002
209	0xbd53f0c9	-0.051743302
210	0x3e5da4e0	0.21644926
211	0x3dbf3486	0.0933619
212	0x3928c858	0.00016096362
213	0x3b7eebb9	0.0038897826
214	0xbd5bf694	-0.053701952
215	0x3db49881	0.0881815
216	0x3c9f610a	0.019455452
217	0xbda75731	-0.08170927
218	0xbcf1b645	-0.029505858
219	0x3e2dc483	0.16969495
220	0xbc6034e0	-0.013684481
221	0x3e6eaa66	0.2330719
222	0xbd86178c	-0.0654746
223	0x3dfa4afd	0.12221334
224	0xbe00b7e8	-0.12570155
225	0xbd3fa71d	-0.04679023
226	0x3cd9492c	0.026524149
227	0x3e106855	0.141023
228	0xbdbe5887	-0.09294229
229	0x3ddd4612	0.108043805
230	0xbdb6fec6	-0.08935313
231	0x3bc7caa0	0.006097153
232	0x3d755d0c	0.05990319
233	0xbd88b4ab	-0.06675085
234	0xbd9a46b5	-0.075330175
235	0x3e1770c8	0.14789116
236	0xbbc3c26d	-0.005974105
237	0xbe2c3c8f	-0.16819976
238	0xbd2b422b	-0.04181115
239	0x3dec4d37	0.11538165
240	0xbde7ae37	-0.11312526
241	0x3e248cff	0.1606941
242	0x3d11a7f9	0.03556058
243	0xbe10a7f0	-0.14126563
244	0xbe07b281	-0.13251688
245	0x3d92382d	0.07139621
246	0x3c718bf5	0.014742841
247	0xbe292e4e	-0.1652157
248	0x3df93151	0.121676095
249	0xbc4572e9	-0.0120513225
250	0x3c313305	0.010815387
251	0xbe0a9de8	-0.13536799
252	0xbd9a4135	-0.075319685
253	0xbd534dcd	-0.05158787
254	0xbbb3b0d5	-0.0054837265
255	0xbcbf18f6	-0.023327332

linear4.bias f4 [32]
0	0x3d929ddf	0.07159018
1	0xbe322386	-0.17396364
2	0x3d963aa0	0.073354006
3	0xbdd20c96	-0.10256307
4	0x3e8042e5	0.25051036
5	0x3e1280c8	0.14306939
6	0x3dd87087	0.10568338
7	0x3c0d6992	0.008631127
8	0x3e26b51a	0.16280022
9	0x3b468fc1	0.0030298086
10	0xbe2cb671	-0.16866471
11	0x3e498c4d	0.19682427
12	0x3d8929c1	0.06697417
13	0xbcb74dba	-0.02237593
14	0xbdba5b91	-0.09099496
15	0x3d439881	0.04775286
16	0xbd343b7d	-0.044002045
17	0xbe31ff64	-0.1738258
18	0xbdf6d6e6	-0.120527074
19	0x3d92103b	0.07132002
20	0x3e403a2a	0.18772188
21	0xbc972c4d	-0.018453741
22	0x3d8df7c6	0.06932025
23	0xbd433f56	-0.047667824
24	0x3db23361	0.08701206
25	0xbd9d8ab0	-0.07692468
26	0xbe193ef2	-0.14965418
27	0x3e0c4973	0.13699894
28	0x3e4065a7	0.18788777
29	0x3e0e3327	0.138867
30	0xbd7bb39d	-0.06145059
31	0x3e1eff35	0.15527041

linear5.weight f4 [16, 32]
0	0x3d81bf7e	0.06335352
1	0xbde77e03	-0.11303332
2	0xbe3208b4	-0.17386132
3	0x3dac0c74	0.08400813
4	0xbd02d82e	-0.031944446
5	0x3d4b0e65	0.049574275
6	0x3e0ac1cf	0.13550495
7	0xbdfcd7b4	-0.123458296
8	0x3e15bc5d	0.14622636
9	0xbd1cdc14	-0.03829582
10	0x3e1600bf	0.14648722
11	0x3e89fa1b	0.26948628
12	0x3e839a82	0.25703818
13	0x3c822827	0.015888287
14	0xbdec3792	-0.11534037
15	0x3d92f5bc	0.07175776
16	0xbe127911	-0.14303996
17	0x3e34e2f0	0.17664695
18	0xbd1fc6e1	-0.039008025
19	0x3d4a8173	0.04943986
20	0x3e3bd793	0.18343954
21	0xbe719204	-0.23590857
22	0xbca9ae39	-0.020712959
23	0x3e2f33d1	0.1710961
24	0x3e1ed218	0.15509832
25	0xbe1dab0f	-0.15397285
26	0x3d5981f1	0.053102437
27	0x3e8216cb	0.25408015
28	0x3d7d2f49	0.061812673
29	0x3e852ee7	0.26012346
30	0xbe0c5cfa	-0.13707343
31	0x3d812f9d	0.0630791
32	0xbd08f742	-0.03343893
33	0xbe0d79ec	-0.13816041
34	0x3deb5377	0.11490529
35	0x3e0d0381	0.13770868
36	0xbc55d495	-0.013051172
37	0xbde7925d	-0.113072135
38	0xbe2bc46f	-0.16774152
39	0x3cbeb8c0	0.023281455
40	0x3e0ec5c5	0.1394263
41	0xbdafbd67	-0.085810475
42	0xbe3441d9	-0.17603244
43	0xbd8ca518	-0.06867427
44	0xbe060e21	-0.13091327
45	0x3d8683bf	0.06568097
46	0x3e0fb53b	0.14033978
47	0xbd924893	-0.07142749
48	0xbd8ef64d	-0.06980572
49	0xbe265c2a	-0.16246095
50	0x3e0a2b5d	0.13493104
51	0xbd4c7290	-0.049913943
52	0xbe09d4d5	-0.13460095
53	0x3e17d096	0.14825663
54	0x3e24ca07	0.16092692
55	0xbe06500a	-0.1311647
56	0xbe28efaf	-0.16497682
57	0xbe32d80c	-0.17465228
58	0xbe1ece03	-0.15508275
59	0x3db9fd22	0.090814844
60	0xbe096a5e	-0.13419482
61	0xbdbebc41	-0.0931325
62	0x3e1179fb	0.14206688
63	0xbdb8c52b	-0.09021982
64	0xbde7c034	-0.11315957
65	0xbdb98504	-0.09058574
66	0xbe31017f	-0.17285727
67	0xbdf36d5d	-0.11886094
68	0xbd3b4a82	-0.045725353
69	0x3e195136	0.14972386
70	0x3e53168e	0.20614073
71	0xbda7d117	-0.081941776
72	0x3e707312	0.23481396
73	0xbdea33e6	-0.1143568
74	0x3d940609	0.072277136
75	0x3e93762f	0.28801104
76	0x3dcbf4e4	0.099588186
77	0x3d582b86	0.052775882
78	0x3d80dac9	0.0629173
79	0x3e6c639a	0.2308487
80	0xbe2d35f5	-0.16915114
81	0x3d3da98d	0.046304274
82	0xbd30e548	-0.04318741
83	0x3db1d4ba	0.086831525
84	0x3d8e3b6b	0.06944927
85	0xbd2b5a57	-0.0418342
86	0xbbdc1bca	-0.00671718
87	0x3dd9ecde	0.10640882
88	0x3e86f64b	0.26359782
89	0xbedf1135	-0.43567815
90	0xbd8ceefc	-0.0688152
91	0xbccce2d3	-0.025010502
92	0x3dd29d7d	0.10283945
93	0x3e66dee6	0.22545967
94	0x3de57a44	0.11204961
95	0xbcad0f5d	-0.02112549
96	0xbd3853c6	-0.045001768
97	0xbe207849	-0.15670885
98	0x3cfca5bf	0.030840753
99	0xbe19f63b	-0.15035336
100	0x3d6ad734	0.05733414
101	0x3c14614f	0.009056403
102	0x3e3aef2c	0.182553
103	0xbdca5da0	-0.09881139
104	0x3d10ed69	0.035382662
105	0xbdeb975b	-0.11503478
106	0xbde22acd	-0.1104332
107	0x3e94c8ad	0.29059353
108	0x3e6049a5	0.21903093
109	0xbc85adab	-0.016318163
110	0x3c570b9f	0.013125329
111	0x3d019f5e	0.031646125
112	0xbc38ebea	-0.011286715
113	0x3dde5d22	0.108576074
114	0xbd9b7e6b	-0.07592472
115	0x3db8da29	0.09025986
116	0x3e93de13	0.28880367
117	0xbe88d12e	-0.2672209
118	0x3e2c3c60	0.16819906
119	0x3e8d429d	0.27589884
120	0x3ddd7121	0.10812593
121	0xbdd35f46	-0.10320906
122	0x3dfd16cd	0.123578645
123	0x3e90725c	0.2821225
124	0x3e8c7c49	0.27438572
125	0xbae33072	-0.0017333163
126	0xbe1d6864	-0.15371853
127	0xbc876c83	-0.016531235
128	0xbc7c7947	-0.015409774
129	0xbd9cabb7	-0.076499395
130	0xbe028bb0	-0.12748599
131	0x3d91836c	0.07105145
132	0x3e8a3dec	0.27000368
133	0x3e8b5765	0.27215114
134	0xbd4deb14	-0.050273016
135	0xbe0dfb18	-0.13865316
136	0xbc8ebca8	-0.017423943
137	0xbcee642c	-0.0291005
138	0x3e155dcf	0.14586566
139	0x3e3dbfa9	0.18530144
140	0x3e64974c	0.2232334
141	0xbe08520e	-0.13312551
142	0xbe153c82	-0.14573863
143	0x3e848ad7	0.25887176
144	0x3e1b60fe	0.15173718
145	0x3d932a2f	0.0718578
146	0xbdfa1940	-0.12211847
147	0x3e93a499	0.28836516
148	0x3e86524a	0.26234657
149	0xbe6327ba	-0.22183123
150	0x3e20943c	0.15681547
151	0x3e2c62b8	0.16834533
152	0x3e6585cd	0.22414322
153	0xbe241ab7	-0.16025816
154	0xbd828c35	-0.063743986
155	0x3d90a6b7	0.07063048
156	0x3e618ae2	0.22025636
157	0x3e9684b6	0.29398125
158	0xbdc76826	-0.097366616
159	0x3e4a2b7e	0.19743153
160	0x3bbb191d	0.005709781
161	0xbe17230a	-0.1475946
162	0x3d77d449	0.060505185
163	0xbd819c11	-0.063285954
164	0x3dcda36f	0.10040938
165	0x3d1d51c7	0.038408067
166	0x3e4154a1	0.1887994
167	0xbe25430a	-0.16138855
168	0x3ad161fa	0.0015974634
169	0x3b00723c	0.001959934
170	0xbdda1d1b	-0.10650083
171	0x3e548917	0.2075542
172	0xbd7d70b4	-0.06187506
173	0xbdfbdaae	-0.12297569
174	0x3cfb2510	0.030657321
175	0x3e25b385	0.16181763
176	0xbdb95058	-0.090485275
177	0xbd241cc5	-0.0400665
178	0x3cd2e481	0.025743725
179	0x3e3e6b55	0.18595631
180	0x3d076c9d	0.033062566
181	0xbddba4b6	-0.107247755
182	0x3d42c26a	0.04754869
183	0xbbc63454	-0.0060487185
184	0xbd076a00	-0.033060074
185	0x3db942cf	0.09045946
186	0xbcc9ae8d	-0.024619365
187	0xbcee1222	-0.02906138
188	0x3e1bfdf6	0.15233597
189	0x3e22ebbc	0.15910238
190	0x3caf7355	0.0214173
191	0x3da1e8c2	0.07905723
192	0xbe012b72	-0.1261423
193	0xbda5af78	-0.08090109
194	0xbd26504e	-0.04060393
195	0xbcd4062e	-0.025881853
196	0x3e933574	0.2875172
197	0x3cc90521	0.024538578
198	0x3a8bf0aa	0.0010676582
199	0x3d22f8b1	0.03978795
200	0x3de75f07	0.11297422
201	0xbd6f6e74	-0.058454946
202	0xbdd18149	-0.10229737
203	0x3ea30866	0.31842345
204	0x3c6739c8	0.014112897
205	0xbe2c8055	-0.1684583
206	0x3e02b3c9	0.12763895
207	0x3ea31cb7	0.31857845
208	0xbdf68599	-0.120372005
209	0x3e1e86be	0.15481088
210	0x3df7d1ad	0.12100539
211	0xbc8e5f81	-0.017379524
212	0x3e3845a0	0.1799531
213	0xbd19314e	-0.037400536
214	0x3e83d2e1	0.25746825
215	0x3e0ce9a3	0.13761
216	0x3d849860	0.06474376
217	0xbec341f5	-0.3813626
218	0x3e0309cc	0.12796706
219	0x3e7d56fc	0.24740213
220	0x3e448125	0.1918989
221	0x3cd51549	0.026011126
222	0x3de727e9	0.11286909
223	0x3e8f1be7	0.27950975
224	0x3dc44833	0.095840834
225	0x3b17045b	0.0023043368
226	0x3c5b401a	0.013381982
227	0xbdf9aeaa	-0.12191518
228	0xbdc203d5	-0.09473387
229	0xbd8c4bff	-0.068504326
230	0xbdfde0ae	-0.1239637
231	0xbb15bcf7	-0.0022848228
232	0xbe249932	-0.16074064
233	0xbc2b6e3a	-0.010463292
234	0x3d1f19c5	0.038842935
235	0x3e22575e	0.1585364
236	0x3cb3cca1	0.02194816
237	0xbaff5c05	-0.001948238
238	0x3e2f48d3	0.17117624
239	0x3cae203b	0.021255603
240	0x3ba463fd	0.0050168023
241	0x3da13978	0.078722894
242	0xbe246db9	-0.16057481
243	0x3d956d6d	0.07296262
244	0xbe000d69	-0.12505116
245	0xbe27fc9f	-0.16404961
246	0xbdf9fd43	-0.12206509
247	0xbdeaa411	-0.114570744
248	0x3d0be076	0.03414961
249	0x3c77014a	0.015075991
250	0x3d8e84e3	0.0695894
251	0xbdbe91a1	-0.0930512
252	0x3d5d9a3a	0.05410216
253	0xbe0961ca	-0.1341621
254	0xbd57a554	-0.052647904
255	0xbd989601	-0.07450486

linear5.bias f4 [16]
0	0x3dcb36cb	0.0992256
1	0xbdf71c45	-0.12065939
2	0x3e3782b3	0.17920952
3	0x3e12193e	0.14267442
4	0x3e7e4993	0.24832754
5	0xbdf0083d	-0.11720321
6	0x3e519985	0.2046872
7	0x3cd38bf0	0.025823563
8	0x3e5038ff	0.20334242
9	0xbe2e4f4a	-0.17022434
10	0xbe041e5a	-0.12902203
11	0x3be2ced4	0.0069216285
12	0x3c9c9b2b	0.019116959
13	0x3d89bf60	0.06725955
14	0x3e70dc6f	0.23521589
15	0xbd78e580	-0.060765743

output_layer.weight f4 [2, 16]
0	0x3ebac589	0.36478832
1	0x3e41ed90	0.18938279
2	0xbd08585d	-0.033287395
3	0x3e634961	0.2219596
4	0x3eb7ab0a	0.3587268
5	0x3eaf4398	0.34231257
6	0x3df57692	0.11985506
7	0x3dfad21c	0.122471064
8	0x3e805286	0.2506296
9	0x3dbfb1d1	0.09360088
10	0x3e355e63	0.17711787
11	0xbd73bbc8	-0.059505254
12	0x3e399aac	0.18125409
13	0x3e878e4a	0.26475745
14	0x3c8b939a	0.017038155
15	0xbd95c720	-0.07313371
16	0x3e716632	0.2357414
17	0xbe4c5520	-0.19954348
18	0x3eb67ee2	0.3564368
19	0x3e499ed9	0.19689502
20	0x3e792095	0.24328835
21	0xbd39d730	-0.045371234
22	0x3e7ee48f	0.24891876
23	0x3da23298	0.07919806
24	0x3ea3e94e	0.32013935
25	0xbd99eba7	-0.0751565
26	0x3e053ae1	0.13010742
27	0xbd507161	-0.050889377
28	0x3df4dc75	0.11956111
29	0x3dfe3826	0.12413053
30	0x3e5ba3a9	0.2144915
31	0xbdc28e68	-0.09499818

output_layer.bias f4 [2]
0	0x3e839bb5	0.25704733
1	0x3ca41fc0	0.02003467
