results/models/batchsize=96,lr=1e-4,layer=6,eps=0.9,num_episodes_train=5000/2/model-200.0.pt (torch, 17522 bytes, 12 tensors)

linear1.weight f4 [16, 4]
0.963165 -0.09826143 -1.0065186 -0.18845712 -0.67264503 0.5450558 2.2164552 0.96001345
-1.2895546 0.09005709 1.2473603 -0.4793357 0.5056477 -0.45862007 -2.299491 -0.772963
0.37392965 -0.759672 -0.55051345 -0.36203876 -0.7661001 0.3646795 1.0679281 0.47651032
-0.03126077 -0.029088497 0.009540144 -0.45773917 0.8533826 -0.6573756 -2.744657 -1.2821448
1.7734499 -0.7662915 -3.6651566 -1.3012972 -0.07780939 0.075987265 0.93452686 0.35120732
0.3475614 -0.39124644 -0.30382764 -0.32283935 -0.25000307 0.82735413 1.3211622 -0.051160455
-0.84670365 0.5738395 2.3089492 1.3401588 1.0700749 -0.4917657 -1.0099288 -0.45599642
0.63075554 -0.0627923 -0.31630877 0.5436608 -0.11180736 -0.5128398 -0.08453387 0.008146013
00000000: fb91 763f 4a3d c9bd 9ad5 80bf e7fa 40be
00000010: 7732 2cbf c788 0b3f 67da 0d40 71c3 753f
00000020: 2010 a5bf da6f b83d 81a9 9f3f 7d6b f5be
00000030: 2172 013f 40d0 eabe dc2a 13c0 e7e0 45bf
00000040: b573 bf3e dd79 42bf 73ee 0cbf 255d b9be
00000050: 231f 44bf 45b7 ba3e deb1 883f 29f9 f33e
00000060: 4b0b 00bd 004b eebc 444e 1c3c ca5c eabe
00000070: 4877 5a3f c449 28bf 76a8 2fc0 521d a4bf
00000080: 6800 e33f ae2b 44bf ed91 6ac0 e890 a6bf
00000090: 885a 9fbd 369f 9b3d 273d 6f3f 72d1 b33e
000000a0: 91f3 b13e 7451 c8be 4c8f 9bbe 334b a5be
000000b0: 6700 80be 7bcd 533f d81b a93f a08d 51bd
000000c0: 92c1 58bf 25e7 123f d3c5 1340 538a ab3f
000000d0: 37f8 883f b7c8 fbbe 5945 81bf 5d78 e9be
000000e0: 3279 213f 4099 80bd 39f3 a1be 5b2d 0b3f
000000f0: 42fb e4bd 7849 03bf 1820 adbd db76 053c

linear1.bias f4 [16]
0.58325446 -0.6211791 0.0468719 0.5664951 0.70873916 0.75653374 0.96541303 -0.66841424
2.1419058 0.744998 0.8569795 0.3219932 -0.5111456 0.6488055 0.756958 0.78420097
00000000: 2a50 153f 9805 1fbf c0fc 3f3d d305 113f
00000010: ee6f 353f 32ac 413f 4f25 773f 321d 2bbf
00000020: fc14 0940 30b8 3e3f 0263 5b3f 4bdc a43e
00000030: 70da 02bf 1e18 263f 00c8 413f 65c1 483f

linear2.weight f4 [32, 16]
-0.17343278 -0.0657292 -0.07530789 -0.20869683 -0.2239012 -0.22145419 0.17757608 -0.10018727
0.047200933 -0.18168533 0.016262563 0.06327461 0.121100426 0.19571523 0.070704505 -0.050447017
-0.04347503 0.10432276 0.0063585937 -0.15426874 -0.11283383 -0.054711074 0.13768315 0.19914526
-0.07015166 -0.24326384 -0.15155402 -0.21236458 -0.044505864 -0.10608038 0.0505071 -0.12471035
0.57684356 -2.9621825 0.9388737 -0.5533194 0.3940479 1.2371773 0.29830456 -2.6658542
0.22310394 0.4320563 0.16749611 0.6113454 -1.2352449 0.75744915 0.5206856 0.5983723
0.91722375 -2.8672798 0.9474893 -0.49650037 0.90299004 0.97126853 0.30949575 -2.3484871
0.7722384 0.6913108 0.61189616 0.59103066 -1.4750757 1.2571445 0.36130583 0.40177408
0.5803453 -2.9373112 0.75680155 -0.5039561 0.80462223 1.0092863 0.30122393 -2.3955393
0.16643305 0.579874 0.265542 0.28737235 -1.1219107 0.98305327 0.30044392 0.610668
0.7224853 -2.5222104 0.75668913 -0.7668449 0.7893932 1.7669514 0.5221635 -2.8142726
0.18088242 0.7670873 0.24816503 0.64149266 -0.4777482 0.81434923 0.65572715 0.6213218
-0.019725017 -0.20020667 0.20738123 -0.21045248 0.18870182 0.10458671 -0.04596646 -0.09032464
0.11821331 0.24256276 -0.07145105 -0.057537913 -0.07291922 0.17364313 -0.13388355 0.037284072
0.16502805 1.8762474 0.38761485 -1.0072334 0.6162524 5.0818396 0.67894167 -2.555245
-0.20401303 2.8962233 0.6829516 1.4863254 3.7891715 -0.09359571 2.8987956 1.655599
0.9496811 -8.577572 0.58437103 1.5976785 1.5232352 -2.001955 0.5913516 3.478582
1.1603025 -0.13812932 0.8907882 -0.2508926 -3.7635279 1.4922469 0.51365125 0.6395943
0.5148323 -2.9346433 0.8014151 -0.78394747 0.8069907 0.953522 0.21296643 -2.4207714
0.2433907 0.5337558 0.26814032 0.56414765 -1.074638 0.76843226 0.39352 0.41263527
0.7608961 -2.6141067 0.5754425 -0.34667584 0.46662167 0.7425745 0.026672225 -2.4241705
0.30653378 0.36855808 0.57519066 0.1768489 -1.2982669 1.120068 0.8167637 0.45795184
0.11117031 -4.8281527 -0.0985038 -1.0862415 0.6728103 0.42646712 -0.45628378 -0.6389884
-0.34101936 0.063973494 0.18920004 -1.7366892 -2.3906915 0.4515484 0.7398516 0.6177549
0.39228028 0.013078634 -0.11402848 0.998102 0.3311153 -3.251333 0.58710545 2.2448883
0.71090114 -1.1175232 0.17494309 0.30222827 0.4520116 0.62034017 -1.5021864 -0.5617554
5.679352 -5.4107866 3.3616073 6.3801556 4.015595 -1.5715114 2.8772314 7.3219757
6.6255226 0.06237659 3.0026133 0.8861736 -3.8097572 6.141274 0.704052 1.4519674
-0.23876515 -0.13531029 -0.22118467 0.2022885 -0.26196465 0.08045943 0.042345572 0.06655197
-0.15819548 -0.104268946 0.06352152 0.15223086 0.11067775 0.12401341 0.08361693 -0.041735835
0.61175406 -2.7900288 0.44686568 -0.31127897 0.8611692 0.90054816 0.37151694 -2.8786576
0.47217956 0.66975534 0.46840593 0.4731544 -1.0997407 1.000662 0.3450024 0.31238982
00000000: 5d98 31be 089d 86bd 063b 9abd 9fb4 55be
00000010: 5b46 65be e3c4 62be 81d6 353e fc2e cdbd
00000020: c455 413d b80b 3abe 1139 853c 1e96 813d
00000030: 8003 f83d 9369 483e 86cd 903d 88a1 4ebd
00000040: e012 32bd 2ca7 d53d c05b d03b a0f8 1dbe
00000050: 6c15 e7bd b818 60bd d0fc 0c3e bcec 4b3e
00000060: acab 8fbd 281a 79be fa30 1bbe 1a76 59be
00000070: c84b 36bd ac40 d9bd 88e0 4e3d 2468 ffbd
00000080: 05ac 133f 6694 3dc0 075a 703f 57a6 0dbf
00000090: a5c0 c93e d35b 9e3f 60bb 983e 5b9d 2ac0
000000a0: 5c75 643e 7c36 dd3e 1a84 2b3e 2281 1c3f
000000b0: 811c 9ebf 30e8 413f a74b 053f ed2e 193f
000000c0: 2dcf 6a3f 8381 37c0 a98e 723f 4c35 febe
000000d0: 5b2a 673f 0ea5 783f 3a76 9e3e 9d4d 16c0
000000e0: 6ab1 453f bff9 303f 3aa5 1c3f c94d 173f
000000f0: 48cf bcbf 1cea a03f 14fd b83e 55b5 cd3e
00000100: 8291 143f e8fc 3bc0 bfbd 413f 4403 01bf
00000110: b9fb 4d3f 4b30 813f 063a 9a3e 8450 19c0
00000120: 6d6d 2a3e 9f72 143f 1ff5 873e 7822 933e
00000130: c59a 8fbf 61a9 7b3f c9d3 993e bd54 1c3f
00000140: ccf4 383f e56b 21c0 61b6 413f f34f 44bf
00000150: ac15 4a3f 772b e23f 82ac 053f 0b1d 34c0
00000160: 3e39 393e d55f 443f f91e 7e3e dd38 243f
00000170: 699b f4be 3179 503f bcdd 273f f20e 1f3f
00000180: 5c96 a1bc fa02 4dbe bf5b 543e db80 57be
00000190: 0d3b 413e 8f31 d63d 5447 3cbd 20fc b8bd
000001a0: d219 f23d 5f62 783e ee54 92bd e0ac 6bbd
000001b0: ac56 95bd 81cf 313e c518 09be 2fb7 183d
000001c0: 1dfd 283e e028 f03f 7475 c63e 06ed 80bf
000001d0: b8c2 1d3f 6e9e a240 1fcf 2d3f 2289 23c0
000001e0: cbe8 50be b95b 3940 ebd5 2e3f e93f be3f
000001f0: c981 7240 1caf bfbd de85 3940 abea d33f
00000200: 4d1e 733f bc3d 09c1 5799 153f bb80 cc3f
00000210: 5ff9 c23f 0820 00c0 d262 173f 16a1 5e40
00000220: cb84 943f c671 0dbe b20a 643f ff74 80be
00000230: a4dd 70c0 f201 bf3f a67e 033f 74bc 233f
00000240: 0dcc 033f 32d1 3bc0 8a29 4d3f c8b0 48bf
00000250: f196 4e3f 051a 743f df13 5a3e ebed 1ac0
00000260: 693b 793e 38a4 083f b049 893e fb6b 103f
00000270: bd8d 89bf fab7 443f 747b c93e ee44 d33e
00000280: 16ca 423f 864d 27c0 3350 133f 7f7f b1be
00000290: 09e9 ee3e 5d19 3e3f b67f da3c 9c25 1bc0
000002a0: fff1 9c3e a5b3 bc3e b23f 133f e117 353e
000002b0: 9c2d a6bf 635e 8f3f 6d17 513f aa78 ea3e
000002c0: 42ad e33d 3a80 9ac0 5cbc c9bd f609 8bbf
000002d0: 4c3d 2c3f e659 da3e 079e e9be be94 23bf
000002e0: 179a aebe 8904 833d a8bd 413e d54b debf
000002f0: 1701 19c0 5a31 e73e ea66 3d3f 2f25 1e3f
00000300: f6d8 c83e c447 563c c487 e9bd 9d83 7f3f
00000310: f287 a93e d715 50c0 8b4c 163f 40ac 0f40
00000320: 9efd 353f 000b 8fbf 4824 333e aabd 9a3e
00000330: 106e e73e 9dce 1e3f a547 c0bf 34cf 0fbf
00000340: 40bd b540 2a25 adc0 9324 5740 3c2a cc40
00000350: c17f 8040 4927 c9bf 8f24 3840 a04d ea40
00000360: 4804 d440 987e 7f3d d12a 4040 46dc 623f
00000370: 10d3 73c0 5185 c440 c03c 343f 11da b93f
00000380: da7e 74be c88e 0abe 3c7e 62be b724 4f3e
00000390: 3b20 86be eac7 a43d 8d72 2d3d 664c 883d
000003a0: fffd 21be f58a d5bd 9217 823d 68e2 1b3e
000003b0: 04ab e23d befa fd3d 5a3f ab3d 32f3 2abd
000003c0: ea9b 1c3f d58f 32c0 94cb e43e f55f 9fbe
000003d0: 9675 5c3f 538a 663f 7837 be3e ed3b 38c0
000003e0: 85c1 f13e 1675 2b3f e7d2 ef3e 4b41 f23e
000003f0: 4ec4 8cbf b115 803f 28a4 b03e 8ff1 9f3e

linear2.bias f4 [32]
-0.12773527 -0.17070025 0.5211092 0.43805563 0.301275 0.38343543 -0.11254053 1.4679534
0.7141089 0.48600763 0.20201592 0.068656534 -0.1334982 1.3655871 -0.2511133 0.32996967
0.58357245 0.3960328 0.3305993 -0.06567836 0.071064785 0.34699312 0.46036223 0.63645524
0.47968426 1.22736 0.518347 2.6571822 0.24738014 0.42715237 -0.21263307 0.4959521
00000000: 09cd 02be 0ccc 2ebe 6a67 053f d448 e03e
00000010: b840 9a3e a651 c43e a67b e6bd e6e5 bb3f
00000020: d7cf 363f fed5 f83e 43dd 4e3e cc9b 8c3d
00000030: c1b3 08be 8fcb ae3f ec91 80be c9f1 a83e
00000040: 0165 153f d0c4 ca3e 5044 a93e 6082 86bd
00000050: 6a8a 913d 15a9 b13e 99b4 eb3e bbee 223f
00000060: 2d99 f53e 221a 9d3f 64b2 043f 460f 2a40
00000070: 3851 7d3e b7b3 da3e 7cbc 59be 6fed fd3e

linear3.weight f4 [32, 32]
-0.11340244 -0.15827045 3.826273 2.0007977 3.5004287 2.3413687 0.028851433 0.4740395
-0.8328497 3.9794445 3.6051278 -1.7552305 -1.3648399 0.5047827 0.095237345 2.7087643
2.8210733 3.8399217 3.9075592 -0.015431247 3.6265585 3.9489841 3.676292 0.7164146
2.1437624 0.627766 3.6670542 -0.2091538 3.615086 4.146401 0.11103189 2.6100297
-0.11803123 -0.1303511 4.056283 1.6700748 3.3070092 2.1732185 -0.010921918 0.6180256
-1.1883861 3.7383623 3.4460735 -2.4158893 -1.5973114 0.34768185 -0.15771623 2.65172
2.8345315 3.7884119 3.9429822 0.07673628 3.7978873 4.021113 3.6404395 0.7613757
1.9085677 0.10852409 3.5564144 0.23296833 3.7550185 4.1279206 -0.09240323 2.4880898
0.16566491 -0.011513255 3.9773936 2.0911086 3.2643483 2.1575263 0.30382413 0.20919631
-0.76072794 3.9341657 3.5340493 -1.1690701 -1.5257224 0.6447779 0.17011744 2.4770057
2.6710591 3.687691 3.8894942 -0.07545308 3.6988847 3.9250438 3.6152387 1.0571011
2.2265856 0.4661974 3.598756 -0.3003222 3.6712697 3.8454404 -0.12327692 2.7813125
-0.066174105 -0.16777274 -0.6976734 1.258743 0.22802071 -0.715471 0.18417013 -1.2508892
3.2845936 0.060691178 0.97640294 7.5126605 3.517451 2.5819976 -0.0064588515 0.7725414
-1.377593 -0.3254837 -0.7479153 0.0771316 0.036840446 -0.36394086 0.0011823005 2.1999075
1.6318332 2.6529658 -1.0360717 -2.3213043 -0.6656671 -0.8127483 0.13635495 0.21200135
-0.15784617 0.0007728678 3.7412064 1.8235753 3.3807602 2.099974 0.14226243 0.62924826
-1.1667446 3.6947937 3.0444787 -2.6090505 -1.6208478 0.05870685 -0.061896224 2.3869398
2.9326792 3.6820636 4.107577 0.13614926 3.663826 3.798022 3.3963585 0.56080234
1.8467251 0.1302999 3.555122 0.27287906 3.294964 3.8936386 -0.124117516 2.5208368
-0.028130176 0.014052264 0.1393015 0.13755982 -0.052388955 0.15685797 -0.015478851 -0.17037514
-0.16368575 -0.16894205 -0.12606254 -0.048604608 -0.095472135 -0.00025945896 -0.05630591 -0.17170434
-0.14980379 -0.12660745 -0.1061263 -0.027611475 -0.040877555 0.14359497 -0.013504656 -0.0213242
-0.11711038 -0.09772644 0.07404948 -0.13172947 -0.015505914 0.11701962 -0.059956547 0.109127164
0.088065945 0.039425846 3.754665 1.9043034 3.599353 2.2870235 0.19501437 0.42551664
-0.74214786 3.8720822 3.5463495 -1.548002 -1.3923857 0.67597955 -0.16090769 2.6616304
2.7099752 3.7591944 3.9540215 -0.07642743 3.6697304 4.118178 3.5770335 1.0804355
2.2138872 0.69411224 3.6174357 -0.1638736 3.5840046 3.9104445 0.07312712 2.7747183
-0.11581555 0.12132086 3.710234 2.1308017 3.4274786 2.1640835 0.13763025 0.31668153
-0.83170915 3.7006106 3.4662516 -1.4911745 -1.3674245 0.5319923 -0.03598727 2.5516028
2.6272094 3.647315 4.133245 0.15397649 3.8174324 3.945063 3.5453806 1.0715554
1.9735214 0.66917706 3.431011 -0.31775075 3.6067448 3.8568518 -0.03270511 2.5591934
00000000: 8a3f e8bd a611 22be a8e1 7440 120d 0040
00000010: 0607 6040 fcd8 1540 d759 ec3c 4eb5 f23e
00000020: a335 55bf 38af 7e40 6aba 6640 65ab e0bf
00000030: 13b3 aebf 7039 013f cc0b c33d 655c 2d40
00000040: 778c 3440 47c1 7540 7315 7a40 57d3 7cbc
00000050: 8919 6840 28bc 7c40 5e48 6b40 f266 373f
00000060: 6733 0940 46b5 203f 04b1 6a40 6a2c 56be
00000070: 925d 6740 51af 8440 b064 e33d ba0a 2740
00000080: 5cba f1bd c27a 05be 12cd 8140 03c5 d53f
00000090: 0aa6 5340 0316 0b40 d8f1 32bc ed36 1e3f
000000a0: 091d 98bf 5441 6f40 788c 5c40 ee9d 1ac0
000000b0: b374 ccbf 5b03 b23e 5d80 21be c8b5 2940
000000c0: f768 3540 5775 7240 d259 7c40 e927 9d3d
000000d0: 9610 7340 f5ac 8040 f6fc 6840 85e9 423f
000000e0: f24b f43f e141 de3d 4b9c 6340 408f 6e3e
000000f0: 3952 7040 ed17 8440 e83d bdbd dd3c 1f40
00000100: 10a4 293e 17a2 3cbc 9e8d 7e40 b9d4 0540
00000110: 15eb 5040 e914 0a40 d68e 9b3e 8f37 563e
00000120: 11bf 42bf 5fc9 7b40 dd2d 6240 17a4 95bf
00000130: df4a c3bf 2a10 253f 4433 2e3e 4387 1e40
00000140: a2f2 2a40 2103 6c40 79ed 7840 2587 9abd
00000150: 87ba 6c40 eb33 7b40 1260 6740 174f 873f
00000160: 6180 0e40 6db1 ee3e 0552 6640 d5c3 99be
00000170: 15f6 6a40 b21b 7640 9c78 fcbd 0601 3240
00000180: 4a86 87bd 9ecc 2bbe b99a 32bf 7e1e a13f
00000190: 437e 693e 1c29 37bf 1897 3c3e 231d a0bf
000001a0: c836 5240 5097 783d 8bf5 793f b767 f040
000001b0: eb1d 6140 733f 2540 c6a4 d3bb 46c5 453f
000001c0: f854 b0bf cda5 a6be 6177 3fbf 2cf7 9d3d
000001d0: 02e6 163d 7556 babe 6cf7 9a3a 49cb 0c40
000001e0: e9df d03f 31ca 2940 ff9d 84bf 4090 14c0
000001f0: 2969 2abf 4610 50bf a2a0 0b3e e216 593e
00000200: 6da2 21be 489a 4a3a ed6f 6f40 ea6a e93f
00000210: 605e 5840 f965 0640 3ead 113e 6a16 213f
00000220: e357 95bf 8077 6c40 bdd8 4240 affa 26c0
00000230: f177 cfbf 9876 703d e586 7dbd 9fc3 1840
00000240: 04b1 3b40 eea6 6b40 4571 8340 b66a 0b3e
00000250: 207c 6a40 cb12 7340 f05d 5940 be90 0f3f
00000260: 7d61 ec3f 566d 053e 1e87 6340 ceb6 8b3e
00000270: b1e0 5240 6031 7940 5331 febd 6455 2140
00000280: 4171 e6bc 783b 663c 0da5 0e3e 7bdc 0c3e
00000290: cd95 56bd 609f 203e 029b 7dbc d276 2ebe
000002a0: 3d9d 27be 25ff 2cbe 8a16 01be a015 47bd
000002b0: e586 c3bd fe07 88b9 07a1 66bd 43d3 2fbe
000002c0: 2a66 19be 62a5 01be bf58 d9bd 7631 e2bc
000002d0: 396f 27bd 8f0a 133e a242 5dbc 17b0 aebc
000002e0: 91d7 efbd cd24 c8bd 41a7 973d 17e4 06be
000002f0: 840c 7ebc fca7 ef3d ff94 75bd 107e df3d
00000300: eb5b b43d ff7c 213d 6e4c 7040 37c0 f33f
00000310: cd5b 6640 985e 1240 d9b1 473e 51dd d93e
00000320: 67fd 3dbf 32d0 7740 64f7 6240 ee24 c6bf
00000330: b239 b2bf ff0c 2d3f fcc4 24be 2758 2a40
00000340: 3c70 2d40 a496 7040 b00e 7d40 fc85 9cbd
00000350: dddc 6a40 1dc8 8340 1eee 6440 b64b 8a3f
00000360: 54b0 0d40 57b1 313f 1184 6740 7bce 27be
00000370: 5560 6540 b944 7a40 acc3 953d fc94 3140
00000380: b430 edbd 1277 f83d 7974 6d40 0e5f 0840
00000390: cf5b 5b40 5880 0a40 f2ee 0c3e 1524 a23e
000003a0: e4ea 54bf ced6 6c40 11d7 5d40 cede bebf
000003b0: c407 afbf a630 083f 6367 13bd 764d 2340
000003c0: 3324 2840 9c6d 6940 8b43 8440 03ac 1d3e
000003d0: d050 7440 ea7b 7c40 84e7 6240 ba28 893f
000003e0: 599c fc3f 304f 2b3f af95 5b40 3ab0 a2be
000003f0: e8d4 6640 a9d6 7640 cbf5 05bd d3c9 2340

linear3.bias f4 [32]
0.16589063 0.14915287 -0.046386763 1.0471132 -0.101698756 -0.050561927 0.033754706 0.20622893
4.2158556 1.0787604 0.25963902 -0.0770559 -0.07757753 -0.026399642 1.3401431 0.3006925
0.14861028 1.3046945 0.057109922 -0.015449135 -0.002834345 -0.020521678 0.06380789 -0.02187476
3.9457822 0.7587267 -0.040670313 0.08104458 0.32464364 0.06884748 0.061945483 0.23197325
00000000: 3cdf 293e 88bb 183e 0c00 3ebd ce07 863f
00000010: 7047 d0bd 061a 4fbd 6042 0a3d ad2d 533e
00000020: 4ae8 8640 d214 8a3f 68ef 843e 7ccf 9dbd
00000030: f8e0 9ebd 1044 d8bc cf89 ab3f 5ef4 993e
00000040: 4b2d 183e 3b00 a73f 18ec 693d 5e1e 7dbc
00000050: 6bc0 39bb 141d a8bc b6ad 823d b232 b3bc
00000060: b287 7c40 ea3b 423f ea95 26bd b3fa a53d
00000070: b137 a63e e8ff 8c3d 8cba 7d3d 658a 6d3e

linear4.weight f4 [32, 32]
2.2541888 3.1368833 2.2605953 -6.0094824 3.15779 0.012549877 2.1441195 2.3168216
5.58715 -5.9366846 3.4667711 -0.14687574 -0.030651273 3.5881014 -5.9593196 3.546199
1.1596272 -5.383202 2.187816 2.877567 3.1079068 1.9162773 2.5770142 2.7706597
5.7286234 -9.763081 1.8356487 7.036961 3.884379 3.109374 2.274572 3.4430676
-0.058451883 -0.0904641 -0.13369215 0.1257205 -0.030683665 -0.03229947 0.121791154 -0.13013214
-0.13881429 0.1135132 -0.15968515 0.0934701 0.0664519 -0.1049714 -0.1460457 0.11982823
0.039875384 -0.04081469 -0.10731759 0.14192852 -0.085790604 0.067115925 -0.04170835 0.00044467032
0.15571728 -0.11835783 -0.14602403 -0.13461162 0.048719797 0.015364065 -0.074407816 0.06523683
2.223529 1.3985264 2.4010453 5.2657957 0.97858125 -0.12559502 2.112409 2.311312
-7.3797226 5.397925 0.6938219 0.09527571 0.011171844 0.7087949 5.334327 0.83549017
3.0406883 5.3284445 2.1805205 1.5709426 1.4666159 2.5943053 1.7900417 1.7266408
-10.465497 4.4017854 2.506171 -7.465797 0.065043084 1.1265002 2.0433269 0.8922907
-0.012528192 0.061811093 -0.10202898 0.004852177 -0.052604936 0.076936334 0.03954445 0.011286041
0.113163546 -0.0929145 -0.17249706 -0.01162977 0.08852988 -0.14931159 -0.14288089 -0.07043465
-0.09638236 -0.1664913 0.049929705 -0.05832776 0.03104952 0.112723455 -0.013858284 0.06585843
-0.09639696 -0.10405393 -0.050004095 -0.12952293 -0.17345552 -0.17210552 -0.09326499 0.13296844
2.486037 2.722912 2.7243738 -0.16020398 2.769544 0.029761847 2.4679823 2.571545
-1.9447211 -0.20518792 2.9203308 0.13132364 0.0436022 2.911699 -0.054846734 2.858676
2.2867253 0.4134132 2.8062718 2.4365277 2.516139 2.4768457 3.105602 2.6363447
-3.3712533 -1.9613905 2.3820279 2.7532792 2.3875349 3.2271123 2.74011 3.1898096
2.3873653 2.725815 2.725772 -0.7779332 2.9873047 0.11289478 2.152615 2.556889
-1.4548337 -0.4972092 2.820919 0.048978556 0.10293166 3.0229068 -0.55731916 2.8173785
2.2686372 0.07005681 2.7725458 2.438577 2.7382264 2.3534045 3.0921006 2.475257
-2.6313777 -1.9482687 2.2225018 3.1607518 2.869699 3.2789462 2.7752104 3.233209
2.430328 2.7000043 2.5591445 -1.0459756 2.849279 -0.052844655 2.0647109 2.5384119
-0.95928156 -0.9431613 2.8198795 0.07748502 0.16170403 2.9181545 -0.7708808 2.9048052
2.208502 -0.45302 2.7995446 2.528138 2.5113552 2.1244814 2.8383567 2.424464
-2.253294 -2.3637543 2.1228874 3.6694021 2.6313863 3.3158364 2.5694604 3.1627371
-0.26670143 -0.36227882 -0.22417903 1.7418978 -0.6132307 0.108043805 -0.026852157 -0.14020464
2.4900188 1.5306913 -0.5452076 0.14789116 -0.005974105 -0.71770436 1.4948246 -0.42390043
-0.074624605 1.5679398 -0.3537294 -0.23856728 -0.31800988 0.11389692 -0.6905594 -0.18931611
3.209052 3.1526842 0.009315394 0.15153545 -0.3290122 -0.93292993 -0.47515765 -0.7912463
00000000: a144 1040 b2c2 4840 98ad 1040 ae4d c0c0
00000010: 3b19 4a40 009e 4d3c 4139 0940 ce46 1440
00000020: efc9 b240 52f9 bdc0 94df 5d40 9866 16be
00000030: 6118 fbbc 74a3 6540 bfb2 bec0 edf4 6240
00000040: aa6e 943f 3143 acc0 2d05 0c40 0f2a 3840
00000050: f2e7 4640 9348 f53f cded 2440 7d52 3140
00000060: e250 b740 9435 1cc1 89f6 ea3f c92e e140
00000070: aa99 7840 fcff 4640 9692 1140 385b 5c40
00000080: 3e6b 6fbd 3e45 b9bd 98e6 08be e0bc 003e
00000090: 4f5c fbbc 734c 04bd a46d f93d 5c41 05be
000000a0: 5525 0ebe 9c79 e83d 8184 23be 406d bf3d
000000b0: ef17 883d 3ffb d6bd 018d 15be 8168 f53d
000000c0: 5f54 233d 4e2d 27bd 53c9 dbbd b655 113e
000000d0: fcb2 afbd 1374 893d 60d6 2abd a422 e939
000000e0: 5a74 1f3e 9765 f2bd 5387 15be a1d7 09be
000000f0: 698e 473d 8fb9 7b3c 2063 98bd e39a 853d
00000100: 4d4e 0e40 ea02 b33f baaa 1940 6681 a840
00000110: 4d84 7a3f fb9b 00be b631 0740 89ec 1340
00000120: b026 ecc0 cdbb ac40 509e 313f e91f c33d
00000130: 1c0a 373c 9573 353f cfb2 aa40 afe2 553f
00000140: a39a 4240 9e82 aa40 a68d 0b40 a614 c93f
00000150: 12ba bb3f 1909 2640 1620 e53f 9102 dd3f
00000160: ad72 27c1 6ddb 8c40 1b65 2040 cfe7 eec0
00000170: 4f35 853d 2931 903f dec5 0240 2a6d 643f
00000180: 0c43 4dbc a12d 7d3d 92f4 d0bd 03ff 9e3b
00000190: 4678 57bd cc90 9d3d 5cf9 213d 16e9 383c
000001a0: 4ac2 e73d f549 bebd 12a3 30be ca8a 3ebc
000001b0: 274f b53d 23e5 18be 5e4f 12be 0b40 90bd
000001c0: 1d64 c5bd b27c 2abe 1783 4c3d 17e9 6ebd
000001d0: 905b fe3c 8edb e63d db0d 63bc c9e0 863d
000001e0: c56b c5bd 3a1a d5bd 18d1 4cbd a9a1 04be
000001f0: 539e 31be 6e3c 30be b701 bfbd e128 083e
00000200: 3b1b 1f40 3144 2e40 245c 2e40 830c 24be
00000210: 3540 3140 1ecf f33c 6cf3 1d40 3194 2440
00000220: 9fec f8bf c81c 52be b3e6 3a40 b479 063e
00000230: 3898 323d 4759 3a40 f8a6 60bd 8cf4 3640
00000240: b559 1240 e5aa d33e f599 3340 12f0 1b40
00000250: 6c08 2140 a484 1e40 2fc2 4640 dfb9 2840
00000260: 9dc2 57c0 d80e fbbf 2573 1840 ba35 3040
00000270: 5fcd 1840 0289 4e40 f65d 2f40 d725 4c40
00000280: 98ca 1840 c173 2e40 0c73 2e40 a126 47bf
00000290: 0030 3f40 6135 e73d 72c4 0940 12a4 2340
000002a0: fe37 babf 3492 febe f089 3440 bd9d 483d
000002b0: d6cd d23d 4e77 4140 78ac 0ebf ee4f 3440
000002c0: 5a31 1140 f279 8f3d 6471 3140 a511 1c40
000002d0: 1a3f 2f40 2e9e 1640 fae4 4540 9c6a 1e40
000002e0: 7e68 28c0 de60 f9bf 783d 0e40 c249 4a40
000002f0: 26a9 3740 41da 5140 0c9d 3140 e5ec 4e40
00000300: 7e8a 1b40 dfcc 2c40 06c9 2340 87e2 85bf
00000310: 965a 3640 a373 58bd 3924 0440 5775 2240
00000320: 7a93 75bf 0573 71bf e878 3440 77b0 9e3d
00000330: be95 253e 0bc3 3a40 7258 45bf 54e8 3940
00000340: 1958 0d40 3df2 e7be bd2b 3340 03cd 2140
00000350: 0bba 2040 81f7 0740 a3a7 3540 6b2a 1b40
00000360: f835 10c0 c047 17c0 63dd 0740 7cd7 6a40
00000370: a268 2840 aa36 5440 0a72 2440 496a 4a40
00000380: 178d 88be 9c7c b9be 308f 65be 82f6 de3f
00000390: b0fc 1cbf 1246 dd3d 0ef9 dbbc ce91 0fbe
000003a0: 785c 1f40 b1ed c33f ba92 0bbf c870 173e
000003b0: 6dc2 c3bb 79bb 37bf 6a56 bf3f 7a09 d9be
000003c0: c9d4 98bd 40b2 c83f 051c b5be fb4a 74be
000003d0: 31d2 a2be ca42 e93d 80c8 30bf 15dc 41be
000003e0: 1c61 4d40 94c5 4940 989f 183c 1c2c 1b3e
000003f0: 4974 a8be 7fd4 6ebf dd47 f3be 1e8f 4abf

linear4.bias f4 [32]
3.519451 -0.17396364 0.6862549 -0.10256307 -0.13159487 -0.18723498 -0.124619424 2.5226138
0.29589567 3.6877158 -0.16866471 -0.14208028 -0.22332962 1.1198975 2.9549446 -0.2567501
1.1286731 3.3089514 -0.122327074 -0.29377848 -0.18518323 3.698521 -0.23478381 -0.38235384
-0.13089046 0.78119355 0.7744639 -0.164305 -0.16941714 -0.21323775 -0.06145059 -0.18843415
00000000: af3e 6140 8623 32be 67ae 2f3f 960c d2bd
00000010: cec0 06be 87ba 3fbe 7838 ffbd 8172 2140
00000020: a37f 973e 8903 6c40 71b6 2cbe 7e7d 11be
00000030: 85b0 64be cd58 8f3f d01d 3d40 c074 83be
00000040: 5c78 903f dcc5 5340 9e86 fabd 226a 96be
00000050: aca0 3dbe 91b4 6c40 2b6b 70be e2c3 c3be
00000060: 2608 06be 4dfc 473f 4443 463f 923f 28be
00000070: b07b 2dbe ff5a 5abe 9db3 7bbd e2f4 40be

linear5.weight f4 [16, 32]
0.36894557 -0.11303332 0.76005644 0.08400813 2.9358137 3.1559062 3.4437397 -3.9251988
3.301607 -0.4599043 0.14648722 3.570791 3.566346 -4.218373 1.4148822 3.4086297
-3.5472639 -2.3090603 -0.040406767 3.0834463 3.499816 -0.22980845 3.3084624 3.3468297
3.4481282 0.4185106 -3.2601218 3.2367263 3.2136848 3.496903 -0.13707343 3.2309337
3.0032504 -0.13816041 -5.3423815 0.13770868 -0.665746 -0.12077135 0.17176445 4.6792674
1.081592 3.3888834 -0.17603244 0.10542827 0.036989283 0.06568097 2.5552874 -0.04352607
-0.06980572 5.864717 0.13513105 -0.8821475 -0.6074821 3.3587787 -0.020072795 -0.010262284
0.20092882 -5.70693 -0.15508275 -0.20258777 -0.58147424 -0.06583111 0.14206688 -0.502787
4.171441 -0.09058574 -2.631126 -0.11886094 2.564814 3.205403 3.6691427 -6.656509
3.9513257 3.7395647 0.072277136 3.643044 3.468598 -5.5218534 4.543732 3.5919297
-5.395401 1.5914943 -0.043586235 2.7250054 3.2125227 4.303242 3.2980688 3.249244
3.7073615 -3.316466 -4.5705533 2.7491393 3.0816467 3.4440925 0.11204961 2.9779894
0.59279096 -0.15670885 0.7003446 -0.15035336 2.978648 3.0964496 3.5077214 -4.111026
3.2438242 -0.19408137 -0.1104332 3.586285 3.5175884 -4.420053 1.7760067 3.360568
-3.5782797 -2.0683775 -0.077323206 3.081068 3.576705 0.13228214 3.4831927 3.435144
3.4157898 0.18949474 -3.3013043 3.2331758 3.4012654 3.2231297 -0.15371853 3.1270306
0.18319999 -0.076499395 0.842043 0.07105145 3.2376509 3.38225 3.2591534 -3.9138052
3.1347287 -0.5625147 0.14586566 3.4906871 3.535772 -4.36979 1.2992651 3.5937517
-3.256789 -2.5503001 -0.12351726 3.3317182 3.58084 -0.31872267 3.484608 3.346879
3.5167015 0.44002256 -3.3858385 3.0532675 3.3741612 3.525336 -0.097366616 3.3735373
-4.446076 -0.1475946 3.4653187 -0.063285954 3.5517337 3.3657246 3.4480288 -0.6062558
2.7413554 -5.5593634 -0.10650083 3.576052 3.3017073 -1.5977272 -1.7974287 3.5639284
-1.0101562 -8.7995405 0.026537014 3.7041228 3.5753636 -5.223972 3.4853423 3.3566773
3.2184079 3.2069383 -1.2033346 3.3470743 3.5972128 3.5434344 0.0214173 3.5286057
2.4218473 -0.08090109 -0.8893389 -0.025881853 3.016194 3.0599692 3.368981 -5.3792477
3.546304 1.874882 -0.10229737 3.6134908 3.3206758 -5.0867953 3.3046114 3.6326263
-4.3395925 -0.16929698 0.11960653 2.757362 3.3802524 2.4708352 3.5455976 3.255638
3.412012 -1.6290342 -3.666642 3.0706182 3.2063766 3.2158816 0.11286909 3.3180754
0.5805238 0.0023043368 0.006981993 -0.12191518 -0.6161227 -0.4089864 -0.2759624 0.778232
-0.05663888 0.5172102 0.038842935 -0.10566692 -0.23285517 -0.008348232 0.59626055 -0.2888429
-0.0013831966 0.7034265 -0.16057481 -0.497609 -0.57403255 0.3418441 -0.4629391 -0.4023529
-0.10825165 0.008676002 0.06318929 -0.51192284 -0.39718238 -0.45043758 -0.052647904 -0.51057655
00000000: 6fe6 bc3e 037e e7bd 0f93 423f 740c ac3d
00000010: 5fe4 3b40 5efa 4940 3b66 5c40 7536 7bc0
00000020: 874d 5340 9478 ebbe bf00 163e d787 6440
00000030: 033f 6440 e9fc 86c0 dc1a b53f fd26 5a40
00000040: 5f06 63c0 a5c7 13c0 9181 25bd 2f57 4540
00000050: fcfc 5f40 e852 6bbe d9bd 5340 7532 5640
00000060: 22ae 5c40 0547 d63e d6a5 50c0 8626 4f40
00000070: 03ad 4d40 42cd 5f40 fa5c 0cbe 9ec7 4e40
00000080: 4135 4040 ec79 0dbe caf4 aac0 8103 0d3e
00000090: 546e 2abf f856 f7bd 05e3 2f3e 8fbc 9540
000000a0: 9b71 8a3f 77e3 5840 d941 34be c7ea d73d
000000b0: 1382 173d bf83 863d d489 2340 6448 32bd
000000c0: 4df6 8ebd c3ab bb40 cb5f 0a3e 6bd4 61bf
000000d0: f283 1bbf 3bf6 5640 b46f a4bc 2423 28bc
000000e0: 49c0 4d3e 2c9f b6c0 03ce 1ebe 2b73 4fbe
000000f0: 7fdb 14bf 76d2 86bd fb79 113e a6b6 00bf
00000100: 727c 8540 0485 b9bd 5e64 28c0 5d6d f3bd
00000110: ea25 2440 5325 4d40 3cd3 6a40 1f02 d5c0
00000120: 85e2 7c40 0755 6f40 0906 943d a227 6940
00000130: 82fd 5d40 06b3 b0c0 4166 9140 2de2 6540
00000140: 20a7 acc0 16b6 cb3f 7b87 32bd 7d66 2e40
00000150: f999 4d40 29b4 8940 8f13 5340 9df3 4f40
00000160: 6945 6d40 fb40 54c0 f941 92c0 e6f1 2f40
00000170: b339 4540 036c 5c40 447a e53d 6197 3e40
00000180: 26c1 173f 4978 20be c949 333f 3bf6 19be
00000190: 2ba2 3e40 3b2c 4640 827e 6040 868d 83c0
000001a0: d19a 4f40 44bd 46be cd2a e2bd b285 6540
000001b0: 2b20 6140 1371 8dc0 3054 e33f 8c13 5740
000001c0: 8902 65c0 4c60 04c0 a15b 9ebd 3830 4540
000001d0: bce8 6440 f874 073e a1ec 5e40 66d9 5b40
000001e0: 4d9c 5a40 e90a 423e 9248 53c0 5aec 4e40
000001f0: 55ae 5940 c247 4e40 6468 1dbe 4521 4840
00000200: c798 3b3e b7ab 9cbd 2190 573f 6c83 913d
00000210: ac35 4f40 c976 5840 f895 5040 c97b 7ac0
00000220: 659f 4840 f700 10bf cf5d 153e 6b67 5f40
00000230: 174a 6240 52d5 8bc0 524e a63f 0700 6640
00000240: 3b6f 50c0 1e38 23c0 9ef6 fcbd df3a 5540
00000250: 7c2c 6540 9e2f a3be d103 5f40 4433 5640
00000260: a311 6140 a34a e13e 94b1 58c0 bc68 4340
00000270: 42f2 5740 1b9f 6140 2668 c7bd 09e8 5740
00000280: 4146 8ec0 0a23 17be c8c7 5d40 119c 81bd
00000290: 9b4f 6340 0868 5740 81ac 5c40 9533 1bbf
000002a0: 5e72 2f40 4ee6 b1c0 1b1d dabd 09de 6440
000002b0: 2c4f 5340 5382 ccbf 2512 e6bf 6717 6440
000002c0: cc4c 81bf ebca 0cc1 2764 d93c 5910 6d40
000002d0: c2d2 6440 c72a a7c0 d90f 5f40 cdd3 5640
000002e0: 65fa 4d40 7a3e 4d40 de06 9abf 7736 5640
000002f0: bc38 6640 a1c7 6240 5573 af3c add4 6140
00000300: 8cff 1a40 78af a5bd b7ab 63bf 2e06 d4bc
00000310: 5309 4140 89d6 4340 629d 5740 cc22 acc0
00000320: a5f6 6240 22fc ef3f 4981 d1bd 6f43 6740
00000330: f485 5440 07c7 a2c0 c17e 5340 f37c 6840
00000340: f1dd 8ac0 305c 2dbe 45f4 f43d 9e78 3040
00000350: 0e56 5840 2a22 1e40 12eb 6240 5f5c 5040
00000360: 685e 5a40 3184 d0bf 43aa 6ac0 0285 4440
00000370: 4635 4d40 01d1 4d40 e927 e73d 595b 5440
00000380: 359d 143f 5b04 173b 34c9 e43b aaae f9bd
00000390: 38ba 1dbf aa66 d1be f24a 8dbe 363a 473f
000003a0: 2cfe 67bd e367 043f c519 1f3d e667 d8bd
000003b0: 9671 6ebe 06c7 08bc 88a4 183f 37e3 93be
000003c0: 604c b5ba c213 343f b96d 24be 9bc6 febe
000003d0: ccf3 12bf 3106 af3e 5b06 edbe 3301 cebe
000003e0: 0bb3 ddbd ca25 0e3c 6369 813d 600d 03bf
000003f0: 7d5b cbbe c19f e6be 54a5 57bd 25b5 02bf

linear5.bias f4 [16]
-0.55485535 2.9547167 0.75932074 -0.49199912 -0.42835584 -0.18070434 -0.07161634 0.61291295
-0.31395903 0.8756108 -0.7057248 2.3014314 -0.6451778 -0.6898432 0.4450903 -0.060765743
00000000: 000b 0ebf 141a 3d40 d862 423f 4fe7 fbbe
00000010: 7551 dbbe 8f0a 39be 96ab 92bd dde7 1c3f
00000020: 3dbf a0be 0828 603f 61aa 34bf a74a 1340
00000030: 5f2a 25bf 9099 30bf e0e2 e33e 80e5 78bd

output_layer.weight f4 [2, 16]
4.0124817 -6.8632674 1.5393556 3.7566714 4.042861 5.297746 2.726227 0.31106517
3.269042 5.3963585 3.7124758 -3.5964735 3.955962 4.142414 1.929346 -0.07313371
3.1265004 1.591311 4.925167 3.1538265 3.0405354 0.14673087 4.1043215 -0.80352366
3.8379765 -2.534726 3.2319598 5.508822 2.9169374 2.6947348 4.525466 -0.09499818
00000000: 4066 8040 e39f dbc0 9b09 c53f 4e6d 7040
00000010: 1e5f 8140 2387 a940 817a 2e40 ef43 9f3e
00000020: fc37 5140 f8ae ac40 3499 6d40 9f2c 66c0
00000030: 7b2e 7d40 a88e 8440 cff4 f63f 20c7 95bd
00000040: 9518 4840 14b0 cb3f f89a 9d40 4bd8 4940
00000050: 2298 4240 9e40 163e 9a56 8340 bab3 4dbf
00000060: 68a1 7540 f338 22c0 6ed8 4e40 4548 b040
00000070: 1aaf 3a40 8976 2c40 9ed0 9040 688e c2bd

output_layer.bias f4 [2]
0.0031445506 0.49830553
00000000: ce14 4e3b e721 ff3e
