results/models/exp-4:batchsize=128,lr=1e-4,width=128,adam-corrected/3/model-200.0.pt (torch, 72304 bytes, 6 tensors)

linear1.weight f4 [128, 4]
0	0x3ea5221e	0.32252592
1	0xbe3b6186	-0.18298921
2	0x3e91e61b	0.2849587
3	0x3ea083b7	0.3135049
4	0xbe9c290d	-0.3050007
5	0xbf2461f2	-0.6421195
6	0xbfb168c5	-1.3860098
7	0xbf0c2203	-0.547394
8	0x3e578bae	0.21049377
9	0xbf34daa7	-0.70646137
10	0xbfb1abfe	-1.3880613
11	0xbf38fecd	-0.72263795
12	0x3db75468	0.08951646
13	0x3ec27383	0.37978753
14	0x3da626eb	0.08112892
15	0x3e6c3c85	0.23069961
16	0x3eaa36a0	0.332448
17	0x3e822e45	0.25425926
18	0x3ea5dcfc	0.3239516
19	0x3dc7c35c	0.09754059
20	0x3f99348d	1.1969162
21	0x3ef84a5d	0.48494235
22	0x3f4a9b48	0.7914319
23	0xbe2d5c7b	-0.1692981
24	0x3e81f6c2	0.25383574
25	0xbf3f83a0	-0.7481022
26	0xbecb79d0	-0.39741373
27	0xbe704acb	-0.23466031
28	0x3f1fa0d0	0.62354755
29	0x3f202561	0.62557036
30	0x3fc2701b	1.5190462
31	0x3f03ee70	0.515357
32	0x3d6e2ecf	0.05815011
33	0x3e8c468d	0.27397576
34	0x3f38c29a	0.7217194
35	0xbe811097	-0.2520797
36	0xbdf44784	-0.11927703
37	0xbf058e9e	-0.5217074
38	0xbf52e985	-0.8238757
39	0xbdc0e48c	-0.09418592
40	0xbf84fd46	-1.0389793
41	0x3f3cbc0d	0.7372444
42	0x3ec2db8f	0.38058135
43	0x3f0a70b1	0.54078203
44	0xbf77534a	-0.96611464
45	0xbf43c4da	-0.76472247
46	0xbffe1130	-1.9848995
47	0xbf3357ab	-0.70055646
48	0xbee3a851	-0.44464353
49	0x3e9400fe	0.28907007
50	0x3fa14299	1.2598449
51	0x3efba763	0.49151143
52	0xbec3912b	-0.38196692
53	0xbea061af	-0.31324527
54	0x3e6e1784	0.23251158
55	0xbc3200ea	-0.010864476
56	0xbf4ca304	-0.7993624
57	0x3e88e4a5	0.26736942
58	0x3f319a77	0.6937632
59	0x3e9c87f2	0.30572468
60	0xbeaf7349	-0.34267643
61	0x3f2b7962	0.6698209
62	0x3f6fff41	0.9374886
63	0x3ebdb834	0.37054598
64	0x3c680b1e	0.014162807
65	0x3eb69120	0.35657597
66	0xbf2b1d82	-0.668419
67	0xbdea1707	-0.11430173
68	0x3e829a44	0.2550832
69	0xbd41359f	-0.047170278
70	0x3e8a2a72	0.26985508
71	0x3eb78a6d	0.35847798
72	0xbe21cc33	-0.15800552
73	0x3eba0d8c	0.3633846
74	0xb913b0fa	-0.00014084941
75	0xbdcf41a4	-0.10119942
76	0xbebbeb95	-0.36703172
77	0x3f1244bf	0.5713615
78	0xbdda9e00	-0.10674667
79	0x3ea9f661	0.33195785
80	0xbf07ba40	-0.5301857
81	0x3e08e501	0.13368608
82	0xbf01e6a4	-0.50742555
83	0xbe104fa3	-0.14092879
84	0xbe963e13	-0.29344234
85	0xbf5c0ecf	-0.85960096
86	0xbee1ce06	-0.44102496
87	0xbe939c77	-0.2883031
88	0x3ed0e5bd	0.40800276
89	0x3ea4ddc0	0.32200432
90	0xbe9ca391	-0.3059354
91	0xbd0378fb	-0.032097798
92	0xbf9afdea	-1.2108738
93	0xbe533c3f	-0.20628451
94	0xbf1ed390	-0.6204157
95	0xbd78e485	-0.06076481
96	0xbef7fcfa	-0.48435193
97	0x3ea91b36	0.33028573
98	0x3fa31bd9	1.2742873
99	0x3f015af2	0.50529397
100	0x3faba264	1.3408933
101	0x3ed3aac9	0.41341236
102	0x3ebb1e2e	0.36546463
103	0x3c27354c	0.010205578
104	0x3ed13471	0.40860322
105	0x3ef06f7d	0.4696006
106	0x3f5e77e1	0.8690167
107	0x3ed431e4	0.41444314
108	0x3f102878	0.5631175
109	0x3c94a15d	0.01814335
110	0xbf085a82	-0.53263104
111	0x3eb34e21	0.35020545
112	0xbf325582	-0.69661725
113	0xbf372fe4	-0.7155745
114	0xbffdc836	-1.9826725
115	0xbf207422	-0.62677205
116	0x3ec19b2d	0.37813702
117	0x3ed063b2	0.4070106
118	0x3d06a855	0.032875378
119	0x3ea71fd8	0.32641482
120	0xbe5ac68b	-0.213648
121	0x3da96a9c	0.08272287
122	0x3fcf403e	1.619148
123	0x3e4b92b1	0.19880177
124	0x3f49077a	0.78527033
125	0xbeb6bdea	-0.35691768
126	0xbf27c7fd	-0.6553953
127	0xbede1243	-0.43373308
128	0xbf2c9bd9	-0.67425305
129	0xbf0b5662	-0.54428685
130	0xbf82a985	-1.0207983
131	0xbf1a8457	-0.60358185
132	0x3e35c19f	0.17749642
133	0x3e1a2540	0.15053272
134	0x3f928943	1.1448139
135	0x3f18ad7a	0.59639704
136	0x3ea87903	0.32904825
137	0x3e9fde51	0.312243
138	0x3ecc9c16	0.39962834
139	0x3e4dfb79	0.2011546
140	0xbbe19a33	-0.006884837
141	0x3e6c06e6	0.23049507
142	0x3ca6006b	0.020263871
143	0x3ee3f5c0	0.4452343
144	0x3e44dd8c	0.19225138
145	0x3da8b1c2	0.082370296
146	0xbe6456cb	-0.22298734
147	0xbe02848d	-0.12745877
148	0x3eb935a9	0.36173752
149	0xbedb7048	-0.428591
150	0xbf47c53e	-0.7803534
151	0xbf2a19fa	-0.6644589
152	0xbe11bdec	-0.14232606
153	0x3f135574	0.57552266
154	0x3f3c0a97	0.7345366
155	0x3d2eb134	0.042649463
156	0xbe61d1a8	-0.22052634
157	0x3ecef980	0.40424728
158	0x3f89b667	1.075879
159	0x3f22a7d4	0.63537335
160	0x3f626358	0.88432837
161	0xbe882206	-0.26588458
162	0xbf4d3341	-0.8015633
163	0xbdf58879	-0.11988921
164	0xbe9c2f05	-0.30504623
165	0x3f15b87d	0.5848463
166	0xbdfcb56e	-0.123392925
167	0xbe292c3d	-0.16520782
168	0xbecb850f	-0.39749953
169	0x3dbfbed9	0.09362573
170	0x3f61a4bc	0.8814199
171	0x3ebd4948	0.36969972
172	0xbece7657	-0.4032466
173	0x3e87d590	0.26530123
174	0x3ca071f2	0.019585583
175	0x3ebb661f	0.3660135
176	0xbf489379	-0.78350025
177	0xbf00c586	-0.50301397
178	0xbdadf878	-0.08494657
179	0x3e33c624	0.17556053
180	0xbe948939	-0.29010943
181	0xbe9c14cd	-0.3048462
182	0xbed6d600	-0.41960144
183	0xbd837c20	-0.06420159
184	0x3e840104	0.25782025
185	0x3edc36a2	0.43010432
186	0xbf5f612f	-0.87257665
187	0xbf2202f5	-0.6328576
188	0x3e0b555c	0.13606781
189	0x3e83f037	0.25769207
190	0x3d8b3b2a	0.06798394
191	0x3d894af1	0.06703747
192	0x3ebafad3	0.3651949
193	0x3d6f3e82	0.05840922
194	0xbe13220c	-0.14368457
195	0xbe717c31	-0.23582532
196	0xbf8ebd2b	-1.115148
197	0xbedb3313	-0.42812404
198	0xbe3db675	-0.18526633
199	0x3e1d9d5e	0.15392062
200	0xbe19b839	-0.15011682
201	0xbf3aa857	-0.72913116
202	0xbfecf1f4	-1.8511338
203	0xbf33008d	-0.69922715
204	0x3f545935	0.8294862
205	0x3eaa1bad	0.3322424
206	0x3f9834be	1.1891096
207	0x3ecefba2	0.40426356
208	0xbf09b74b	-0.5379531
209	0xbeb153af	-0.34634158
210	0xbf8825f9	-1.0636588
211	0xbe4d5429	-0.20051636
212	0x3ef23775	0.47307935
213	0x3e39fbb2	0.1816242
214	0xbf1ee3c1	-0.62066275
215	0xbe418982	-0.18900111
216	0xbed958ef	-0.42450663
217	0xbe9cd5ef	-0.30631968
218	0xbe9fc268	-0.31203008
219	0xbd222443	-0.039585363
220	0x3e9e803a	0.30957204
221	0xbddfaa6b	-0.109211765
222	0xbeb8de7c	-0.36107242
223	0xbe8cecac	-0.27524316
224	0xbf11b1d2	-0.5691196
225	0x3f0dcc11	0.55389506
226	0x3e516dbb	0.20452015
227	0x3e03318b	0.12811868
228	0xbf5d32f1	-0.86405855
229	0xbf012239	-0.50442845
230	0xbe18af32	-0.14910582
231	0x3cabbd5f	0.020964323
232	0x3f7409b4	0.95327306
233	0x3f30563b	0.6888158
234	0x3fc07ebf	1.503868
235	0x3f0a6d2c	0.54072833
236	0xbf159f5d	-0.58446294
237	0xbee957ec	-0.45574892
238	0xbfb56f6b	-1.4174627
239	0xbecd4fcd	-0.40099946
240	0x3fc9c9f7	1.576476
241	0x3f0b68f0	0.54456997
242	0x3fa92455	1.3214213
243	0x3ed79b32	0.42110592
244	0xbea820f9	-0.32837656
245	0xbee47374	-0.44619334
246	0xbf1e928c	-0.6194236
247	0xbedc77e6	-0.43060225
248	0x3cab306d	0.020897115
249	0x3c9ae352	0.018907223
250	0x3f6121d2	0.8794223
251	0x3f0183d9	0.5059181
252	0x3d8094b1	0.06278361
253	0x3ec57458	0.38565326
254	0xbc6fcedb	-0.0146367205
255	0x3ea72388	0.32644296

linear1.bias f4 [128]
0	0x3f3f0302	0.74613965
1	0x3e85d38c	0.2613796
2	0xbed09afa	-0.40743238
3	0x3f052140	0.5200386
4	0x3f317633	0.6932098
5	0x3f1f3d01	0.6220246
6	0x3e5ee4fe	0.21767041
7	0x3e9bd44e	0.30435413
8	0x3f1ee33a	0.6206547
9	0x3e8173f0	0.25283766
10	0x3dc8d379	0.0980596
11	0xbdc9d307	-0.098547034
12	0xbf00e89f	-0.5035495
13	0x3f2676f9	0.6502529
14	0xbe823615	-0.25431886
15	0x3e8b944b	0.27261576
16	0xbe6fea59	-0.2342924
17	0x3f30fda1	0.69137007
18	0x3f3ed146	0.74538076
19	0x3eb62953	0.35578403
20	0x3eea790f	0.45795485
21	0x3ea2a603	0.31767282
22	0x3f49e1a7	0.78859943
23	0xbe986cd6	-0.29770535
24	0xbf05e25c	-0.5229852
25	0x3ec8b77f	0.39202496
26	0x3ea14aae	0.3150229
27	0x3ec0b871	0.37640718
28	0xbac97d23	-0.0015372377
29	0x3f280c92	0.6564418
30	0xbebf4833	-0.3735977
31	0xbc3470f6	-0.01101326
32	0x3d43e983	0.047830116
33	0xbe9e5740	-0.3092594
34	0x3f04e2cb	0.5190856
35	0x3f01e125	0.5073417
36	0x3ef83175	0.48475233
37	0xbf055201	-0.52078253
38	0x3eccf363	0.4002944
39	0xbef9ecf5	-0.48813596
40	0x3ef7d429	0.48404053
41	0x3ef2051e	0.4726953
42	0xbe9ae3c6	-0.30251902
43	0x3f08a8bd	0.53382474
44	0x3f029dfd	0.5102232
45	0x3f11bcc8	0.5692868
46	0xbf073edb	-0.52830285
47	0x3f2cd854	0.6751759
48	0x3eaa22b9	0.33229616
49	0x3eb7965b	0.358569
50	0x3e0e0fba	0.13873187
51	0x3de56bfa	0.112022355
52	0x3f1bc0ae	0.6084088
53	0xbf1d637d	-0.6147993
54	0x3f09fdf5	0.5390313
55	0x3f1b268e	0.60605705
56	0x3ee51735	0.44744268
57	0x3f666d16	0.900102
58	0x3d8a5c82	0.06755926
59	0x3e9458f9	0.2897413
60	0x3ded4570	0.1158551
61	0x3efde253	0.49586734
62	0xbf90c928	-1.1311388
63	0x3eb608f2	0.355537
64	0xbec38a22	-0.38191324
65	0xbec96981	-0.39338306
66	0x3f352f65	0.70775443
67	0x3f2117b3	0.6292679
68	0x3f34985a	0.7054497
69	0xbefa3acb	-0.4887298
70	0x3f00f669	0.5037599
71	0xbdd7a586	-0.10529618
72	0x3c9e67c2	0.019336585
73	0x3f2e7381	0.68144995
74	0xbe8da1df	-0.2766256
75	0x3e739e7c	0.23790926
76	0xbe8c9606	-0.2745821
77	0x3de04b50	0.10951865
78	0x3f34dd11	0.7064982
79	0x3e57a107	0.21057521
80	0x3dbfd183	0.09366133
81	0x3f26e83b	0.65198106
82	0xbd5214cf	-0.051289376
83	0x3f0ae1df	0.542509
84	0xbdafc751	-0.085829385
85	0xbeb7632f	-0.3581786
86	0xbc8c9cef	-0.017164676
87	0x3e9d3288	0.30702615
88	0xbe70e8b3	-0.23526268
89	0x3ec04d2b	0.37558874
90	0xbe745d06	-0.2386361
91	0xbf2792b0	-0.654582
92	0x3f0be320	0.5464344
93	0x3ef31537	0.47477123
94	0x3f081846	0.5316204
95	0x3f43de57	0.7651114
96	0x3c785c79	0.015158766
97	0x3dd772aa	0.10519917
98	0x3f330e09	0.6994329
99	0x3db86331	0.09003294
100	0x3e6c77a2	0.23092511
101	0x3f0fd8b1	0.5619002
102	0xbd907190	-0.0705291
103	0xbeac1f3f	-0.3361759
104	0x3efed593	0.4977232
105	0x3f13d91a	0.57753146
106	0xbf1c0e9d	-0.609598
107	0xbe8e7f50	-0.27831507
108	0x3f313df2	0.69235146
109	0xbea9abb9	-0.33138826
110	0x3cd09cdf	0.025465427
111	0x3e836c0a	0.25668365
112	0xbe781493	-0.24226598
113	0x3f2dd5d8	0.67904425
114	0x3eba7730	0.36419058
115	0x3b839c04	0.0040164012
116	0x3ecf2b3a	0.40462667
117	0x3df36177	0.11883824
118	0xbcbac937	-0.022801025
119	0x3e8ba5a6	0.27274817
120	0xbeb4cf0a	-0.35314208
121	0xbf186ce0	-0.5954113
122	0x3ed2b5f6	0.4115445
123	0x3ec00624	0.37504685
124	0x3eeee961	0.4666243
125	0x3f334419	0.70025784
126	0x3e18c349	0.14918245
127	0xbf16fd2b	-0.58980054

linear2.weight f4 [128, 128]
0	0x3e2cd5ce	0.16878435
1	0xbf09378e	-0.53600395
2	0xbf5e9498	-0.86945486
3	0x3d7901bf	0.06079268
4	0x3dcfdbfc	0.101493806
5	0xbe456450	-0.19276547
6	0x3e4f6790	0.2025435
7	0xbf5a379d	-0.8524111
8	0x3cfe2a59	0.031026052
9	0xbd30fe7c	-0.043211445
10	0x3f1d3124	0.6140311
11	0xc0004eb7	-2.0048044
12	0x3e59a605	0.21254738
13	0x3e45de0d	0.19322987
14	0xbd38c1a3	-0.04510654
15	0x3e2af313	0.16694288
16	0x3cb54fd3	0.02213279
17	0x3dc741a8	0.0972932
18	0x3dfa91e2	0.12234856
19	0x3dc402eb	0.09570869
20	0x3d0a5900	0.033776283
21	0xbdced1d0	-0.10098612
22	0x3c5d2cd3	0.013499456
23	0xbdf213aa	-0.11820157
24	0xbdf37729	-0.11887962
25	0xbf00997b	-0.5023419
26	0xbf04ae8f	-0.51828855
27	0x3e49aeed	0.19695635
28	0xc00c8209	-2.1954367
29	0xbc86149a	-0.016367245
30	0xbe26d100	-0.16290665
31	0x3f7f6698	0.9976592
32	0x3f25bfa4	0.64745545
33	0x3db8ff61	0.09033085
34	0x3dfec582	0.124400154
35	0x3e11bfc2	0.14233306
36	0x3de040da	0.109498695
37	0xbf4961b2	-0.78664696
38	0x3e87cf5e	0.26525396
39	0xbe7f7a78	-0.24949062
40	0xbd784093	-0.060608458
41	0x3e1231df	0.14276837
42	0x3eb61d6b	0.3556932
43	0x3e44285e	0.19156024
44	0xbe8a642f	-0.2702956
45	0x3df50489	0.11963756
46	0xbe63645c	-0.22206253
47	0x3defde1a	0.117122844
48	0x3d81e47d	0.06342409
49	0xbe38a90c	-0.18033236
50	0xbf5d70f3	-0.8650047
51	0xbf0cb38e	-0.5496148
52	0x3dc2688a	0.094925955
53	0xbf072b8c	-0.5280082
54	0x3d3f0aaf	0.046641048
55	0x3d90d3fe	0.07071684
56	0x3e84fb82	0.25973135
57	0xbdece441	-0.115669735
58	0xbfa3c29a	-1.2793763
59	0xbed3aace	-0.4134125
60	0xbfb8043f	-1.4376296
61	0x3d8efe6f	0.06982123
62	0xbe670f70	-0.22564483
63	0x3da1912c	0.078890175
64	0x3e92e233	0.286882
65	0xbe8fbf9c	-0.28075874
66	0x3de272db	0.11057063
67	0x3e0a3343	0.13496117
68	0x3e13b5a5	0.1442476
69	0xbeedd3be	-0.4645061
70	0x3dfd9c03	0.123832725
71	0x3de2c4f9	0.11072726
72	0x3cefa6b7	0.0292543
73	0x3e292bc5	0.16520603
74	0xbf1c2190	-0.6098871
75	0x3e55d6c5	0.2088271
76	0x3eceb9da	0.40376168
77	0x3f7ed740	0.99547195
78	0x3deacf57	0.11465328
79	0x3e396e81	0.1810856
80	0x3c110c66	0.008853054
81	0x3e20fa3d	0.15720458
82	0x3ec21745	0.37908378
83	0x3df2d808	0.11857611
84	0xbf158fc8	-0.5842252
85	0x3f515af2	0.81779397
86	0x3fbe6212	1.4873679
87	0x3db0aa19	0.086261936
88	0xbf85f5cf	-1.046564
89	0x3d8d12e5	0.068883695
90	0x3c73ede7	0.014888263
91	0xbf434e55	-0.762914
92	0xbe0b826c	-0.13623971
93	0x3e5ae3f7	0.21376024
94	0x3dac4ee1	0.084134825
95	0x3e4f7149	0.20258059
96	0xbfcf11f8	-1.6177359
97	0x3fb3dc3d	1.4051586
98	0x3c39f30d	0.011349452
99	0x3f1425db	0.5787026
100	0x3e92cb5f	0.28670785
101	0x3c25068f	0.0100723645
102	0xc0005226	-2.005014
103	0xbf2d69fc	-0.67739844
104	0x3e1eedd7	0.15520416
105	0x3d7da572	0.06192536
106	0xbf80baa0	-1.0056953
107	0xbf649433	-0.89288634
108	0x3e1f1cc1	0.15538312
109	0x3d996f84	0.07491973
110	0x3ee156c7	0.44011518
111	0xbf0f64c8	-0.56013155
112	0xbee92c56	-0.45541638
113	0x3de79582	0.11307813
114	0x3d3f1a8c	0.046656176
115	0xbd2f05fb	-0.042730313
116	0x3d45b3bb	0.048267107
117	0x3e99b7f5	0.3002316
118	0xbef24375	-0.4731709
119	0xbf2bfa92	-0.67179215
120	0xbe48a6f6	-0.1959494
121	0xbf298fff	-0.66235346
122	0x3ca4c25e	0.020112213
123	0x3e14f571	0.14546753
124	0xbee86471	-0.4538913
125	0x3cefea3d	0.029286498
126	0x3f98b7de	1.1931112
127	0xbea42739	-0.32061175
128	0x3dbed847	0.093185954
129	0xbf52a2b6	-0.8227953
130	0xbf58fe5e	-0.84763134
131	0x3d621b8f	0.055202063
132	0x3e18a16a	0.14905325
133	0xbe864705	-0.2622606
134	0x3e19e96c	0.1503045
135	0xbf5d481b	-0.8643815
136	0x3d75350b	0.05986504
137	0x3dc77aaf	0.09740197
138	0x3f08061b	0.53134316
139	0xc00aaf1d	-2.166938
140	0x3d10c08b	0.035339873
141	0x3e1564ce	0.14589235
142	0xbe80fb1e	-0.25191587
143	0x3e65f17a	0.22455397
144	0x3e2043b6	0.1565083
145	0x3e5c0ace	0.21488497
146	0x3c99a1e2	0.01875395
147	0x3e11af55	0.1422704
148	0xbd0da7fc	-0.03458403
149	0x3d3e99ed	0.046533514
150	0x3ca2350b	0.019800683
151	0xbefd00f0	-0.49414778
152	0xbee04f0b	-0.43810305
153	0xbeecb837	-0.46234295
154	0xbedefb90	-0.43551302
155	0x3e1ab3f7	0.15107714
156	0xc010bfa9	-2.261698
157	0x3dc44b2d	0.09584651
158	0xbee3ccf8	-0.44492316
159	0x3f8fbb5b	1.1229051
160	0x3cd37fac	0.025817715
161	0xbed7e635	-0.42167822
162	0x3dae5c1b	0.085136615
163	0x3e5ba158	0.21448267
164	0x3e12ab67	0.14323197
165	0xbf5bd9a7	-0.85878986
166	0x3e626f2f	0.22112726
167	0xbecd0017	-0.4003913
168	0x3e0af603	0.13570409
169	0x3dbe6e72	0.092984095
170	0x3e939236	0.28822488
171	0x3d8f32d6	0.06992118
172	0xbec92a32	-0.39290005
173	0xbbb36cd5	-0.0054756203
174	0x3f16b442	0.588688
175	0x3e4b5ede	0.19860408
176	0x3d44e15a	0.048066474
177	0xbea0520f	-0.31312606
178	0xbfb7b788	-1.4352884
179	0xbefd9d96	-0.4953429
180	0xbdb784a0	-0.08960843
181	0xbeecf868	-0.4628327
182	0x3d22af7a	0.03971813
183	0x3df34acb	0.118795
184	0x3ba30e82	0.0049760947
185	0xbe22954b	-0.15877263
186	0xbf8871b3	-1.0659698
187	0xbf5732e4	-0.8406203
188	0xbf9d7119	-1.230014
189	0x3e1420ae	0.14465591
190	0xbe5155f5	-0.20442946
191	0x3d8f94ea	0.07010825
192	0x3e7a35c4	0.24434572
193	0xbf0625fd	-0.52401716
194	0x3d4221b4	0.047395423
195	0x3dda73f0	0.106666446
196	0x3e31f1a1	0.1737733
197	0x3b9c268a	0.0047653364
198	0x3d5b4e6c	0.053541586
199	0xbe176cf8	-0.14787662
200	0x3c6071bf	0.013698994
201	0x3e3c567d	0.18392368
202	0xbf10c9ce	-0.5655793
203	0x3e16081f	0.14651535
204	0xbe848a0a	-0.25886565
205	0x3f54102d	0.8283718
206	0x3e25e6e9	0.16201366
207	0x3e2355a1	0.15950634
208	0xbbcbdd24	-0.0062214304
209	0x3d0fe771	0.03513283
210	0xbca56b21	-0.020192685
211	0x3c2015ff	0.009770869
212	0xbf5d4e19	-0.8644729
213	0x3f410f72	0.7541419
214	0x3fb8225e	1.4385488
215	0x3d52c3d8	0.051456302
216	0xbf914389	-1.1348735
217	0x3d0cc0f9	0.03436372
218	0xbd811e96	-0.06304662
219	0xbf49f4f8	-0.7888942
220	0xbcc4d46b	-0.02402707
221	0x3e55db8c	0.20884532
222	0xbc6ae169	-0.0143359685
223	0x3e059894	0.13046485
224	0xbfdfb548	-1.7477198
225	0x3f9d896c	1.2307563
226	0x3d523946	0.05132415
227	0x3ebe0216	0.37110966
228	0x3e93f669	0.28898934
229	0x3e414ed0	0.18877721
230	0xc0056e0a	-2.0848413
231	0xbf682f01	-0.9069672
232	0x3e21cc75	0.1580065
233	0x3e2b10c8	0.1670562
234	0xbf9d908c	-1.2309737
235	0xbf5b2cdf	-0.8561534
236	0x3e6e5bc9	0.23277201
237	0x3e28262e	0.16420814
238	0x3dfdc481	0.12390996
239	0xbf45266c	-0.7701175
240	0x3c499699	0.012303972
241	0x3e1a1422	0.15046743
242	0x3dd724de	0.10505079
243	0xbf1f1a1b	-0.6214921
244	0x3d0ad93d	0.03389858
245	0x3e89f176	0.26942033
246	0xbfa61f2e	-1.2978265
247	0xbf164701	-0.58702093
248	0xbe62b4d9	-0.221393
249	0xbf5849d1	-0.84487635
250	0x3e3ab6c4	0.18233782
251	0x3e276464	0.1634689
252	0xbeb3b635	-0.3509995
253	0x3e15a50c	0.14613742
254	0x3f92e3ba	1.1475747
255	0x3e83a670	0.2571292

linear2.bias f4 [128]
0	0x3d4bfd62	0.04980219
1	0x3e4015be	0.18758294
2	0x3e8aef25	0.27135578
3	0x3e8ebd0f	0.27878615
4	0x3de05dc6	0.10955386
5	0x3e3a4d6a	0.18193594
6	0x3e54d74c	0.20785254
7	0x3ae09c6f	0.0017136465
8	0x3db752a2	0.08951308
9	0x3ec1a66b	0.3782228
10	0xbcdeb210	-0.027184516
11	0x3c7c42c5	0.0153967785
12	0x3e5c6e4d	0.21526451
13	0x3db608e5	0.08888415
14	0xbcc20357	-0.023683233
15	0xbdac8a95	-0.0842487
16	0xbda0366e	-0.07822882
17	0x3e3a3418	0.18183935
18	0x3e361949	0.17783083
19	0x3d3a105b	0.045425754
20	0x3e30b2b5	0.17255671
21	0xbc7f48b5	-0.0155813
22	0x3e8b52ae	0.27211517
23	0x3e9ab049	0.3021262
24	0x3e8dc126	0.27686423
25	0x3e9e47c0	0.30914116
26	0x3ea3c0f9	0.31983164
27	0x3e3b6a5a	0.18302289
28	0xbe6d157b	-0.23152725
29	0x3d538918	0.051644415
30	0xbdd78120	-0.105226755
31	0x3da118aa	0.078660324
32	0xbdafb341	-0.08579112
33	0xbe680f3e	-0.22662064
34	0x3ee16391	0.44021276
35	0xbd84a111	-0.064760335
36	0x3df914cc	0.1216217
37	0x3ee8975d	0.4542798
38	0x3ed34aeb	0.41268095
39	0xbe61a68f	-0.22036193
40	0x3c1d2f97	0.009593866
41	0x3e8f0b8b	0.27938494
42	0x3e980af3	0.29695854
43	0xbe36ed83	-0.17864041
44	0xbd975d5d	-0.073908545
45	0x3f07c699	0.5303741
46	0x3d5bb954	0.05364354
47	0x3e997412	0.29971367
48	0x3ee9767d	0.45598212
49	0x3d1e8cb1	0.038708393
50	0x3e535da0	0.20641184
51	0x3ddd3661	0.108013876
52	0x3e92113b	0.2852877
53	0x3d355a04	0.0442753
54	0xbda9163e	-0.082561955
55	0x3c635df1	0.013877378
56	0xbdb3d251	-0.08780349
57	0xbd4c5b2b	-0.049891632
58	0x3deae516	0.11469476
59	0xbd31db7a	-0.0434222
60	0xbd3ff5a2	-0.046865113
61	0x3e93a48f	0.28836486
62	0x3db0b016	0.08627336
63	0x3dbfe413	0.093696736
64	0xbd1fc3a3	-0.039004933
65	0x3e49029e	0.19629905
66	0x3da39eca	0.07989271
67	0x3e0fb6da	0.14034596
68	0x3bc44ab0	0.0059903488
69	0x3ee972bf	0.45595357
70	0x3dad6309	0.08466155
71	0x3e2e0eb6	0.169978
72	0x3d88641e	0.06659721
73	0x3d999451	0.07498992
74	0x3e6b427d	0.22974582
75	0x3e676cf9	0.22600164
76	0xbcf7a4bf	-0.030229924
77	0xbb5dfb6e	-0.0033871788
78	0x3e30189d	0.17196889
79	0xbd5ba9de	-0.053628795
80	0x3e114f32	0.14190367
81	0x3e99724a	0.29970008
82	0xbc272dcd	-0.010203791
83	0xbb7b6a5e	-0.003836296
84	0x3bf181e3	0.00737022
85	0xbdabda0d	-0.08391199
86	0xbcb055a2	-0.021525208
87	0x3ee5e9db	0.4490498
88	0x3ec73559	0.3890789
89	0xbb4360f3	-0.0029812425
90	0xbe42c5e3	-0.190208
91	0x3dc0c79e	0.09413074
92	0x3db79691	0.08964265
93	0x3e028ac7	0.12748252
94	0x3e4d2686	0.20034227
95	0x3a0b6bbf	0.00053184846
96	0xbec9add0	-0.3939042
97	0xbb346e69	-0.002753163
98	0x3e0e8700	0.13918686
99	0x3e6cf093	0.23138647
100	0x3d25c547	0.04047134
101	0x3ceecf00	0.02915144
102	0xbd804f56	-0.06265132
103	0x3d3daa09	0.046304736
104	0x3ec9ae75	0.39390913
105	0xbdfe8f9c	-0.12429735
106	0x3cd4a5fd	0.025958056
107	0x3eaaaddf	0.33335778
108	0x3d31308b	0.043259185
109	0x37ba3c9e	2.2201155e-05
110	0x3d9c9c92	0.07647051
111	0x3f031ab8	0.51212645
112	0x3ea301a6	0.31837195
113	0x3ed84e0e	0.4224705
114	0x3d7a7d75	0.0611548
115	0xbe097e1e	-0.13427016
116	0x3ea3ff43	0.32030687
117	0x3d8754a5	0.066079415
118	0x3e9e2f26	0.30895346
119	0x3e55ee14	0.20891601
120	0x3dbd197b	0.09233376
121	0xbc6bf7f8	-0.014402382
122	0x3dfe43f6	0.12415306
123	0x3dd3a3da	0.103339866
124	0x3e06ecc4	0.13176256
125	0x3c9d7230	0.019219488
126	0x3e63bedd	0.22240777
127	0x3dc96e8d	0.09835539

output_layer.weight f4 [2, 128]
0	0x3f78738b	0.97051305
1	0x3f6a85a6	0.9161018
2	0x3f2f2670	0.68418026
3	0xbf578964	-0.84194016
4	0x3f386582	0.7202989
5	0x3f6da9f8	0.92837477
6	0x3f25c864	0.64758897
7	0x3f957453	1.1676124
8	0x3fa71a61	1.3054925
9	0xbf5d8048	-0.86523867
10	0xbd6bb547	-0.057545926
11	0xbd415483	-0.047199737
12	0xbf74153b	-0.95344895
13	0x3f657c5a	0.8964287
14	0xbd797543	-0.060902845
15	0xbd95f942	-0.07322933
16	0x3d60ec20	0.054912686
17	0x3f1f937c	0.6233442
18	0x3f783539	0.9695621
19	0x3f88e71b	1.0695528
20	0x3f924fed	1.1430641
21	0x3caf8e9c	0.021430306
22	0x3f3726dd	0.71543676
23	0x3f2b85e5	0.6700118
24	0x3f16b668	0.5887208
25	0xbf430d77	-0.7619242
26	0xbf51ac33	-0.8190338
27	0x3f19e826	0.60119855
28	0xbf42bee7	-0.76072544
29	0xbf64cfb6	-0.8937944
30	0xbfd04c72	-1.6273329
31	0xbf80d660	-1.0065422
32	0x3d1bc8c0	0.038033247
33	0xbf92dbc4	-1.1473317
34	0x3f24130c	0.64091563
35	0xbf8486c6	-1.035363
36	0x3f2f0e72	0.68381417
37	0x3e5ea496	0.21742472
38	0x3f2f54e2	0.68488896
39	0xbf916eeb	-1.1361974
40	0xbd579435	-0.052631576
41	0x3f2c3ad4	0.67277265
42	0x3f04a169	0.5180879
43	0xbfa9468e	-1.3224657
44	0xbf8fd595	-1.1237055
45	0x3efd93bd	0.49526778
46	0x3ce07cb6	0.027403217
47	0x3f3c9576	0.7366556
48	0x3ed3ef52	0.41393524
49	0x3d972cb2	0.07381572
50	0x3f2bf137	0.6716494
51	0x3f353f2d	0.70799524
52	0x3f388127	0.7207207
53	0x3f1e4329	0.6182123
54	0x3c27d448	0.010243483
55	0xbf4c4915	-0.79799014
56	0xbbe704d8	-0.007050138
57	0xbb8b8f6f	-0.004259042
58	0x3f68f142	0.9099313
59	0xbd5f93bf	-0.05458426
60	0x3db2e30d	0.08734713
61	0x3f2e3faa	0.68065894
62	0x3f7cdf3c	0.9877813
63	0x3f6ad9a1	0.91738325
64	0xbc322a1c	-0.0108742975
65	0x3f3c0cad	0.7345684
66	0x3f718b5a	0.9435326
67	0x3fb51981	1.4148408
68	0x3f62919d	0.8850344
69	0x3f2a196c	0.6644504
70	0x3f782816	0.96936166
71	0x3f0e2633	0.5552704
72	0x3ebbb1ee	0.36659187
73	0x3fb20f51	1.3910924
74	0x3f2225a2	0.63338673
75	0x3f583c20	0.84466743
76	0xbd026c08	-0.031841308
77	0x3d46fdb2	0.048581786
78	0x3f39a4d5	0.7251714
79	0x3d36bb4e	0.04461222
80	0x3f98653f	1.1905898
81	0xbf4b8dec	-0.7951343
82	0xbce36347	-0.0277573
83	0xbf0a881b	-0.5411393
84	0xbd4fe5d9	-0.05075631
85	0x3d103738	0.03520891
86	0xbd70073d	-0.058600653
87	0xbf51df1f	-0.8198108
88	0xbf0d6601	-0.5523377
89	0xbc37afa1	-0.011211307
90	0xbfa756a3	-1.3073314
91	0x3f5a6931	0.8531676
92	0x3f2a83a9	0.6660715
93	0x3f9913f0	1.195921
94	0x3f3d8814	0.74035764
95	0xbd5bce8f	-0.053663787
96	0x3f118fdd	0.5686014
97	0x3eb13570	0.34611082
98	0x3f7cbd54	0.9872639
99	0x3f459218	0.77176046
100	0x3ee405e7	0.44535753
101	0xbefe0a41	-0.49617198
102	0xbd94a37d	-0.072577454
103	0x3f4c9442	0.79913723
104	0x3ef980d9	0.48731115
105	0xbfd6023c	-1.6719432
106	0xbd956e96	-0.07296483
107	0x3f288807	0.6583256
108	0x3f425fcf	0.7592744
109	0xbcb7ba68	-0.022427753
110	0x3f3c76e9	0.7361894
111	0x3e88ba5f	0.2670469
112	0x3f290c09	0.6603399
113	0x3f0dc115	0.55372745
114	0x3f6c8627	0.923922
115	0x3e75371b	0.23946802
116	0xbf34d023	-0.7063009
117	0x3cb09d58	0.021559402
118	0x3f328375	0.6973184
119	0xbf204995	-0.6261228
120	0x3f387ce6	0.7206558
121	0xbf08eac6	-0.53483236
122	0x3f7ea864	0.99475694
123	0x3f956b7d	1.1673428
124	0x3ffcd9cf	1.975397
125	0xbf28ccfe	-0.65937793
126	0x3f4feb39	0.81218296
127	0x3f75f264	0.96072984
128	0x3fa2430d	1.2676712
129	0x3f803061	1.0014764
130	0x3f1b305a	0.60620654
131	0x3ed902e3	0.42385015
132	0x3f0945d8	0.536222
133	0x3fef90b4	1.8716035
134	0x3f21a17a	0.6313702
135	0x3f617cbd	0.8808096
136	0x3edaf20d	0.42762795
137	0x3e371d0d	0.17882176
138	0xbc0a5f39	-0.008445554
139	0x3ca55060	0.020179927
140	0xbe359034	-0.1773079
141	0x3ef70dfe	0.48252863
142	0x3c5c3ced	0.01344226
143	0x3d5ca32c	0.05386655
144	0x3beaf171	0.0071698953
145	0x3f1f5c86	0.62250555
146	0x3f67bc65	0.9052184
147	0x3f8b60ed	1.0888954
148	0x3f60814e	0.87697303
149	0xbd8daeca	-0.06918104
150	0x3f0f6f23	0.56028956
151	0x3f00969c	0.5022981
152	0x3f1d828e	0.61527336
153	0xbe97d55d	-0.2965497
154	0xbdb062c0	-0.08612585
155	0x3f0dc7f9	0.5538326
156	0xbf7ed4e4	-0.99543595
157	0xbf391d34	-0.72310185
158	0xbe022a21	-0.12711383
159	0xbf2cbfc6	-0.67480123
160	0xbd7e7200	-0.062120438
161	0xbeacf5fd	-0.33781424
162	0x3efa80c2	0.4892636
163	0xbf49d0ca	-0.7883421
164	0xbf77d554	-0.9680989
165	0xbf3a9a1f	-0.7289142
166	0x3efea1f6	0.4973294
167	0xbee3f8a8	-0.44525647
168	0xbd210858	-0.039314598
169	0x3f01cd25	0.5070365
170	0x3f1fda69	0.6244264
171	0xbec5594a	-0.38544685
172	0xbf33feb6	-0.70310533
173	0xbf29e1fb	-0.66360444
174	0xbd0973ff	-0.033557888
175	0x3ef6a52d	0.48172894
176	0xbf626c49	-0.8844648
177	0xbd32dc09	-0.043666873
178	0x3f17ea72	0.5934211
179	0x3f1ad317	0.6047835
180	0x3f0670be	0.5251578
181	0x3f350c57	0.70721954
182	0xbd017d49	-0.03161362
183	0xbf517918	-0.818254
184	0xbd842bc4	-0.0645366
185	0xbda5fe8e	-0.08105193
186	0xbe1484ef	-0.14503835
187	0xbcfbfa7d	-0.03075909
188	0x3d201fe0	0.0390929
189	0x3f243006	0.6413578
190	0x3f8cfe4e	1.1015108
191	0x3f58f572	0.8474952
192	0x3bd31408	0.006441597
193	0x3f113263	0.5671751
194	0x3f0966af	0.5367231
195	0x3f1289f6	0.5724176
196	0x3efaa5d8	0.48954654
197	0x3f0c41e1	0.54788023
198	0x3f5810c7	0.844006
199	0x3f1e5317	0.61845535
200	0xbf534ad3	-0.8253605
201	0x3fea4330	1.8301754
202	0x3f1dc837	0.6163363
203	0x3f1bb020	0.6081562
204	0xbcea59ea	-0.028607327
205	0xbd913c72	-0.07091607
206	0x3f1094c3	0.5647699
207	0xbd69d274	-0.05708547
208	0x3fbf51f4	1.4946885
209	0xbe788ed0	-0.24273229
210	0xbbd48e79	-0.0064867106
211	0xbf7f1d85	-0.9965442
212	0xbceabc2e	-0.028654184
213	0xbd76f511	-0.060292307
214	0xbc9c69f6	-0.019093495
215	0x3e07cecc	0.1326248
216	0x3f6e0bfd	0.9298704
217	0x3d704cc9	0.058666978
218	0xbe443a2d	-0.19162817
219	0x3f0834b4	0.5320542
220	0x3f2b09bf	0.66811746
221	0x3f6700c2	0.9023553
222	0x3f25d68e	0.6478051
223	0xbc0bc743	-0.008531394
224	0xbfcfe8cd	-1.624292
225	0xbedbe85b	-0.4295071
226	0x3f20e815	0.6285413
227	0x3f0c267a	0.5474621
228	0x3f3c4231	0.735385
229	0xbf5c5984	-0.8607409
230	0xbbe299aa	-0.006915291
231	0x3f90dc84	1.1317296
232	0x3f1d990c	0.61561656
233	0x3d831c74	0.064019114
234	0x3d630716	0.05542668
235	0x3f0f718e	0.56032646
236	0x3f6d0411	0.9258433
237	0xbd75a7d4	-0.059974506
238	0x3f3aec4f	0.7301683
239	0xbf449ccf	-0.7680177
240	0x3f101a84	0.5629046
241	0x3f13ef4a	0.57787
242	0x3f67b5b1	0.90511614
243	0xbfef67e0	-1.8703575
244	0xbf0a63c5	-0.54058486
245	0xbd48a0b7	-0.048981395
246	0x3f190ff0	0.59789944
247	0xbf0be2fb	-0.5464322
248	0xbddd87c3	-0.1081691
249	0x3ee89bb5	0.45431295
250	0x3f8126aa	1.0089924
251	0x3f716261	0.9429074
252	0x3fb65570	1.4244823
253	0xbf803adc	-1.0017962
254	0x3f2b9235	0.6701997
255	0x3f18dc68	0.59711313

output_layer.bias f4 [2]
0	0x3e9c7158	0.30555224
1	0x3e8c8778	0.27447104
