results/models/batchsize=96,lr=1e-4,width=128,num_episodes_train=5000/2/model-118.0.pt (torch, 72304 bytes, 6 tensors)

linear1.weight f4 [128, 4]
0.4811157 -0.45466983 -0.2278077 -0.36590815 -0.3731014 0.13502957 0.2511127 0.5851802
0.18624525 -0.07270305 0.065922536 -0.18391193 -0.38571337 -0.19349524 -0.19957079 -0.37791425
0.49679273 -0.2055855 -0.51501155 -0.19532037 -0.29514155 -0.3147501 0.2934406 -0.26732764
0.039441545 -0.08727138 0.5825292 0.29571775 0.23014379 -0.22333853 -0.5526955 -0.5432034
0.2816268 0.15645243 -0.46869728 -0.14022584 -0.43635312 0.20197897 -0.084276766 0.13293867
0.45353547 -0.40471983 -0.4849064 0.10194838 -0.23572293 0.24312422 0.51069313 -0.35801572
-0.33541062 0.19906223 0.21136549 0.60703135 0.44266212 0.32275727 -0.1698323 0.3573026
-0.3540054 -0.37451705 -0.41258842 0.020267805 0.45082188 0.10770878 -0.13158593 -0.44534314
-0.40348902 -0.51575124 0.3649437 0.28117645 0.0373331 -0.102347 0.202084 -0.20455052
-0.18846819 0.44091687 -0.42393756 0.39567962 0.19714545 -0.19995989 0.2868947 0.047402173
-0.29603028 0.20184824 0.43640363 -0.28685734 -0.42270404 0.4161255 0.5135937 0.042295206
-0.15317039 -0.1904056 0.34139568 -0.07309453 0.337843 -0.12244322 0.30268687 -0.4313797
0.002292997 -0.40616933 -0.28970218 -0.14520891 0.33723164 0.17767537 -0.0069556204 -0.39324266
0.12720937 -0.4996302 0.26437265 0.42852655 0.4415979 0.47617814 -0.036005616 -0.5572351
-0.23147137 -0.11964919 0.41103268 0.55822825 0.18080315 -0.10322174 0.35061216 -0.20230746
0.005849123 -0.15313232 -0.14495432 0.044205487 0.17658557 0.10759134 0.47739255 -0.016602764
0.57750505 -0.41287497 0.1011215 -0.50283206 0.020348705 -0.30980903 0.3520483 -0.40741986
-0.26997375 -0.16696662 0.23468995 -0.33634332 -0.1578893 -0.079209745 0.47153825 -0.060525298
0.27017492 -0.32694778 -0.4047945 0.21799803 0.1750929 0.19534656 0.39815336 0.10738779
-0.46985254 0.14185424 0.447955 -0.21675505 -0.10583445 -0.070696995 0.5888058 0.50024974
0.4976624 -0.1389126 -0.22363712 -0.5809038 0.10678493 0.34993547 0.34125832 -0.20461309
0.4771896 0.014163312 0.42621693 0.19794895 0.56535745 0.13174486 -0.066860415 -0.38215113
-0.2315872 0.22259167 -0.064684875 0.27431867 0.4208474 0.057809245 0.37395722 -0.018061949
0.1045975 -0.048378535 -0.036161844 0.1165244 0.51165336 -0.014644308 -0.2524045 0.34673515
0.21813679 -0.15925287 0.0999286 0.02316056 0.07617773 -0.1955842 0.13833474 0.1968945
-0.12854531 -0.067408666 0.1734734 0.3199828 -0.15991603 -0.47170794 -0.23554756 0.34471428
0.4999195 -0.0038709163 -0.49163082 -0.010619834 0.22806434 -0.015415903 -0.0074293315 0.19525605
0.25291616 -0.35472578 -0.003805819 -0.13704103 -0.2701052 0.31141874 -0.20595486 0.09774661
0.2253121 -0.39085183 -0.4501954 -0.1059699 -0.18883829 -0.16228443 -0.21021123 0.07721045
0.111228496 0.42173162 0.34687203 0.04616299 0.33809638 -0.10996851 -0.007228278 0.35872906
0.24683425 0.3004503 -0.20240474 -0.42541716 -0.5597515 0.07160977 0.11694148 -0.12562625
-0.4518238 -0.43242052 -0.06577132 -0.27234778 0.5107139 -0.13241287 -0.170259 0.11036439
00000000: cc54 f63e 7cca e8be 6c46 69be 5058 bbbe
00000010: 2607 bfbe 3145 0a3e d891 803e 5fce 153f
00000020: 13b7 3e3e 56e5 94bd 6502 873d 6953 3cbe
00000030: 397c c5be 9e23 46be 495c 4cbe fa7d c1be
00000040: 9e5b fe3e 0185 52be ccd7 03bf 1002 48be
00000050: cb1c 97be ed26 a1be d93d 963e 2bdf 88be
00000060: 758d 213d 56bb b2bd a220 153f 5168 973e
00000070: d0aa 6b3e dbb2 64be 747d 0dbf 610f 0bbf
00000080: 6331 903e 1135 203e 17f9 efbe 5d97 0fbe
00000090: ad69 dfbe 93d3 4e3e 4c99 acbd 1321 083e
000000a0: cd35 e83e 7037 cfbe a745 f8be 50ca d03d
000000b0: 5a61 71be 8ef5 783e c9bc 023f d64d b7be
000000c0: f1ba abbe f8d6 4b3e 3270 583e 6866 1b3f
000000d0: 9ca4 e23e 7140 a53e 85e8 2dbe 5ef0 b63e
000000e0: 3240 b5be b3c0 bfbe ca3e d3be ab08 a63c
000000f0: 20d2 e63e 6c96 dc3d 76be 06be 0404 e4be
00000100: 1d96 cebe 4608 04bf e7d9 ba3e 5cf6 8f3e
00000110: 98ea 183d 4e9b d1bd 1cef 4e3e b175 51be
00000120: cefd 40be dbbf e13e 580e d9be 8596 ca3e
00000130: 7fe0 493e 49c2 4cbe dde3 923e c828 423d
00000140: 4891 97be 4eb1 4e3e 4c70 df3e f7de 92be
00000150: aa6c d8be 670e d53e e07a 033f bd3d 2d3d
00000160: b3d8 1cbe b0f9 42be 6acb ae3e 96b2 95bd
00000170: c2f9 ac3e 83c3 fabd c6f9 9a3e cddd dcbe
00000180: 1b46 163b 6df5 cfbe d853 94be a5b1 14be
00000190: a0a9 ac3e 88f0 353e f9eb e3bb 1a57 c9be
000001a0: 2c43 023e 88cf ffbe da5b 873e d567 db3e
000001b0: 1f19 e23e 9fcd f33e a07a 13bd f6a6 0ebf
000001c0: d506 6dbe a20a f5bd e072 d23e 0ce8 0e3f
000001d0: 7624 393e eb65 d3bd 7083 b33e b029 4fbe
000001e0: 00aa bf3b b8ce 1cbe e86e 14be d010 353d
000001f0: d9d2 343e d958 dc3d cc6c f43e 8502 88bc
00000200: 5fd7 133f 5964 d3be ca18 cf3d 9ab9 00bf
00000210: 54b2 a63c 4a9f 9ebe ad3f b43e 5699 d0be
00000220: 003a 8abe 4cf9 2abe 9052 703e 3135 acbe
00000230: bcad 21be b838 a2bd 766d f13e 60e9 77bd
00000240: 5e54 8a3e b365 a7be 3a41 cfbe e03a 5f3e
00000250: 8e4b 333e ee08 483e c2da cb3e 21ee db3d
00000260: 8390 f0be 3d42 113e 5c5a e53e 09f5 5dbe
00000270: bbbf d8bd 96c9 90bd fabb 163f 5e10 003f
00000280: 9bcd fe3e 1b3f 0ebe 2101 65be 1db6 14bf
00000290: 0fb2 da3d be2a b33e 69b9 ae3e 1886 51be
000002a0: 3252 f43e 3c0d 683c 1b39 da3e 21b3 4a3e
000002b0: 44bb 103f 20e8 063e 1dee 88bd 50a9 c3be
000002c0: 3225 6dbe 12ef 633e 8179 84bd 7f73 8c3e
000002d0: 4f79 d73e 63c9 6c3d 5277 bf3e a7f6 93bc
000002e0: 3737 d63d 9228 46bd 711e 14bd 58a4 ee3d
000002f0: b7fb 023f aeee 6fbc 2a3b 81be 4587 b13e
00000300: 405f 5f3e 2f13 23be 5ea7 cc3d 37bb bd3c
00000310: 1203 9c3d 3947 48be 9fa7 0d3e b69e 493e
00000320: 62a1 03be 8e0d 8abd 03a3 313e c9d4 a33e
00000330: 07c1 23be b483 f1be 6133 71be 647e b03e
00000340: 73f5 ff3e 33af 7dbb 09b7 fbbe d0fe 2dbc
00000350: b389 693e fc92 7cbc c071 f3bb 34f1 473e
00000360: 3a7e 813e 9e9e b5be 0c6b 79bb 7c54 0cbe
00000370: 3b4b 8abe 4772 9f3e d5e5 52be 602f c83d
00000380: 37b8 663e bb1d c8be 0380 e6be bf06 d9bd
00000390: d35e 41be e42d 26be 9d41 57be 8320 9e3d
000003a0: c4cb e33d 35ed d73e 3699 b13e 6715 3d3d
000003b0: f81a ad3e 2c37 e1bd 31db ecbb 56ab b73e
000003c0: 1ec2 7c3e 9fd4 993e 3043 4fbe 47d0 d9be
000003d0: e04b 0fbf 25a8 923d 047f ef3d 2ba4 00be
000003e0: 7355 e7be 3966 ddbe 1db3 86bd 2b71 8bbe
000003f0: 25be 023f 3d97 07be 6058 2ebe ba06 e23d

linear1.bias f4 [128]
-0.4799438 -0.35967377 0.38182276 0.42166635 0.36945495 0.13135956 -0.3783221 -0.33548012
-0.10329803 0.44665042 -0.027796285 0.6629298 -0.1803388 0.32921857 -0.16616906 -0.35486317
-0.35881868 0.3568378 -0.35249126 0.4273632 0.5893123 0.10661254 0.27886608 -0.08084089
-0.08166892 -0.33448142 -0.3514834 -0.3726127 0.0032907403 0.3426273 -0.472516 0.2352646
-0.07375615 0.51381207 -0.053698435 -0.32972008 0.099938676 0.29823315 0.2852227 -0.023981854
-0.1981014 0.51926726 0.5671705 -0.05842412 0.33233464 -0.057500787 0.4339759 0.43888786
0.40842858 0.452591 0.56398547 -0.21773602 0.34925294 0.5720162 -0.045255292 0.31245136
0.014445421 0.20153034 -0.49925387 0.31591734 0.04638236 0.25949672 0.13893631 0.37503418
0.46243826 0.53710866 0.024336455 0.30500376 -0.07595996 -0.30422115 0.6168083 0.4777238
0.27962965 -0.39729047 0.66434944 -0.32846916 -0.31706634 -0.23451428 0.243529 0.63763446
0.22444057 0.39938495 -0.21546103 -0.20767711 -0.19496498 0.23057324 0.32141426 0.32278973
0.48608962 -0.04446868 0.57044464 -0.48374987 -0.010450785 0.035732936 0.43576762 0.64841306
0.53615457 -0.18689139 0.31028602 -0.14231683 -0.1562658 -0.17442973 0.1521695 0.5628758
0.359001 0.47654298 0.37088946 0.30758023 -0.4289681 -0.14357948 -0.14499497 -0.34698007
0.08202581 -0.41659135 -0.117412046 0.25613862 0.5844144 0.027539406 -0.2992906 -0.32858062
-0.33539498 -0.08728338 0.3230367 0.5480401 -0.27213556 -0.2634492 -0.34541726 -0.15569562
00000000: 32bb f5be 2927 b8be 467e c33e a7e4 d73e
00000010: 3329 bd3e 1f83 063e 6fb3 c1be 0dc4 abbe
00000020: eb8d d3bd 5daf e43e 09b5 e3bc c4b5 293f
00000030: bcaa 38be 568f a83e 3928 2abe a0b0 b5be
00000040: 15b7 b7be 72b3 b63e bc79 b4be 59cf da3e
00000050: 2cdd 163f ad57 da3d 89c7 8e3e e98f a5bd
00000060: 0942 a7bd 2641 abbe a2f5 b3be 18c7 bebe
00000070: 76a9 573b d86c af3e 9eed f1be 34e9 703e
00000080: 770d 97bd 3089 033f e4f2 5bbd 12d1 a8be
00000090: a6ac cc3d 04b2 983e b608 923e 9875 c4bc
000000a0: 18db 4abe b3ee 043f 1632 113f 214e 6fbd
000000b0: c427 aa3e f285 6bbd 1732 de3e e9b5 e03e
000000c0: 8d1d d13e 02ba e73e 5a61 103f 31f6 5ebe
000000d0: 48d1 b23e a76f 123f 9d5d 39bd a0f9 9f3e
000000e0: 7dac 6c3c f85d 4e3e 349e ffbe ebbf a13e
000000f0: 6efb 3d3d c1dc 843e 5245 0e3e 7b04 c03e
00000100: b5c4 ec3e f47f 093f 3f5d c73c 7429 9c3e
00000110: e590 9bbd e0c2 9bbe 26e7 1d3f 3798 f43e
00000120: 9e2b 8f3e a869 cbbe ce12 2a3f 1c2d a8be
00000130: 8556 a2be 8324 70be ab5f 793e 033c 233f
00000140: c0d3 653e 2f7c cc3e d1a1 5cbe 4fa9 54be
00000150: e6a4 47be 641b 6c3e 6990 a43e b244 a53e
00000160: bde0 f83e ca24 36bd a908 123f 10ae f7be
00000170: c539 2bbc b35c 123d ef1c df3e 66fe 253f
00000180: 6d41 093f 7560 3fbe cfdd 9e3e 81bb 11be
00000190: 2404 20be b59d 32be 52d2 1b3e a118 103f
000001a0: fbce b73e 71fd f33e 39e5 bd3e 287b 9d3e
000001b0: b5a1 dbbe 8006 13be 9079 14be 5fa7 b1be
000001c0: 26fd a73d 764b d5be ba75 f0bd 9a24 833e
000001d0: 2f9c 153f 529a e13c 9e3c 99be b83b a8be
000001e0: e4b8 abbe a1c1 b2bd 1165 a53e 5b4c 0c3f
000001f0: 5a55 8bbe d0e2 86be 88da b0be ac6e 1fbe

linear2.weight f4 [128, 128]
0.08109047 0.029779928 -0.059735965 0.06051607 -0.022655006 -0.041005425 0.031422373 -0.043119375
0.084493876 -0.078110375 -0.058152284 0.08551768 -0.0097948145 -0.061583746 0.058816936 -0.052996214
-0.053104497 -0.023479056 0.08363017 0.03924983 -0.02779392 -0.004565238 -0.029746812 -0.081457146
0.06288041 -0.03239521 -0.0095152855 -0.030010898 -0.01544696 -0.08411006 0.03840525 0.06289561
-0.023546625 -0.024041904 0.002409198 0.05118464 -0.0835127 0.0424251 -0.016816229 0.074231304
-0.006788892 0.06989948 0.080222234 0.033044104 0.068202294 0.03917932 -0.07377004 -0.039928954
-0.05163342 0.054891996 -0.048448827 -0.024008993 -0.029261814 -0.0010408874 -0.005018446 -0.026863713
0.08487438 -0.05326634 -0.041135743 -0.03020171 0.052281335 0.039858487 0.026427707 0.00078249257
0.037811976 -0.08128382 -0.03572962 0.054375757 0.092956565 -0.031258985 -0.07920667 -0.0015006836
0.028528512 -0.01478149 -0.035740644 -0.02312919 -0.03744547 -0.07626272 0.016518835 0.08601839
0.05049862 -0.02450996 0.050132208 0.07915915 -0.047786843 0.011386402 -0.0078098425 0.07644718
-0.060277063 0.0396093 0.0733154 -0.030759465 -0.015172368 -0.07497853 -0.085571945 -0.07890066
-0.05981188 -0.02450265 0.076936856 -0.07171128 0.023603797 -0.038152054 -0.03304042 0.059158623
-0.017606352 0.010650458 0.0074394587 -0.01408805 0.041669764 0.0663777 0.057605818 0.05856315
0.07874648 -0.024028992 0.06948025 0.022859817 -0.07282198 0.032275677 0.04190106 0.00052951195
0.072581224 -0.03329949 -0.044302553 0.07677335 -0.003013015 0.064435184 -0.009428847 -0.06152872
0.050429165 0.051893655 0.0021985425 0.06742311 -0.056049097 0.010632485 0.01060185 -0.02713337
0.050029315 0.06370218 -0.08510704 0.069763035 -0.042161696 0.04501511 -0.036569305 -0.051966432
0.04510857 -0.060875837 -0.007845657 -0.047066852 -0.023099465 0.05290718 -0.06734448 0.06845194
0.047599923 -0.08460235 -0.07064098 -0.022512792 0.066311166 -0.0042512473 0.04587777 -0.06571529
0.03757652 -0.024725737 0.040945787 0.08705805 -0.011772942 -0.07220076 0.04905674 0.046028752
0.048748888 0.018847436 0.003626197 0.04969143 -0.048743464 -0.01732165 -0.08606992 -0.055481333
-0.08305071 0.064302795 -0.08057714 -0.009752001 -0.0067867734 -0.026753647 -0.070970155 -0.08683746
-0.089283556 -0.08616824 -0.029778197 0.010991546 -0.06143254 -0.049743675 0.01724275 -0.088916
-0.024002086 0.022932576 -0.07412021 0.054757286 -0.037874445 -0.050119426 -0.09117328 0.002819537
0.04386245 0.01190117 0.005857743 -0.006772711 -0.08383872 -0.005837191 0.020001248 0.006561404
0.057040438 -0.008071037 -0.0490909 0.06758634 -0.002758604 -0.033245258 -0.013471932 0.066308066
-0.041007284 0.08025738 0.04067118 0.026471203 0.013815271 0.008450497 -0.05182378 -0.09526209
0.030203853 0.06960636 0.07982113 0.07780804 0.03702474 -0.052317932 0.0737442 -0.077884056
-0.084133 0.0126288 -0.044131808 0.0037669048 -0.06802868 0.031751864 0.03799687 0.042442832
0.013634141 -0.04454891 -0.01831759 -0.0011374209 -0.025590893 0.03760788 -0.057138883 -0.07207303
-0.07331811 0.06812374 0.060537618 -0.001837861 -0.070568256 0.07821025 -0.047845587 -0.0038866817
00000000: c312 a63d 09f5 f33c b3ad 74bd b3df 773d
00000010: fe96 b9bc 4ef5 27bd bfb4 003d f19d 30bd
00000020: 200b ad3d 55f8 9fbd 1731 6ebd e523 af3d
00000030: 6e7a 20bc 3d3f 7cbd 07ea 703d 8f12 59bd
00000040: 1a84 59bd 2657 c0bc 4b46 ab3d 6ec4 203d
00000050: 13b0 e3bc fe97 95bb 96af f3bc 01d3 a6bd
00000060: 72c7 803d d7b0 04bd 00e6 1bbc 6ad9 f5bc
00000070: 3f15 7dbc e541 acbd d34e 1d3d 6acf 803d
00000080: dae4 c0bc 87f3 c4bc a3e3 1d3b fca6 513d
00000090: b508 abbd f1c5 2d3d 30c2 89bc 9506 983d
000000a0: 5b75 debb 7527 8f3d 8e4b a43d 4159 073d
000000b0: a5ad 8b3d 7f7a 203d bf14 97bd 8b8c 23bd
000000c0: 917d 53bd 6ed6 603d 4772 46bd 82ae c4bc
000000d0: 79b6 efbc 636e 88ba c771 a4bb 4a11 dcbc
000000e0: 9ed2 ad3d ce2d 5abd f47d 28bd 9469 f7bc
000000f0: f424 563d a742 233d eb7e d83c 3020 4d3a
00000100: bbe0 1a3d 2278 a6bd 3959 12bd 1db9 5e3d
00000110: 0360 be3d 6c09 00bd 1b37 a2bd 96b2 c4ba
00000120: a0b4 e93c 102e 72bc c864 12bd 6d79 bdbc
00000130: 6c60 19bd a12f 9cbd 8252 873c 692a b03d
00000140: a4d7 4e3d 1dc9 c8bc 6e57 4d3d 311e a23d
00000150: 23bc 43bd 088e 3a3c b5e9 ffbb 5790 9c3d
00000160: 15e5 76bd 5d3d 223d 6226 963d 46fb fbbc
00000170: 8695 78bc 588e 99bd 5840 afbd ab96 a1bd
00000180: 4dfd 74bd c8b9 c8bc 1291 9d3d 5ddd 92bd
00000190: c05c c13c 5445 1cbd 6455 07bd 5050 723d
000001a0: 323b 90bc 427f 2e3c b4c6 f33b 91d1 66bc
000001b0: eaad 2a3d 08f1 873d 14f4 6b3d eadf 6f3d
000001c0: d645 a13d 73d8 c4bc a94b 8e3d 8344 bb3c
000001d0: b123 95bd 8033 043d 72a0 2b3d f2ce 0a3a
000001e0: 77a5 943d 0c65 08bd 9876 35bd 593b 9d3d
000001f0: 0176 45bb 98f6 833d 737b 1abc 8a05 7cbd
00000200: d08e 4e3d 718e 543d 6c15 103b 2115 8a3d
00000210: bd93 65bd e033 2e3c 62b3 2d3c cd46 debc
00000220: 8aeb 4c3d 4a76 823d 9a4c aebd ecdf 8e3d
00000230: beb1 2cbd c461 383d b2c9 15bd c1da 54bd
00000240: c4c3 383d f158 79bd 128b 00bc 2cc9 40bd
00000250: 173b bdbc 33b5 583d e7eb 89bd 8830 8c3d
00000260: 23f8 423d ff43 adbd 38ac 90bd bf6c b8bc
00000270: 26ce 873d 0c4e 8bbb 54ea 3b3d bd95 86bd
00000280: d6e9 193d a18d cabc c5b6 273d 7e4b b23d
00000290: 4ce3 40bc fedd 93bd b8ef 483d a588 3c3d
000002a0: eaac 473d f065 9a3c 7ea5 6d3b 3e89 4b3d
000002b0: 3aa7 47bd 22e6 8dbc 6d45 b0bd 6540 63bd
000002c0: 7e16 aabd 2fb1 833d a105 a5bd dbc6 1fbc
000002d0: 9563 debb 772a dbbc cd58 91bd d7d7 b1bd
000002e0: 4cda b6bd f978 b0bd 68f1 f3bc e315 343c
000002f0: b0a0 7bbd 06c0 4bbd ab40 8d3c 9819 b6bd
00000300: 06a0 c4bc 19dd bb3c 56cc 97bd 2d49 603d
00000310: 3c22 1bbd 074a 4dbd 0eb9 babd fbc7 383b
00000320: 1da9 333d 20fd 423c 4ff2 bf3b 9eed ddbb
00000330: a3b3 abbd e845 bfbb a8d9 a33c 0c01 d73b
00000340: 3ca3 693d 623c 04bc 8a13 49bd b56a 8a3d
00000350: b2c9 34bb 2e2c 08bd 61b9 5cbc 86cc 873d
00000360: 41f7 27bd fb5d a43d d396 263d 23da d83c
00000370: 7259 623c f473 0a3c 2c45 54bd c518 c3bd
00000380: 126e f73c c78d 8e3d 4379 a33d d259 9f3d
00000390: 41a7 173d 544b 56bd 3307 973d ad81 9fbd
000003a0: ec4d acbd 07e9 4e3c 8ec3 34bd 2dde 763b
000003b0: 9f52 8bbd 3e0e 023d 9ba2 1b3d 89d8 2d3d
000003c0: bb61 5f3c eb78 36bd c50e 96bc 8315 95ba
000003d0: fea3 d1bc b80a 1a3d 760a 6abd 069b 93bd
000003e0: ce27 96bd 7684 8b3d 4bf6 773d 62e4 f0ba
000003f0: 1786 90bd b22c a03d bcf9 43bd b3b7 7ebb

linear2.bias f4 [128]
-0.04830607 -0.00948128 0.090412475 0.1877662 0.20583166 -0.012674685 -0.045417555 -0.032571096
0.014542082 0.187193 -0.010510314 0.07489659 0.069809996 0.08510631 -0.029068038 0.13781089
-0.071518846 0.21272704 0.095171295 0.14595446 0.11973526 -0.020646602 -0.02596307 -0.06862528
0.041216902 0.16668616 0.05207424 0.11291484 0.18867004 0.12676756 0.06881629 0.18164937
0.1849197 0.14550905 -0.07549606 0.1386614 0.16596964 0.15711841 0.21151578 -0.055105932
0.1462893 0.075986706 -0.039141387 0.13106981 0.15417802 0.08336091 0.18064679 0.13344134
0.042253416 -0.041881017 0.09503581 -0.06977804 -0.062149815 0.20726584 -0.047637317 0.18162905
0.0058936407 -0.035731126 -0.007575026 -0.06626035 0.093829975 0.06438982 0.16327511 0.09313198
-0.047187883 0.19984794 -0.007961207 -0.05881397 0.19258887 0.17961131 0.19261752 0.1658879
-0.07885995 0.038006306 0.04908217 -0.051047515 0.04986996 0.14315104 0.065140165 0.016596885
0.1128975 0.16776757 0.16896747 -0.015940627 0.14022063 0.14367756 0.122025155 0.021108557
0.05374998 -0.029988606 0.08519282 0.21575063 0.12600158 0.08827487 0.21012132 0.07260537
0.19339801 0.06255152 -0.013403987 0.16638328 0.029894777 0.21427658 -0.060879383 0.14328462
0.10883975 0.04773756 0.049420316 0.049422573 0.0043839267 0.16716358 0.060498986 0.015915781
-0.03779502 -0.07378613 0.07863974 0.17230557 -0.05185032 0.0028916006 0.12651561 0.0016843777
0.1721337 0.14797188 0.055675052 -0.021716356 0.19940628 0.17373523 0.037068203 -0.025890265
00000000: 96dc 45bd 5f57 1bbc 2d2a b93d c845 403e
00000010: 89c5 523e 7ba9 4fbc c207 3abd 4569 05bd
00000020: ea41 6e3c 86af 3f3e 7433 2cbc 6263 993d
00000030: 8bf8 8e3d 384c ae3d 1820 eebc 4c1e 0d3e
00000040: 7978 92bd 1ed5 593e 2be9 c23d 1675 153e
00000050: c337 f53d 1023 a9bc 81b0 d4bc 698b 8cbd
00000060: 0ed3 283d c7af 2a3e cc4b 553d e53f e73d
00000070: b832 413e 5bcf 013e 8eef 8c3d 4b02 3a3e
00000080: 975b 3d3e 5300 153e ae9d 9abd 41fd 0d3e
00000090: f2f3 293e a6e3 203e 9897 583e c2b6 61bd
000000a0: ddcc 153e eb9e 9b3d b852 20bd 2a37 063e
000000b0: d8e0 1d3e 20b9 aa3d 79fb 383e d9a4 083e
000000c0: eb11 2d3d 6e8b 2bbd 22a2 c23d cae7 8ebd
000000d0: ce90 7ebd 7f3d 543e 591f 43bd f7fc 393e
000000e0: 711f c13b cd5a 12bd ec37 f8bb 82b3 87bd
000000f0: ee29 c03d cfde 833d 9731 273e fbbb be3d
00000100: 1548 41bd f0a4 4c3e b96f 02bc ebe6 70bd
00000110: 0436 453e 07ec 373e 873d 453e 85de 293e
00000120: 5381 a1bd 80ac 1b3d 630a 493d 3317 51bd
00000130: 7144 4c3d 3096 123e 3568 853d 31f6 873c
00000140: ce36 e73d 43cb 2b3e cf05 2d3e eb95 82bc
00000150: ff95 0f3e 3620 133e 53e8 f93d daeb ac3c
00000160: f028 5c3d aaaa f5bc 9379 ae3d bced 5c3e
00000170: 8f06 013e 74c9 b43d 0b2a 573e 20b2 943d
00000180: 210a 463e 031b 803d 659c 5bbc 6160 2a3e
00000190: e4e5 f43c 526b 5b3e a95c 79bd 34b9 123e
000001a0: 60e7 de3d 7688 433d f56c 4a3d 536f 4a3d
000001b0: 0ba7 8f3b ee2c 2b3e c9cd 773d d061 823c
000001c0: f3ce 1abd 2f1d 97bd df0d a13d df70 303e
000001d0: 0061 54bd 0281 3d3b 4f8d 013e 56c6 dc3a
000001e0: d143 303e f185 173e 860b 643d 80e6 b1bc
000001f0: 2931 4c3e a6e7 313e d4d4 173d d217 d4bc

output_layer.weight f4 [2, 128]
0.01962044 0.06272069 0.13888045 0.18246597 0.13370329 0.03190079 0.034810785 0.047452882
-0.03480316 0.102423005 -0.05783191 0.08954045 -0.07162037 0.1882889 -0.08183945 0.1016469
-0.01079838 0.16996033 0.17394665 0.212879 0.0740317 -0.053145763 -0.022229545 0.013871845
-0.101915196 0.14722842 0.1909414 0.2256281 0.18066123 0.18808559 -0.03438748 0.115872525
0.19694884 0.16116904 0.024934562 0.13091414 0.1236973 0.17407441 0.15570396 0.0067621414
0.077889994 -0.039719664 -0.058781113 0.1840031 0.17887932 0.12056569 0.17337857 0.1665778
-0.058164828 -0.061967697 0.17418915 -0.010192187 0.004536205 0.19554387 0.02249119 0.18658201
-0.015544107 -0.0741817 0.019527605 -0.025325274 0.15532616 0.11839176 0.12224707 0.12254599
-0.07588068 0.15402986 -0.0813776 -0.05170494 0.20070827 0.14947158 0.13485062 0.07094386
-0.039468974 -0.007717115 -0.06520076 -0.049919613 -0.14825346 0.10390582 0.14533669 -0.17189604
0.090428725 0.13342479 0.09090559 -0.063909076 0.18694392 0.13761632 0.17836675 -0.14163531
0.20289585 -0.019075597 0.14347038 0.21928 0.13612863 0.091319256 0.068264075 0.13599686
0.10878476 0.17891227 -0.15025799 0.09898496 -0.04612496 0.17189851 -0.08209214 0.16838941
0.07139276 0.15585026 -0.0280009 0.13142036 0.072526336 0.1399319 0.11705009 -0.009355609
-0.13758922 0.032063488 0.1613019 0.16069415 0.00085915293 -0.019823767 0.20241962 -0.06032748
0.156288 0.15310127 0.06357804 -0.17509772 0.20434883 0.1150466 0.03575277 -0.08335671
-0.03887306 -0.058742106 0.24353188 0.17896482 0.16250688 -0.006771418 -0.06691035 0.058058422
-0.046409223 0.17457114 -0.12479055 0.18083055 -0.0008850838 0.025501983 -0.04349183 0.16431576
-0.018986654 0.11704839 0.1139782 0.20514505 0.22042221 -0.032020118 0.13884413 0.024113929
0.114825845 0.21987133 0.027316364 0.17134964 0.17567544 0.037550047 -0.040387817 0.19537228
0.14623293 0.091688655 -0.0387731 0.15233377 0.23350282 0.11119719 0.16652218 -0.03901614
0.1498373 -0.07661487 -0.10687955 0.14339113 0.1671602 0.12834996 0.045422573 0.11239558
0.020115336 -0.020005954 0.12841414 -0.028883087 -0.07926152 0.028652186 -0.05066346 0.15853518
0.17242768 -0.029994313 -0.15679255 -0.032666262 0.15402439 0.18144813 0.24064375 0.15134108
-0.08205233 0.09201337 -0.061150223 -0.03949379 0.21969621 0.16762012 0.13439998 0.18626788
-0.08001885 -0.14020652 -0.0666813 0.054343157 -0.06293494 0.20145415 0.17320015 -0.019770283
0.18242712 0.15786853 0.18806723 -0.02340657 0.0365574 0.18712838 0.13898714 -0.062782794
0.1571584 -0.03981851 0.15400608 0.1915975 0.18917273 0.19511954 0.17835036 0.11238854
0.18610486 0.14126101 -0.07020523 0.15903111 0.008198044 0.072702035 -0.00047979972 0.15798987
0.1884761 0.060843263 0.0032654018 0.19355157 0.18831325 0.18138503 0.19914073 -0.06341106
0.08912376 -0.054208267 0.007216378 0.06460423 -0.022242887 -0.025195854 0.049747095 -0.042872857
0.16070242 0.108543605 0.17413452 -0.083050124 0.18553454 0.14167264 -0.06999219 0.0040980107
00000000: 0cbb a03c b573 803d ad36 0e3e 5cd8 3a3e
00000010: 84e9 083e 67aa 023d c195 0e3d f45d 423d
00000020: c28d 0ebd 27c3 d13d 27e1 6cbd fc60 b73d
00000030: b3ad 92bd cece 403e 719b a7bd 402c d03d
00000040: b0eb 30bc 150a 2e3e 121f 323e f4fc 593e
00000050: ef9d 973d 5faf 59bd bc1a b6bc bc46 633c
00000060: eab8 d0bd 0cc3 163e 2486 433e 0d0b 673e
00000070: 42ff 383e 8299 403e e3d9 0cbd 934e ed3d
00000080: f5ac 493e 7f09 253e 9143 cc3c 5b0e 063e
00000090: 0355 fd3d 9040 323e dc70 1f3e f494 dd3b
000000a0: ca84 9f3d 16b1 22bd 77c4 70bd 4f6b 3c3e
000000b0: 242c 373e 25eb f63d 278a 313e 5f93 2a3e
000000c0: 3e3e 6ebd d7d1 7dbd a45e 323e 21fd 26bc
000000d0: 72a4 943b a73c 483e 723f b83c 5b0f 3f3e
000000e0: b6ac 7ebc 93ec 97bd 5bf8 9f3c f376 cfbc
000000f0: d20d 1f3e 6177 f23d ac5c fa3d 64f9 fa3d
00000100: 5467 9bbd 01ba 1d3e 4da9 a6bd 8fc8 53bd
00000110: 7886 4d3e 140f 193e 4816 0a3e 044b 913d
00000120: 38aa 21bd dadf fcbb fa87 85bd 8278 4cbd
00000130: c1cf 17be 93cc d43d 24d3 143e 8405 30be
00000140: b232 b93d 82a0 083e b62c ba3d c3e2 82bd
00000150: 3a6e 3f3e 4beb 0c3e c6a5 363e d908 11be
00000160: eec3 4f3e 6d44 9cbc e6e9 123e f08a 603e
00000170: 4e65 0b3e 9705 bb3d 09ce 8b3d c342 0b3e
00000180: 8bca de3d c734 373e 3bdd 19be a0b8 ca3d
00000190: 87ed 3cbd 2a06 303e ed1f a8bd 466e 2c3e
000001a0: 5e36 923d 3697 1f3e 2562 e5bc 0f93 063e
000001b0: b088 943d 4f4a 0f3e f5b7 ef3d 4548 19bc
000001c0: 30e4 0cbe 0155 033d 532c 253e 028d 243e
000001d0: c738 613a 7465 a2bc 1747 4f3e f319 77bd
000001e0: f609 203e 94c6 1c3e 3435 823d d14c 33be
000001f0: d240 513e 8d9d eb3d 7f71 123d ecb6 aabd
00000200: 5c39 1fbd 909b 70bd 6c60 793e 8e42 373e
00000210: 3468 263e c5e2 ddbb 4b08 89bd abce 6d3d
00000220: 9917 3ebd c7c2 323e 3092 ffbd a52b 393e
00000230: f804 68ba 89e9 d03c 7d24 32bd 6442 283e
00000240: e689 9bbc 11b7 ef3d 676d e93d 8b11 523e
00000250: 5cb6 613e 8727 03bd 282d 0e3e 938a c53c
00000260: d029 eb3d f325 613e 91c6 df3c 4876 2f3e
00000270: 43e4 333e 14ce 193d b26d 25bd ac0f 483e
00000280: 16be 153e 43c7 bb3d 8bd0 1ebd 62fd 1b3e
00000290: 5d1b 6f3e 5abb e33d ca84 2a3e 63cf 1fbd
000002a0: f36e 193e 42e8 9cbd aae3 dabd 20d5 123e
000002b0: 0b2c 2b3e 2c6e 033e 050d 3a3d a72f e63d
000002c0: ebc8 a43c 87e3 a3bc ff7e 033e 399c ecbc
000002d0: dd53 a2bd fdb7 ea3c 7d84 4fbd 0c57 223e
000002e0: e290 303e a2b6 f5bc 3a8e 20be 0fcd 05bd
000002f0: 92b8 1d3e 8acd 393e 516b 763e 28f9 1a3e
00000300: 0d0b a8bd 8171 bc3d a878 7abd 3ec4 21bd
00000310: 0bf8 603e 9ca4 2b3e 26a0 093e 02bd 3e3e
00000320: ece0 a3bd 4c92 0fbe 3590 88bd ee96 5e3d
00000330: 09e4 80bd ff49 4e3e 615b 313e 4af5 a1bc
00000340: 2dce 3a3e 4aa8 213e b294 403e 23bf bfbc
00000350: 36bd 153d 959e 3f3e a552 0e3e 4494 80bd
00000360: 22ee 203e bc18 23bd c5b3 1d3e 2332 443e
00000370: 7fb6 413e 6bcd 473e 7aa1 363e f62b e63d
00000380: 4692 3e3e baa6 103e c2c7 8fbd 0dd9 223e
00000390: 1751 063c cee4 943d a18d fbb9 19c8 213e
000003a0: e1ff 403e c936 793d 5a00 563b 6232 463e
000003b0: 30d5 403e ffbc 393e 8ceb 4b3e a8dd 81bd
000003c0: 8586 b63d 7d09 5ebd 5e77 ec3b 394f 843d
000003d0: b736 b6bc 8967 cebc 9cc3 4b3d 739b 2fbd
000003e0: 2d8f 243e 1c4c de3d 5250 323e 2f16 aabd
000003f0: c4fc 3d3e a212 113e 1158 8fbd 9b48 863b

output_layer.bias f4 [2]
0.20504905 0.16791052
00000000: 61f8 513e bcf0 2b3e
