results/models/exp-2:batchsize=96,lr=1e-4,layers=5,adam-corrected/0/model-10.0.pt (torch, 12706 bytes, 10 tensors)

linear1.weight f4 [16, 4]
0	0x3e9ad0b2	0.30237347
1	0xbe3313c4	-0.17488009
2	0x3a0f2c00	0.00054615736
3	0x3e33cc00	0.17558289
4	0xbe2c126c	-0.16803902
5	0x3ed17288	0.40907693
6	0x3ebea058	0.37231708
7	0xbca7c040	-0.020477414
8	0x3e86629a	0.26247102
9	0xbec13496	-0.37735432
10	0xbe427e3c	-0.18993467
11	0xbd264540	-0.040593386
12	0x3ed4b3c8	0.41543412
13	0xbe9ce156	-0.30640668
14	0xbe0c6f70	-0.13714385
15	0x3e7277b8	0.23678482
16	0x3ea1f0c8	0.31629014
17	0x3ee94818	0.45562816
18	0xbbdd2180	-0.0067483783
19	0xbe7c90bc	-0.24664587
20	0xbecfa51e	-0.40555662
21	0xbe4c5e20	-0.19957781
22	0xbe4adaac	-0.19809979
23	0x3dc36b50	0.095419526
24	0x3cabad20	0.020956576
25	0x3e064278	0.13111293
26	0x3e5ba9a8	0.21451437
27	0x3e465494	0.19368201
28	0xbe18c314	-0.14918166
29	0xbe2d7578	-0.16939342
30	0x3c7c7ec0	0.015411079
31	0xbc8cd6c0	-0.017192245
32	0x3e4c852c	0.19972676
33	0x3d8a7e50	0.067623734
34	0x3e42e214	0.19031554
35	0x3e9d58ba	0.30731755
36	0xbef5ad02	-0.47983557
37	0xbee86706	-0.453911
38	0xbdd371a0	-0.103244066
39	0x3d3b3f50	0.045714676
40	0x3e39d408	0.1814729
41	0x3dce26b0	0.10065973
42	0xbd9cf0c8	-0.07663113
43	0xbcf6d880	-0.030132532
44	0xbe97279e	-0.29522413
45	0xbed9708c	-0.4246868
46	0x3edb3b4e	0.42818683
47	0xbd771c20	-0.060329556
48	0xbcf3c840	-0.029758573
49	0x3d3eaa90	0.04654938
50	0xbedc3ebe	-0.43016618
51	0xbe02ec6c	-0.127855
52	0xbe44d268	-0.19220889
53	0x3eaa1cd8	0.3322513
54	0x3ec3ece2	0.38266665
55	0xbe243198	-0.16034544
56	0x3e9fa846	0.3118307
57	0x3e6dd5d4	0.232261
58	0x3df8e360	0.12152743
59	0xbed73c0e	-0.42038006
60	0xbc917d40	-0.01775992
61	0x3e9fb746	0.31194514
62	0xbec3cd4e	-0.38242573
63	0x3e39cf9c	0.18145603

linear1.bias f4 [16]
0	0xbe5c8bd0	-0.21537709
1	0x3ee7e72a	0.45293552
2	0x3e3bfbd8	0.1835779
3	0x3ef1cf58	0.47228503
4	0x3e6c4a0c	0.23075122
5	0xb9e09000	-0.00042831898
6	0xbeab3710	-0.33440447
7	0x3cbe7300	0.023248196
8	0xbdbadc80	-0.09124088
9	0xbee400ba	-0.44531804
10	0x3eecb0ca	0.4622863
11	0x3e9cccf8	0.3062513
12	0x3ea929a6	0.33039588
13	0x3d029780	0.031882763
14	0x3e500c38	0.20317161
15	0x3d4a6e80	0.049421787

linear2.weight f4 [32, 16]
0	0x3db4eb30	0.08833921
1	0xbe4f502a	-0.20245424
2	0xbe1388f2	-0.14407709
3	0xbd27edc8	-0.04099825
4	0xbe2f36c8	-0.17110741
5	0x3e606400	0.21913147
6	0xbd6fb4d0	-0.058522046
7	0x3e404cc4	0.18779284
8	0xbe1ce02c	-0.1531989
9	0xbe339a1c	-0.17539257
10	0x3e0b6a06	0.13614663
11	0x3db6859c	0.08912203
12	0xbcae1600	-0.021250725
13	0xbe5d8a62	-0.2163482
14	0xbdba0d7c	-0.09084603
15	0xbe474c28	-0.19462645
16	0xbe5c355e	-0.21504733
17	0x3e11f2c6	0.14252767
18	0xbdd8fd08	-0.10595137
19	0xbe1e3108	-0.15448391
20	0xbe3421cc	-0.17591017
21	0xbdb19988	-0.08671862
22	0xbe5f0dfe	-0.21782681
23	0x3e3caa44	0.18424326
24	0xbdf17018	-0.11788958
25	0x3dc3b1ac	0.095553726
26	0xbe26c170	-0.16284728
27	0xbb556d00	-0.003256619
28	0xbd1ce980	-0.03830862
29	0x3d71bb60	0.059016585
30	0xbe1080f8	-0.14111698
31	0xbe608ba2	-0.21928266
32	0x3e0c63fc	0.13710016
33	0x3e730db6	0.23735699
34	0xbe22f156	-0.15912375
35	0x3e41f738	0.18941963
36	0x3c8016f0	0.015635937
37	0x3cf50550	0.02990976
38	0x3d0155a8	0.03157583
39	0x3d9c02f4	0.07617751
40	0x3be42bc0	0.006963223
41	0x3d8e1474	0.06937495
42	0xbda8d78c	-0.08244237
43	0xbe66a150	-0.22522473
44	0xbddc9bac	-0.107718796
45	0x3d690298	0.05688724
46	0xbe7ba17c	-0.2457332
47	0x3d06cc88	0.0329099
48	0x3e199b88	0.15000737
49	0x3df08da4	0.11745766
50	0x3bb3d900	0.005488515
51	0x3de113f0	0.10990131
52	0xbe72062e	-0.2363517
53	0xbdc3c654	-0.095593125
54	0x3e3c1736	0.1836823
55	0xbca9e7a0	-0.02074033
56	0xbdce2e78	-0.10067457
57	0x3e20cdd8	0.15703523
58	0xbdf6fd40	-0.12060022
59	0xbe27e12a	-0.16394487
60	0x3e34cc88	0.17656147
61	0x3e7304ca	0.23732296
62	0x3dc7e0ac	0.0975965
63	0x3d169dc8	0.036771566
64	0xbd805580	-0.06266308
65	0xbe2b2128	-0.16711867
66	0x3c818ca0	0.015814126
67	0xbe11f970	-0.14255309
68	0x3e733302	0.23749927
69	0xbe584536	-0.21120152
70	0xbc926660	-0.017871082
71	0x3e3e4534	0.18581086
72	0xbe4c5404	-0.19953924
73	0xbd8ece3c	-0.0697293
74	0x3d105320	0.035235524
75	0xbe1202de	-0.14258906
76	0xbdbfefe0	-0.093719244
77	0xbe10e0c0	-0.14148235
78	0x3d3e9318	0.046527
79	0x3e762920	0.24039125
80	0x3e00625c	0.12537521
81	0x3d9e2bf4	0.07723227
82	0x3e529e78	0.20568264
83	0x3d061b60	0.03274095
84	0xbe08dcb6	-0.13365445
85	0x3d7e98c8	0.062157422
86	0xbc6866c0	-0.014184654
87	0xbc6f8800	-0.014619827
88	0x3dd43630	0.10361898
89	0xbe52f358	-0.20600641
90	0xbdfccce8	-0.1234377
91	0x3e51ed8e	0.20500776
92	0xbe646156	-0.22302756
93	0x3e4d83f6	0.2006987
94	0x3d33a168	0.0438551
95	0x3e120b52	0.14262131
96	0xbcb2e890	-0.02183941
97	0xbd86e338	-0.06586307
98	0xbe4edfaa	-0.20202509
99	0x3e6bc548	0.23024476
100	0xbe792672	-0.24331072
101	0x3e45bf30	0.19311213
102	0x3dd443d8	0.10364503
103	0xbcba0210	-0.022706062
104	0x3d438560	0.04773462
105	0xbc258ae0	-0.010103911
106	0x3d90cffc	0.0707092
107	0xbb239980	-0.002496332
108	0x3de3608c	0.11102399
109	0xbd530ab8	-0.051523894
110	0x3daf60fc	0.0856342
111	0x3e535754	0.20638782
112	0xbe32de64	-0.17467648
113	0x3e011654	0.12606174
114	0xbcb8a7e0	-0.022540987
115	0xbe2673ac	-0.16255063
116	0xbdb56dc4	-0.08858827
117	0xbbf0a800	-0.007344246
118	0x3e4f6d9e	0.2025666
119	0xbe6f832e	-0.23389885
120	0x3e3d7c84	0.1850453
121	0x3d958a58	0.073017776
122	0x3e06795a	0.1313223
123	0x3d95e6c8	0.07319409
124	0xbe669f44	-0.22521693
125	0x3e32edee	0.17473575
126	0xbd3fd2c8	-0.046831876
127	0x3d8eb21c	0.069675654
128	0x3e5f29f6	0.2179335
129	0x3e3b982a	0.18319765
130	0x3e7f516e	0.24933407
131	0xbd131030	-0.03590411
132	0xbe0b3600	-0.13594818
133	0xbdefda4c	-0.11711559
134	0x3d8957f0	0.06706226
135	0xbe6138a4	-0.21994263
136	0x3e05aac2	0.1305342
137	0x3e10c3dc	0.14137214
138	0x3e011e34	0.12609178
139	0x3e597164	0.21234661
140	0xbd4f18d0	-0.050560772
141	0xbe343fec	-0.1760251
142	0xbe59a4ee	-0.21254322
143	0xbd0bf598	-0.034169763
144	0xbe174f48	-0.14776337
145	0x3e4d354c	0.20039862
146	0x3dc7abfc	0.097496
147	0xbdbcf3bc	-0.09226176
148	0xbde7f008	-0.11325079
149	0xbdd45170	-0.103670955
150	0xbd507f30	-0.050902545
151	0x3d8a5248	0.06753975
152	0xbdc3ed84	-0.09566787
153	0x3e094bca	0.13407817
154	0xbe0af412	-0.13569668
155	0x3dcd2704	0.10017207
156	0x3e4a1a36	0.19736561
157	0x3d095368	0.033526808
158	0x3e3eec3e	0.18644807
159	0xbe2a489e	-0.16629264
160	0xbe73f39a	-0.23823395
161	0x3d8fd98c	0.07023916
162	0x3889f000	6.5773726e-05
163	0xbc30a600	-0.010781765
164	0x3e181b46	0.14854154
165	0x3df6f82c	0.12059054
166	0x3d3a9718	0.04555425
167	0xbce56810	-0.028003722
168	0xbcb3c9c0	-0.021946788
169	0xbe799e44	-0.2437678
170	0x3e2092be	0.15680978
171	0xbd86999c	-0.065722674
172	0x3acb9b00	0.0015533864
173	0xbe2e5432	-0.17024305
174	0x3d554330	0.052066028
175	0x3c4e0ee0	0.012576789
176	0x3e2d07ce	0.16897509
177	0x3d594e68	0.05305329
178	0xbd64f4b8	-0.055897444
179	0xbe423dda	-0.18968907
180	0xbd6a1d98	-0.05715713
181	0x3e4df95a	0.20114651
182	0xbd856988	-0.06514269
183	0x3e5ac5a6	0.2136446
184	0xbe3d270a	-0.18471923
185	0x3cf6ad70	0.030111998
186	0xbcbe3640	-0.023219228
187	0x3e0549aa	0.13016382
188	0x3d1f32b8	0.03886673
189	0xbe5c576e	-0.21517727
190	0xbe745790	-0.23861527
191	0x3e284164	0.16431195
192	0x3e3e709e	0.18597648
193	0xbc56c760	-0.013109058
194	0xbdcb96a0	-0.09940839
195	0xbe53a984	-0.20670134
196	0x3d4770e8	0.04869166
197	0x3e41de36	0.18932423
198	0xbcaa5710	-0.020793468
199	0xbc7317e0	-0.014837235
200	0x3e05cd82	0.13066676
201	0x3e4cbf3c	0.19994825
202	0xbca75880	-0.020427942
203	0x3c953920	0.018215716
204	0x3e6dbc86	0.23216447
205	0xbe0fbaae	-0.14036056
206	0x3d7842c0	0.060610533
207	0x3e04535c	0.12922424
208	0x3cf4c190	0.029877454
209	0xbe493690	-0.1964972
210	0x3d856210	0.065128446
211	0xbd1ea528	-0.038731724
212	0x3dedab28	0.11604911
213	0x3debcd08	0.11513716
214	0x3dea06a4	0.11427048
215	0xbdc5c8a4	-0.0965741
216	0x3df4ec14	0.11959091
217	0xbe3f086a	-0.18655553
218	0x3e5600e8	0.20898783
219	0x3dbc7814	0.092025906
220	0x3cb3c690	0.021945268
221	0x3e4e6378	0.20155132
222	0x3cd25e70	0.025679797
223	0xbe66d9e2	-0.22544053
224	0x3dde817c	0.10864541
225	0xbd5cf100	-0.053940773
226	0x3d636248	0.05551365
227	0xbbb45080	-0.0055027604
228	0xbdb26cb4	-0.0871214
229	0x3d81d3ec	0.06339249
230	0xbe45f1b6	-0.19330487
231	0x3d631710	0.055441916
232	0xbe166be0	-0.14689589
233	0x3d2e9f70	0.04263252
234	0x3d81aaec	0.06331429
235	0xbdd7fc8c	-0.10546216
236	0x3e3a5f8c	0.1820051
237	0xbd9fd35c	-0.078039855
238	0xbe777dca	-0.24169078
239	0x3e76783c	0.24069303
240	0xbe5d830c	-0.21632022
241	0xbd78cc90	-0.06074196
242	0xbe7ddf12	-0.24792126
243	0xbe3377b8	-0.17526138
244	0xbce6e450	-0.02818504
245	0x3e33c95a	0.17557278
246	0xbd946068	-0.072449505
247	0xbe779e86	-0.24181566
248	0x3cfd5950	0.030926377
249	0x3e0b788a	0.13620201
250	0x3e41811a	0.18896905
251	0x3c834020	0.016021788
252	0xbe111d20	-0.14171267
253	0x3e75f662	0.24019769
254	0x3de07374	0.10959521
255	0xbe6748fc	-0.22586435

linear2.bias f4 [32]
0	0xbe6f8f92	-0.23394611
1	0xbdfc1c68	-0.123101056
2	0xbdc7c400	-0.09754181
3	0xbe73f0fe	-0.238224
4	0xbdb4f360	-0.088354826
5	0xbe229be8	-0.15879786
6	0xbe5c092c	-0.21487874
7	0xbc437c80	-0.011931539
8	0x3e2e5250	0.17023587
9	0xbdfbb598	-0.12290496
10	0x3e104cf2	0.14091852
11	0x3d4f1e70	0.050566137
12	0x3d66ebd8	0.056377262
13	0x3def0854	0.1167151
14	0xbe56a38e	-0.20960829
15	0x3e577e78	0.21044338
16	0xbdb6f1a0	-0.08932805
17	0xbe7e6fb8	-0.24847305
18	0xbe517094	-0.20453101
19	0x3d977610	0.073955655
20	0xbe4e9f76	-0.20178017
21	0x3de0ddf0	0.10979831
22	0xbe386694	-0.1800788
23	0xbc2979c0	-0.010343969
24	0xbe46d8ee	-0.1941869
25	0xbd911460	-0.07083964
26	0xbe624444	-0.22096354
27	0x3e32c97e	0.17459676
28	0xbe6cce5a	-0.23125592
29	0x3cbea190	0.023270398
30	0x3d547720	0.05187142
31	0xbe36e13e	-0.1785936

linear3.weight f4 [32, 32]
0	0x3badd4b4	0.005304897
1	0x3dc3f0bb	0.095674
2	0xbd9bfa82	-0.0761614
3	0x3e169758	0.1470617
4	0xbdfb7e9d	-0.12280009
5	0x3e18672e	0.1488311
6	0x3d1bbca0	0.038021684
7	0x3d9874a0	0.074441195
8	0xbcb914d7	-0.022592945
9	0x3c9a3812	0.018825565
10	0x3e1b7097	0.15179668
11	0xbcae848d	-0.02130344
12	0x3dfdfec1	0.12402106
13	0x3e1f6d3e	0.15569016
14	0x3dab427d	0.08362291
15	0xbdeb616e	-0.114931926
16	0xbd9a118b	-0.07522877
17	0x3d4d9d29	0.050198708
18	0x3e12d159	0.14337672
19	0xbd0bea0d	-0.034158755
20	0x3d918594	0.07105556
21	0xbbe8bfd2	-0.007102945
22	0x3d67f2f6	0.05662819
23	0xbd02daf6	-0.0319471
24	0x3d5245a1	0.051335935
25	0xbe2b0f1c	-0.16704983
26	0x3de44901	0.11146737
27	0xbdeba41b	-0.1150591
28	0xbe1e54fd	-0.15462108
29	0xbc56088e	-0.013063563
30	0xbe0bd5a1	-0.13655712
31	0xbd9d4e1e	-0.07680915
32	0x3e0e4ee7	0.13897286
33	0x3e2cce87	0.16875659
34	0xbdfebc70	-0.12438285
35	0x3e16f7c0	0.14742947
36	0xbb4554c5	-0.003011034
37	0x3e1be8ef	0.15225576
38	0x3d00ae34	0.031416133
39	0xbd0e800f	-0.034790095
40	0xbd33eb30	-0.043925464
41	0xbe071324	-0.13190895
42	0x3dfde5ee	0.12397371
43	0xbdfce225	-0.12347821
44	0x3db2e549	0.08735139
45	0xbdc55577	-0.09635442
46	0xbde1aa2e	-0.11018787
47	0x3e0b2a53	0.13590364
48	0x3e313623	0.17305808
49	0x3e00f11a	0.12591973
50	0xbdfcfbbe	-0.123527035
51	0xbe1157c8	-0.14193642
52	0x3d46c19d	0.048524488
53	0x3e1fea16	0.1561664
54	0xbd2d96b3	-0.042380046
55	0x3dedafe8	0.11605817
56	0xbd13d64c	-0.03609304
57	0xbd0260b9	-0.031830523
58	0xbd87aab0	-0.06624353
59	0xbd8c8cda	-0.06862803
60	0xbda60967	-0.08107262
61	0xb9c96766	-0.00038414745
62	0x3e0e2ead	0.13884993
63	0x3dde2e22	0.10848643
64	0xbde7b4e9	-0.11313803
65	0x3e2e7a7a	0.17038909
66	0x3da9051f	0.0825293
67	0x3dbe377b	0.09287926
68	0x3d4e1da8	0.05032125
69	0x3df44ac1	0.11928321
70	0xbd613347	-0.054980543
71	0x3d03f694	0.032217577
72	0xbe106d2a	-0.14104143
73	0xbe2ed117	-0.17071949
74	0xbe27322c	-0.16327733
75	0x3bf8b302	0.007589699
76	0x3ddf9a7e	0.10918139
77	0xbcc24a6c	-0.023717128
78	0x3db10b45	0.086447276
79	0x3e1e5a2f	0.1546409
80	0x3d3ebbc7	0.046565797
81	0x3cf0aeb8	0.029380187
82	0x3d440101	0.04785252
83	0xbc06f077	-0.008236042
84	0x3d8f9b69	0.07012064
85	0xbe30c172	-0.17261294
86	0x3d9d98f6	0.076951906
87	0x3db81280	0.089879036
88	0xbdf8034e	-0.12110005
89	0xbc982f49	-0.018577235
90	0x3d6c2558	0.0576528
91	0xbd4b88d2	-0.04969103
92	0x3d6a7848	0.057243615
93	0xbe0364b9	-0.12831391
94	0xbe232e6d	-0.15935679
95	0x3daff5f9	0.085918374
96	0xbd7a2d7d	-0.061078537
97	0xbd773fd8	-0.06036362
98	0xbdc677c4	-0.09690812
99	0x3e115f9c	0.14196628
100	0x3dbd7222	0.09250285
101	0xbd4552f5	-0.048174817
102	0xbc55af76	-0.013042321
103	0x3dc82262	0.09772183
104	0x3e2df456	0.16987738
105	0x3ca2e681	0.019885303
106	0x3df409b9	0.11915917
107	0x3d8e456f	0.06946837
108	0x3deaed3e	0.114710316
109	0x3e124550	0.14284253
110	0xbd6a2ae0	-0.057169795
111	0x3e257151	0.16156508
112	0x3db569b9	0.088580556
113	0x3d477f62	0.048705466
114	0xbd329c38	-0.043606013
115	0x3e23b372	0.15986422
116	0x3dc1c354	0.09461084
117	0xbdd28c3b	-0.10280653
118	0x3e21ab0c	0.15787905
119	0x3dc0a721	0.09406877
120	0x3c8a4c0a	0.016881961
121	0x3dcbbfbb	0.09948679
122	0x3e2c883a	0.16848841
123	0xbd072464	-0.03299369
124	0xbe1ae6d7	-0.15127121
125	0x3e310202	0.17285922
126	0xb9752acc	-0.00023380964
127	0x3e1709a9	0.14749779
128	0xbdafd2dc	-0.0858514
129	0xbdc86926	-0.097856805
130	0x3dee1627	0.11625319
131	0xbd81ddeb	-0.063411556
132	0x3d23cf3b	0.039992552
133	0x3dda1cbb	0.10650011
134	0x3e29a185	0.16565521
135	0x3d81dfcf	0.06341516
136	0xbb45f384	-0.003020496
137	0xbdd5f177	-0.104464464
138	0xbd078c61	-0.03309286
139	0xbdd4fd01	-0.10399819
140	0x3dce6ffd	0.10079954
141	0xbda3e3a6	-0.08002405
142	0xbd438614	-0.04773529
143	0xbdb9cd02	-0.09072305
144	0x3e016c0f	0.12638877
145	0xbd6ff926	-0.058587216
146	0xbe2f8707	-0.17141353
147	0xbc806bb1	-0.015676351
148	0x3e1343ed	0.1438138
149	0xbe2170a5	-0.15765627
150	0x3dfb0fa7	0.12258845
151	0x3da972a0	0.08273816
152	0xbe342867	-0.17593537
153	0x3e1d947e	0.15388677
154	0x3d3d83a2	0.046268113
155	0x3d813b29	0.06310112
156	0xbe0f2133	-0.13977508
157	0x3d046428	0.03232208
158	0x3de2f43f	0.110817425
159	0x3d571e0d	0.052518893
160	0xbd79a39a	-0.06094704
161	0xbde11d72	-0.109919444
162	0x3e0a9030	0.13531566
163	0xbe04b089	-0.12957968
164	0x3d0a635a	0.033786155
165	0xbdb4f31e	-0.088354334
166	0xbc000282	-0.007813098
167	0xbbc98628	-0.006150026
168	0xbc9575f2	-0.018244717
169	0xbd5a1351	-0.053241078
170	0x3e01a566	0.12660751
171	0xbbdc7eeb	-0.006728997
172	0x3d9d82ee	0.076909885
173	0xbe302879	-0.17202939
174	0x3d196834	0.03745289
175	0x3ce314e2	0.027719919
176	0x3e024a48	0.12723649
177	0x3e24dfe9	0.1610104
178	0xbd685c13	-0.056728434
179	0xbe00e490	-0.1258719
180	0x3e156c87	0.14592181
181	0x3dd1c3a8	0.102423966
182	0x3e0baaca	0.1363937
183	0x3e243203	0.16034703
184	0x3de658a1	0.11247373
185	0xbe01f080	-0.126894
186	0xbd225828	-0.039634854
187	0x3c2c5201	0.010517598
188	0x3d0fa72a	0.03507153
189	0x3e21d920	0.15805483
190	0xbd4272f8	-0.047472924
191	0x3c9fc3da	0.019502569
192	0x3dde0730	0.10841215
193	0x3dd65bb2	0.10466708
194	0x3e0f6697	0.14003979
195	0xbdb36419	-0.087593265
196	0x3d10aa57	0.0353187
197	0x3e0032c2	0.12519363
198	0xbc3e854f	-0.011628463
199	0x3d854db9	0.06508965
200	0xbdfcd8a4	-0.123460084
201	0xbd66fee0	-0.05639541
202	0x3e0679a0	0.13132334
203	0xbbc952e4	-0.0061439145
204	0xbde229bd	-0.11043117
205	0xbd2ccb9b	-0.04218636
206	0xbe33466b	-0.17507331
207	0xbbd4983e	-0.0064878752
208	0x3a446a5d	0.0007492656
209	0x3e1cc46e	0.15309307
210	0xbd399d8e	-0.04531627
211	0xbdc6ae0f	-0.09701168
212	0x3d80d899	0.06291313
213	0xbda23a7e	-0.07921313
214	0xbdf4fc4b	-0.119621836
215	0x3e2c8967	0.1684929
216	0xbd192819	-0.037391756
217	0x3da9c5c1	0.08289672
218	0xbdd4b03a	-0.10385175
219	0x3db79b85	0.0896521
220	0x3cc39498	0.023874566
221	0xbe2700a6	-0.16308841
222	0x3d234c6b	0.0398678
223	0x3d8dfd22	0.06933047
224	0x3db42def	0.08797824
225	0x3d78e6ce	0.060766988
226	0xbe319a98	-0.17344129
227	0xbca29e56	-0.019850891
228	0x3d89793c	0.06712577
229	0xbe1e6dc1	-0.15471555
230	0x3e0ee649	0.13955034
231	0x3b9ea28e	0.0048411554
232	0xbe0c300d	-0.13690205
233	0x3c75ced8	0.015002929
234	0x3df06d56	0.11739604
235	0x3e1a340b	0.15058915
236	0xbd38eed5	-0.045149643
237	0xbe2d38fe	-0.16916272
238	0xbdc67b6f	-0.09691512
239	0xbdc8537e	-0.0978155
240	0x3e2bbfa9	0.16772331
241	0x3d4ae651	0.049536053
242	0xbd37f6dc	-0.044913158
243	0x3dab111a	0.08352871
244	0x3e0a09b0	0.13480258
245	0xbd8027ad	-0.062575676
246	0xbde3058f	-0.110850446
247	0x3d035b9d	0.03206979
248	0xbe109826	-0.1412054
249	0xbdfc3cd6	-0.12316291
250	0x3c50bff3	0.012741077
251	0x3d2ec935	0.042672355
252	0xbdcacb21	-0.09902025
253	0xbe0750e4	-0.13214451
254	0x3aa26d6a	0.0012392227
255	0xbe341f82	-0.17590144

linear3.bias f4 [32]
0	0x3db3cc8a	0.08779247
1	0xbda1c251	-0.07898391
2	0xbbad4063	-0.0052872165
3	0xbe24c043	-0.16088967
4	0x3da1391b	0.0787222
5	0x3dee1139	0.11624379
6	0x3e1df025	0.15423639
7	0xbd7ec234	-0.062196925
8	0x3e155a59	0.14585246
9	0xbdd3c1ec	-0.10339722
10	0xbdb96f70	-0.09054458
11	0x3d886845	0.06660513
12	0x3dd10648	0.10206276
13	0x3e137685	0.1440068
14	0x3d8c3a63	0.06847074
15	0x3db9403d	0.090454556
16	0x3e0d2c4c	0.13786429
17	0x3d868d9d	0.06569979
18	0xbd9d620f	-0.07684719
19	0xbe2c74a6	-0.16841373
20	0xbe035ec1	-0.12829114
21	0xbdf264ce	-0.11835633
22	0xbbd9c8e5	-0.006646263
23	0xbd9a6e16	-0.075405285
24	0x3d0d894d	0.03455477
25	0xbd25a81c	-0.040443525
26	0xbd3b6f1e	-0.045760266
27	0x3e15bca5	0.14622743
28	0x3e29a409	0.1656648
29	0x3db0ade8	0.0862692
30	0xbd71f737	-0.059073653
31	0xbc464c14	-0.012103099

linear4.weight f4 [16, 32]
0	0xbdb4ffec	-0.08837876
1	0xbb9c0356	-0.00476114
2	0x3e0411ca	0.12897411
3	0xbe207391	-0.15669085
4	0xbdb8a0a4	-0.09015015
5	0xbd5b6211	-0.05356032
6	0xba0db568	-0.0005405755
7	0x3dfa6e7a	0.12228103
8	0x3ca217cf	0.019786743
9	0x3cb56206	0.022141468
10	0x3d8cf32c	0.06882319
11	0x3e2264be	0.15858743
12	0x3e064380	0.13111687
13	0x3c60cf6c	0.013721328
14	0xbd3b5f8a	-0.04574541
15	0x3d03d843	0.032188665
16	0xbdb57d7d	-0.088618256
17	0xbca7b6e8	-0.020472959
18	0xbe02a646	-0.12758741
19	0xbd3a5e0a	-0.04549984
20	0xbdb0528f	-0.08609497
21	0xbdbdbf51	-0.09265006
22	0x3de6d32e	0.11270748
23	0xbe02cd43	-0.12773614
24	0xbda8e959	-0.082476325
25	0x3d6eaecc	0.058272168
26	0x3de5290f	0.11189472
27	0xbdfe49e5	-0.12416438
28	0xbd736cbf	-0.05942988
29	0x3d5ca915	0.053872187
30	0x3c47093b	0.012148197
31	0x3e076474	0.13221914
32	0x3d5980f2	0.053101487
33	0x3d84c067	0.0648201
34	0xbcce19ec	-0.025158845
35	0xbd89cf3c	-0.0672898
36	0xbe1a0946	-0.150426
37	0x3dae6bc0	0.085166454
38	0xbc8faf9b	-0.01753979
39	0x3de56f78	0.112029016
40	0x3e03d24a	0.12873188
41	0xbdcc26e7	-0.099683575
42	0x3d155f13	0.036467623
43	0xbb8c1573	-0.004275018
44	0xbd723d49	-0.059140477
45	0xbdb49d59	-0.08819074
46	0xbd82ea00	-0.06392288
47	0xbd147434	-0.036243632
48	0x3e05e2a4	0.13074738
49	0xbde988f3	-0.11403074
50	0x3da9c265	0.08289031
51	0x3e262afc	0.16227335
52	0xbd466e98	-0.048445314
53	0x3d264ee6	0.040602587
54	0xbe04c2f3	-0.12964992
55	0x3d0f149e	0.03493177
56	0x3e03ca2f	0.12870096
57	0xbdf9786d	-0.121811725
58	0xbd414bee	-0.047191553
59	0x3ba73a5d	0.005103393
60	0x3d413fe8	0.047180086
61	0xbd9f4933	-0.077776335
62	0xbcf7b276	-0.030236464
63	0xbd32babc	-0.043635115
64	0xbe2737c5	-0.16329868
65	0xbcf1cf44	-0.029517777
66	0x3e15bdf4	0.14623243
67	0xbe15bf0b	-0.14623658
68	0xbe2da8cf	-0.16958927
69	0xbc216741	-0.009851278
70	0x3c87613f	0.016525863
71	0xbe0e5bcb	-0.13902204
72	0xbd3013a0	-0.042987466
73	0xbcbc9def	-0.023024527
74	0x3df08427	0.11743956
75	0xbdebb28f	-0.11508667
76	0x3b5af83e	0.0033412124
77	0xbd9b9a35	-0.07597772
78	0xbdbfc045	-0.093628444
79	0x3dd18bf3	0.10231771
80	0xbdec70ed	-0.115449764
81	0xbda43771	-0.08018387
82	0xbdb1aaf4	-0.08675185
83	0x3dd72475	0.105050005
84	0x3e2b52ed	0.16730852
85	0x3df5cd8b	0.12002095
86	0xbd337b50	-0.04381877
87	0xbde293f8	-0.11063379
88	0xbdf3ceca	-0.11904676
89	0x3dd73cee	0.10509668
90	0x3cdb3502	0.026758675
91	0xbde88081	-0.11352635
92	0x3df3964a	0.118939
93	0xbdf90d55	-0.12160746
94	0xbd53be5d	-0.051695216
95	0xbe0317f2	-0.12802103
96	0x3df2ef9c	0.11862108
97	0x3e1484e5	0.1450382
98	0xbd8ec843	-0.06971791
99	0x3cb9683c	0.02263271
100	0x3d8ab0e1	0.06772018
101	0xbda44ea2	-0.080228105
102	0xbd3e5276	-0.04646536
103	0xbd260178	-0.040528744
104	0xbe32029a	-0.17383805
105	0xbd0d73e9	-0.03453437
106	0x3c741695	0.014897962
107	0x3e34af3d	0.17644973
108	0xbbedac10	-0.0072531775
109	0x3ce9fc79	0.028562771
110	0xbc2c36df	-0.010511129
111	0x3d4453a6	0.047931336
112	0xbd2d53b9	-0.042316172
113	0xbc5252d2	-0.012837129
114	0xbde87f3e	-0.113523945
115	0x3d90a477	0.07062619
116	0xbde3cb98	-0.11122817
117	0x3de242af	0.11047875
118	0xbc352a56	-0.011057457
119	0xba086659	-0.0005203239
120	0xbceb162b	-0.028697094
121	0x3c7fdbeb	0.015616397
122	0xbc2680c0	-0.010162532
123	0x3e238aba	0.15970889
124	0xbccdbc73	-0.025114274
125	0xbcb1003e	-0.02160656
126	0x3e0b8020	0.13623095
127	0x3dda4cba	0.10659166
128	0x3deb1a71	0.11479653
129	0x3dfbc446	0.122932956
130	0x3e121874	0.1426714
131	0xbe0eb9cb	-0.13938062
132	0x3c944792	0.018100534
133	0x3e11147b	0.14167969
134	0xbc489ed8	-0.012244903
135	0xbd3b4374	-0.045718625
136	0x3d226cd1	0.039654557
137	0x3e14ea8e	0.145426
138	0xbe29c368	-0.16578448
139	0x3c048208	0.0080876425
140	0x3d86f3b1	0.06589449
141	0x3e263915	0.16232713
142	0x3d1fbac5	0.038996477
143	0xbb591988	-0.003312679
144	0x3e271915	0.16318162
145	0x3e230eb0	0.15923572
146	0x3c671323	0.014103684
147	0x3d71caab	0.05903117
148	0xbd5f8f69	-0.054580126
149	0x3ba6033d	0.005066304
150	0xbe30fc27	-0.17283688
151	0xbd8ffd0c	-0.07030687
152	0xbdeebe69	-0.116574116
153	0x3e29ee93	0.16594915
154	0xbd9024b6	-0.07038252
155	0xbe3430d5	-0.17596753
156	0x3dab9538	0.083780706
157	0xbdd0cd62	-0.10195424
158	0xbe0d0a3b	-0.13773434
159	0xbe2ca8cf	-0.1686127
160	0xbde1bcad	-0.11022315
161	0x3d033a00	0.032037735
162	0xbe17e90a	-0.14834991
163	0xbc283689	-0.010266908
164	0xbcc7b657	-0.024378939
165	0xbdbf0181	-0.09326459
166	0x3cca739d	0.024713332
167	0xbd16888c	-0.036751315
168	0x3d078c56	0.03309282
169	0x3e2d6aa5	0.16935213
170	0x3da5d130	0.0809654
171	0xbdc6d20e	-0.097080335
172	0x3d79d3aa	0.060992874
173	0xbd7e56a2	-0.06209434
174	0x3df68a43	0.1203809
175	0xbe1a6881	-0.15078928
176	0x3e236c8f	0.1595938
177	0x3d58b032	0.052902408
178	0x3d63f131	0.05564994
179	0xbdb2d76b	-0.08732494
180	0x3decdcd0	0.11565554
181	0xbe1e32fd	-0.15449138
182	0xbe0e6133	-0.13904266
183	0x3e01dc67	0.12681733
184	0x3e1cdb09	0.1531793
185	0xbc3103d2	-0.0108041335
186	0xbe132ae4	-0.1437183
187	0xbdee02d9	-0.11621637
188	0xbd8d45c8	-0.06898075
189	0xbdae3372	-0.08505906
190	0x3d536391	0.051608626
191	0xbde97e71	-0.1140107
192	0xbcc2fe61	-0.023802938
193	0xbda96ca9	-0.082726784
194	0x3cf3b8e4	0.029751249
195	0xbe291742	-0.16512778
196	0x3df271fd	0.11838148
197	0x3c72b1c2	0.014812889
198	0xbe2524c8	-0.16127312
199	0x3dd11508	0.102090895
200	0xbe16d380	-0.14729118
201	0xbe30d49e	-0.17268607
202	0x3d265b13	0.0406142
203	0x3e2471e5	0.16059072
204	0xbd70539d	-0.05867349
205	0xbdf1a42d	-0.11798892
206	0xbde1242a	-0.10993226
207	0x3cd49b55	0.025952974
208	0xbe068463	-0.13136439
209	0x3dd9c419	0.10633106
210	0xbd657e63	-0.056028735
211	0xbe0822ca	-0.13294521
212	0xbe337aee	-0.17527363
213	0xbdabd9a4	-0.08391121
214	0x3db7515f	0.08951067
215	0xbd847179	-0.06466956
216	0xbda8e838	-0.08247417
217	0xbdb9967b	-0.09061905
218	0x3e21b933	0.15793304
219	0x3def3ffa	0.116821244
220	0xbc61b568	-0.013776161
221	0x3da3b33c	0.079931706
222	0x3e0a7139	0.13519754
223	0xbdf05357	-0.11734646
224	0x3e274f79	0.1633891
225	0xbdb15ce2	-0.08660294
226	0x3dfb83d1	0.12281001
227	0x3d5e4739	0.054267142
228	0x3e0d88d5	0.13821729
229	0x3e12b6e6	0.14327583
230	0x3e00eed1	0.12591101
231	0x3df82180	0.121157646
232	0x3d43edab	0.04783408
233	0xbe1735bb	-0.1476659
234	0xbe1769ad	-0.14786406
235	0x3d62bc2f	0.055355247
236	0x3d852d71	0.06502808
237	0xbdf4a8d0	-0.11946261
238	0x3dd89c46	0.10576682
239	0x3dc57dea	0.09643157
240	0xbe1398ba	-0.1441373
241	0xbd68265b	-0.056677204
242	0x3d2c4a73	0.042063188
243	0x3dc93206	0.09823994
244	0x3e265ea7	0.16247045
245	0x3e218c03	0.15776066
246	0x3e1757ef	0.14779638
247	0x3e320f2d	0.17388602
248	0xbc89f4b6	-0.01684032
249	0x3db08570	0.08619201
250	0x3e0ec94e	0.13943979
251	0x3df20c6e	0.11818777
252	0x3e2c2c9f	0.16813897
253	0xbe32f2ef	-0.17475484
254	0xbd6203da	-0.055179454
255	0x3dcf5457	0.101235084

linear4.bias f4 [16]
0	0x3c9d4281	0.01919675
1	0x3d7ef923	0.062249314
2	0x3e0cdf0b	0.13756959
3	0xbd9c9067	-0.0764473
4	0xbe1a1b5f	-0.15049504
5	0x3ceb5470	0.028726786
6	0x3e176640	0.14785099
7	0x3d7a8d7a	0.06117008
8	0xbcb87e89	-0.022521274
9	0x3c1588ba	0.009126836
10	0x3e1258b7	0.14291655
11	0x3d4515a9	0.04811636
12	0xbd62d5af	-0.055379566
13	0xbde5edc1	-0.112269886
14	0xbe0a050c	-0.13478488
15	0x3d99f616	0.0751764

output_layer.weight f4 [2, 16]
0	0x3e271f04	0.16320425
1	0x3e6cf96c	0.23142022
2	0x3df54c14	0.119774014
3	0x3e28578c	0.16439646
4	0x3d7e67f0	0.06211084
5	0x3e323a6e	0.17405102
6	0x3e1e11fe	0.15436551
7	0xbc27b8c0	-0.010236919
8	0xbcb7ba40	-0.022427678
9	0x3dbbd464	0.0917137
10	0xbe6762fe	-0.22596356
11	0x3e33c86e	0.17556927
12	0xbde8ccf0	-0.11367214
13	0xbdfa68a4	-0.1222699
14	0x3de5dc30	0.11223638
15	0x3be24f00	0.00690639
16	0xbe0cc598	-0.13747251
17	0xbe4ea34c	-0.2017948
18	0xbdae86dc	-0.08521816
19	0x3e76d1c4	0.24103457
20	0xbdc4b01c	-0.09603903
21	0xbd4f5130	-0.050614536
22	0xbc92b5f0	-0.01790902
23	0xbe639cd0	-0.22227788
24	0x3e17252e	0.14760277
25	0xbe3bbd3c	-0.18333906
26	0xbccfe6b0	-0.025378555
27	0xbc922620	-0.017840445
28	0xbb70e200	-0.00367558
29	0x3e657222	0.2240682
30	0xbd4821e0	-0.04886043
31	0x3e115e74	0.14196187

output_layer.bias f4 [2]
0	0x3e34bad8	0.176494
1	0x3dddbcb0	0.10827005
