results/models/exp-2:batchsize=96,lr=1e-4,layers=5,adam-corrected/0/model-13.0.pt (torch, 12706 bytes, 10 tensors)

linear1.weight f4 [16, 4]
000000 99 02 33 3e e8 16 ae be be 64 0a 3e 94 2d b0 3e
       0.1748146 -0.3400185 0.13514993 0.34409773
000010 ce 40 46 be 18 72 a3 3e a1 73 e9 3e 24 fd ab 3d
       -0.19360659 0.31922984 0.4559603 0.08397892
000020 45 9b 98 3e 8e 88 c3 be b4 68 6f be 5a 08 29 bd
       0.2980596 -0.3819012 -0.23379785 -0.04126773
000030 e2 33 e4 3e 96 8f 5f be 41 66 21 be 5a fa 27 3e
       0.44570833 -0.21832117 -0.15761663 0.16404095
000040 0a 87 5a 3e 63 bc b3 3e d7 c8 15 3e 9f 1b 01 be
       0.21340576 0.35104665 0.14627396 -0.12608193
000050 02 00 b2 be 42 7c 2d be 2b 18 87 be bb 5c 70 3d
       -0.3476563 -0.16941932 -0.26385626 0.058682185
000060 92 3f dc 3c 3c 58 0c 3e 25 96 55 3e 8d 3e 40 3e
       0.026885781 0.13705534 0.20858057 0.18773861
000070 5a bc e5 bd ff 2a 27 be 95 17 6e bd 65 01 1d bd
       -0.11217566 -0.16324995 -0.05812796 -0.038331408
000080 a1 44 3b 3d 54 37 b9 bd cd bf b4 3e 88 17 f3 3e
       0.045719747 -0.09043756 0.35302582 0.4747889
000090 c2 99 41 bf b6 6c 37 bf 93 55 39 3e 0d 4e a4 3e
       -0.7562524 -0.71650255 0.1809905 0.32090798
0000a0 5a 29 4e 3e 1c ca be 3d 33 f2 a2 bd 3e d4 ab bc
       0.20132962 0.09315893 -0.07956352 -0.020975228
0000b0 79 92 88 be 16 bd d3 be 33 0d d7 3e da ec 87 bd
       -0.2667425 -0.413552 0.42002258 -0.06636973
0000c0 44 9e e7 bc d4 24 28 bc 08 f6 cc be ed 54 8b bd
       -0.02827371 -0.010262687 -0.40031457 -0.06803308
0000d0 db d2 95 be 16 88 87 3e 00 83 0b 3f 06 f7 94 bd
       -0.29262432 0.26471013 0.54496765 -0.072736785
0000e0 8b a9 81 3e ee ad 38 3e 4c 32 62 3e 11 8b b5 be
       0.25324664 0.18035099 0.22089499 -0.35457662
0000f0 49 b9 68 bd d0 56 77 3e 17 c2 8f be c2 06 8c 3e
       -0.056817327 0.2415421 -0.28077766 0.27348906

linear1.bias f4 [16]
000000 50 9c 0c bd 5e 9e 24 3f 0b 76 d4 3e 0f e6 1e 3f
       -0.03432876 0.6430415 0.4149631 0.6206979
000010 d9 a9 f3 3e 30 1c aa 3e ca 41 ae be 7d a0 23 3e
       0.4759052 0.3322463 -0.34034568 0.1597919
000020 51 ff a3 3c 1f 5e 6f be 1d 7d 2b 3f b8 62 18 3f
       0.020019205 -0.23375748 0.6698778 0.5952563
000030 49 90 07 3f 53 e8 73 3e fb 23 f5 3e e1 5d 79 3e
       0.52954537 0.23819093 0.47879013 0.24352218

linear2.weight f4 [32, 16]
000000 30 eb b4 3d 2a 50 4f be f2 88 13 be c8 ed 27 bd
       0.08833921 -0.20245424 -0.14407709 -0.04099825
000010 c8 36 2f be 00 64 60 3e d0 b4 6f bd c4 4c 40 3e
       -0.17110741 0.21913147 -0.058522046 0.18779284
000020 2c e0 1c be 1c 9a 33 be 06 6a 0b 3e 9c 85 b6 3d
       -0.1531989 -0.17539257 0.13614663 0.08912203
000030 00 16 ae bc 62 8a 5d be 7c 0d ba bd 28 4c 47 be
       -0.021250725 -0.2163482 -0.09084603 -0.19462645
000040 5e 35 5c be c6 f2 11 3e 08 fd d8 bd 08 31 1e be
       -0.21504733 0.14252767 -0.10595137 -0.15448391
000050 cc 21 34 be 88 99 b1 bd fe 0d 5f be 44 aa 3c 3e
       -0.17591017 -0.08671862 -0.21782681 0.18424326
000060 18 70 f1 bd ac b1 c3 3d 70 c1 26 be 00 6d 55 bb
       -0.11788958 0.095553726 -0.16284728 -0.003256619
000070 80 e9 1c bd 60 bb 71 3d f8 80 10 be a2 8b 60 be
       -0.03830862 0.059016585 -0.14111698 -0.21928266
000080 bc a4 93 3d 22 90 d7 3e ca 9d 6c 3d e9 c6 cd 3e
       0.07209155 0.42102152 0.057767667 0.4019082
000090 a1 3f 82 3d 4c 52 16 3e ba dc f3 3c 63 32 9d 3e
       0.063597925 0.14679831 0.029768337 0.30702505
0000a0 67 91 3f bd ca 25 79 bd 2a 3a cb 3d 5e 4c fe bb
       -0.046769526 -0.060827054 0.09923203 -0.0077605685
0000b0 97 51 91 3d 05 1b d1 3d db 84 5d be d9 44 8f 3e
       0.0709564 0.10210232 -0.21632712 0.27982214
0000c0 4d a4 0f 3e 29 1b db 3d 86 df 73 bb d9 2a ce 3d
       0.1402752 0.1069854 -0.0037212088 0.10066766
0000d0 2e 06 72 be 21 84 d5 bd 36 17 3c 3e 9e 3a f7 bc
       -0.2363517 -0.10425592 0.1836823 -0.030179318
0000e0 05 10 e2 bd 65 2c 17 3e 0c 7f 06 be 66 3b 31 be
       -0.11038212 0.14763029 -0.13134402 -0.17307815
0000f0 33 ed 29 3e ca 04 73 3e ac e0 c7 3d 39 3d df 3c
       0.1659439 0.23732296 0.0975965 0.027250873
000100 b0 6f 21 be 97 45 85 3c b6 05 82 3e e7 9d bc 3d
       -0.15765262 0.016268535 0.25394982 0.09209805
000110 18 2a 8d 3e ca 84 d5 bd d2 a2 a5 bc 1f 92 d0 3e
       0.27571177 -0.10425718 -0.02021924 0.40736482
000120 f3 44 8a be 67 a1 74 be b6 d6 5d 3e 1a f1 bd 3d
       -0.2700573 -0.23889695 0.21663937 0.09274502
000130 57 a6 ab 3d 50 cd dc bd d8 49 89 3d b4 29 fc 3e
       0.08381336 -0.10781348 0.06703538 0.49250567
000140 c7 4e fd 3c d9 9e 7b 3e 57 8c cc 3e ec 1a 64 3e
       0.030921353 0.24572314 0.3995082 0.22275895
000150 3c 61 d5 bd 93 9a 1f 3e 80 34 83 bc ee 34 3c 3e
       -0.104189366 0.15586309 -0.016016245 0.18379566
000160 8a 18 93 3c 6a a6 b9 be 1b 6a 05 3d 72 d3 cc 3e
       0.017956037 -0.36259776 0.032571893 0.4000507
000170 86 8b 7d bd 88 38 64 3e 61 4a 5c 3d 0d 45 c1 3e
       -0.061900638 0.2228719 0.05378187 0.37747994
000180 5f 9a 5f 3e 8c 40 58 bd d1 62 a3 bd 41 6e bf 3e
       0.21836232 -0.05279593 -0.07977832 0.37388805
000190 7a f3 ff be cf dd bb 3e 3d 1e da 3d ec 7b a5 3d
       -0.49990445 0.36692664 0.10650299 0.08080277
0001a0 81 82 97 3e 0b 50 86 3e 1f 20 af bd c8 99 1f 3e
       0.29591754 0.26232943 -0.085510485 0.15586007
0001b0 2d 30 f8 bd 3e cb 4a 3c b4 f7 85 be 9f 9c c3 3e
       -0.12118564 0.012377558 -0.26165545 0.3820543
0001c0 15 be 92 be ac 76 85 3e 9b ac 25 3e 18 09 89 3c
       -0.28660646 0.26067102 0.16179125 0.016727969
0001d0 26 f0 c0 bd e1 ca a3 3d ba fa 4a 3e 02 4b ee bc
       -0.09420805 0.079976805 0.19822207 -0.0290885
0001e0 1e 40 ad 3d e3 bf dc bd f1 fd 84 3e db 1b 83 3e
       0.08459495 -0.10778787 0.25974992 0.2560719
0001f0 6c 40 cd bd 44 21 2a 3e 91 87 8e bd 0e 64 8c 3e
       -0.10022053 0.16614252 -0.06959451 0.27420086
000200 c0 2f ea 3d 11 b6 bc 3e 0d aa ef 3e 34 05 39 3e
       0.11434889 0.36857656 0.46809426 0.18068391
000210 44 55 bd bd a6 54 5e bc 2c 36 7d 3d 02 8b 19 bc
       -0.09244779 -0.013569986 0.06181924 -0.009371521
000220 3d c1 36 3d 65 8b 13 bd a0 3a 9c 3e 84 71 de 3e
       0.04461788 -0.03602161 0.30513477 0.4344598
000230 c8 8b 00 3e ca ed 0c be d0 83 3e be 29 ca 66 3e
       0.12553322 -0.13762584 -0.1860497 0.22538055
000240 48 4f 17 be a7 dc 8e 3e 8e 23 bc bc bc 8c ae be
       -0.14776337 0.2790272 -0.022966173 -0.34091747
000250 97 b2 61 3d 51 b5 cf be 30 7f 50 bd ce e1 09 3d
       0.055101957 -0.4056802 -0.050902545 0.03366261
000260 21 ad 9d be 62 26 05 3e f9 17 67 bc 22 53 4b be
       -0.3079615 0.13002923 -0.014104837 -0.19855931
000270 15 55 ab 3e 33 a9 3a 3e ed ce ba 3e 03 d4 b1 be
       0.3346335 0.18228607 0.36485997 -0.34732065
000280 bd 9e ae be 29 70 56 3e ec e8 35 3e ad e8 21 3e
       -0.34105483 0.20941223 0.17764634 0.15811415
000290 9b d3 18 3e c3 ad 45 3e 07 f5 28 3d f7 d8 17 3e
       0.14924471 0.19304566 0.0412493 0.1482886
0002a0 bf f5 fb bd 27 5e d0 be 6b c0 95 3e 90 c4 da 3d
       -0.12302732 -0.40696833 0.29248366 0.106820226
0002b0 8e 89 0c 3e df 3e 31 be 88 6f 10 3d d6 d5 62 3e
       0.13724348 -0.1730914 0.035262614 0.22151884
0002c0 25 6f 0e 3d bd cb 4e 3e 24 ad f3 3d a3 e0 79 bc
       0.034773964 0.20194907 0.11898258 -0.0152513115
0002d0 4e 55 30 bd 29 a7 86 3e e6 47 8c bd 0d b9 c8 3e
       -0.043050103 0.26299408 -0.06849651 0.39203683
0002e0 ae cf 9a be 4e d4 34 be c2 69 ef 3d aa 6b 9c 3e
       -0.30236572 -0.17659113 0.116900936 0.3055089
0002f0 68 8d 35 3e 23 e8 50 be a4 cf 7b be b0 7c c4 3e
       0.17729723 -0.20401053 -0.24590927 0.3837638
000300 f3 b2 ea 3d 63 f3 1a 3e 33 b0 cf 3d f2 05 44 bc
       0.11459913 0.15131907 0.10141029 -0.011964308
000310 c2 0a ac 3d e4 11 96 3e 27 33 bb bc e0 74 43 3e
       0.084004894 0.29310524 -0.02285154 0.19087553
000320 4b d8 8c 3d 15 25 83 3d be 41 10 3e 7a 72 5e 3e
       0.06877192 0.06403557 0.14087579 0.21723357
000330 9e 3d c8 3e 95 8a dd bd 2b 53 a3 3d db e3 b5 3e
       0.3910951 -0.10817448 0.079748474 0.35525402
000340 6a a3 78 bd ae 3f 2b bd e6 da 85 3e 02 c6 1b 3e
       -0.06070272 -0.041808777 0.2614357 0.15212253
000350 83 6b 01 3e 40 c4 57 3e cc d6 e5 3d f6 d7 c7 3d
       0.12638669 0.21070957 0.1122261 0.09757988
000360 56 ac 1f 3d 3c 5d ae be 3d 98 b8 3e 66 53 93 3e
       0.03898271 -0.34055507 0.3605365 0.28774565
000370 42 c3 2d 3e 56 42 54 3e 21 6e 96 3c b0 40 f6 bb
       0.16969016 0.2072843 0.01836306 -0.0075150356
000380 7d 38 d8 3d c3 82 69 bd 40 d0 56 3d 81 70 0c bc
       0.10557649 -0.05700947 0.052444696 -0.008571745
000390 b4 6c b2 bd df 15 77 3d b6 f1 45 be 50 85 56 3d
       -0.0871214 0.060323592 -0.19330487 0.05237323
0003a0 5d 90 19 be 6c 0d 22 3d e0 c3 76 3d 91 45 de bd
       -0.14996476 0.03956358 0.060245395 -0.108531125
0003b0 11 3b 37 3e 5c d3 9f bd ca 7d 77 be ce 53 73 3e
       0.17893626 -0.078039855 -0.24169078 0.23762438
0003c0 07 57 8d be 7e eb e8 3d d5 08 4c bd 51 8a 5a 3c
       -0.2760546 0.113730416 -0.04981311 0.013338641
0003d0 94 46 8f 3c e8 20 8f 3e a9 95 98 bd 4e d1 6b bd
       0.017489709 0.27954793 -0.074504204 -0.057572655
0003e0 dd 70 02 bd 1c a7 19 3c b1 c0 b8 3e a0 3c 57 3e
       -0.031845916 0.009378221 0.36084512 0.2101922
0003f0 86 2d f9 3c 60 8d 90 3e a4 d4 0e 3e 25 88 f2 b9
       0.030417215 0.2823286 0.13948303 -0.00046259272

linear2.bias f4 [32]
000000 92 8f 6f be 68 1c fc bd 31 83 c9 3d 9b 3e 7d be
       -0.23394611 -0.123101056 0.09839476 -0.24730913
000010 aa 1b ec 3d 2c 3e 45 3c d7 ac 1b be 67 2b 0c 3e
       0.11528714 0.012038749 -0.15202652 0.13688432
000020 6a a2 bc 3e 9e 68 85 bd 14 3e 95 3e 64 62 54 3e
       0.36842662 -0.06514095 0.29148924 0.20740658
000030 b7 cf 6c 3e c1 f4 91 3e 11 c8 59 be 5d 65 c8 3e
       0.23126112 0.28507045 -0.21267726 0.39139834
000040 a0 f1 b6 bd 8c e1 67 be 94 70 51 be 0e 66 43 3e
       -0.08932805 -0.22644633 -0.20453101 0.190819
000050 b9 f7 59 bd d9 c5 8b 3e 94 66 38 be f9 85 3d 3e
       -0.053214762 0.27299383 -0.1800788 0.18508138
000060 9a 46 00 bd a5 0c fc 3d 7d 8e e8 bc 95 12 ad 3e
       -0.03131733 0.12307099 -0.028388256 0.3380324
000070 0a 0e 08 be a8 83 a4 3d a5 8c 6f 3e 3e e1 36 be
       -0.13286605 0.08032924 0.23393495 -0.1785936

linear3.weight f4 [32, 32]
000000 b4 d4 ad 3b bb f0 c3 3d 01 97 cf bd 58 97 16 3e
       0.005304897 0.095674 -0.101362236 0.1470617
000010 69 b3 09 be bb 90 00 3e db 8e 95 3c f7 63 80 3d
       -0.13447346 0.1255521 0.018256595 0.06269067
000020 a9 de 47 bd 2c 09 16 3b 50 38 05 3e ae a8 09 bd
       -0.04879633 0.002289365 0.13009763 -0.03360813
000030 d2 3e d1 3d a7 3f 07 3e 7d 42 ab 3d 85 b4 10 be
       0.1021706 0.13207875 0.08362291 -0.14131363
000040 8b 11 9a bd a7 39 4a 3d 59 d1 12 3e 64 db 57 bd
       -0.07522877 0.049371388 0.14337672 -0.05269946
000050 95 51 57 3d bb 23 e5 bc f6 f2 67 3d 78 3d 2c bd
       0.052568037 -0.02797114 0.05662819 -0.04205081
000060 78 97 06 3d e9 a7 54 be 83 5d b7 3d d0 2b 0d be
       0.032859296 -0.20767178 0.08953383 -0.13786244
000070 fd 54 1e be 8e 08 56 bc 3a ef 28 be 1e 4e 9d bd
       -0.15462108 -0.013063563 -0.16497508 -0.07680915
000080 e7 4e 0e 3e 87 ce 2c 3e ba aa 58 3d d9 52 11 3e
       0.13897286 0.16875659 0.052897193 0.1419176
000090 c0 49 48 3e 1d 5a ad 3e ec 2e 6b be 4a 03 19 3e
       0.19559383 0.33857813 -0.22967118 0.14942661
0000a0 06 99 17 3e 6a f7 b7 be a8 50 ac 3e 0c 7d 0c 3e
       0.14804468 -0.3593095 0.33655286 0.13719577
0000b0 e2 a3 61 3e a3 c5 92 3d 21 6b db bd 2a 73 8c 3e
       0.22035173 0.071666025 -0.107137926 0.27431613
0000c0 23 36 31 3e 93 0c 44 3e be fb fc bd 45 d6 4d bc
       0.17305808 0.19145422 -0.123527035 -0.012563293
0000d0 a4 3c 4a 3e 93 55 b9 3e b3 96 2d bd 98 3c b1 3e
       0.19749695 0.361981 -0.042380046 0.34616542
0000e0 8e d0 09 3e 02 3c 31 3e 31 84 70 3d 72 2f d6 3d
       0.13458464 0.17308047 0.058719818 0.10458268
0000f0 b8 b4 75 be 97 dc 10 be ae ba 95 3e 22 2e de 3d
       -0.2399472 -0.14146648 0.29243988 0.10848643
000100 e9 b4 e7 bd 7a 7a 2e 3e 13 97 9c 3d 8a 20 b8 3d
       -0.11313803 0.17038909 0.076460026 0.08990581
000110 a8 1d 4e 3d 25 df e7 3d ae 2f 7a bd 5d 60 e7 3c
       0.05032125 0.11321858 -0.061080627 0.028244192
000120 34 a3 16 be 17 d1 2e be d6 49 28 be 58 fa cf 3a
       -0.14710695 -0.17071949 -0.16434416 0.0015867455
000130 c3 32 d3 3d ad f0 f3 bc 45 0b b1 3d 2a 2a 18 3e
       0.103124164 -0.02977785 0.086447276 0.14859834
000140 c7 bb 3e 3d 77 fb fd 3c 01 01 44 3d 4e 59 6a bc
       0.046565797 0.031003697 0.04785252 -0.014303518
000150 0d 38 83 3d 12 e0 36 be f6 98 9d 3d 57 f8 b1 3d
       0.06407175 -0.17858914 0.076951906 0.08689945
000160 71 1d fe bd d2 c0 c9 bc 08 67 53 3d e7 4f 64 bd
       -0.12407959 -0.024628077 0.05161193 -0.055740263
000170 c5 43 5e 3d db 61 06 be 17 62 29 be f9 f5 af 3d
       0.05426385 -0.13123266 -0.16541325 0.085918374
000180 7d 2d 7a bd d8 3f 77 bd 3f 38 04 bd 0d 93 0b 3e
       -0.061078537 -0.06036362 -0.032280203 0.13630314
000190 05 ba 21 3e 01 c7 58 3d 8e f3 54 be b9 36 5d 3e
       0.15793617 0.05292416 -0.20796034 0.21602906
0001a0 e8 62 86 3e 84 c2 63 be 13 45 53 3e 73 a3 86 3e
       0.26247334 -0.2224217 0.20631818 0.26296577
0001b0 23 f5 0a 3e cb 60 46 3e 58 bb 5d bd 11 a5 3a 3e
       0.13570075 0.19372861 -0.054133743 0.1822703
0001c0 b9 69 b5 3d 10 48 08 3e 38 9c 32 bd 3c 64 67 3e
       0.088580556 0.1330874 -0.043606013 0.2259683
0001d0 38 a3 0d 3e 06 79 f6 bc 0c ab 21 3e 87 db 49 3e
       0.13831794 -0.030087005 0.15787905 0.1971265
0001e0 01 e2 6b 3d 56 18 32 3e 41 ef 30 3e 2a 92 d4 3c
       0.05758858 0.17392096 0.17278768 0.025948603
0001f0 57 e0 95 be 86 ff 85 3d 1e e0 04 3d a9 09 17 3e
       -0.2927272 0.06542878 0.032440297 0.14749779
000200 dc d2 af bd 26 69 c8 bd 27 90 9a 3e 9d 1b 8d bd
       -0.0858514 -0.097856805 0.30188105 -0.068900324
000210 6c ea 6e 3e 83 8f 9e 3e f7 81 c9 bd e0 b2 84 3e
       0.23331612 0.30968866 -0.09839242 0.2591772
000220 0f af 44 3e 51 5b aa be c5 de 36 3e 44 f9 2f 3e
       0.19207405 -0.33272794 0.17858417 0.17184931
000230 39 15 75 3e f0 df b6 3d bf 05 37 bd 8f 42 59 3d
       0.23933877 0.089294314 -0.044683214 0.05304199
000240 0f 6c 01 3e 7c ab 81 3c 07 87 2f be bd ba ec 3d
       0.12638877 0.01582884 -0.17141353 0.11559055
000250 d2 ab 96 3e df 1c 46 3d a7 0f fb 3d 31 86 a3 3e
       0.29427963 0.048367377 0.12258845 0.31938317
000260 d4 cf f4 bb 77 01 bc 3e 9d 31 30 3e b6 bc 74 3e
       -0.007471064 0.36719868 0.17206426 0.23900113
000270 66 c5 97 be 04 57 d7 bd 7c 8c 8a 3e 0d 1e 57 3d
       -0.2964279 -0.10514644 0.27060306 0.052518893
000280 9a a3 79 bd 72 1d e1 bd 61 03 d4 3d 89 b0 04 be
       -0.06094704 -0.109919444 0.10352207 -0.12957968
000290 f3 03 00 bc a8 8e b5 bd 3c 61 9b bb ba 06 d3 bc
       -0.007813442 -0.088651 -0.004741816 -0.025760043
0002a0 83 09 3e bd 48 58 78 bd ef 4f b9 3d 7f a7 6c bc
       -0.04639579 -0.060631067 0.09048449 -0.014444231
0002b0 73 85 03 3d c1 8f 55 be 34 68 19 3d ad 37 65 bc
       0.03210969 -0.20855619 0.03745289 -0.013990325
0002c0 48 4a 02 3e 3e f3 1f 3e 13 5c 68 bd f9 27 08 be
       0.12723649 0.15620133 -0.056728434 -0.13296498
0002d0 5d dd e5 3d 1a 1c 7b 3d ca aa 0b 3e 6c a1 ed 3d
       0.11223862 0.061306097 0.1363937 0.116030544
0002e0 ca f2 9d 3d 7e 0c 38 be 51 ba 9d bd 69 d9 df bc
       0.07712324 -0.17973515 -0.07701553 -0.027325349
0002f0 2a a7 0f 3d 20 d9 21 3e c1 ce bf bd da c3 9f 3c
       0.03507153 0.15805483 -0.09365607 0.019502569
000300 30 07 de 3d b2 5b d6 3d 21 0e a1 3d 19 64 b3 bd
       0.10841215 0.10466708 0.07864023 -0.087593265
000310 1d 31 5a 3b 81 d5 bb 3d fc d7 dd bc 4f aa 34 3d
       0.0033293434 0.09171582 -0.027080528 0.04410773
000320 50 65 1f be 8f a6 94 bd 82 8f d5 3d 96 df 06 bd
       -0.15565991 -0.07258331 0.104277626 -0.032928072
000330 58 7a 18 be 67 5a 94 bd 6b 46 33 be df 5e 2b bd
       -0.1489042 -0.072438054 -0.17507331 -0.041838523
000340 5d 6a 44 3a 96 e3 15 3e 8e 9d 39 bd fd 3b e8 bd
       0.0007492656 0.14637598 -0.04531627 -0.11339567
000350 ac d0 25 3d 2c be df bd 4b fc f4 bd 82 a2 df 3d
       0.040482208 -0.10924944 -0.119621836 0.10919668
000360 93 aa 77 bd b7 b1 a9 3c da f7 0f be d5 42 75 3d
       -0.060465407 0.020714624 -0.14059392 0.05987819
000370 98 94 c3 3c a6 00 27 be 84 07 7c ba 22 fd 8d 3d
       0.023874566 -0.16308841 -0.0009614157 0.06933047
000380 ef 2d b4 3d ce e6 78 3d 98 9a 31 be 56 9e a2 bc
       0.08797824 0.060766988 -0.17344129 -0.019850891
000390 3c 79 89 3d c1 6d 1e be 49 e6 0e 3e 8e a2 9e 3b
       0.06712577 -0.15471555 0.13955034 0.0048411554
0003a0 0d 30 0c be d8 ce 75 3c 56 6d f0 3d 0b 34 1a 3e
       -0.13690205 0.015002929 0.11739604 0.15058915
0003b0 d5 ee 38 bd fe 38 2d be 6f 7b c6 bd 7e 53 c8 bd
       -0.045149643 -0.16916272 -0.09691512 -0.0978155
0003c0 a9 bf 2b 3e 51 e6 4a 3d dc f6 37 bd 1a 11 ab 3d
       0.16772331 0.049536053 -0.044913158 0.08352871
0003d0 b0 09 0a 3e ad 27 80 bd 8f 05 e3 bd 9d 5b 03 3d
       0.13480258 -0.062575676 -0.110850446 0.03206979
0003e0 26 98 10 be d6 3c fc bd f3 bf 50 3c 35 c9 2e 3d
       -0.1412054 -0.12316291 0.012741077 0.042672355
0003f0 21 cb ca bd e4 50 07 be 6a 6d a2 3a 82 1f 34 be
       -0.09902025 -0.13214451 0.0012392227 -0.17590144

linear3.bias f4 [32]
000000 29 0c 82 3d 1a 7f af 3d 34 f1 39 bc 5d 0c be bd
       0.063499756 0.085691646 -0.011349011 -0.09279702
000010 87 ce 7a 3e b4 f5 af 3d 1b be 00 3e 34 c2 7e bd
       0.24492846 0.08591786 0.1257252 -0.062196925
000020 14 d9 d0 3d 31 af 69 3d 69 f8 87 3d 1f 0b 6a 3e
       0.10197654 0.05705184 0.06639177 0.22855805
000030 f1 a9 60 3e 80 eb 83 3e ad e3 4b 3e 7e 71 68 3e
       0.21939828 0.2576561 0.1991107 0.22699544
000040 76 81 8f 3e 94 60 84 3d e3 1f c8 bd a6 74 2c be
       0.28028458 0.06463733 -0.09771707 -0.16841373
000050 c1 5e 03 be b6 f8 d9 3c 43 86 15 bb a9 7c a0 bd
       -0.12829114 0.026607852 -0.0022815622 -0.07836277
000060 be aa 3c 3e 15 48 97 3d f6 13 e3 3d 24 02 74 3e
       0.18424508 0.073867954 0.110877916 0.23828942
000070 d3 c0 90 3e f4 d8 66 3e 5d 28 ce 3d 1c b6 82 bc
       0.28272113 0.22543699 0.100662924 -0.015955977

linear4.weight f4 [16, 32]
000000 9d 9c 96 bd 0e b5 f0 3d b7 68 fa 3d 19 c9 12 be
       -0.0735409 0.117532834 0.12227004 -0.14334525
000010 0d 82 a8 3c bc 54 9c bc d5 3a 14 3d 7a 6e fa 3d
       0.020569826 -0.019083373 0.03618892 0.12228103
000020 c5 7e 8e 3d b8 1e eb 3d 9c 4b 3c 3e 15 09 8f 3e
       0.06957773 0.114804685 0.18388218 0.27936617
000030 6a 5a 6a 3e f9 03 d9 3d 2c 0b a0 3d a2 ac 20 3e
       0.22886053 0.10596461 0.07814631 0.15690854
000040 6f 19 1b 3d 86 ce a1 bc 99 10 c5 be 0a 5e 3a bd
       0.037866052 -0.019751798 -0.38489226 -0.04549984
000050 8f 52 b0 bd b3 bb dc bc 7c 0a 9a bd b0 c7 05 be
       -0.08609497 -0.02694497 -0.07521531 -0.13064456
000060 b0 9e 45 3d 0d 54 9c 3d e1 5f 67 3e bc e8 05 3c
       0.04824704 0.07633219 0.22595169 0.008173164
000070 5f 44 58 3d 22 ba 32 3e 2c 63 00 3e 33 89 0b 3e
       0.05279958 0.17453817 0.12537831 0.13626556
000080 1a 14 7d 3d 05 b7 8f 3d e2 d1 ea bc d1 fb ae bd
       0.06178675 0.0701733 -0.028664533 -0.08544124
000090 e7 85 01 be 4c d9 cd 3d 59 75 21 3a 78 6f e5 3d
       -0.12648736 0.10051212 0.0006159149 0.112029016
0000a0 04 e6 1e 3e f4 69 cc bd af cc d2 3c af a5 61 3c
       0.15517431 -0.099811465 0.025732366 0.013772412
0000b0 c5 6c 8f bd 6c d8 b4 bd 46 13 45 bd 48 7c 05 bd
       -0.07003168 -0.08830342 -0.048114084 -0.032589227
0000c0 4c cc 15 3e b9 ea e7 bd dd 7e a0 3d fc 2a 26 3e
       0.14628714 -0.11324067 0.07836697 0.16227335
0000d0 98 6e 46 bd ad 9b b5 bb dd f6 f5 bd 9e 14 0f 3d
       -0.048445314 -0.0055422396 -0.12009976 0.03493177
0000e0 b7 cb 16 3e db 17 1a be 9c c1 0c bd 6a f1 90 3c
       0.14726149 -0.15048163 -0.034364328 0.01769324
0000f0 55 ec 6b 3d 6c a1 58 bd ab 1b a4 bc 53 15 23 bd
       0.05759843 -0.05288832 -0.020032724 -0.03981526
000100 b5 91 17 be f5 c1 08 3e a1 e0 0e 3e 63 3d a8 bd
       -0.14801677 0.13355239 0.13952877 -0.082148336
000110 4f e2 c1 bc 1d f8 b6 3c 1f ce 4c 3d cb 5b 0e be
       -0.023667483 0.022335107 0.05000126 -0.13902204
000120 6f a8 70 3b f5 3b df 3d 92 d6 8a 3e df f8 26 3d
       0.0036721488 0.10900108 0.2711683 0.040764686
000130 99 9c 08 3e 73 b3 43 3d ee 66 80 3d be 2f 86 3e
       0.13340987 0.047778558 0.06269632 0.262083
000140 0d af 30 3d 55 e3 a2 bd 2d 7b b2 be 75 24 d7 3d
       0.04313569 -0.079535164 -0.348596 0.105050005
000150 ed 52 2b 3e 0f 0e 6d 3e dd 2d 72 be a2 90 e8 bd
       0.16730852 0.23149894 -0.23650308 -0.113557115
000160 7c b5 3e 3d ea c4 32 3e 22 a6 35 3e 83 c7 49 3d
       0.046559796 0.17457929 0.17739156 0.049262535
000170 49 36 85 3e 52 77 15 3d e3 8f c9 3d 0f 50 fd bd
       0.2601798 0.036490746 0.09841897 -0.123687856
000180 f7 52 06 3e e4 ab a8 3e 00 13 9e bd ab 37 62 3e
       0.13117586 0.32943642 -0.07718468 0.22091548
000190 eb ad 7a 3e 0c 94 1f bd f8 10 1f bb 78 01 26 bd
       0.24480407 -0.038959548 -0.0024271589 -0.040528744
0001a0 42 ed fa bd 23 87 14 3e 46 50 5b 3e ea 7f b7 3e
       -0.122522846 0.14504676 0.2141734 0.35839778
0001b0 f2 3b 4a 3e 07 a7 52 3e e6 23 3b 3e ec 7d 79 3e
       0.1974943 0.20571528 0.18275413 0.24364442
0001c0 11 87 0f 3e d2 52 52 bc ab 1e a7 be 77 a4 90 3d
       0.14016367 -0.012837129 -0.32640585 0.07062619
0001d0 98 cb e3 bd c7 4e 95 3e 22 9f 49 be 26 6d 63 bb
       -0.11122817 0.29161665 -0.1968961 -0.0034702509
0001e0 8c 6b 22 3e 01 02 57 3e c8 a7 2a 3e 30 1a c3 3e
       0.15861338 0.20996858 0.16665566 0.38105917
0001f0 ea 47 1b 3e 3d 93 26 3e 4f 66 a0 3e ba 4c da 3d
       0.15164152 0.16267104 0.31328055 0.10659166
000200 71 1a eb 3d c1 4c 01 3e 4b 13 0f 3e 61 86 0e be
       0.11479653 0.12626936 0.13972203 -0.13918449
000210 84 f8 5e 3c 7b 14 11 3e d8 9e 48 bc 74 43 3b bd
       0.013609055 0.14167969 -0.012244903 -0.045718625
000220 d1 6c 22 3d b0 24 20 3e c0 3f 2b be b0 b2 ed 3b
       0.039654557 0.15638995 -0.16723537 0.007253967
000230 eb 36 8b 3d 93 fa 2f 3e b1 17 f0 3c 12 5d 18 bb
       0.06797584 0.1718543 0.029308172 -0.0023248834
000240 a3 09 26 3e b0 0e 23 3e 12 9a 39 3c ab ca 71 3d
       0.16214614 0.15923572 0.011328237 0.05903117
000250 69 8f 5f bd fc aa 44 3a 05 28 2b be 9d fa 89 bd
       -0.054580126 0.00075022853 -0.16714485 -0.06737254
000260 12 d4 e5 bd 6d 1e 2c 3e 4d df 85 bd d1 e8 51 be
       -0.1122209 0.16808482 -0.06536732 -0.20498969
000270 44 b6 b8 3d f5 59 da bd b8 20 09 be cf a8 2c be
       0.090191394 -0.10661689 -0.13391387 -0.1686127
000280 8b 81 b8 bd 4c f0 60 3e 62 fe 1e be e2 b5 03 3e
       -0.09009083 0.21966666 -0.15526727 0.12862352
000290 aa 2c 0e 3e 15 e6 5a bd 3a eb 84 3d 8c 88 16 bd
       0.13884225 -0.05344208 0.064901784 -0.036751315
0002a0 0c e0 b0 3d 93 aa aa 3e 47 d4 83 3e ad e3 9c 3d
       0.086364836 0.33333263 0.25747892 0.07660613
0002b0 5f ce 65 3e ca 2e b4 3d ac cd 9a 3e 72 55 01 3d
       0.22442006 0.08797987 0.3023504 0.031575628
0002c0 96 5c ab 3e bb a8 5b 3d ed ca 47 be 6b d7 b2 bd
       0.33469075 0.05362771 -0.19511004 -0.08732494
0002d0 d0 dc ec 3d 90 25 d5 bb e3 b2 a8 be 7d b5 fd 3d
       0.11565554 -0.006504722 -0.3294898 0.12388132
0002e0 e6 e0 ab 3e b9 6c 03 3e cc d7 df 3c 77 e3 92 3d
       0.3357002 0.12834443 0.02732458 0.07172292
0002f0 23 bc be 3d 7a a3 b1 3d aa d2 63 3e 84 f3 df bd
       0.09313228 0.08673759 0.2224833 -0.10935119
000300 17 cc 06 bc 1f 45 ef 3d 0c 9f ba 3c a5 98 91 bc
       -0.00822737 0.11683106 0.022780918 -0.017772982
000310 4d 51 94 3e 56 62 3e 3d a6 46 04 be 08 15 d1 3d
       0.28968278 0.0464805 -0.12917575 0.102090895
000320 70 e1 d1 bd 65 4a fb 3a 5d 56 68 3e d8 2b ae 3e
       -0.10248077 0.0019171952 0.22689195 0.34017825
000330 99 ef c8 3d f1 7b f5 3c 05 2e 8e 3d 1a 2b 57 3e
       0.098113246 0.029966326 0.06942371 0.21012536
000340 6e 09 3e 3d 89 36 db 3d 14 f5 9d be ca 22 08 be
       0.04639571 0.10703761 -0.30851042 -0.13294521
000350 ee 7a 33 be 25 48 9d 3d 07 10 ce bd ab 75 8a bd
       -0.17527363 0.07679776 -0.10061651 -0.06760725
000360 b5 47 d9 3d 39 f5 43 3d 06 18 ab 3e 33 d4 98 3e
       0.1060938 0.047841284 0.33416766 0.29849395
000370 6d b3 15 3e 38 82 85 3e 66 8d 9f 3e 41 ac e4 bd
       0.14619227 0.26075912 0.31162566 -0.11165667
000380 93 b9 18 3e 72 61 0a be d1 83 fb 3d 75 4e 20 3d
       0.14914541 -0.13513735 0.12281001 0.039137322
000390 19 26 cd 3d 3f 9c f6 3d c6 fe d0 3d 80 21 f8 3d
       0.10017032 0.1204152 0.10204844 0.121157646
0003a0 af 19 ab 3c a9 bd 2b be 94 d0 14 be 64 75 a1 3c
       0.02088627 -0.16771568 -0.14532691 0.019709297
0003b0 29 ae 49 3d ba d4 13 be 1d 9c ae 3d bd 29 92 3d
       0.049238358 -0.14436617 0.0852587 0.07136867
0003c0 cc 38 35 be 11 2b 68 bd 2f f6 11 3d 06 32 c9 3d
       -0.17697448 -0.056681696 0.03563517 0.09823994
0003d0 a7 5e 26 3e 03 8c 21 3e 05 9c 0a 3e 2d 0f 32 3e
       0.16247045 0.15776066 0.13536079 0.17388602
0003e0 3a 9c 5a bd 38 7e a2 3d 7d 8e d5 3d fa 1c c5 3d
       -0.053371646 0.079342306 0.10427568 0.096246675
0003f0 8a d1 10 3e 57 a3 5b be 98 9d b7 bd 2e 13 cc 3d
       0.14142433 -0.21449028 -0.089656055 0.09964596

linear4.bias f4 [16]
000000 65 f2 fa 3d 5d 57 ab 3d 10 48 82 3e e1 b7 61 3d
       0.12253264 0.083662726 0.25445604 0.055107
000010 b9 e6 17 be 20 18 19 3e 6c ee 85 3e 0e c5 06 3d
       -0.14834107 0.14950609 0.26158464 0.03290277
000020 89 7e b8 bc 2e cd 96 bc f9 35 de 3d ec 79 26 3e
       -0.022521274 -0.018408384 0.10850138 0.16257447
000030 af d5 62 bd c1 ed e5 bd 0c 05 0a be cc a0 51 3e
       -0.055379566 -0.112269886 -0.13478488 0.20471495

output_layer.weight f4 [2, 16]
000000 11 fe 93 3e ab 79 95 3e ac 9e 59 3e 8c 66 88 3e
       0.28904775 0.29194388 0.21251935 0.26640737
000010 42 88 51 3b ae 8c 93 3e 2e 7b 80 3e c2 49 03 3c
       0.0031972085 0.28818268 0.2509398 0.008013191
000020 40 ba b7 bc 0b d8 da 3d 63 6a 4b be 6f a9 93 3e
       -0.022427678 0.10685738 -0.19864802 0.28840205
000030 f0 cc e8 bd a4 68 fa bd 30 dc e5 3d 62 a1 cf 3d
       -0.11367214 -0.1222699 0.11223638 0.10138203
000040 a7 81 98 3d 0e 1d 06 be 0e e9 d5 3d 63 80 e3 3e
       0.07446604 -0.13097021 0.10444842 0.4443389
000050 8f 75 58 be b4 94 26 3e 12 7c 35 3e fb 9a 50 be
       -0.21138595 0.16267663 0.1772311 -0.2037162
000060 2e 25 17 3e bf bd 2a be 1a 2f 3b 3b 07 15 44 3e
       0.14760277 -0.16673945 0.002856201 0.19148646
000070 00 e2 70 bb 22 72 65 3e e0 21 48 bd e2 c5 ae 3e
       -0.00367558 0.2240682 -0.04886043 0.34135348

output_layer.bias f4 [2]
000000 e4 3d 75 3e 64 df 61 3e
       0.2394939 0.22057873
