results/models/exp-1:batchsize=128,lr=1e-4,width=128,num_episodes_train=1500,adam-corrected/0/model-49.0.pt (torch, 72294 bytes, 6 tensors)

linear1.weight f4 [128, 4]
0	0x3eba6cd2	0.36411148
1	0x3ecf28f6	0.40460938
2	0xbe92d074	-0.28674662
3	0xbe991664	-0.29899895
4	0xbe04a7f8	-0.129547
5	0x3eba6408	0.36404443
6	0xbef73d2c	-0.48288858
7	0x3ed7bf7e	0.42138284
8	0x3eae7696	0.3407485
9	0x3ec423b2	0.38308483
10	0x3e10b030	0.1412971
11	0xbef78842	-0.48346144
12	0x3ef09b6e	0.46993583
13	0xbc80ba40	-0.01571381
14	0xbe528a2c	-0.20560521
15	0xbed10ffe	-0.40832514
16	0x3e10f408	0.1415559
17	0x3e310484	0.17286879
18	0x3de44de8	0.11147672
19	0x3e0ae4a4	0.13563782
20	0xbec43dea	-0.38328487
21	0x3c974b20	0.01846844
22	0x3eea406e	0.4575228
23	0xbeab1058	-0.33410907
24	0x3e5a93e4	0.21345478
25	0xbd445600	-0.04793358
26	0x3e7d57e4	0.24740559
27	0x3e6db7b4	0.23214608
28	0xbe1fb0e0	-0.15594816
29	0x3cb3e1a0	0.021958172
30	0xbed29b0e	-0.41133922
31	0x3eef038a	0.46682388
32	0xbdd56560	-0.10419726
33	0x3e86ca76	0.2632634
34	0x3e7564d0	0.23964238
35	0x3eeae6d2	0.45879227
36	0x3eb08af0	0.34481
37	0xbecfc386	-0.4057886
38	0xbe4a8b14	-0.19779617
39	0xbe1d2a20	-0.153481
40	0xbee3d80e	-0.44500774
41	0xbcf7d680	-0.030253649
42	0xbdb90af8	-0.09035295
43	0x3d49a890	0.04923302
44	0x3cacf480	0.02111268
45	0x3e8223b8	0.25417876
46	0x3ef872ce	0.4852509
47	0xbe85025e	-0.2597837
48	0x3e880778	0.26568198
49	0x3d398410	0.04529196
50	0xbed9347e	-0.4242286
51	0x3c804ea0	0.015662491
52	0xbe7fed14	-0.24992782
53	0xbe827454	-0.25479376
54	0xbe04f260	-0.12983084
55	0x3de876f8	0.113508165
56	0x3d27e920	0.04099381
57	0x3d326fb0	0.043563545
58	0xbe7ab93c	-0.24484724
59	0xbdc39bc8	-0.09551197
60	0xbe1888f4	-0.14895993
61	0xbeeab37c	-0.4584006
62	0x3e638d84	0.22221953
63	0x3e3eb878	0.18625057
64	0xbe609978	-0.21933544
65	0xbd2ac830	-0.04169482
66	0x3e9e5d14	0.30930388
67	0x3eaa91f8	0.3331449
68	0xbe3d8614	-0.18508178
69	0x3e0b2ea4	0.1359201
70	0xbebc3e6c	-0.36766374
71	0x3ececd66	0.40391082
72	0x3d5c5870	0.053795278
73	0xbe039574	-0.1284998
74	0xbe714294	-0.23560554
75	0x3c608d80	0.013705611
76	0xbdbd61f8	-0.09247202
77	0x3ea83a16	0.32856816
78	0x3ecaa58e	0.39579433
79	0xbe6b7574	-0.22994024
80	0x3a9a2400	0.0011759996
81	0x3d2a85b0	0.0416314
82	0x3ebe3e7a	0.3715704
83	0x3ee3095e	0.44343084
84	0x3da4e190	0.08050835
85	0x3eb0b044	0.3450948
86	0xbe79552c	-0.24348897
87	0xbe29771c	-0.16549343
88	0x3dab6158	0.08368176
89	0x3e8cadc2	0.27476317
90	0x3eccd202	0.40003973
91	0xbecc9334	-0.39956057
92	0xbe979d60	-0.29612255
93	0x3e98bc14	0.29830992
94	0xbe8f8c2a	-0.28036624
95	0x3e3f9034	0.18707353
96	0x3ead4a3e	0.33845705
97	0x3e791c6c	0.24327248
98	0x3e9c4d2a	0.30527622
99	0x3dbd58b0	0.092454314
100	0xbe9cf4b2	-0.30655438
101	0x3e9190f2	0.28430897
102	0x3e38e2d0	0.18055272
103	0xbea64aa4	-0.3247882
104	0xbec4c504	-0.3843156
105	0x3e3f1690	0.1866095
106	0x3d8c12c8	0.0683952
107	0x3ee9f1e8	0.45692372
108	0x3e0a5894	0.13510352
109	0xbce46dc0	-0.027884364
110	0x3ec6d918	0.38837504
111	0xbe2d9680	-0.16951942
112	0x3ed69ba2	0.41915613
113	0x3ec7bc0a	0.3901065
114	0x3ebe6e28	0.37193418
115	0xbe9f06ac	-0.31059778
116	0xbe88cf58	-0.2672069
117	0x3e5621a4	0.2091127
118	0xbdcde568	-0.100535214
119	0xbe491f6c	-0.19640893
120	0x3b180d00	0.0023201108
121	0xbe70b96c	-0.23508233
122	0xbe3e6864	-0.1859451
123	0xbdf87488	-0.121316016
124	0x3ecdc2d8	0.40187716
125	0xbe1fe660	-0.15615225
126	0xbeeacc10	-0.45858812
127	0xbec6f5d6	-0.38859433
128	0x3de0df80	0.10980129
129	0x3cdc1fe0	0.026870668
130	0x3d1de4c0	0.03854823
131	0xbd4e5e10	-0.050382674
132	0xbe4f4e80	-0.20244789
133	0x3d965f50	0.07342398
134	0xbe8441ea	-0.25831538
135	0xbe0c6bec	-0.13713044
136	0x3d6b80d0	0.057495892
137	0xbdea0b28	-0.11427909
138	0xbee0a478	-0.4387548
139	0x3ef0aed6	0.4700839
140	0xbd6549f0	-0.055978715
141	0xbe2814e4	-0.16414219
142	0x3e98f03a	0.29870778
143	0x3ed41fa6	0.41430396
144	0x3e760b94	0.24027854
145	0x3da0f278	0.07858747
146	0xbe13dd40	-0.14439869
147	0xbe770638	-0.24123466
148	0x3d066400	0.03281021
149	0x3edd7bc8	0.432585
150	0x3e99acfe	0.30014795
151	0xbe406a00	-0.18790436
152	0xbeaa400e	-0.33251995
153	0x3ef7cf68	0.48400426
154	0x3d819578	0.06327337
155	0x3ec1c7ec	0.3784784
156	0x3de2ef20	0.11080766
157	0xbed354fe	-0.4127578
158	0xbe9b203e	-0.30298036
159	0x3edaa35a	0.42702752
160	0x3cb72de0	0.022360742
161	0xbeef561e	-0.4674539
162	0x3e8b29e2	0.27180392
163	0xbd09ac80	-0.033611774
164	0xbd9bfa88	-0.076161444
165	0x3effdbae	0.4997229
166	0xbe437a8c	-0.19089717
167	0xbdb63cc0	-0.08898306
168	0x3e8091ac	0.2511114
169	0xbec71964	-0.3888656
170	0x3e49b410	0.19697595
171	0x3ec1a0ec	0.37818086
172	0xbe78251c	-0.24232906
173	0xbef8c280	-0.48585892
174	0x3ea88e84	0.3292123
175	0xbee2a0f6	-0.44263428
176	0x3ef6ee44	0.48228657
177	0xbeb81b62	-0.3595839
178	0xbe54d3b4	-0.20783883
179	0x3df0bc80	0.117547035
180	0x3e81ea20	0.25373936
181	0x3e53925c	0.206613
182	0xbd5bcda0	-0.053662896
183	0x3d8c3c08	0.068473876
184	0x3ede6eb4	0.43443835
185	0xbe921af4	-0.2853619
186	0x3e61a914	0.22037154
187	0x3e29d160	0.16583776
188	0x3ed3cb8c	0.4136623
189	0x3eca0b18	0.3946159
190	0x3e87dee0	0.26537228
191	0x3ec029c8	0.37531877
192	0xbe89b95c	-0.2689923
193	0x3e5ad2f0	0.21369529
194	0x3e5955b8	0.21224105
195	0xbe43cd78	-0.19121349
196	0x3ee6e0c0	0.45093346
197	0xbd3b63a0	-0.045749307
198	0xbd58ed10	-0.052960455
199	0x3e30f194	0.17279655
200	0x3d869bd0	0.065726876
201	0x3e78ff20	0.24316072
202	0xbe970464	-0.29495537
203	0x3e9ecca8	0.31015515
204	0x3cca7620	0.02471453
205	0x3db00020	0.08593774
206	0xbe942708	-0.28936028
207	0x3d51b790	0.05120045
208	0xbd858490	-0.06519425
209	0x3ef36e72	0.475452
210	0xbe69b0f8	-0.22821414
211	0x3e688a18	0.22708929
212	0x3ef0da1a	0.47041398
213	0x3d6cf760	0.057853103
214	0x3ebe1f3e	0.3713321
215	0xbd362b10	-0.04447466
216	0x3ebe0098	0.37109828
217	0x3eeabc4a	0.45846778
218	0xbecdeb44	-0.40218556
219	0x3dcc3148	0.09970337
220	0x3d714e90	0.058912814
221	0xbd712830	-0.058876216
222	0x3e644fac	0.22296017
223	0x3eb5b3c2	0.35488707
224	0x3e49371c	0.19649929
225	0xbddceb50	-0.1078707
226	0x3ed9ad32	0.4251495
227	0xbead1fba	-0.33813268
228	0x3e81bec2	0.2534085
229	0x3ec9f31e	0.39443296
230	0x3edd7254	0.43251288
231	0x3d3e7280	0.046495914
232	0xba1ac800	-0.0005904436
233	0x3da711e0	0.08157706
234	0x3e070d9c	0.13188785
235	0xbdf4d6e8	-0.119550526
236	0x3e7129cc	0.235511
237	0xbe4d019c	-0.20020145
238	0x3e2fc384	0.17164427
239	0xbe94fd56	-0.2909953
240	0x3ea1e080	0.31616592
241	0xbedb0b0a	-0.4278186
242	0xbea6ff80	-0.32616806
243	0xbebb862a	-0.36625797
244	0x3da30368	0.07959634
245	0x3e55d3d8	0.20881593
246	0x3ee2a008	0.4426272
247	0x3d98fe68	0.07470399
248	0xbeab8f92	-0.33507973
249	0xbd5614c0	-0.052265882
250	0xbea1cac0	-0.31599998
251	0x3ee81410	0.45327806
252	0xbd4f4560	-0.05060327
253	0x3ec80ab6	0.39070672
254	0xbe066f9c	-0.13128513
255	0xbcc11ec0	-0.023574233

linear1.bias f4 [128]
0	0x3eeee294	0.4665724
1	0xbd6b5770	-0.057456434
2	0xbebd7158	-0.37000537
3	0xbef42386	-0.47683352
4	0x3eedbc06	0.46432513
5	0x3ee319dc	0.44355667
6	0x3ea2ab18	0.3177116
7	0x3d8cc730	0.068739295
8	0xbea07d24	-0.31345475
9	0x3e135b78	0.14390361
10	0x3dca9338	0.09891361
11	0xbe7c7438	-0.24653709
12	0x3eb4631a	0.35231858
13	0x3ddea790	0.10871804
14	0xbed52e2e	-0.41636795
15	0xbed835a6	-0.4222843
16	0xba825200	-0.0009942651
17	0x3e44213c	0.19153303
18	0xbd572720	-0.052527547
19	0xbe8ce3fa	-0.27517682
20	0xbeb43f4a	-0.35204536
21	0x3ceedb00	0.029157162
22	0xbe817b6a	-0.2528947
23	0xbee49fa0	-0.44653034
24	0x3eb1eecc	0.347525
25	0x3ed67f72	0.41894108
26	0xbbfafc80	-0.007659495
27	0xbec177fa	-0.37786847
28	0x3e240984	0.16019255
29	0x3dae0c70	0.08498466
30	0x3d8a0848	0.06739861
31	0x3d33fef0	0.0439443
32	0x3e90b950	0.28266382
33	0x3e773b8c	0.24143809
34	0xbe294140	-0.16528797
35	0xbeed930c	-0.4640125
36	0xbedc1044	-0.4298116
37	0xbc225e80	-0.009910226
38	0xbe6b38bc	-0.22970861
39	0x3db967c0	0.09052992
40	0x3ea665be	0.32499498
41	0x3e29d808	0.16586316
42	0xbdf12c30	-0.11776006
43	0xbe2f90ec	-0.17145127
44	0x3e389c18	0.18028295
45	0x3e082544	0.13295466
46	0x3ecda862	0.40167528
47	0xbe71dd74	-0.23619634
48	0x3edf2e98	0.43590236
49	0x3d8b6250	0.06805861
50	0xbeed74f6	-0.46378297
51	0xbe382080	-0.17981148
52	0xbd6fc190	-0.058534205
53	0x3df8b7a8	0.12144405
54	0xbeda5168	-0.42640233
55	0xbe7df294	-0.24799567
56	0xbeef9982	-0.46796805
57	0x3ed69776	0.4191243
58	0xbe0a4c8c	-0.13505763
59	0x3e8521e0	0.26002407
60	0xbd3eaf40	-0.04655385
61	0x3ec3104c	0.3809837
62	0x3dff0780	0.124526024
63	0xbdf47490	-0.11936295
64	0x3dfe1df8	0.1240806
65	0xbd4f7c50	-0.050655663
66	0xbee67cbc	-0.4501704
67	0xbec7cc34	-0.39022982
68	0x3e9f1ece	0.3107819
69	0xbea2d9d4	-0.31806815
70	0xbecd8b90	-0.4014554
71	0x3ec83516	0.39103
72	0xbe9625cc	-0.29325712
73	0xbee3ff94	-0.44530928
74	0x3e8f6226	0.2800457
75	0xbd72f090	-0.05931145
76	0xbe5a3494	-0.2130912
77	0xbe0697b4	-0.13143808
78	0x3e81496e	0.25251335
79	0xbef6065e	-0.48051733
80	0x3edc0026	0.42968863
81	0x3e29b80c	0.16574115
82	0xbdf423e0	-0.11920905
83	0x3edf78f8	0.4364698
84	0xbc5407c0	-0.012941301
85	0xbe53e964	-0.206945
86	0xbd2c1cc0	-0.042019606
87	0xbe5e3e2c	-0.21703404
88	0xbed593a0	-0.4171419
89	0xbdfc30a0	-0.12313962
90	0x3ee28b64	0.44246972
91	0x3e5285b0	0.2055881
92	0x3d768490	0.060185015
93	0x3ef0922c	0.4698652
94	0x3e09b69c	0.13448566
95	0xbe6d9d80	-0.23204613
96	0xbec6765e	-0.38762182
97	0x3e8fc26e	0.28078026
98	0xbe2fe4b0	-0.17177081
99	0xbefa1ed4	-0.48851645
100	0x3dc34a30	0.095356345
101	0xbdc4f918	-0.09617823
102	0xbea46730	-0.32109976
103	0xbd9091f8	-0.07059091
104	0xbdd83418	-0.10556811
105	0x3e8b0042	0.27148634
106	0xbee657c2	-0.4498883
107	0x3d8a9708	0.06767088
108	0x3dca7130	0.0988487
109	0xbd8f6c28	-0.07003051
110	0xbe9bfe58	-0.30467486
111	0x3ef3a3a2	0.4758578
112	0x3e6562d0	0.22400975
113	0x3ee4df88	0.4470179
114	0x3ebbc236	0.3667161
115	0x3efae740	0.49004555
116	0xbec3341a	-0.38125688
117	0xbef82fdc	-0.48474014
118	0xbefd5da0	-0.49485493
119	0x3e16f3ac	0.14741391
120	0x3ec3bed0	0.38231516
121	0xbee61aaa	-0.44942218
122	0xbee2f22e	-0.44325393
123	0x3e73873c	0.23782057
124	0x3d11ad00	0.035565376
125	0x3dd7cf10	0.10537541
126	0xbe4ef420	-0.20210314
127	0x3ec60b66	0.3868057

linear2.weight f4 [128, 128]
0	0x3cd347bf	0.025791047
1	0x3da25f3e	0.07928322
2	0x3db248f9	0.08705325
3	0xbd925ca5	-0.07146577
4	0x3c32bebc	0.010909732
5	0x3bb33160	0.0054685324
6	0xbdaafea6	-0.083493516
7	0xbd838797	-0.06422346
8	0xbd6c8106	-0.057740234
9	0x3be0e2de	0.006862982
10	0xbd80fe1d	-0.06298468
11	0x3a31e6a0	0.000678638
12	0xb9b1b5d6	-0.0003389555
13	0x3d54a2dc	0.051913127
14	0x3d42a3ac	0.04751937
15	0x3cebe614	0.028796233
16	0xbd416516	-0.047215544
17	0xbc7c5070	-0.015400037
18	0x3da17fcf	0.07885706
19	0x3c151d07	0.009101159
20	0xbda1e1a8	-0.07904369
21	0xbc269865	-0.01016817
22	0xbce6c347	-0.028169287
23	0x3daec7f1	0.085342295
24	0xbc35915b	-0.011082019
25	0x3c12d982	0.008962991
26	0xbd22f580	-0.03978491
27	0xbd9cdddd	-0.076595046
28	0x3d7bf8a5	0.061516423
29	0xbc619d30	-0.013770387
30	0x3c78a6d0	0.01517649
31	0xbd9ab451	-0.07553924
32	0x3d4506ec	0.048102304
33	0x3bb1e6a0	0.005429104
34	0x3db28d39	0.08718342
35	0xbcc25447	-0.023721827
36	0x3c682f65	0.014171456
37	0xbd9f2996	-0.07771604
38	0xbdb40b20	-0.087911844
39	0xbd29aca7	-0.04142442
40	0x3d95205e	0.07281564
41	0xbd57d47f	-0.052692886
42	0x3d28c97c	0.041207775
43	0xbc7206ba	-0.014772112
44	0x3d46b81d	0.048515428
45	0x3d668732	0.056281276
46	0x3d8e14e9	0.06937582
47	0xbca054ad	-0.019571627
48	0x3d477705	0.04869749
49	0x3d963ae1	0.07335449
50	0xbd06adf1	-0.032880727
51	0xbc4c7fc1	-0.012481631
52	0x3d1acdc1	0.03779388
53	0xbd8affdf	-0.06787085
54	0x3da26230	0.07928884
55	0xbd92f543	-0.07175686
56	0x3db0b87b	0.08628937
57	0x3d78a73e	0.06070637
58	0x3d3e8ef7	0.04652306
59	0x3d9b2f78	0.07577413
60	0x3bf74038	0.0075454973
61	0xbc1d7a3c	-0.0096116625
62	0x3d87e5bb	0.066356145
63	0xbca09b30	-0.01960525
64	0x3d5c5ee7	0.053801443
65	0x3cc290e9	0.02375074
66	0x3d65918e	0.056047015
67	0xbd1ba7bb	-0.038001757
68	0x3d8f5403	0.06998446
69	0x3c83bf9f	0.016082583
70	0x3cd8915f	0.026436506
71	0x3d859519	0.06522579
72	0x3c883be0	0.016630113
73	0x3d9c4e14	0.0763208
74	0x3c8b93ad	0.01703819
75	0xbd63808d	-0.055542517
76	0xbc08d5f0	-0.008351788
77	0x3d362c39	0.044475768
78	0xbc5f8e21	-0.013644726
79	0xbd495687	-0.049154785
80	0x3cd0f6fe	0.0255084
81	0xbdb296d3	-0.08720174
82	0x3d679b80	0.05654478
83	0xbc42dda2	-0.011893662
84	0x3d7c9bee	0.061672144
85	0xbcdf10a4	-0.027229615
86	0x3db2db26	0.087332055
87	0x3c341527	0.010991371
88	0xbd9b4bf3	-0.075828455
89	0x3d1d842b	0.038456123
90	0xbc987a48	-0.018612996
91	0xbcdc2271	-0.026871892
92	0x3c899bc0	0.0167979
93	0xbd984f52	-0.07437004
94	0x3d86712b	0.06564554
95	0xbd251ed2	-0.040312596
96	0x3c1e64fe	0.009667633
97	0xbd80592d	-0.06267009
98	0xbd028961	-0.031869296
99	0xbd99d3e3	-0.07511117
100	0x3b0082ac	0.0019609137
101	0x3d926f23	0.07150104
102	0x3d8d0c2d	0.06887088
103	0xbdace9e5	-0.08443049
104	0xbd001ddb	-0.031278472
105	0xbd9f1c58	-0.07769078
106	0xbd03bdc4	-0.032163396
107	0xbb8c525a	-0.004282278
108	0x3d688804	0.05677034
109	0x3d875d31	0.06609572
110	0x3d1bf7a8	0.03807798
111	0xbd2be451	-0.041965786
112	0xbdb183e3	-0.086677335
113	0xbd3c39d3	-0.045953583
114	0x3d84d2f1	0.064855464
115	0xbd4ca377	-0.04996058
116	0x3d26f479	0.04076049
117	0x3d83b11f	0.064302675
118	0xbcaadd02	-0.020857338
119	0xbd4640d2	-0.04840166
120	0xbd0c475b	-0.034247737
121	0xbd13e5cd	-0.036107827
122	0x3d5ebe9d	0.054381
123	0x3d70b0e0	0.05876243
124	0x3c363dcd	0.011123133
125	0xbcbae601	-0.022814753
126	0x3d4c7b23	0.04992212
127	0xbd938b76	-0.072043344
128	0x3ace5486	0.0015741743
129	0x3db4b6a5	0.08823899
130	0xbd00d962	-0.031457312
131	0xbc48deed	-0.012260181
132	0x3c3a8078	0.011383168
133	0xbd43f203	-0.047838222
134	0x3d8f7d51	0.07006324
135	0xbca6da4f	-0.02036777
136	0xbc8b046b	-0.01696988
137	0xbcb8e6be	-0.022570964
138	0xbda6f90a	-0.08152969
139	0xbce6a644	-0.028155454
140	0xbdb21077	-0.08694547
141	0xbb4710d5	-0.0030375023
142	0x3d9399e3	0.07207086
143	0x3d35033d	0.04419254
144	0xbc85ea15	-0.01634697
145	0xbd8d06ab	-0.068860374
146	0xbc5bbf29	-0.013412275
147	0x3d429034	0.047500804
148	0xbc8fbaf1	-0.017545195
149	0x3d8771d1	0.06613506
150	0xbd4fcb30	-0.050730884
151	0x3d8767bc	0.06611583
152	0xbdab5cea	-0.08367331
153	0xbd0d0052	-0.034424134
154	0x3da0a379	0.0784368
155	0xbdb3b0f5	-0.08773986
156	0x3daa6e40	0.0832181
157	0x3d8463b6	0.06464331
158	0xbda4edd5	-0.08053175
159	0x3d0b1ae4	0.03396119
160	0x3d2b9510	0.041890204
161	0x3cba879b	0.02276974
162	0xbce83c74	-0.028349139
163	0x3db499c6	0.088183925
164	0x3d9d8a04	0.0769234
165	0xbbdd5ad4	-0.0067552123
166	0x3d847acf	0.064687364
167	0x3c95ad74	0.018271185
168	0x3d3c0f60	0.0459131
169	0x3c98a21a	0.018631984
170	0x3d9a483e	0.0753331
171	0xbd26a322	-0.04068292
172	0xbc7d694a	-0.015466997
173	0xbd8d1483	-0.06888678
174	0x3ce51134	0.027962305
175	0xba975771	-0.0011546445
176	0xbd7c1c55	-0.061550457
177	0xbaa9dc3d	-0.0012959313
178	0x3c146c29	0.0090589905
179	0x3d101656	0.03517755
180	0x3d904596	0.070445225
181	0x3a90004e	0.0010986419
182	0xbd1710e2	-0.036881335
183	0x3d827e1b	0.06371709
184	0x3d93d095	0.07217518
185	0x3b0407e1	0.0020146298
186	0x3d37ecf8	0.044903725
187	0x3d9e8756	0.07740657
188	0x3c8187f3	0.015811896
189	0x3da956a8	0.082684815
190	0x3d18da98	0.037317842
191	0x3c50d3f8	0.01274585
192	0xbcb3d671	-0.02195284
193	0x3d6c1d8d	0.05764537
194	0x3d2ffade	0.042963855
195	0x3d0bfb39	0.03417513
196	0x3c774bab	0.015093724
197	0xbd8a4708	-0.067518294
198	0x3d85fd43	0.065424465
199	0x3d19cdc0	0.037549734
200	0x3c799d6a	0.015235284
201	0x3b0408c4	0.0020146826
202	0xbcb467dc	-0.02202218
203	0x3d7c866e	0.06165164
204	0x3d72db2e	0.059291057
205	0x3d555a1f	0.0520879
206	0x3cc75a26	0.024334978
207	0x3d08da3c	0.03341125
208	0x3d04fb6f	0.03246635
209	0x3c91cb59	0.017797159
210	0xbc182cb9	-0.009288006
211	0xbd20013f	-0.03906369
212	0xbc6f643d	-0.014611301
213	0x3c010161	0.007873864
214	0xbb733df2	-0.003711578
215	0x3cc0f176	0.023552638
216	0xbcc2de2f	-0.023787586
217	0x3d062c4c	0.03275709
218	0x3d97700a	0.07394417
219	0x3b72932d	0.0037013993
220	0x3d9d8d30	0.07692945
221	0xbd47fdb3	-0.04882593
222	0x3d1f6344	0.038913026
223	0x3d98beef	0.07458293
224	0x3d4fdb33	0.050746154
225	0xbd871780	-0.06596279
226	0xbd8f8d6c	-0.07009396
227	0x3d59cb7b	0.05317257
228	0x3d90be9f	0.07067608
229	0x3c3f9b1d	0.011694697
230	0x3d55897c	0.05213307
231	0xbd4cb037	-0.04997274
232	0x3a5209d0	0.00080123264
233	0xbce7daf1	-0.028302642
234	0xbd248e5f	-0.04017484
235	0x3d88aadc	0.06673214
236	0x3c79c443	0.015244546
237	0xbc6d9d6f	-0.014502867
238	0x3d0bf3e0	0.034168124
239	0x3ccebff5	0.025238017
240	0xbc5eeca5	-0.013606225
241	0x3ce9e01f	0.028549252
242	0xbd6bc92d	-0.057564903
243	0x3d8e5155	0.069491066
244	0xbd01fe44	-0.031736627
245	0xbc90ad75	-0.017660836
246	0xbd7ab346	-0.061206125
247	0x3d04f66e	0.032461576
248	0x3d12e8ec	0.035866663
249	0x3d497a83	0.049189102
250	0x3ca2a46a	0.01985379
251	0xbd796db5	-0.06089564
252	0xbd9bec92	-0.076134816
253	0x3d9892e9	0.07449896
254	0x3d8ea5e6	0.06965236
255	0xbba24056	-0.004951517

linear2.bias f4 [128]
0	0xbd408f08	-0.047011405
1	0x3d9aca24	0.075580865
2	0xbd710d10	-0.058850348
3	0xbcfcfd0f	-0.030882386
4	0xbdb190c3	-0.08670189
5	0x3da19548	0.07889801
6	0xbcf610ea	-0.030037362
7	0x3d240381	0.040042404
8	0x3d135275	0.03596731
9	0x3ba895ff	0.005144834
10	0xbce71274	-0.028207041
11	0xbd2ef41f	-0.04271328
12	0xbd9c5f50	-0.07635367
13	0xbcd93bd3	-0.026517784
14	0x3d0f780b	0.03502659
15	0x3d852e82	0.06503011
16	0x3d065afd	0.032801617
17	0xbd6b1535	-0.05739327
18	0xbd361f2f	-0.044463333
19	0x3ca6a01b	0.020340016
20	0xbca6460f	-0.020297078
21	0xbcbb56b9	-0.022868501
22	0xbcb48da0	-0.022040188
23	0x3d498f34	0.049208835
24	0x3bdc0042	0.006713898
25	0x3d9f2c23	0.0777209
26	0x3d940b0a	0.07228668
27	0x3d4fada0	0.05070269
28	0x3d26eda2	0.040753968
29	0x3ca14221	0.019684853
30	0x3da7df9d	0.08196948
31	0xbcaaa74a	-0.020831723
32	0x3d3ce9a4	0.046121255
33	0x3d732a39	0.05936644
34	0x3c6ab255	0.014324744
35	0xbd2042a8	-0.03912607
36	0xbc983f21	-0.01858479
37	0xbc2f0282	-0.01068175
38	0x3d10abd2	0.03532011
39	0xbb92f6f1	-0.004485004
40	0xbd4407f1	-0.047859136
41	0x3c593dc5	0.013259356
42	0xbca9bf1d	-0.020721013
43	0xbd60ee44	-0.054914728
44	0xbd90e0d4	-0.070741326
45	0x3d9b56c6	0.0758491
46	0x3d5c69dc	0.053811893
47	0x3cae3534	0.021265604
48	0xbbd29167	-0.0064260247
49	0xbd9d8840	-0.07692003
50	0xbcb2f014	-0.021842994
51	0x3d02ebb3	0.03196306
52	0xbd428df3	-0.047498655
53	0xbdac3873	-0.08409204
54	0x3d82ebba	0.063926175
55	0x3d9e527d	0.07730577
56	0x3db1fd61	0.08690906
57	0xbce5a689	-0.028033512
58	0xbd955a9a	-0.072926715
59	0xb99cb7d3	-0.00029891598
60	0x3d4a0378	0.049319714
61	0xbb6d81d0	-0.0036240704
62	0xbd83fbc8	-0.06444508
63	0x3da0ad7c	0.078455895
64	0xbc26413e	-0.010147391
65	0x3c8c015d	0.017090494
66	0x3d646092	0.05575616
67	0xbce39b4d	-0.027784014
68	0x3cb6b70c	0.02230408
69	0xbd64ac6e	-0.055828504
70	0x3d0234ac	0.031788513
71	0xbc1c6cbd	-0.00954741
72	0x3b6dfb15	0.0036312987
73	0x3cfdb3a0	0.030969441
74	0xbd410f5f	-0.0471338
75	0xbcde04c2	-0.027101878
76	0xbd070879	-0.032967065
77	0x3c17166e	0.009221656
78	0x3d983cb1	0.07433451
79	0x3d896bab	0.06709989
80	0xbc1b582c	-0.009481471
81	0xbd8872aa	-0.066624954
82	0xbc8e8924	-0.017399378
83	0x3d1b8c17	0.037975397
84	0xbc474a81	-0.012163759
85	0xbd3c621e	-0.04599201
86	0xbd4c2399	-0.049838636
87	0x3be5b0e1	0.007009611
88	0x3d5dcb45	0.05414893
89	0x3da4dfb9	0.08050484
90	0x3c760cda	0.0150177125
91	0x3d29ba41	0.04143739
92	0x3a933f82	0.0011234137
93	0xbdb32741	-0.087477215
94	0x3d6a4400	0.057193756
95	0xbdabc39e	-0.083869204
96	0xbc085358	-0.008320652
97	0xbd90133f	-0.07034921
98	0xbd20ffb8	-0.039306372
99	0xbd86c1ec	-0.065799564
100	0xbd90a6c6	-0.070630595
101	0xbd84d3b8	-0.06485695
102	0x3d15e006	0.0365906
103	0xbd0aef98	-0.0339199
104	0xbcb07a50	-0.021542698
105	0xbd1f3216	-0.038866125
106	0xbd0d7789	-0.034537826
107	0xbb80b075	-0.0039272853
108	0xbd8afa77	-0.06786054
109	0xbbc9c287	-0.0061572227
110	0xbd46210b	-0.048371356
111	0xbd3d1cd7	-0.046170082
112	0x3d1d1dd3	0.03835852
113	0xbd85fbfe	-0.06542204
114	0x3d50f8b1	0.05101842
115	0x3da8ccd3	0.08242192
116	0x3cc5a687	0.024127258
117	0x3d8af799	0.06785507
118	0xbd10b46e	-0.03532832
119	0x3ca8d5bf	0.020609735
120	0xbd99c96b	-0.075091206
121	0xbcc0435c	-0.02346962
122	0x3a44dacb	0.00075094093
123	0x3da80437	0.08203929
124	0xbcbe1a23	-0.023205822
125	0x3cc1a03b	0.023635974
126	0x3daa5b48	0.08318192
127	0x3d4bf680	0.049795628

output_layer.weight f4 [2, 128]
0	0xbd364edf	-0.04450881
1	0xbd591262	-0.052996047
2	0x3c539220	0.012913257
3	0xbda7d104	-0.081941634
4	0x3cb32445	0.02186788
5	0x3d6a3d2f	0.057187255
6	0xbc7c4a29	-0.0153985405
7	0x3c6519e9	0.013983228
8	0x3bc0fb2a	0.005889316
9	0x3c142dce	0.009044124
10	0x3d8d8639	0.069103666
11	0x3d528a9e	0.051401727
12	0x3d23571a	0.03987799
13	0x3c44bd01	0.012007953
14	0x3bcbd73e	0.006220727
15	0xbd2187ac	-0.039436027
16	0x3d2c52e1	0.042071227
17	0x3d5b7a1e	0.053583257
18	0x3ba57a0f	0.005049951
19	0xbd10e55a	-0.035374977
20	0xbd281ce8	-0.041043192
21	0xbd44a573	-0.048009347
22	0xbd44e0d6	-0.048065983
23	0x3d1b30c6	0.03788831
24	0x3d9847e0	0.07435584
25	0x3db2cb8a	0.08730228
26	0x3da1d09b	0.079011165
27	0x3cfac2e9	0.030610519
28	0x3d1f1516	0.03883847
29	0xbb1fdcb0	-0.0024393015
30	0xbc8158e2	-0.015789453
31	0x3d92a2dd	0.0715997
32	0xbd00a8e4	-0.031411067
33	0xbd997748	-0.07493454
34	0xbd9e0072	-0.07714929
35	0xbd7587cb	-0.059943955
36	0xbd9ee466	-0.07758407
37	0xbd5a5736	-0.053305827
38	0x3d088c19	0.033336733
39	0xbc693561	-0.014233918
40	0x3d85de7b	0.065365754
41	0x3d7a5d62	0.061124213
42	0x3d9e3493	0.077248715
43	0xbc0dfbb8	-0.008665971
44	0x3d773fc7	0.060363557
45	0x3cff8355	0.031190554
46	0x3b94e5a7	0.0045439783
47	0xbd5e8669	-0.054327402
48	0xbc58233d	-0.013191995
49	0xbca77492	-0.020441327
50	0x3d8c745a	0.0685813
51	0xbc3ac788	-0.011400111
52	0x3daa6c06	0.08321385
53	0xbbee95c3	-0.0072810366
54	0x3c9c3d4c	0.019072197
55	0xbd4e0545	-0.050297994
56	0xbce950bc	-0.02848088
57	0x3d0d1e24	0.034452572
58	0x3dadd991	0.08488763
59	0xbbeedf09	-0.0072897715
60	0x3d95f3ab	0.073218666
61	0xbd3a1089	-0.045425925
62	0xbd58b3d2	-0.052905865
63	0xbbaea10f	-0.0053292583
64	0xbcc3d8fc	-0.023907177
65	0xbd8358f3	-0.0641345
66	0xbd93fd83	-0.07226088
67	0x3d9c0e8a	0.076199606
68	0xbcd95a08	-0.026532188
69	0x3a84a892	0.0010121039
70	0x3da1ac5e	0.078942046
71	0x3d2e2011	0.04251105
72	0xbd8a84f1	-0.06763638
73	0xbcc0f494	-0.023554124
74	0xbd0050e6	-0.03132715
75	0x3cc7b65c	0.024378948
76	0xbcdd5f2f	-0.027022926
77	0x3d099500	0.033589363
78	0x3c199016	0.009372732
79	0x3b9c49f5	0.0047695586
80	0xbc88ae4b	-0.016684672
81	0xbcadd3dd	-0.021219188
82	0xbb97468f	-0.0046165655
83	0x3be5602e	0.006999991
84	0x3d341162	0.04396189
85	0x3b1ff214	0.0024405764
86	0xbd4afd2a	-0.049557842
87	0x3d73b39c	0.05949746
88	0x3c9fffc7	0.019531144
89	0x3d8f7f71	0.070067294
90	0xbd414a7b	-0.04719017
91	0xbd683455	-0.056690533
92	0x3db235b3	0.087016486
93	0xbbaf9053	-0.005357781
94	0x3d3678ec	0.044548914
95	0xbd2f5f04	-0.042815223
96	0xbda80b92	-0.08205332
97	0xbd08062e	-0.03320902
98	0xbdafb864	-0.085800916
99	0x3d66ea3f	0.05637574
100	0xbd1785bc	-0.036992773
101	0x3d3daffe	0.046310417
102	0xbd7163af	-0.058932956
103	0x3da61a94	0.08110538
104	0xbcd0cef4	-0.025489308
105	0xbd94fc28	-0.072746575
106	0xbc46db88	-0.012137301
107	0xbd046897	-0.032326307
108	0x3d86273b	0.06550451
109	0xbd4f0be2	-0.05054844
110	0xbbb1e2bd	-0.0054286406
111	0xbd4610f5	-0.048356015
112	0x3cc42106	0.023941528
113	0xbdab2498	-0.08356589
114	0x3d67035a	0.05639968
115	0x3dafac5c	0.08577797
116	0x3d839e6f	0.06426703
117	0xbd7ec4d2	-0.06219942
118	0x3d955559	0.072916694
119	0xbb1fc3f0	-0.0024378262
120	0x3d31d457	0.043415394
121	0x3d0cc84b	0.0343707
122	0xbc44381d	-0.011976269
123	0xbd013cc9	-0.03155211
124	0x3c218302	0.009857895
125	0xbd7efd72	-0.062253423
126	0x3d2e148b	0.04250006
127	0xbc85b67c	-0.016322367
128	0xbd826672	-0.06367196
129	0x3d8e1021	0.0693667
130	0xbd697379	-0.05699489
131	0x3d05d81e	0.03267681
132	0x3d845044	0.06460622
133	0xbd75901d	-0.05995189
134	0x3cc0d616	0.023539584
135	0x3d28f6b4	0.0412509
136	0x3b5f41d9	0.0034066348
137	0xbd9896df	-0.074506514
138	0x3d96d235	0.073643126
139	0xbccfdd08	-0.02537395
140	0xbbefd7c3	-0.007319422
141	0x3ccde5fe	0.025134083
142	0xbd9c5dc0	-0.07635069
143	0xbcba3f59	-0.022735285
144	0xbd184770	-0.037177503
145	0x3c869c24	0.016431876
146	0xbd9a09c1	-0.07521392
147	0xbc8c44e4	-0.017122693
148	0x3dae74c1	0.08518363
149	0x3d1b42a0	0.037905335
150	0x3c245f59	0.010032498
151	0x3db2a99c	0.08723757
152	0xbd8ef510	-0.06980336
153	0xbd283881	-0.04106951
154	0x3d442d79	0.04789493
155	0x3ce3eb78	0.027822241
156	0xba819e66	-0.0009889125
157	0x3d388e94	0.045057848
158	0xbd399d96	-0.0453163
159	0x3bace323	0.0052761002
160	0xbda8bc3b	-0.08239027
161	0x3d2e0f10	0.042494833
162	0x3d866a70	0.0656327
163	0xbc1ca981	-0.009561897
164	0xbda53e5c	-0.08068535
165	0x3d0244db	0.031803947
166	0x3cfd1793	0.03089503
167	0x3d864dd0	0.0655781
168	0x3d09306f	0.033493455
169	0xbba8f723	-0.005156414
170	0xbdaa1b44	-0.08305982
171	0xbc89380c	-0.016750358
172	0xbca6711b	-0.020317605
173	0xb81b13cd	-3.697332e-05
174	0x3c489f6b	0.012245039
175	0x3d022342	0.031771906
176	0x3dac7d06	0.08422284
177	0xbcad0032	-0.021118257
178	0xbd915d47	-0.07097869
179	0xbd81743d	-0.06320999
180	0x3c81069d	0.015750224
181	0xbc7cf25d	-0.015438643
182	0x3cd2ddbf	0.025740502
183	0xbda66010	-0.08123791
184	0x3cffa8b3	0.031208372
185	0x3d8919e0	0.066943884
186	0x3bbfc25b	0.0058520264
187	0xbdab4c9e	-0.08364223
188	0x3c2f6378	0.010704868
189	0xbbad09c4	-0.005280705
190	0x3d5aa2b7	0.053377833
191	0xbd2b6b61	-0.04185045
192	0xbda2ea20	-0.07954812
193	0xbd92f610	-0.07175839
194	0x3cc025c6	0.023455512
195	0x3d0d5674	0.034506276
196	0x3d9f11a1	0.07767034
197	0xbd4b93db	-0.049701553
198	0x3c8f2dd4	0.017477907
199	0x3d8d2bbf	0.068931095
200	0xbd33d5b9	-0.043904994
201	0xbd275c8a	-0.040859737
202	0xbaf06d0c	-0.0018343045
203	0xbc800e44	-0.015631802
204	0x3cd41195	0.02588729
205	0xbc42c186	-0.01188696
206	0xbbff5236	-0.0077917827
207	0x3cf92b8d	0.030416274
208	0x3d81f4ca	0.06345518
209	0xbd3d555d	-0.046223987
210	0xbd282c8a	-0.0410581
211	0xbca68bc1	-0.020330312
212	0x3da6c035	0.08142129
213	0xbd6d882d	-0.057991195
214	0xbd8ba6e9	-0.06818945
215	0xbd4d6760	-0.050147414
216	0x3cf5f096	0.030021947
217	0x3c70aded	0.014689905
218	0xbb5c6878	-0.0033631604
219	0x3cd19031	0.025581451
220	0x3d9644af	0.07337319
221	0xbb0c84d2	-0.0021441472
222	0xbda7c0f0	-0.08191097
223	0xbc3d00c1	-0.011535824
224	0xbc61d99a	-0.01378479
225	0xbcb2716b	-0.021782598
226	0x3d841b39	0.06450505
227	0xbd9ebe97	-0.07751196
228	0xbd634bfb	-0.055492382
229	0x3d8d5383	0.06900694
230	0xbd9a8915	-0.075456776
231	0xbda9a08f	-0.08282577
232	0x3d9a9d98	0.0754959
233	0xbd74f22f	-0.059801277
234	0x3c848a19	0.016179131
235	0x3daac42e	0.083381996
236	0xbd7ffa72	-0.062494703
237	0x3d23146c	0.039814398
238	0x3d9fa65b	0.07795402
239	0x3b9b1fa5	0.004733997
240	0xbce879c6	-0.028378379
241	0xbd8e911f	-0.069612734
242	0x3c717768	0.014737941
243	0x3d98a080	0.07452488
244	0x3d4497a6	0.047996186
245	0x3d75cff6	0.06001278
246	0x3b054aad	0.00203387
247	0xbd622dd3	-0.055219483
248	0x3db04891	0.08607591
249	0xbcea7ade	-0.02862304
250	0x3c14e1b8	0.009087019
251	0x3d0090e2	0.03138817
252	0x3c0ab522	0.008466037
253	0xbcadaa69	-0.021199422
254	0xbd87e576	-0.06635563
255	0xbd9daf6b	-0.07699474

output_layer.bias f4 [2]
0	0x3d138161	0.036012057
1	0x3d3b864c	0.045782372
