results/models/batchsize=96,lr=1e-4,width=128,num_episodes_train=5000/1/model-49.0.pt (torch, 72294 bytes, 6 tensors)

linear1.weight f4 [128, 4]
0	0x3d4faf6d	0.05070441
1	0x3e42939b	0.1900162
2	0x3eb5e771	0.35528138
3	0xbed547b3	-0.41656265
4	0xbea8625d	-0.32887545
5	0xbed91dc7	-0.4240553
6	0xbe90a2ab	-0.28249106
7	0x3e131a4c	0.143655
8	0xbcba4f4d	-0.022742892
9	0xbeaa47c0	-0.33257866
10	0xbef82502	-0.48465735
11	0xbd68feb4	-0.05688353
12	0x3e9f48b9	0.3111017
13	0xbedffad0	-0.43746042
14	0x3e2b7668	0.16744387
15	0xbe8cd2d1	-0.2750459
16	0x3eb560c4	0.3542539
17	0xbcd2d66b	-0.025737008
18	0x3eb3a5fd	0.35087577
19	0x3ee1bf97	0.44091484
20	0xbd63345a	-0.05546985
21	0x3eb36b11	0.35042623
22	0xbe1dd06a	-0.15411535
23	0x3e4b868a	0.19875541
24	0x3dc4cd60	0.09609485
25	0x3dcfafca	0.10140951
26	0xbebaca8d	-0.3648266
27	0xbeb9a0ae	-0.362554
28	0xbe5ab1dc	-0.2135691
29	0x3ed7696c	0.42072618
30	0xbd4ef55d	-0.050526965
31	0xbea449c8	-0.3208754
32	0x3ef96b0a	0.48714477
33	0xbec5e316	-0.38649815
34	0x3dbcc0b3	0.09216442
35	0xbeb6cc5e	-0.35702795
36	0x3e650ee9	0.22368969
37	0x3eb9f055	0.3631617
38	0xbf0996d8	-0.53745794
39	0xbdcfa719	-0.10139293
40	0xbdf7e41e	-0.12104057
41	0xbeace383	-0.33767328
42	0xbf08b263	-0.53397197
43	0xbd947508	-0.072488844
44	0x3ed16854	0.4089991
45	0x3e8438fa	0.2582472
46	0xbdd1b5b8	-0.10239738
47	0xbe2e4b45	-0.170209
48	0xbf07174a	-0.5276991
49	0x3eda8a18	0.42683482
50	0x3e6bbdc2	0.23021606
51	0x3c4accbe	0.012377916
52	0x3dcf5bff	0.10124969
53	0xbe67a3a2	-0.22621015
54	0x3e5a9e54	0.2134946
55	0x3ef2bc54	0.47409308
56	0xbe7243e3	-0.23658709
57	0xbe64abf8	-0.22331226
58	0x3e0f22f7	0.13978182
59	0x3e9be8e9	0.30451134
60	0x3f042c50	0.51630116
61	0xbe2034d5	-0.15645154
62	0xbd7c3647	-0.0615752
63	0x3ed9c49d	0.42532817
64	0x3cff9e37	0.031203372
65	0x3eb0e512	0.34549767
66	0xbd8b4354	-0.06799951
67	0xbecc5578	-0.39908957
68	0x3c9b0964	0.018925376
69	0xbeebd1ff	-0.46058652
70	0x3edb2ddd	0.42808428
71	0x3e00d39e	0.12580726
72	0x3edfdd01	0.437233
73	0xbe23f02a	-0.16009584
74	0x3ec7c296	0.39015645
75	0xbe315db8	-0.17320907
76	0x3ea877e1	0.3290396
77	0xbe2c6359	-0.16834773
78	0xbe99e3b3	-0.30056533
79	0xbd3e840b	-0.046512645
80	0xbea51a93	-0.32246837
81	0xbf012df9	-0.50460774
82	0xbec2f361	-0.38076308
83	0x3edd7dc1	0.43260005
84	0x3d171465	0.036884684
85	0x3eb9f88c	0.3632244
86	0x3edeed18	0.43540263
87	0x3eb823f9	0.35964945
88	0x3dfd7e36	0.123775885
89	0x3ed537cb	0.4164413
90	0xbe2084a3	-0.15675597
91	0xbe86ffdd	-0.26367083
92	0x3d491818	0.049095243
93	0x3e5773ea	0.21040311
94	0x3efbce26	0.49180716
95	0x3a08249c	0.00051934435
96	0xbde72a80	-0.11287403
97	0x3dc403e0	0.095710516
98	0xbd8a2060	-0.06744456
99	0x3d340120	0.043946385
100	0xbdffc68a	-0.1248904
101	0x3ee53faf	0.4477515
102	0x3ef1e913	0.47248134
103	0xbe4264fa	-0.18983832
104	0xbe54ba96	-0.20774302
105	0xbeefb4fd	-0.4681777
106	0xbe4b2c70	-0.1984117
107	0xbea58fca	-0.32336265
108	0xbedff0dc	-0.4373845
109	0x3ef74447	0.4829428
110	0x3ec9e16e	0.39429802
111	0x3d4502a8	0.048098236
112	0x3d6f6574	0.058446363
113	0xbf00761e	-0.5018023
114	0x3e6f32ed	0.2335927
115	0xbe6ea100	-0.23303604
116	0x3e4afcc3	0.19822983
117	0x3e6b6dd5	0.22991116
118	0x3ea5620d	0.3230137
119	0xbeddda2e	-0.4333052
120	0xbb450263	-0.0030061237
121	0xbdde180a	-0.10844429
122	0xbea51ca0	-0.32248402
123	0x3b5f3b6d	0.003406252
124	0x3d546170	0.051850736
125	0x3e11fb6c	0.14256066
126	0xbe83b58a	-0.2572444
127	0x3ccdec78	0.025137171
128	0xbf049cb5	-0.51801616
129	0x3c979d68	0.018507674
130	0xbe22e752	-0.15908554
131	0x3e72d415	0.23713715
132	0x3eeb50dd	0.4596013
133	0x3e914228	0.28370786
134	0x3ef053b1	0.4693885
135	0xbe4dadeb	-0.20085876
136	0x3ca0d973	0.019634938
137	0xbe13e7bd	-0.1444387
138	0xbdc6606b	-0.09686359
139	0xbd9fcbf1	-0.078025706
140	0xbd16a792	-0.0367809
141	0xbe5633c1	-0.2091818
142	0x3e0cf1c0	0.13764095
143	0xbecaacca	-0.39584953
144	0x3e5991b2	0.21246985
145	0x3e8fa363	0.28054342
146	0xbdc340c5	-0.09533838
147	0x3edf5788	0.4362147
148	0x3e01b882	0.1266804
149	0xbee432d8	-0.4457004
150	0xbcedc224	-0.029023238
151	0x3ee40503	0.44535074
152	0xbea81064	-0.32825005
153	0x3d4c8176	0.04992815
154	0x3e6d5257	0.23175941
155	0x3ec6fef1	0.3886638
156	0x3ed902eb	0.4238504
157	0xbe82990f	-0.255074
158	0x3dd8f947	0.10594421
159	0xba16f27a	-0.0005758178
160	0xbd72d77f	-0.059287544
161	0xbf0af871	-0.5428534
162	0x3d89e7b8	0.0673365
163	0xbe99693c	-0.299631
164	0xbea021c5	-0.31275764
165	0x3edeece2	0.43540102
166	0x3ee328b2	0.44366986
167	0x3db08d49	0.08620698
168	0x3d284557	0.041081753
169	0x3ee15527	0.4401028
170	0xbdb9fbd5	-0.09081236
171	0xbe8ae0c7	-0.27124617
172	0x3e4af62b	0.19820468
173	0x3dcfe975	0.1015195
174	0x3d6f7de8	0.058469683
175	0xbdc49f01	-0.0960064
176	0xbde4a54d	-0.11164341
177	0xbe477550	-0.19478345
178	0xbe1a1afd	-0.15049358
179	0x3f036408	0.5132451
180	0x3e0858d5	0.13315137
181	0xbe91e6a8	-0.2849629
182	0xbe724863	-0.23660426
183	0x3cd9cf93	0.026588237
184	0xbe012846	-0.1261302
185	0x3ea311f9	0.3184965
186	0x3ea3e42b	0.32010016
187	0x3d8618cd	0.06547699
188	0xbc35d522	-0.011098178
189	0x3ecf7f65	0.40526882
190	0xbe65fa3d	-0.2245874
191	0x3ef7e36f	0.48415706
192	0x3e4c5eb3	0.19958
193	0x3ec6d5bb	0.38834938
194	0x3e9e2162	0.30884844
195	0xbdb160b4	-0.08661023
196	0xbe9258bd	-0.28583327
197	0xbe5e467e	-0.21706578
198	0x3c120ad2	0.008913713
199	0x3ebc6dfe	0.36802667
200	0x3eab2aef	0.33431193
201	0x3da152f4	0.0787715
202	0x3eebbd5c	0.46042907
203	0xbe993018	-0.29919505
204	0x3d35c807	0.044380214
205	0xbeb1d17f	-0.34730145
206	0xbd28b5fc	-0.04118918
207	0xbe62bc6b	-0.22142188
208	0x3ed448ea	0.4146188
209	0x3ebab305	0.36464706
210	0x3dac788e	0.084214315
211	0x3ec47c2d	0.3837599
212	0x3cae53fc	0.021280281
213	0xbeb011f3	-0.34388694
214	0xbc3653c9	-0.011128374
215	0x3d874922	0.06605746
216	0x3ef9bb1d	0.4877557
217	0xbdcd8cd0	-0.100366235
218	0x3e864d18	0.26230693
219	0xbe7f0e98	-0.24907911
220	0xbecb94a7	-0.3976185
221	0x3dbadf27	0.09124594
222	0xbe561b4f	-0.20908855
223	0x3e0d2536	0.13783726
224	0x3d9486a4	0.07252243
225	0xbea14e23	-0.31504926
226	0xbd34794e	-0.044060998
227	0xbdf4b80f	-0.11949169
228	0xbea6c362	-0.3257094
229	0x3eb43d14	0.3520285
230	0xbede0174	-0.43360484
231	0xbba1aecc	-0.0049341675
232	0x3ed03c2c	0.40670907
233	0xbeba0144	-0.3632909
234	0x3d883503	0.06650736
235	0x3b5af452	0.0033409786
236	0x3ecde305	0.40212265
237	0x3efca66a	0.49345714
238	0x3f0cd153	0.55006903
239	0x3e0bcc0c	0.13652056
240	0xbedf332a	-0.43593723
241	0xbe065540	-0.13118458
242	0xbb0f8e7c	-0.0021904996
243	0x3e84569d	0.2584733
244	0x3e6aad16	0.2291759
245	0xbdfd7114	-0.123750836
246	0x3e469e2b	0.19396274
247	0xbeb764c4	-0.35819066
248	0x3e4b26b6	0.19838986
249	0xbf01f84d	-0.507695
250	0xbefcd263	-0.49379262
251	0x3e902cab	0.2815908
252	0xbee33572	-0.44376713
253	0xbe794177	-0.24341379
254	0x3ed91f96	0.4240691
255	0x3ea89415	0.32925478

linear1.bias f4 [128]
0	0xbe7c015a	-0.2460989
1	0xbee2917d	-0.44251624
2	0xbefed758	-0.4977367
3	0x3e237245	0.15961559
4	0xbe606e62	-0.21917108
5	0x3e998f0f	0.29991958
6	0x3e966a86	0.29378146
7	0x3f277093	0.6540615
8	0x3f139683	0.5765154
9	0xbd941989	-0.07231433
10	0xbe770634	-0.2412346
11	0xbe54b3f1	-0.20771767
12	0xbd3ef625	-0.04662146
13	0x3f0cff13	0.5507671
14	0xbe875299	-0.26430205
15	0x3edaa209	0.42701748
16	0xbe735696	-0.23763499
17	0x3f141e6a	0.5785891
18	0x3e5b2d4a	0.21403995
19	0x3e8a827e	0.27052683
20	0xbad29416	-0.0016065862
21	0xbef3d946	-0.47626704
22	0x3eebf756	0.4608714
23	0xbe4b94c3	-0.19880967
24	0xbe8b8000	-0.27246094
25	0xbdfc75b3	-0.12327137
26	0x3df13e9e	0.117795214
27	0x3de1e3c2	0.110297695
28	0xbe7cb249	-0.24677385
29	0x3bafc327	0.00536384
30	0x3cb0c321	0.02157742
31	0x3e85dec9	0.26146534
32	0xbda7ed48	-0.08199555
33	0xbe0df70c	-0.13863772
34	0x3f1aff78	0.60546064
35	0x3f0ac271	0.54202944
36	0x3d9a1f10	0.07525456
37	0xbe15a728	-0.14614546
38	0xbe77622d	-0.24158545
39	0x3e39483d	0.18093963
40	0xbe096c05	-0.13420112
41	0xbea4045e	-0.32034582
42	0x3e9be58c	0.30448568
43	0x3efe3b2d	0.49654523
44	0xbed8659c	-0.42265022
45	0x3eea835b	0.4580334
46	0xbe3c5f08	-0.18395627
47	0x3f1d0605	0.6133731
48	0x3e7bb8ad	0.24582167
49	0x3c6f2c10	0.014597908
50	0x3ef46fe5	0.4774162
51	0x3f1503f9	0.58209187
52	0xbec772fb	-0.3895491
53	0x3ebf0986	0.37311953
54	0xbe984a1a	-0.29744035
55	0x3da5494f	0.08070623
56	0x3e5b1947	0.21396361
57	0x3f04f6e2	0.51939213
58	0x3e9847c0	0.2974224
59	0x3cff9b7c	0.03120207
60	0x3dce9249	0.100864954
61	0xbe3f504f	-0.18682979
62	0xbdfe77e7	-0.12425213
63	0xbd835013	-0.06411757
64	0x3d83a041	0.064270504
65	0x3ea6f173	0.32606086
66	0x3e186daf	0.14885591
67	0xbeab2daf	-0.3343329
68	0x3ebc72f9	0.36806467
69	0x3d85ab38	0.06526798
70	0x3e43ef03	0.19134144
71	0x3ead2b2c	0.33822
72	0x3dd9f1a7	0.10641795
73	0xbec2507a	-0.37952024
74	0x3e587de2	0.2114177
75	0x3eed80cb	0.46387324
76	0xbe83ed9a	-0.25767213
77	0x3ece8fc1	0.4034405
78	0xbe00758e	-0.12544844
79	0xbe75db9c	-0.24009556
80	0x3f0512d4	0.51981854
81	0x3e153645	0.14571483
82	0x3f0f0be9	0.5587755
83	0x3e38979d	0.18026586
84	0x3ec6111b	0.38684925
85	0xbe7fbad9	-0.2497362
86	0x3f103900	0.56336975
87	0x3e9add4c	0.3024696
88	0xbe504577	-0.20338999
89	0x3f118dbc	0.56856894
90	0x3e83879b	0.25689396
91	0x3edd9cdd	0.4328374
92	0x3f16fba6	0.58977735
93	0xbe667c40	-0.22508335
94	0x3f02e367	0.5112824
95	0xbebb3034	-0.36560214
96	0x3e8e4822	0.27789408
97	0x3eff5ad5	0.49873987
98	0xbebfcf9b	-0.37463078
99	0x3ec81f37	0.39086315
100	0xbef47ae7	-0.47750017
101	0xbd8bd58c	-0.0682784
102	0x3e61796c	0.22018975
103	0x3f049ea4	0.51804566
104	0x3e0bbf02	0.13647082
105	0xbef326da	-0.4749058
106	0xbe50b853	-0.20382814
107	0xbdb77cd0	-0.08959353
108	0xbdf9ff77	-0.12206929
109	0xbeb45047	-0.35217497
110	0x3e6a6169	0.22888722
111	0x3ee09635	0.438646
112	0xbe8c9a15	-0.27461305
113	0x3ec16a80	0.37776566
114	0xbeae0dfa	-0.33995038
115	0xbeadb234	-0.3392502
116	0x3f119a4f	0.5687608
117	0x3d58fdc2	0.052976377
118	0x3ee78f2f	0.45226428
119	0x3d03df45	0.03219535
120	0x3e3b9633	0.18319015
121	0x3e9ebd41	0.31003764
122	0x3e5e0a87	0.21683703
123	0xbe9f5b37	-0.3112428
124	0xbe806816	-0.2507941
125	0x3e39ef9d	0.18157811
126	0x3ec8e9f9	0.39241007
127	0x3ef1c05d	0.47217074

linear2.weight f4 [128, 128]
0	0x3ceb3a3b	0.02871429
1	0x3d191600	0.037374496
2	0x3d3d5078	0.04621932
3	0xb7dd530d	-2.6383927e-05
4	0x3d08df57	0.03341612
5	0xbc3841a2	-0.011246117
6	0xbdafde91	-0.08587373
7	0x3d76a91c	0.06021987
8	0xbd910a26	-0.07082014
9	0x3ae21127	0.0017247543
10	0xbcdee335	-0.02720795
11	0xbccb9af0	-0.024854153
12	0xbd9d2911	-0.076738484
13	0xbd8f637b	-0.07001396
14	0xbd0d44db	-0.034489494
15	0xbd57fe67	-0.05273285
16	0xbd116573	-0.03549714
17	0x3d035fa2	0.032073624
18	0x3b4f8a97	0.00316683
19	0x3d807799	0.062728114
20	0xbd85894f	-0.0652033
21	0xbc58d535	-0.013234426
22	0xbcbdad55	-0.02315394
23	0xbd0a14d5	-0.033711273
24	0x3b93504d	0.0044956566
25	0xbc25c72e	-0.010118289
26	0xbbdf3672	-0.0068119103
27	0x3d9db0d2	0.076997414
28	0x3950a130	0.00019896473
29	0xbd0ac358	-0.0338777
30	0xbd6ff6a4	-0.058584824
31	0x3db424d0	0.08796084
32	0xbb9520f6	-0.0045510484
33	0x3acac12c	0.0015468947
34	0x3d32c36e	0.043643408
35	0xbcdb1366	-0.026742648
36	0x3d48016a	0.048829474
37	0xbd9ac8a2	-0.07557799
38	0xbd5f623c	-0.054537043
39	0x3d1f182b	0.038841408
40	0xbb3b2c08	-0.002856018
41	0x3d2d730f	0.042346057
42	0xbda8da10	-0.08244717
43	0xbd8f2aeb	-0.06990608
44	0x3ca45480	0.020059824
45	0xbced9433	-0.029001331
46	0xbd379341	-0.044818167
47	0xbc0f3bfe	-0.008742331
48	0x3db1d8fc	0.086839646
49	0x3cbb0a44	0.022832043
50	0xbd762128	-0.060090214
51	0x3d629c58	0.055324882
52	0x3d8e9395	0.06961743
53	0x3c7d838a	0.015473256
54	0xbd510895	-0.051033575
55	0xbc63b3d9	-0.0138978595
56	0x3d45e321	0.04831231
57	0x3d40fa20	0.047113538
58	0xbcf0747f	-0.029352425
59	0x3cd04681	0.025424244
60	0xbd9a5339	-0.07535405
61	0x3db057d1	0.086105
62	0xbdad53a5	-0.084632196
63	0xbd86b27e	-0.065770134
64	0x3c2bab9d	0.0104779275
65	0x3cd88548	0.026430741
66	0x3cee3587	0.029078258
67	0xbdaf1b58	-0.08550137
68	0xbd1fed98	-0.039044946
69	0xbcdb9c78	-0.026808009
70	0xbd339ebc	-0.043852553
71	0xbcb196d5	-0.021678368
72	0xbdb090db	-0.08621379
73	0xbd65a92d	-0.05606954
74	0xbd00da63	-0.03145827
75	0xbd4aed0f	-0.049542483
76	0x3d05e897	0.032692518
77	0x3d9a0267	0.075199895
78	0xbc094631	-0.008378551
79	0xbd321f40	-0.043486834
80	0xbd154adb	-0.03644834
81	0xbd8ce004	-0.06878665
82	0x3d8186fb	0.063245736
83	0xbd6d7ee8	-0.057982355
84	0x3d6a3431	0.05717868
85	0x3ce03be6	0.027372312
86	0x3d27f420	0.0410043
87	0x3b993a92	0.0046761716
88	0xbd90cc59	-0.07070226
89	0xbcaccb46	-0.021093022
90	0xbcded1c0	-0.027199626
91	0xbd410f2f	-0.04713362
92	0xbd27b260	-0.040941596
93	0xbd1a13c1	-0.037616495
94	0x3da9fc0c	0.08300027
95	0x3c7dd95e	0.015493719
96	0xbd87e0ef	-0.066346996
97	0xbd0d9a8f	-0.034571227
98	0xbd5b31a1	-0.053514127
99	0xbcfa4659	-0.030551123
100	0xbcfb302e	-0.030662622
101	0xbbe75dea	-0.007060756
102	0x3da1232e	0.07868038
103	0xbd3f3961	-0.04668558
104	0xbc528320	-0.012848645
105	0x3a2968fb	0.00064624817
106	0xbd998574	-0.07496157
107	0xbd5da645	-0.054113645
108	0x3d9fdad2	0.078054085
109	0xbda5c82e	-0.08094822
110	0xbd9511eb	-0.07278808
111	0xbd181f2a	-0.037139095
112	0x3cacf6a6	0.021113705
113	0xbd4faad4	-0.050700024
114	0xbcbd39fc	-0.023098938
115	0xbd78cd95	-0.060742933
116	0x3b5e1a75	0.0033890281
117	0x3d9e8e25	0.07741956
118	0x3d80ac39	0.06282849
119	0xbd5b2106	-0.05349829
120	0x3d5a92f0	0.053362787
121	0x3d549c24	0.05190672
122	0x3c9a5c0b	0.018842718
123	0x3d078a0a	0.03309063
124	0x3d499734	0.049216464
125	0x3d080a72	0.033213086
126	0xbb0ea1c2	-0.0021763896
127	0x3d8d25c1	0.068919666
128	0x3d3dccc1	0.046337847
129	0x3db4a01d	0.08819602
130	0x3d9bac6e	0.07601248
131	0x3d828e50	0.063748
132	0xbcb4cab6	-0.022069316
133	0x3bb21ed4	0.005435804
134	0x3d4a765b	0.04942928
135	0x3cea39ff	0.028592108
136	0xbc9b91e4	-0.018990465
137	0xbd09097d	-0.033456314
138	0x3d81e8a7	0.06343203
139	0xbd741032	-0.059585758
140	0x3c720980	0.014772773
141	0x3d004d19	0.031323526
142	0x3d8bef10	0.06832707
143	0x3d580991	0.0527435
144	0x3d401fa1	0.046905164
145	0xbd693426	-0.0569345
146	0x3d61daa6	0.05514016
147	0x3d52b9c5	0.051446695
148	0xbdda65fe	-0.10663985
149	0xbd714e11	-0.05891234
150	0xbd97c641	-0.07410861
151	0xbc5db907	-0.0135328835
152	0xbdb14016	-0.086548015
153	0xbc3e1791	-0.011602298
154	0x3addcda0	0.0016922243
155	0xbbcf3786	-0.0063237576
156	0x3c2cca20	0.010546237
157	0xbd829ba8	-0.06377345
158	0xbd99b160	-0.07504535
159	0xbcb8b3e1	-0.02254671
160	0xbd2a0aff	-0.041514393
161	0x3be7ecb2	0.007077777
162	0x3cd035a1	0.025416197
163	0x3d853f6c	0.065062374
164	0x3ceac7cd	0.028659726
165	0xbd07a3c3	-0.03311516
166	0x3bebf088	0.0072003044
167	0x3d1d29b6	0.038369857
168	0x3c15cd57	0.009143195
169	0xbd5fd8d8	-0.054650158
170	0x3c9a4a6f	0.01883432
171	0x3c9a6aeb	0.01884981
172	0xbd39c95a	-0.04535804
173	0x3dc74be4	0.09731272
174	0x3d9ff892	0.07811083
175	0x3ddd9ccf	0.108209245
176	0xbd17a4a7	-0.03702226
177	0x3bf7f627	0.0075671854
178	0x3d689bbd	0.05678915
179	0xbd5b86a0	-0.053595185
180	0xbda2dcdb	-0.07952281
181	0x3d8e9376	0.0696172
182	0xbd8391c9	-0.06424291
183	0xbc057837	-0.008146337
184	0xbcde67f5	-0.02714918
185	0x3b3f112f	0.002915453
186	0x3cfb2daf	0.030661432
187	0xbd82182d	-0.063522674
188	0xbd7ee276	-0.06222769
189	0xbc23608a	-0.009971747
190	0x3ccd28d2	0.025043879
191	0xbbbb9b2d	-0.0057252855
192	0xbc6661e1	-0.014061422
193	0x3ca044e9	0.019564109
194	0xbc2e1b14	-0.010626573
195	0x3d0ba468	0.034092337
196	0xbd7d7b8b	-0.061885398
197	0xbdd0317d	-0.10165689
198	0xbcbf8d28	-0.023382738
199	0x3cd89162	0.026436511
200	0xbd14cf78	-0.03633067
201	0xbd356b69	-0.044291887
202	0x3d1c3e14	0.03814514
203	0xbc0fbd1e	-0.008773116
204	0xbcea6cd3	-0.028616345
205	0x3dbd04a3	0.092294
206	0x3d97b4e7	0.07407551
207	0xbda7560b	-0.08170708
208	0x3d737ab3	0.059443187
209	0xbc5eca06	-0.013597971
210	0x3cec6d90	0.028860837
211	0x3b9baad3	0.0047505884
212	0xbd870874	-0.06593409
213	0xbd844c50	-0.06459868
214	0xbc06e124	-0.008232389
215	0x3dc329e7	0.095294766
216	0x3d2272d6	0.039660297
217	0x3d846be8	0.06465894
218	0xbd6fa1c6	-0.05850389
219	0x3dacc518	0.0843603
220	0xbd20a795	-0.03922232
221	0x3c85dee9	0.016341643
222	0xbd0afee9	-0.033934508
223	0xbacc3962	-0.0015581066
224	0x3d113bba	0.03545735
225	0xbd1ba663	-0.038000476
226	0x3d956dd0	0.07296336
227	0xbdac5161	-0.08413959
228	0x3cf612fb	0.030038347
229	0x3c31f788	0.010862239
230	0x3d6abfe3	0.057311904
231	0xbd4f43bc	-0.050601706
232	0xbd1ca469	-0.03824273
233	0x3ce2292c	0.027607523
234	0xbda4b4d5	-0.080423035
235	0xbd0d2a0c	-0.034463927
236	0xbca06747	-0.019580496
237	0xbdca8d7c	-0.09890267
238	0xbcd9eef3	-0.026603198
239	0x3c7c2ad9	0.015391075
240	0xbdc64f44	-0.096830875
241	0x3cf4ffad	0.029907072
242	0xbc74b930	-0.01493673
243	0xbd8398c2	-0.064256206
244	0x3d0faf33	0.035079192
245	0x3d8f7672	0.070050135
246	0x3e047add	0.12937494
247	0xbdc0b2a7	-0.09409075
248	0x3ddbfba1	0.10741354
249	0x3dda6676	0.10664074
250	0xbd02e77a	-0.031959035
251	0x3d3eb9d2	0.04656393
252	0x3b2f4d40	0.0026748925
253	0x3da4bcd8	0.080438316
254	0xbd991b4f	-0.07475912
255	0x3d9176d8	0.07102746

linear2.bias f4 [128]
0	0xbdaea7e8	-0.08528119
1	0x3dcad2bd	0.099034764
2	0x3dab2c3b	0.08358046
3	0xbd160dda	-0.036634304
4	0x3d0423fe	0.032260887
5	0xbd694726	-0.056952618
6	0x3d6be3b3	0.057590198
7	0xbd25bb60	-0.040461898
8	0xbd1086d9	-0.03528485
9	0x3dc79eff	0.09747123
10	0xbc5a7bf8	-0.0133352205
11	0x3db3bc55	0.08776156
12	0x3d89f9cf	0.067371
13	0x3d94e1c9	0.072696276
14	0x3d5d099e	0.05396425
15	0x3e51e561	0.20497657
16	0x3d64007b	0.05566452
17	0x3dd59640	0.104290485
18	0x3c12839e	0.008942513
19	0x3e41f4ba	0.18941012
20	0x3e043a1e	0.12912795
21	0xbd4530f0	-0.048142374
22	0x3e1bed79	0.15227307
23	0x3c6f4c5f	0.014605611
24	0x3e148070	0.1450212
25	0x3dfef657	0.12449329
26	0x3ddad702	0.10685541
27	0xbd939d41	-0.07207728
28	0x3d0af9ab	0.03392951
29	0x3e350b33	0.17680053
30	0x3e3946c3	0.180934
31	0xbc6e260e	-0.01453544
32	0x3d6b6cad	0.05747669
33	0x3df15de3	0.117854856
34	0xbd374efe	-0.044753067
35	0x3d69374f	0.056937512
36	0x3e21784f	0.1576855
37	0x3e0423dd	0.12904306
38	0x3e36db29	0.1785704
39	0x3cb34c28	0.0218869
40	0xbd23aee7	-0.03996172
41	0x3e036ced	0.1283452
42	0x3dbd868a	0.09254177
43	0x3e107c74	0.14109975
44	0x3d995907	0.07487684
45	0x3c7819d1	0.015142874
46	0x3e22dd2f	0.15904687
47	0xbc1c91d4	-0.0095562525
48	0x3d942984	0.07234481
49	0x3dfe51ff	0.12417983
50	0x3e43070b	0.19045655
51	0x3dc3cc70	0.09560478
52	0x3e420679	0.18947782
53	0x3e39fabc	0.18162054
54	0x3d2dd643	0.042440664
55	0xbd8502ca	-0.064946726
56	0xbdab710c	-0.08371171
57	0xbcb49eb8	-0.02204834
58	0x3c8b7daa	0.017027695
59	0xbdaac49c	-0.083382815
60	0x3df690ea	0.12039359
61	0x3d5b53bf	0.053546663
62	0x3d603169	0.05473462
63	0x3e1ea652	0.15493134
64	0x3ddb8e70	0.10720527
65	0x3e522d73	0.2052515
66	0x3d8a8979	0.06764502
67	0xbda25c9b	-0.07927819
68	0x3c7e50af	0.015522166
69	0xbb929875	-0.0044737407
70	0xbc8f6c41	-0.017507674
71	0x3dd12a85	0.10213188
72	0x3e105846	0.14096174
73	0xbd33b356	-0.0438722
74	0xbcdf19d4	-0.027233995
75	0x3debd997	0.11516111
76	0x3d91c95e	0.07118486
77	0x3d9b0b0b	0.07570466
78	0xbc7c049c	-0.015381958
79	0x3d98d2c0	0.07462072
80	0xbda60a5f	-0.08107447
81	0xbc0b37db	-0.008497204
82	0x3e4326f9	0.19057836
83	0x3d875bdf	0.0660932
84	0x3cd6342c	0.026147924
85	0x3d1b52a4	0.03792061
86	0x3d2dc693	0.042425703
87	0x3e29f907	0.16598903
88	0x3e1039cc	0.14084548
89	0xbd09aa00	-0.03360939
90	0xbbd963ec	-0.006634226
91	0x3e29de4e	0.16588709
92	0xbd9558fa	-0.072923616
93	0xbdbc4ce3	-0.091943525
94	0x3e30a50f	0.17250465
95	0xbcd6fece	-0.026244547
96	0xbd3cb124	-0.046067372
97	0xbc166741	-0.009179891
98	0xbc144bd0	-0.009051278
99	0x3e0a9c0a	0.13536087
100	0x3e30ca87	0.17264758
101	0x3d65066a	0.05591432
102	0x3d8c951f	0.0686438
103	0xbc8d0879	-0.017215954
104	0x3cc40c26	0.023931574
105	0x3df64733	0.12025299
106	0xbbd17d09	-0.006393079
107	0x3e32b723	0.17452674
108	0xbcbc66d9	-0.02299826
109	0x3d95eb8c	0.073203176
110	0xbd25b7c7	-0.040458467
111	0xbd4c0d68	-0.049817473
112	0x3de737b7	0.11289924
113	0x3dc1b06b	0.09457477
114	0x3e425029	0.18975891
115	0x3d973897	0.073838405
116	0x3dea97a4	0.114547044
117	0x3ca3d9d1	0.020001324
118	0xbd546ea8	-0.051863343
119	0x3da312bd	0.079625584
120	0x3dbc3b41	0.09190989
121	0x3d853eee	0.065061435
122	0x3bb3c966	0.005486655
123	0x3e3888d7	0.1802095
124	0x3e3b6833	0.18301468
125	0x3d489152	0.048966713
126	0x3dc20a12	0.09474577
127	0x3d817036	0.06320231

output_layer.weight f4 [2, 128]
0	0xbd95d5aa	-0.07316144
1	0x3c1f3879	0.009718054
2	0x3dd94e59	0.10610647
3	0x3c55985d	0.0130368145
4	0xbd7a69c8	-0.061136037
5	0x3d483f89	0.048888717
6	0xbd80e049	-0.06292779
7	0xbc85b691	-0.016322406
8	0xbd8a16c4	-0.067426234
9	0x3e2f7285	0.1713353
10	0xbd732628	-0.05936256
11	0x3e05e273	0.13074665
12	0x3e046605	0.12929542
13	0x3d94dab3	0.07268276
14	0xbd1b6406	-0.037937187
15	0x3e106ba3	0.1410356
16	0x3c796084	0.015220765
17	0x3e2e7b55	0.17039235
18	0x3d86b03c	0.06576583
19	0x3da42cac	0.08016333
20	0x3e018898	0.12649763
21	0xbd5a6cb0	-0.05332631
22	0x3dd331c9	0.1031223
23	0x3ca44b65	0.020055482
24	0x3dccaebc	0.099942654
25	0x3de6d4b3	0.11271038
26	0x3d9338e6	0.07188587
27	0xbb8843ce	-0.0041584736
28	0x3d8be494	0.06830707
29	0x3e119193	0.14215688
30	0x3e03173f	0.12801836
31	0xbd8c5040	-0.06851244
32	0xbd30d9ed	-0.04317658
33	0x3dddbe5f	0.10827326
34	0xbda119bb	-0.07866236
35	0x3e20c6ba	0.15700808
36	0x3d953725	0.072859086
37	0x3e237217	0.1596149
38	0x3e277d6e	0.16356441
39	0x3d0be4bf	0.034153696
40	0x3d9e5e42	0.07732822
41	0x3e1e8e9e	0.15484092
42	0x3daf5a11	0.08562101
43	0x3dcabf4d	0.09899769
44	0x3dcf69cf	0.10127603
45	0x3e18791d	0.14889951
46	0x3d1fe9d6	0.039041363
47	0xbd859344	-0.06522229
48	0xbc504787	-0.012712366
49	0x3e2e5c21	0.17027332
50	0x3e1aead0	0.15128636
51	0x3d9bfeb1	0.07616938
52	0x3d7a4419	0.0611001
53	0x3db2c50b	0.08728989
54	0x3dab694e	0.08369695
55	0xbd811eba	-0.06304689
56	0xbd15f3d2	-0.03660948
57	0xbd32e1ef	-0.0436725
58	0x3d9cd31d	0.07657454
59	0x3d219a30	0.039453685
60	0x3e248f13	0.16070203
61	0x3db0fd75	0.08642093
62	0xbda342de	-0.07971738
63	0x3e14fe9d	0.14550252
64	0x3d9acd80	0.07558727
65	0x3e1271f3	0.1430128
66	0x3d4f06a0	0.050543427
67	0xbd8b68d9	-0.068071075
68	0x3d911b9a	0.07085343
69	0x3d87a333	0.06622925
70	0xbcd92c59	-0.026510404
71	0x3de9367b	0.113873444
72	0x3dd23b28	0.102651894
73	0x3d074c57	0.033031788
74	0x3ddceaad	0.10786948
75	0x3d4fe7bd	0.050758112
76	0x3dd4f0c8	0.10397488
77	0xbd929179	-0.07156653
78	0xbd8468dc	-0.06465313
79	0x3e1537ae	0.14572021
80	0x3ca9d0dd	0.020729477
81	0xbd6b8046	-0.057495378
82	0x3dd93e35	0.10607568
83	0x3e0a90f9	0.13531865
84	0x3cbf7d09	0.023375051
85	0x3df1d4d3	0.11808171
86	0x3db3e5f4	0.087840945
87	0x3d8e27ae	0.06941162
88	0x3cdedead	0.02720579
89	0x3c2c64a3	0.010522041
90	0xbc26d2ab	-0.010182063
91	0x3da14ffc	0.07876584
92	0xbd9d049f	-0.07666897
93	0xbd896f2c	-0.067106575
94	0x3dd2e49b	0.10297509
95	0x3d36871b	0.04456244
96	0xbdb0a4ab	-0.08625158
97	0xbd8c79c9	-0.06859166
98	0xbd7774b3	-0.060414027
99	0x3e08bc8d	0.13353176
100	0x3d55e7c6	0.05222299
101	0x3e1561e0	0.14588118
102	0x3b73f9cc	0.0037227748
103	0x3cd7215d	0.026261026
104	0xbd2c3c58	-0.042049736
105	0x3d15542f	0.036457237
106	0xbd3d21b5	-0.046174724
107	0x3e0b3d56	0.13597617
108	0x3be4aae5	0.00697838
109	0x3d931f67	0.07183724
110	0x3d606818	0.05478677
111	0xbd854d6f	-0.0650891
112	0x3e0fe08d	0.14050503
113	0x3e221a3c	0.1583032
114	0x3db5f751	0.088850625
115	0xbd2597dc	-0.040428028
116	0x3de41c4f	0.11138212
117	0xbcfa70aa	-0.0305713
118	0xbd5a2942	-0.053262003
119	0x3e243b2e	0.160382
120	0x3df70200	0.12060928
121	0x3d200031	0.039062683
122	0x3d90bf91	0.070677884
123	0x3e22b2cd	0.1588852
124	0x3e2d04fb	0.16896431
125	0x3dbb47e7	0.09144574
126	0x3e23c650	0.15993619
127	0x3d1b8a7f	0.037973877
128	0xbc3ba229	-0.011452236
129	0x3dcb0673	0.099133395
130	0x3e1f6790	0.1556685
131	0xbcc6d912	-0.024273429
132	0xbd10047f	-0.035160538
133	0xbd7063db	-0.05868898
134	0x3d0f3756	0.03496488
135	0x3e023bed	0.12718172
136	0xbd1978e8	-0.03746882
137	0x3e189602	0.14900973
138	0xbd09fb11	-0.0336867
139	0x3d0f7727	0.035025742
140	0x3d841d98	0.06450957
141	0x3de169a3	0.11006477
142	0xbd89b585	-0.06724075
143	0x3e2e64d3	0.17030649
144	0xbd994721	-0.0748427
145	0x3dccf969	0.10008509
146	0xbcfc2885	-0.03078104
147	0x3e1627aa	0.14663568
148	0x3e081c7f	0.1329212
149	0xbcc42cef	-0.023947207
150	0x3dff50a1	0.124665506
151	0x3d6b6020	0.05746472
152	0x3de5138a	0.111853674
153	0x3de65604	0.11246875
154	0x3e1ef956	0.15524802
155	0xbdae21e1	-0.08502556
156	0x3dc3ade8	0.09554654
157	0x3d504a5a	0.050852157
158	0x3dee0af9	0.116231866
159	0xbd614424	-0.054996625
160	0xbd1af1af	-0.037828144
161	0x3d9a4b86	0.07533936
162	0xbd7c417e	-0.061585896
163	0x3d99674f	0.07490408
164	0x3e0ea94a	0.13931766
165	0x3d39b95c	0.045342788
166	0x3dc930fd	0.09823797
167	0xbd7226cf	-0.059119042
168	0xbd67b317	-0.056567278
169	0x3dcfd568	0.10148126
170	0x3e013d1d	0.12620969
171	0x3df05a45	0.117359675
172	0x3dbc2b86	0.09187989
173	0xba7eb68f	-0.00097165344
174	0x3e0d5abf	0.13804148
175	0x3caceeea	0.021110017
176	0xbd7a12b5	-0.061052997
177	0x3e1c021c	0.1523518
178	0x3e12c76b	0.14333884
179	0x3e28fdd4	0.16503078
180	0x3e03d621	0.12874652
181	0x3e042fb0	0.12908816
182	0x3d068ca4	0.03284897
183	0xbd662f3f	-0.0561974
184	0x3c1ed512	0.009694355
185	0xbd56a09f	-0.052399274
186	0xbcfe37c9	-0.03103246
187	0x3c14ed13	0.009089726
188	0x3d9e8e1d	0.0774195
189	0x3dbb13b0	0.091346145
190	0xbdf6cfdd	-0.120513655
191	0x3e26069e	0.16213462
192	0xbc31b81e	-0.01084712
193	0x3daa191b	0.0830557
194	0x3e0bd8be	0.136569
195	0xbd8de815	-0.06929032
196	0xbdef0030	-0.11669958
197	0xbbf922b6	-0.007603015
198	0xbd956026	-0.072937295
199	0x3dbcd68a	0.092206076
200	0x3dd4b1ea	0.10385497
201	0xbc579ff8	-0.013160698
202	0xbd63eca2	-0.055645593
203	0x3e000931	0.12503506
204	0x3dbe8fd9	0.093047805
205	0xbc23d8a3	-0.010000381
206	0xbd7c5a98	-0.061609834
207	0x3e29aae7	0.165691
208	0xbd2b94b6	-0.04188987
209	0xbd9e1981	-0.07719708
210	0x3e1facc3	0.15593247
211	0x3e0612bd	0.13093086
212	0x3df6887d	0.12037752
213	0x3d46d013	0.04853828
214	0x3dbdd2e6	0.09268741
215	0x3e0143c6	0.1262351
216	0x3e2c4c2a	0.1682593
217	0xbd73cb45	-0.059520025
218	0x3e0ea9d7	0.13931976
219	0x3db912ed	0.09036813
220	0xbdbf3fdf	-0.09338354
221	0xbd118840	-0.03553033
222	0x3d4f131e	0.05055534
223	0x3b419348	0.002953725
224	0x3d6b46ed	0.057440687
225	0x3d7278fc	0.05919741
226	0xbd434a10	-0.047678053
227	0x3d6d82b2	0.05798597
228	0x3e2c0c91	0.16801669
229	0x3d9e1407	0.07718664
230	0xbd8269f7	-0.063678674
231	0xbd843a3c	-0.0645642
232	0xbc6ec851	-0.014574126
233	0x3e17d21a	0.14826241
234	0xbd936c64	-0.07198408
235	0x3d864463	0.065560125
236	0x3d39bc6f	0.04534572
237	0x3e0a7f39	0.13525094
238	0xbd76c940	-0.06025052
239	0xbdb96f4c	-0.09054431
240	0x3d29b9a8	0.04143682
241	0x3cf1bbd2	0.029508505
242	0x3e370d5a	0.17876187
243	0xbd528fb9	-0.051406596
244	0x3d826fd4	0.06368986
245	0x3d98a87b	0.0745401
246	0xbd3eed59	-0.04661307
247	0x3df724aa	0.1206754
248	0x3d84f05f	0.0649116
249	0x3e116651	0.14199187
250	0xbb9de958	-0.0048190765
251	0x3e095245	0.1341029
252	0x3e073bf2	0.13206461
253	0x3db80452	0.08985199
254	0x3e1506c5	0.14553364
255	0x3e111694	0.14168769

output_layer.bias f4 [2]
0	0x3e129449	0.14314379
1	0x3e0072ff	0.12543868
